results/PushButton_1/PushButton/PushButton-121201.pt (torch, 523788 bytes, 54 tensors)

discrete_act_size_vector f4 [1, 3]
00000000: 0000 4040 0000 4040 0000 0040
3.0 3.0 2.0

network_body._body_endoder.seq_layers.0.weight f4 [128, 4]
00000000: 6941 b63e 2770 56bd 08bc 3f3f 6999 e7bd
00000010: cad2 debe 6c40 543e 0ed0 90bf b873 9c3e
00000020: c50a 063e d7f4 003f 912e 89be 1cbf 7ebf
00000030: 6210 033f 5bc0 12be 2c70 5dbf 92bb 803e
00000040: c5c7 2fbf c4e2 583f 2e0d 45bf 7ec6 093f
00000050: fc08 05bf 20bc febc ce03 e8be edd0 96bd
00000060: 7ba7 9b3f 9403 543f 1c02 333e c2dc 923e
00000070: f6a5 27bf c28a 11bc d36b 563f 16af d63d
00000080: 4419 3c3f 7b90 ed3e 01a1 bfbf 9a05 813e
00000090: c410 6dbf beb0 78bd 8868 4a3e 01ba f73c
000000a0: 1f2b 203e 611e 80bf 28da e2be dca8 b6bd
000000b0: 74d9 71bf bd90 f0bd dffb e3be 7794 0abf
000000c0: 6f69 b83f 43ce 9d3e bfec e8be ed27 c3be
000000d0: 449c ec3d a44c 67bf 0062 8fbd 5cd6 0a3f
000000e0: 5459 e9be 50e3 7bbf 3395 843e c291 053f
000000f0: e735 39bf 9e45 ad3e 536f 9ebc 8518 c23f
00000100: aea8 3d3e 5c9f be3e c18e 31be 11b1 08bf
00000110: ee46 343f 0b78 2d3f a4ff 9fbd 92a9 11bf
00000120: c011 203e 345d 8cbe 3ed2 0c3e cd06 023f
00000130: 18db 043f 973f afbf 18f8 a4be 7e49 603f
00000140: ce9f de3e caa7 8d3e b7c2 34bf 6a8e 713e
00000150: 5ca2 a03f 5f5a 873e 1298 44be 327c 2cbf
00000160: 95e8 5ebe 120b dc3e 0f00 00bf 676a 2dbf
00000170: dfaa ba3d ef36 8bbe dc2e 7a3e de47 52bf
00000180: bb6a 50bf 239d 24bf 7ccf f63d da47 263e
00000190: 5fff 273f 6576 f03e 611c 003e 0750 2ebf
000001a0: 06f0 8cbd bf55 dcbe 8298 b3be d71a 383e
000001b0: bd9a 273f d6e8 53bf 9820 593e 31dc bb3e
000001c0: 8a8d 18bf a15f e63c dddd eb3e cfe2 b9bf
000001d0: aa3f 0cbf c096 4dbf 4b46 f33e f9d9 05bf
000001e0: 3fc6 183e ad13 32bf a6b3 493f 1564 c9be
000001f0: 4b9a 0d3f cee3 b23c cf3f 703e 567f 963e
00000200: ff60 00bf 29db ee3f c3d7 edbd c380 12bf
00000210: 1134 303f 867b 153e e642 773f 6797 583f
00000220: 2242 78bd 45da c33c 9aaf bf3f d96b 52be
00000230: adfb 4b3f 4374 f03e 47ab 073f afe7 923e
00000240: f035 a5be 27d4 2cbe 92c1 1cbf 0b84 d1bd
00000250: 0ccc efbe 4b96 633f 83a0 4bbf 1f44 b13e
00000260: 7850 5fbd 3de6 69bf 3371 92be a3e6 163f
00000270: c671 a33e 6b12 8dbc 71db a2bf c260 86be
00000280: e992 f9be 4832 0bbe 4c20 a5be bae5 063f
00000290: 2ffd 793e 3690 27bf c185 a13e cc16 353f
000002a0: ae5a 66be e1e8 fe3e c98c 84be d6ec 76be
000002b0: a320 303f 7c91 b13e b526 37bf bea8 e0bd
000002c0: d234 0dbe f3d0 3dbf 884b 07be 3446 7d3f
000002d0: 413d 0ebf 598a 883e a327 ef3e 526b 603b
000002e0: a120 42bf adec 5c3b 9062 293f 02c7 79bd
000002f0: 6e2d bcbe 4660 6b3f c27d 18be bc46 6c3d
00000300: c10b 333e cb90 0fbe 0805 403f 8437 073f
00000310: 0284 553f 58e5 983d da23 633f fb0b e23b
00000320: bd49 06bb afe0 9dbe 6845 31bf e85c 10bc
00000330: cf18 0fbd 6e66 acbf 59fd 99bd 5d69 8fbf
00000340: 4d02 513f 61a0 2b3f 63c5 393d cff4 58be
00000350: 2927 2bbe 3890 133e cb75 6cbf 001c 2dbd
00000360: 7dda 603e 1296 5d3f 9fdb 923e 376d a0be
00000370: 2297 70bf 6297 d1be 8876 28bf 304c 343e
00000380: ecd7 b0be 4b85 94be c0ba 793d c4bd debe
00000390: fa67 7a3f 2dc1 703e 2285 fe3e 1196 5b3f
000003a0: b0e6 0ebf 3529 c53e d72a 2d3f f70d 08bf
000003b0: 7d09 babc 33cf 53be 3458 ad3e 9d92 35bf
000003c0: 7f6b d0be d79e 4a3e 1aed 5cbf f6ef 883f
000003d0: 29de 9ebf 742c 3bbd 4a3e 93bc b300 903e
000003e0: b294 b53e 6080 953e 19e8 6bbe a050 843d
000003f0: cffe 69be b939 25bd 2496 e43e f42a 523f
0.3559678 -0.05235305 0.7489629 -0.113085575 -0.43520194 0.207277 -1.1313493 0.30557036
0.13090046 0.50373596 -0.2679334 -0.9951036 0.51196873 -0.1433119 -0.86499286 0.25143105
-0.686642 0.84721017 -0.76973236 0.538185 -0.51966834 -0.031095564 -0.45315403 -0.07364068
1.2160486 0.8281796 0.17481273 0.2868405 -0.6548761 -0.00888318 0.83758277 0.10482614
0.7347605 0.46399292 -1.497101 0.25199586 -0.9260371 -0.06071543 0.19766438 0.03024006
0.1564145 -1.0009271 -0.44307065 -0.08918926 -0.9447243 -0.11746357 -0.445281 -0.5413279
1.4407176 0.30821428 -0.45493123 -0.38116398 0.11553243 -0.9035132 -0.07001114 0.54233336
-0.45575964 -0.98393726 0.2589508 0.52175534 -0.72347873 0.33842176 -0.019340193 1.5163733
0.18521377 0.37230957 -0.17339613 -0.5339518 0.7042073 0.67761296 -0.078124315 -0.5689937
0.15631771 -0.27414858 0.13752076 0.5079163 0.5189681 -1.3691281 -0.3222053 0.8761214
0.43481296 0.27667075 -0.7060961 0.23589483 1.2549548 0.26436135 -0.19198635 -0.67377007
-0.2176841 0.42977196 -0.5000009 -0.6774048 0.09114622 -0.27190349 0.24431938 -0.8214091
-0.8141286 -0.6430227 0.12051293 0.16238347 0.6562404 0.46965328 0.12510826 -0.6809086
-0.06881718 -0.4303417 -0.35077292 0.17978989 0.65470487 -0.82777154 0.2120384 0.3669143
-0.5959097 0.028121771 0.46067706 -1.4522341 -0.54784644 -0.8030815 0.47514567 -0.52285725
0.14919375 -0.6956127 0.78789747 -0.3933417 0.5531356 0.021837141 0.23461841 0.29394025
-0.50148004 1.8660632 -0.11613419 -0.57227725 0.6882945 0.14597902 0.96586454 0.8460602
-0.060609944 0.02390779 1.4975464 -0.20548953 0.796809 0.469637 0.52995723 0.28692386
-0.32267714 -0.16877805 -0.61232865 -0.10230263 -0.46835363 0.88901204 -0.79541796 0.34622285
-0.0545201 -0.9136694 -0.2860199 0.58945674 0.3192274 -0.017220696 -1.2723218 -0.26245695
-0.48744896 -0.135934 -0.32251203 0.52694285 0.24412988 -0.65454423 0.3154736 0.7073791
-0.22495529 0.49787048 -0.2588866 -0.24113783 0.687998 0.34681308 -0.7154344 -0.10969685
-0.1378968 -0.74146956 -0.13212407 0.98935246 -0.55562216 0.2666805 0.46709928 0.0034243655
-0.7583104 0.0033710406 0.6616602 -0.060980804 -0.3675341 0.91943777 -0.14891723 0.057684645
0.17484953 -0.14020078 0.7500768 0.52819085 0.8340455 0.07465619 0.8872658 0.006898401
-0.0020490729 -0.30835482 -0.6924653 -0.008811213 -0.03493577 -1.3468759 -0.07519025 -1.1204029
0.81644136 0.67041594 0.04535426 -0.21187137 -0.16714157 0.14410484 -0.9236724 -0.04226303
0.21958347 0.86557114 0.28683183 -0.31333324 -0.9398061 -0.40935808 -0.65805864 0.17607188
-0.34539735 -0.29007944 0.060969114 -0.43504155 0.97814906 0.2351119 0.49710947 0.8577586
-0.5582075 0.38508 0.67643493 -0.5314631 -0.022709602 -0.20684509 0.33856356 -0.7092684
-0.40707013 0.19787155 -0.8629929 1.069823 -1.2411548 -0.04569669 -0.017974038 0.28125533
0.35465008 0.29199505 -0.23037757 0.064606905 -0.22851108 -0.04033825 0.44645798 0.8209679

network_body._body_endoder.seq_layers.0.bias f4 [128]
00000000: c11e 3b3e 68f5 1a3e bd88 453e 5fc9 293e
00000010: 3a29 b13d 2388 573e 3c6f b23d 70dd 8b3b
00000020: bbac bc3d 60be 10be ca31 433d f1c7 fd3d
00000030: 5e9b 333d 682d 61bd 4628 1ebc 27ed 4d3d
00000040: db98 a2bc 1c4d 5bbd e26c abbd 0ff6 583e
00000050: cc10 da3d 3fac 093e 1d8e 8e3c d263 413e
00000060: 87cc 19be 2bce 2e3d aad4 713c 00cd a1bd
00000070: bf0b 3e3e 91a9 d93d 1d86 633d 1fe1 17bd
00000080: bfe3 193c 3ccc 323e b4ab 7e39 ea3b 5f3c
00000090: d874 df3c b018 d43d 0bb9 98bd 3906 d23d
000000a0: 438d 25bd d41b fc3c 59ce 51be 554e c53d
000000b0: 8eb5 293e 4cd4 5cbe 0a0e 66bd 7eaf b1bd
000000c0: 8f35 8a3d 67c3 a23c 7ed0 b83d cc55 f33d
000000d0: b2a8 b6bd ac19 9d3d ffaf 5ebd cff7 0d3e
000000e0: 0283 253e 89a4 373e 3b60 b73d ecc4 393e
000000f0: 1014 2c3e 6c31 16bd e3ea 3ebe 1580 443d
00000100: c59c 9c3d f270 74bd 2c55 2c3d 2255 c83d
00000110: 55f0 063e c4c7 373e eb65 3f3e 5e43 d53d
00000120: af32 a3bd 3358 273e 4b03 713e 3e6a 97ba
00000130: 511b 0abe 00b6 45bd 4228 77bd c056 053d
00000140: 044e afbd 0f68 243e 3c4a 76bd 8dfa 633d
00000150: f59e 0dbe 50b8 f8bd 06f6 b13d 86b7 dbbd
00000160: bed4 1d3e fde2 a03c c2ab 413e 941b 97bd
00000170: a22e 0e3e 3cc0 a7bc 3d18 4dbd 7944 563d
00000180: afd5 733e 20a8 f73d 6aa6 0a3d dd1e 0cbd
00000190: 3770 463e 3b1f 40be 7351 fe3d 16e8 d63d
000001a0: 122c eb3d 89b2 c63d f823 eabd 8d45 9f3c
000001b0: 3fad 983d 62d8 a1bb ea9e 073e 3a3a ba3d
000001c0: a132 4ebd fcfc 123e 0a11 f7bd 695f 153d
000001d0: 5cca 533e 21d6 613d 06ad 423e 18e4 5c3d
000001e0: e2b0 233d 026f 9c3d 7362 ee3a 1750 ae3d
000001f0: c837 733e 3c33 0a3e a0dc 343c 2111 77bd
0.1827345 0.15132678 0.19290443 0.16580723 0.086504415 0.21048026 0.087126225 0.0042683408
0.09212633 -0.14135122 0.047654904 0.123916514 0.04384934 -0.054974943 -0.009653157 0.050274994
-0.019848278 -0.053540334 -0.08370377 0.21187614 0.10647735 0.13444613 0.01740175 0.18885735
-0.15019427 0.042677086 0.014760176 -0.07900429 0.18559168 0.10628045 0.055547822 -0.037079927
0.009392678 0.17460722 0.00024287292 0.0136251245 0.027277395 0.10356271 -0.07457169 0.10255093
-0.04041792 0.030774988 -0.20488872 0.09634081 0.16573164 -0.2156536 -0.056165732 -0.086760506
0.06748497 0.019868566 0.09024142 0.11881599 -0.08918895 0.07670912 -0.05436706 0.13864063
0.16163257 0.17933859 0.089539014 0.18141526 0.16804528 -0.036668226 -0.1864429 0.04797371
0.07647089 -0.059678026 0.042073414 0.09781863 0.13177617 0.17947298 0.18691222 0.1041324
-0.079686515 0.16342239 0.23536412 -0.0011552048 -0.13486983 -0.04826927 -0.060341127 0.032553434
-0.08559802 0.1605532 -0.06012939 0.055658866 -0.13830169 -0.1214453 0.08689503 -0.10728364
0.15413186 0.019639486 0.18913177 -0.07378307 0.13884977 -0.020477407 -0.050071944 0.052311394
0.23811983 0.12092614 0.03385011 -0.03420912 0.19378744 -0.18761913 0.12417879 0.10493486
0.11483015 0.09702022 -0.11432642 0.019442344 0.07454919 -0.004939125 0.13244215 0.09093137
-0.050341252 0.14354318 -0.12063797 0.036467943 0.20682663 0.05513585 0.19011316 0.053928465
0.03996361 0.076383606 0.0018187299 0.0851137 0.23751748 0.13496107 0.011038929 -0.06031907

network_body._body_endoder.seq_layers.2.weight f4 [128, 128]
00000000: 2ada b9b9 a172 4dbe ba12 4ebe e66d dcbd
00000010: a784 fc3c 91c1 093c efb1 703c edd7 18bd
00000020: 4894 8bbd ca1c a4bd ec58 793c a7d9 c4bd
00000030: 3e69 2abe 5e25 f33c 7954 973d 981c 30bd
00000040: 3c04 0abd 9672 70be 07e4 8fbc 93fc 0cbe
00000050: f8ef 643d 99d1 16be c11f fdbb 78ab 1fbe
00000060: 20f1 293d a78a 25be 1ae7 5abd 5476 a8bd
00000070: c255 7abe bd3a a1bd bb5a 563d 0a27 c7bd
00000080: dc4d 81be b46e 003e 5e06 26bd cc68 6abd
00000090: 1a5f 33be 0ca2 22be 83b6 1dbe bde2 7239
000000a0: 716f c03d 55f4 313e 2384 363c 745b a9bd
000000b0: 911f 103e e029 0fbe b5ed c5bd 98a6 a33d
000000c0: 7fc0 6d3d 4314 0ebd 9023 3fbe 8d1f 663d
000000d0: 6ca6 febc c0f9 5cbe c122 63bb 1f80 22bc
000000e0: 4c89 9ebd 932d 6e3d d6ff c4bd 8183 a3bd
000000f0: 8e0d 083d 2267 9f3d bc6d 5dbe 97eb a23d
00000100: d04b 79bb 8f44 893d c9ec 25be 17cd 9cbe
00000110: 375f 73be 261a bebb d325 053d 094c c13d
00000120: 1839 b1bd 0919 4dbe cac3 90bd ea2b 0dbe
00000130: 8e29 01be ab7d 8ebd c529 ac3d d30e c1bd
00000140: fc34 04bd 08e5 a53d c601 b6bd e6c7 dabc
00000150: c51c 1dbe 14ae acbd 3706 fc3c 91b9 23be
00000160: d947 86bc 53b2 b83d ada0 f2bd 3c5f c03c
00000170: 0089 82be 02fc a2bd 2509 50be fbf8 2bbe
00000180: d5bc bc3d bce4 1cbe 358a c4bd 1961 8ebe
00000190: b5de 093e 9cbb 9f3d bd6c 22bd 3344 ea3d
000001a0: 614f 33be 6a05 f43c 4a49 b8bd c56d af3d
000001b0: 57f7 963d fb6a 90bc f431 bf3d 98e0 8bbd
000001c0: 37c9 71be 9c97 19be 8024 fb3c ecd5 89bc
000001d0: d633 613e 52b8 5ebd 9c42 34be 15dd 243e
000001e0: 95ea a7bc 4e52 02be f90b e6bd 496d babe
000001f0: 5e13 313e 5ba4 41be 247c e03d beb5 dcbd
00000200: aa4f 4d3c 69f7 5ebd 4fcb 3dbd 919c c6bd
00000210: ff6d c03d a1d9 813d 6bbc c5bd f9d7 3a3d
00000220: 79fa 803d 161f 12bd 5fe4 90bd a545 313c
00000230: 0b92 97bd 715a 7d3b 0b39 9dbd 729e 9f3d
00000240: acc8 11be 4cc0 34be 7375 873e c895 f93d
00000250: bcf7 2abe b1fe bebe 1b73 c9bd 383a 38be
00000260: 3626 103c a82e 39be b59b 433e 8124 113d
00000270: 6d1b 02be 6910 39bd 951e 4fbd 7639 723d
00000280: 8471 40be 331b ad3d 5512 343d ee39 903d
00000290: e4b5 00bd 5925 a93d 9d4b c13b f624 fdbd
000002a0: 14da 7dbc 8a97 143e 5366 d73d cf1f efbc
000002b0: 56d6 e03d 8f72 7ebd a976 e5bd 158c 8d3d
000002c0: 4aad d43d 8bfe 45bd 382e 183b f33e 6abd
000002d0: 4eee 8fbd 53f2 6abd e90a c9bd a099 9bbd
000002e0: f922 04bd b9a9 c8bc 88e7 96be 228a 0ebe
000002f0: 2c8c 98bd 1325 303e c596 c0bc 6e8a d23d
00000300: a893 903d d72d 2dbe 27f0 28be b6ee 70be
00000310: 1e11 47be 8b20 0c3e abbe 09be 14b2 62be
00000320: 5491 f93d 326b f83c f3b0 57be 3333 a4bd
00000330: 57dd 1bbe ad7f 4bbd 096b a0bd c2ba d43b
00000340: 1158 d23d 5bf0 bcba a3aa 483e 09f6 3e3d
00000350: 292d babd 8524 fd3c 273b 19be 4e9f 0b3e
00000360: 23f2 8dbe 76a1 2dbd 2057 4cbe 384e 84bd
00000370: 8060 21be 8332 b0bd 05f5 e0bd 69fb eb3d
00000380: d8da 043d 279c b83d e55a 243e 1a9d babd
00000390: 93d2 73bd c6a3 ab3d 3731 2bbe 1c3b 223d
000003a0: 87b9 86be fdf3 913d d01e 023d 9fcb 343e
000003b0: 3b41 19be a221 86bd 8b53 e13b 973c 5b3d
000003c0: fe43 3fbe 2901 48be 1f19 36be 3797 de3c
000003d0: 8f7f 7dbd 54c0 3a3e 8e16 8f3d 9880 ce3d
000003e0: 5109 713d ba0f 313e bcf6 d5bd 8a02 65be
000003f0: 10e6 493e 63d9 4cbe 5fe5 683d 7c5b ca3c
-0.00035448495 -0.20063259 -0.20124331 -0.10763149 0.030824972 0.008407966 0.01469086 -0.037315298
-0.06815392 -0.080133036 0.0152189545 -0.096118264 -0.16641709 0.029680904 0.07389159 -0.04299602
-0.033695444 -0.23481211 -0.017564787 -0.13768224 0.055892915 -0.14728393 -0.0077247326 -0.15592754
0.04148972 -0.16166173 -0.053443052 -0.08225694 -0.24446777 -0.078725316 0.05233262 -0.09724243
-0.25254714 0.1254223 -0.040533416 -0.05722885 -0.17516747 -0.15882128 -0.15401654 0.00023163385
0.09396256 0.17378362 0.011139902 -0.082693964 0.14074542 -0.13980818 -0.0966448 0.079907596
0.058044907 -0.03468729 -0.1866591 0.056182433 -0.031085216 -0.21579647 -0.0034658166 -0.009918242
-0.07741031 0.05814893 -0.09619109 -0.07984067 0.03321605 0.07783343 -0.21623892 0.079550914
-0.0038039573 0.0670253 -0.16203608 -0.3062522 -0.2376679 -0.005801457 0.032506775 0.09438331
-0.08653468 -0.20029081 -0.07068594 -0.13786283 -0.12613508 -0.06957563 0.084064044 -0.094266556
-0.032277092 0.08100325 -0.08887057 -0.026706647 -0.15343006 -0.0843164 0.030764682 -0.15988757
-0.016391682 0.09018388 -0.11847053 0.023482911 -0.25495148 -0.07958223 -0.20315988 -0.16794197
0.09215704 -0.1532163 -0.095966734 -0.27808455 0.13463862 0.077994555 -0.039654482 0.11438789
-0.1751075 0.029787738 -0.08998354 0.08565859 0.07371395 -0.017629137 0.093357 -0.06829947
-0.23611914 -0.1499924 0.030657053 -0.016825639 0.2199243 -0.054375 -0.17603534 0.16099961
-0.0204976 -0.12726709 -0.11232752 -0.36411503 0.17292544 -0.18910353 0.10961178 -0.10776852
0.0125312 -0.054435167 -0.04633647 -0.096978314 0.0939598 0.063403375 -0.096550785 0.045616124
0.06297774 -0.035674177 -0.07074808 0.010819827 -0.07400902 0.0038658644 -0.07676896 0.07793893
-0.14236706 -0.1765148 0.26456794 0.12186772 -0.16696066 -0.3730369 -0.09836408 -0.17990959
0.008798173 -0.18084204 0.19102366 0.035435203 -0.12705775 -0.045181666 -0.050566275 0.05913683
-0.18793303 0.084524535 0.043962795 0.07042299 -0.031423464 0.082590766 0.0058989064 -0.12360565
-0.015493888 0.14510933 0.10517564 -0.029189972 0.10978381 -0.06212097 -0.11204273 0.06911484
0.10384615 -0.048338454 0.0023220908 -0.05718894 -0.07027875 -0.057360005 -0.09816534 -0.07597661
-0.032259915 -0.024494993 -0.2947352 -0.13919881 -0.07448611 0.17201643 -0.023509393 0.102803096
0.07059413 -0.16912018 -0.16497861 -0.23528561 -0.19440123 0.13684289 -0.1345164 -0.22138244
0.12185922 0.030324552 -0.21063595 -0.08017578 -0.15221153 -0.049682308 -0.07832915 0.00649199
0.102707036 -0.0014414893 0.19596343 0.046621356 -0.09090645 0.030901203 -0.14963971 0.13634989
-0.27723798 -0.04239031 -0.1995511 -0.064602315 -0.15759468 -0.08603384 -0.10984234 0.11522562
0.03243527 0.09014159 0.16050299 -0.09111996 -0.05952699 0.08380847 -0.16717993 0.039607152
-0.2631342 0.07126615 0.031767666 0.176558 -0.1496629 -0.06549384 0.006876414 0.05352458
-0.1867828 -0.19531693 -0.1778302 0.027171714 -0.061889227 0.1823743 0.06986724 0.10083121
0.058846775 0.17291155 -0.104474515 -0.2236425 0.19716668 -0.20004801 0.05685937 0.024701826

network_body._body_endoder.seq_layers.2.bias f4 [128]
00000000: 4ba4 7c3d bb17 d23d dd57 4e3e 1ec4 ac3d
00000010: 3c0a bfbd 023a 02bd fbe1 1d3e 845e a43d
00000020: 9232 65bd 52c7 043e 250d 173e 11fe e23c
00000030: a781 413e 493a 2e3e 2b67 a3bc d85f 443d
00000040: 4b13 043e 50d1 6d3d f705 b73c c5f0 163e
00000050: e800 95bc 4eb1 db3d 4702 043e 8142 033e
00000060: e23c 68bd ffd8 243e 7cd9 8d3d 64b0 9e3c
00000070: aaf9 b73c 4404 16bc e719 1e3e 9036 293d
00000080: f607 c8bc 0202 b63d c578 293e e568 d33d
00000090: ffa7 143e ae32 113e 42f7 aa3d f49b d53d
000000a0: e923 613d 6704 273e 6320 803c d229 c43b
000000b0: 6bdb 9c3b af64 823d ef4b 993d 0417 2c3e
000000c0: b0a3 0dbd 0f89 1d3d 6b18 1e3e 0df6 063e
000000d0: 1490 d73d b570 933c 2363 b43d 0f70 da3d
000000e0: 21a3 fc3d 0f30 9a3d 5864 8539 45c5 aa3d
000000f0: 7df9 193e 1e35 bd3d 3f35 1d3e 4dff 2b3d
00000100: f6e5 6f3d da68 c9bc 3f56 543e 4f49 243d
00000110: aef9 dbbd 5b14 c93d 953b 0a3e 7781 2e3a
00000120: 4727 c73c 72d5 713e 60f9 7e3d f5cb 553e
00000130: 0f30 873d baf9 c33d 0f25 e63d 0fdc 3b3e
00000140: 1f9b 95bd b31d c53d 0206 b93d 1c0d 99bd
00000150: 6741 c03d 7734 b33c 170c 333e 7576 c23d
00000160: ead4 02bc 5e6e 103e b7e9 f93d 8f9f c73d
00000170: 7571 a63d 9f01 da3d e537 fb3d 6fca 613d
00000180: 9987 043e fa78 043e 4baf 023e 5d71 863d
00000190: b5cb d53d d4db 133e dfc6 d43d 25b2 103e
000001a0: 24bb 713d cfbc 453e 31f2 aa3d 4542 b2bd
000001b0: c1c5 013e c692 9f3d 16ed cbbd bec0 e63d
000001c0: 20eb 4e3e 0307 423e 10c0 033e e92c 5c3d
000001d0: 626c 533d b95c 993a dcb1 183e f95c 273e
000001e0: 6f8c db3c a890 9d3d e571 7d3b 933c 4f3e
000001f0: 192c fe3d db63 7ebc ac29 a83c e0b6 fc3d
0.06168012 0.102584325 0.20150705 0.08435844 -0.09328124 -0.0317936 0.15418236 0.0802584
-0.05595643 0.1296666 0.14751108 0.027709039 0.18897115 0.17014422 -0.019946655 0.047942966
0.12897985 0.058060944 0.022341711 0.14740284 -0.018188909 0.107271776 0.12891494 0.12818338
-0.056698687 0.16098402 0.069262475 0.019371219 0.022457916 -0.00915629 0.15439568 0.0413118
-0.024417859 0.08887102 0.16549976 0.103227414 0.1451721 0.14179489 0.08347942 0.10430136
0.054965887 0.16310273 0.015640443 0.0059864307 0.004786899 0.0636686 0.07485186 0.16805655
-0.034579933 0.038460787 0.15439002 0.13179798 0.105255276 0.017998079 0.08807971 0.10665905
0.12335802 0.07528698 0.000254425 0.083384074 0.15036578 0.09238647 0.15352343 0.04199152
0.058568917 -0.02458613 0.20736025 0.040108975 -0.10740982 0.098183356 0.13499291 0.0006656865
0.024310721 0.23616579 0.06224954 0.20878585 0.06600963 0.09569116 0.11237537 0.18345664
-0.073049776 0.09624805 0.09034349 -0.074732035 0.093874745 0.021875603 0.1748508 0.0949525
-0.007985333 0.14104602 0.12202781 0.0974723 0.08127109 0.106448404 0.122665204 0.055124696
0.12942351 0.12936774 0.12762181 0.06564591 0.10439245 0.14439327 0.10389494 0.14130457
0.05901636 0.19310306 0.083469756 -0.08704046 0.12673093 0.07791667 -0.0995733 0.112672314
0.2020688 0.18947987 0.12866235 0.053753767 0.051617034 0.0011700607 0.14911598 0.1634406
0.026800362 0.076936066 0.0038672623 0.20237951 0.12410755 -0.015526737 0.020527683 0.12339568

action_model._discrete_distribution.branches.0.weight f4 [3, 128]
00000000: 15a7 6f3d 805d 2c3d a09c eb3c 5ec0 363d
00000010: 2fde 40bd 0517 66bd f8b4 cbbd a366 babd
00000020: df7b 7fbc 110c a13d f77e ebbd 13a6 e4bc
00000030: 17ad df3c 5976 18be ef60 063d 7f7c 7bbd
00000040: 063b 923d c924 1bbc 92b3 50bb 2e7b 18be
00000050: 879b 87bc a35a 7abd c498 b63c 1541 783d
00000060: caed 4dbd fb19 35bd 2fe1 613b 3b95 073d
00000070: df97 523d f1bc 00bd 9762 eb3d 35cc e3bc
00000080: d0b3 9dbd 2cef 8cbd fcfc c83b 7ec9 28bd
00000090: d888 5bbc c0bc b43d 70ee 6cbe 97c6 173c
000000a0: 770f 3b3d bcf8 1a3e 740c 7bbd 6dc1 a9bd
000000b0: ee3a ad3b 6e93 8bbc 7170 89bd 9f85 d13d
000000c0: a311 763d c938 243d f31e 0abe 875f fc3d
000000d0: e374 90bc 3a81 053d 7bb2 45bd c3e2 27bb
000000e0: 10f0 e43c fa72 4fbc 30c6 40bd 2842 0fbd
000000f0: 6c54 463d b17c 32bd d98a 443d b960 65ba
00000100: 786a bb3c 2040 0b3d d95b 40bd e454 8fbc
00000110: 2004 3f36 1383 85be 387e f5bd b950 e3bb
00000120: 27d2 213d 378b a53d 95d3 d1bd df5a 4b3e
00000130: e135 023d fb74 8e3c 59b5 293d adfd 3cbe
00000140: e02c 1b3d 62bc 6a3d c0e1 843d fc55 78bd
00000150: 0523 fa3d 9c4b 36bd cbd8 563d ce42 683d
00000160: a06a ffbc 629e 353d 96dd 373d f7f0 47bd
00000170: 714c 5b3b d92b 79bc b6af 053d abd6 1f3d
00000180: 4bfd 16bd f07e 7f3d dad1 d9bd 7677 9bbd
00000190: cab2 b3bb 1c8f d13d c7af 7ebd 9d34 003e
000001a0: 9c15 b53c 64dc 59be 34f7 f2bc 3956 07be
000001b0: c683 1b3e 8bde 803d 9326 b33d bbf9 e73c
000001c0: bd12 9cbd 7644 3cbd 3977 293d 97a4 11be
000001d0: 9dbf 48bd 1b11 99bd aea2 bb3d 7605 163d
000001e0: 634b 253d 6f3f a9bd c693 853d 8e42 48be
000001f0: 3b25 b5bd 7e84 d4bc f829 0d3b 84b7 bd3d
00000200: b2c6 cf3a e115 48bc 21c1 4c3d ac7a 17bd
00000210: 7400 1cbc 028a 353d 34a0 4dbb 263d 54be
00000220: ec4b 8bbc 8335 a0bd c518 b23c b996 9cbc
00000230: 3df3 273d 1e4a c83d b4d1 81be 0046 293d
00000240: 7374 393d da75 f0bc efb1 663d b132 4dbd
00000250: 263f fa3b 9087 42be 9965 0cbd ea92 ecbc
00000260: 0772 003a 26b0 753c ef92 38bd eed5 d3b9
00000270: 935f 7ebd 4a50 06bd c144 6dbd a61b a93b
00000280: 7b65 823c 1a8c 9abc 9ad2 80b9 9237 7c3d
00000290: bbc8 7e3c 0a84 a43c 05e3 e6bd 890f 9ebb
000002a0: 6094 0cbd b35a 1dbe 5db6 6d3d 0f88 953b
000002b0: 43ef 0b3d 4c9b 0b3d 0592 76bb 5a25 1fbe
000002c0: 55d1 e3bc c50c 04bd 306c 203e d94c bbbd
000002d0: 9e5f e73d befe 68bd 00c5 0abb f3b5 37bc
000002e0: a31c 1d3e e20f 263d bcb0 3c3d 1600 633d
000002f0: 43e1 aa39 f688 4f3c 2fcb 803d bf99 eb3c
00000300: 8a79 823d 24aa 7d3b da9f ae3d e8e2 053d
00000310: 2660 58bd bffc 313d e21d cabc c398 443c
00000320: edf1 f2bc f940 473d 90b4 883c 5bb7 d73c
00000330: a994 863c ff85 993b 4471 a13d 1ecf 8b3d
00000340: b1b1 d4bd e882 96bd 5b59 07bd 1a1f de3c
00000350: 71e9 aabd 808f 893d 833c b03c cd13 933b
00000360: 3545 b6bd f258 953c c387 dbbb 1211 503d
00000370: 26fa cdbd f5d8 c73a c1e3 273b 63b4 3bbd
00000380: 4f1f 053d be44 b4bc 4f9f bbbd e4fa 23bb
00000390: 89c7 9cbe 8d7c c2bd 04f6 62bd 6da5 7abd
000003a0: 72a6 15bd 5546 1e3e ffc9 84bb 501c 993d
000003b0: 8338 94bd 6a5f 69bd 0f1e f9bd f230 ac3c
000003c0: ab7e 163d 0013 883c 11b7 2139 9dee 75bd
000003d0: 1c47 4bbd f186 b6bd 8c78 283c a75f 253c
000003e0: 6d01 95bc 73f4 4f3d c1b0 53bd 9746 a33d
000003f0: 99cc 923d 89c0 6bbd 0e7f 2b3c 04ec b0bd
0.05850895 0.042081356 0.028761208 0.04461705 -0.04708689 -0.056174297 -0.099466264 -0.09101608
-0.015593498 0.078636296 -0.11498826 -0.027911222 0.027304215 -0.14888896 0.032807287 -0.061398026
0.07140164 -0.0094692195 -0.0031845313 -0.1489074 -0.016553653 -0.061121594 0.022289641 0.060608942
-0.0502756 -0.04421423 0.0034466495 0.0331013 0.051414367 -0.03143019 0.11493414 -0.027807334
-0.07700312 -0.06881556 0.0061336737 -0.041207783 -0.013399325 0.08825064 -0.23137832 0.009263656
0.045669045 0.15133947 -0.061291173 -0.08288846 0.005286566 -0.017038073 -0.067108996 0.10230564
0.060075413 0.040093217 -0.13488369 0.12322908 -0.01763386 0.032593943 -0.048265915 -0.0025617338
0.027946502 -0.01266169 -0.047064006 -0.0349752 0.048420355 -0.043575946 0.047983978 -0.00087500695
0.022877917 0.0339967 -0.046962593 -0.017496534 2.846362e-06 -0.26076564 -0.11986965 -0.006937113
0.039507058 0.08083194 -0.10245434 0.19858883 0.031789664 0.017389765 0.041432712 -0.18456145
0.037884593 0.057308562 0.06488371 -0.060628876 0.12213711 -0.0445057 0.052452844 0.056704335
-0.031178772 0.0443405 0.044889055 -0.048813786 0.003346231 -0.015208208 0.032638274 0.039023083
-0.036862653 0.062376916 -0.10635729 -0.07591145 -0.00548396 0.10232374 -0.062179353 0.1252007
0.02210503 -0.21275479 -0.029658891 -0.13216485 0.15186986 0.06292447 0.08747592 0.028317323
-0.076207615 -0.045963727 0.041373465 -0.14222942 -0.04901086 -0.07473966 0.09161888 0.0366263
0.040355098 -0.08264052 0.06522326 -0.19556639 -0.08844992 -0.025942083 0.0021539908 0.092635185
0.0015852062 -0.012212248 0.04998887 -0.036982223 -0.009521592 0.044321068 -0.0031376006 -0.20726451
-0.017003976 -0.078227066 0.021740327 -0.019114839 0.041003454 0.09779762 -0.25355303 0.041326523
0.04527707 -0.029353071 0.056322034 -0.05009717 0.0076369224 -0.18997025 -0.03427658 -0.028878648
0.0004899804 0.01499561 -0.045062 -0.00040404446 -0.062102865 -0.032791413 -0.057926897 0.0051607667
0.01591753 -0.018865634 -0.00024570973 0.061576433 0.015550788 0.020082492 -0.11273769 -0.0048236293
-0.03432119 -0.1536663 0.058035243 0.0045633386 0.034163725 0.03408365 -0.0037623656 -0.15541592
-0.027809778 -0.03223874 0.1566627 -0.09145517 0.112975344 -0.056883566 -0.002117455 -0.011212814
0.15342955 0.04054249 0.046066985 0.055420004 0.0003259276 0.012666931 0.06288754 0.028759835
0.06370838 0.0038706148 0.08526583 0.032687098 -0.05282607 0.043453928 -0.024672452 0.011999312
-0.029656375 0.048645947 0.016687661 0.026332548 0.016428309 0.004685163 0.07882932 0.06826614
-0.103854544 -0.07349187 -0.0330442 0.02711444 -0.08345307 0.067168236 0.02151323 0.0044884444
-0.08899919 0.018230889 -0.0066995337 0.05079753 -0.10057478 0.0015247153 0.002561793 -0.045826327
0.03250056 -0.022005435 -0.09161245 -0.0025021369 -0.30620983 -0.094964124 -0.0554104 -0.06119292
-0.036535688 0.15456517 -0.0040524 0.07476103 -0.07237341 -0.05697576 -0.12163936 0.021019433
0.036741894 0.016610622 0.00015422354 -0.060042012 -0.049628362 -0.08912457 0.010282647 0.010093606
-0.018189156 0.050770234 -0.051682238 0.07972448 0.0716793 -0.057556663 0.010467304 -0.086387664

action_model._discrete_distribution.branches.0.bias f4 [3]
00000000: ee01 ba3c 7899 eb3a 346f a7bc
0.022705998 0.0017974814 -0.020438768

action_model._discrete_distribution.branches.1.weight f4 [3, 128]
00000000: 4350 dabd ded8 5bbd 949e 2a3e 2c79 10bd
00000010: fd0a 3f3c 2d64 3cbd 1eb7 f63d 1517 8abd
00000020: 6f2b 233d 4fbd 353d ddde 393d 7fde 8b3c
00000030: 3e37 11be 6e52 ccbd cd7b 39bc 0749 6f3d
00000040: 4469 fe3c 948d 10bd 28ca 3fbe e565 ac3d
00000050: 765c 133d 70b6 96bd e7c6 acbd 3c4b e53c
00000060: a6a5 47bc b52a 0a3d bd44 d2bd 7072 fabc
00000070: ebf5 afbd c48a ca3a 6b1e 00bd 9ca8 76bd
00000080: d376 38bd 8713 06bd b8ae b5bd 15ad 833d
00000090: 00ee 713d ac99 bdbd baf7 c7bd 62ad 1c3c
000000a0: d81a 883c 41f9 e3bd c5a3 86bd 5034 233d
000000b0: 1824 f63c 9c2b d6bb fc21 9e3d ad07 4fbe
000000c0: 6923 2abd d8b4 dd3c 43e2 f2bd d2d8 613d
000000d0: 76c0 8abd 09cb 8dbc d58f 583c 1cdb 95bc
000000e0: eafd 853e c10d 403c df93 443c 17b0 ef3c
000000f0: 6cc7 51bb 7e2a 27bd 2780 803e 10da e739
00000100: 2462 333d 6a2c a33d 0da7 2b3e be7f 963c
00000110: 708f 84bd ad60 173d b0f9 0d3d c63c 953c
00000120: 7eea 8fbd 730f 8bbd b254 92bc 1d9c c63d
00000130: 8e27 27bc 3107 b9bc c9d9 023d f8ab b13d
00000140: 6c63 53bd 6722 583d c788 313d 8827 f33c
00000150: fa6d b73d ff9b 313b 18da 1c3e 0fef 3c3d
00000160: 6366 4dbb 8b1b b2bc 255c 033e 4f9f 16bd
00000170: b462 1a3a 7f2d 053d 3d82 a73c 36ad fbbc
00000180: 639a c0bd 02de 7a3c 3a1b b43d 45c8 5a3d
00000190: 1879 703b 252a 11bc 0eed fabd ec88 a13c
000001a0: 0e56 ec3b 56de 31bc 011b c73c f84c 63bd
000001b0: 2a09 29be 4f5d 653d a1ab 4a3a df4c 4dba
000001c0: 8efb ef3c 4317 08be 2dff c23c 956f 0ebe
000001d0: 7e3e fcbd f09c 15be e625 a63d 9ea1 e1bc
000001e0: dd3f 673c a58d c83d 236c 0bbc 6ac0 653d
000001f0: 6ce4 393d 9e5d 56bd 0fab 223d 8084 823d
00000200: 7246 d6bd 475e 9e3c 6713 d8bb bed6 663d
00000210: d5e1 393d 951d 24bb 363a b8bb b796 953d
00000220: e2d5 f73b 38ef 5e3d 6b68 75bc e2ce 633c
00000230: a3de e53b 08d3 6dbe 3425 373e f420 5d3d
00000240: 090c 063b 9d1f 233c 3d71 11be 14db 07bd
00000250: 475a 463c 3b38 ab3d 37de 893c adaa adbc
00000260: d6de 08bb 63df 6f3c f480 613c 2d21 253d
00000270: 980f 923d c687 c6bc 8a4c c4bc e053 3d3d
00000280: 5d62 2cbd 2379 b53c 3aad 9b3b 8670 8c3c
00000290: 98f4 27bd 3fdd 823d f21f 213e 0b97 53bd
000002a0: bf23 203c c705 473d 1e77 963d 4a10 a23b
000002b0: da12 a1bd 3e3e edbd ea26 11bd 1e29 173e
000002c0: efd0 8c3c a60f 4bbd d0be adbd 9b9f 603b
000002d0: ebb2 4e3d d04d 3f3d 570b 54bd 05a4 f7bb
000002e0: 66c6 9fbe 3687 37bd 2dc4 3cbd 14fd 43bc
000002f0: 54e6 a03b 31eb e2bc a041 98be 1ca5 b23c
00000300: 0487 0bbe 00f8 403c cc63 86be 127c 0ebe
00000310: 3bb2 553d 459d 68bc bef5 24bc 0460 3d3d
00000320: 190b f73c 0d0d 153d a36b 20bd 5ee4 94bc
00000330: 4b6a 48ba 3de3 1b3c d444 13bd b78b 04bd
00000340: 3e3a ad3d 8913 2f3c c9d3 c73b 5bd4 bcbc
00000350: ee8d 41bc 5ba0 283d 82b3 3bbe edbf 09bd
00000360: 364e bf3c 857d ed3c df82 353c 3c06 f4bc
00000370: 2924 913c 5e37 bf3c c9cc dbbc 99da 953c
00000380: 7ffc 8cbd 8025 b5bb 7fcc 68bb 873e b33c
00000390: 0374 d23d 51ac 663c ad18 30bc bad9 b5bc
000003a0: d49f 03bd ac32 883d eea6 31bd 4941 be3d
000003b0: 605e cb3d 1440 093d 3f5a b4bc 21b1 1dbd
000003c0: 8592 24bd dcc2 933d d04a 08bd abe6 9b3d
000003d0: 69f3 1d3d 8e10 313e d340 3cbd a96d f33b
000003e0: 9a9e a8bc 3ff7 793d 9a0f 50ba b804 d6bb
000003f0: 7a9d 50bd 6ab3 d6bb 5468 c6bd 19d3 983c
-0.1065984 -0.053673618 0.16662055 -0.03527181 0.011660335 -0.045993973 0.120466456 -0.06742684
0.039836343 0.044369992 0.045378555 0.017073868 -0.1418123 -0.0997666 -0.01132102 0.058419254
0.031056054 -0.03529127 -0.1872946 0.08417872 0.03597685 -0.07359016 -0.08436375 0.027989976
-0.01218549 0.033732135 -0.10267017 -0.030572146 -0.08591827 0.0015452732 -0.03127901 -0.060219392
-0.045035195 -0.032733466 -0.088712156 0.06429497 0.059064865 -0.09257826 -0.09764047 0.009562822
0.016614363 -0.11131526 -0.06574205 0.03984481 0.030046508 -0.0065359604 0.07721326 -0.20217772
-0.041537676 0.027063772 -0.11859562 0.055138417 -0.0677499 -0.017308729 0.013217886 -0.018292956
0.26170284 0.011722029 0.011998146 0.02925877 -0.0032009734 -0.040812008 0.25097772 0.00044222223
0.043794766 0.07967456 0.16762944 0.01837146 -0.06472671 0.03695743 0.03466195 0.018217456
-0.07027148 -0.06790056 -0.017862651 0.09697745 -0.010202302 -0.022586437 0.031945977 0.086753786
-0.051608488 0.052767184 0.04334333 0.029681936 0.08956523 0.0027101038 0.15317571 0.04612642
-0.0031341545 -0.02174165 0.12828119 -0.036773022 0.00058893417 0.03251409 0.020447845 -0.030722242
-0.09404447 0.01531172 0.087942556 0.05341365 0.0036693271 -0.008860146 -0.12252246 0.01971861
0.007212407 -0.010856232 0.024304869 -0.055493325 -0.16507402 0.05599719 0.0007731263 -0.0007831584
0.029294755 -0.13290124 0.023803318 -0.13909753 -0.12316607 -0.14610648 0.08112697 -0.027542885
0.014114347 0.097926416 -0.0085096685 0.056091703 0.045383856 -0.052335374 0.039713915 0.063729286
-0.10462655 0.019332064 -0.00659411 0.056357138 0.045381386 -0.0025042046 -0.0056221737 0.07304137
0.0075633386 0.054427356 -0.014978508 0.013904305 0.0070150658 -0.23225033 0.17885286 0.053986505
0.002045395 0.009956268 -0.14203353 -0.033167914 0.012106485 0.083603345 0.016829593 -0.021199549
-0.0020884774 0.014640662 0.013763655 0.040314842 0.071318805 -0.024234664 -0.023962278 0.046222568
-0.042085994 0.022152489 0.004750875 0.0171435 -0.041004747 0.063898556 0.15734842 -0.051657718
0.0097741475 0.048589494 0.073469386 0.0049457895 -0.07864924 -0.115841374 -0.035437502 0.14761779
0.017189471 -0.04957547 -0.0848366 0.003427482 0.0504636 0.046705067 -0.051768627 -0.0075573944
-0.31206053 -0.04480668 -0.046085525 -0.011962194 0.0049102698 -0.027700039 -0.29737568 0.021807246
-0.13625723 0.011777878 -0.26248014 -0.13914517 0.052171927 -0.014197652 -0.010068355 0.046234146
0.030156659 0.0363894 -0.03916515 -0.0181753 -0.00076452334 0.009514627 -0.03595431 -0.032359805
0.084583744 0.01068581 0.006098245 -0.023050478 -0.011813624 0.041168552 -0.18330196 -0.0336303
0.023352724 0.028990516 0.011078565 -0.029788129 0.017717438 0.02334183 -0.026831048 0.018292712
-0.06884097 -0.005528152 -0.003552228 0.021880401 0.10276034 0.014079169 -0.010748071 -0.022198547
-0.032134846 0.0665029 -0.043372087 0.09289796 0.0993011 0.033508375 -0.022015689 -0.038499
-0.040178794 0.07214901 -0.03327447 0.07612356 0.038562212 0.17291471 -0.04596026 0.007428844
-0.02058344 0.061026808 -0.0007936895 -0.0065313242 -0.05093143 -0.0065521495 -0.09687868 0.018655347

action_model._discrete_distribution.branches.1.bias f4 [3]
00000000: 57d5 af3c ff7a ecbc 04b4 7f3c
0.021464033 -0.028867243 0.015606884

action_model._discrete_distribution.branches.2.weight f4 [2, 128]
00000000: 840a 2abd b26d 633d 4589 793d c78f 8f3d
00000010: 0f80 57bd d62f 2abd 8c8d 873c 96ab 933c
00000020: 0eb7 40bd dbf7 fe3c 15b0 92bb ecc3 3abd
00000030: 564d ec3d 7614 f13c 93fe 1abe 0a0c b13c
00000040: dc78 ea3d 1706 69bc d0eb 26bd 59d7 b33d
00000050: 7d03 fabb eaac 383d f580 483c 3601 073d
00000060: dead ebbc e8bd d83d ea0a 903c 8e6d 1b3b
00000070: 716c c53a 6bd0 77bc 6447 1ebd 013c 843b
00000080: a2e5 36bc 6b9d dfbb c1cb c43c 5fcc 173d
00000090: cf49 25bc 4ae7 f93d a400 d83c 6058 af3c
000000a0: ce8b 0d3d 4608 243d d9f9 473d 1a45 863d
000000b0: 9924 2ebc 19f2 cdbc 9074 66bc 2231 993d
000000c0: 630f e23c 4ceb 19bd afab d43c 92a8 513c
000000d0: 5b73 51bc dc1e aa3c dd6b 18bd 5895 aa3d
000000e0: 12de 8dbd 09aa 143d ee4d 8fbb 4283 8c3d
000000f0: ec3d 353c f49d ce3c bdee 99bc 9b06 d43c
00000100: e892 5b3c 7515 85bb d886 b93d de7b 8cbd
00000110: 9c70 31bd 3a77 e7bd 2b33 b23d 9049 33bd
00000120: eb13 9a3c 63aa 883d 920b 1ebd 6100 cbbc
00000130: 04d0 db3c adc2 d53c 2112 e63c fcb4 0bbe
00000140: 3b9c 31bd 4fe9 493d 213e 24bc b958 d8bc
00000150: 9469 13bd 8e21 72be a112 3e3d ced5 be3c
00000160: d239 e3bc aeb5 0b3e 77b4 34bc adbe 333d
00000170: 8cb3 07bd 6fe5 183d 5e2c dd3d 975b b03b
00000180: 8427 c63d ab86 66bb d9a6 093d 31a0 9bbc
00000190: 2522 623d 3ad8 ac3c db13 f43c e2a0 353c
000001a0: c941 b0bb 079e 45bd c140 8fbc 2bac b3bd
000001b0: 4cbf 42bd 2991 8cbd 0d6b febc 81c7 2bbd
000001c0: 8d18 093d be12 0f3e b524 bb3d 90a6 b9bc
000001d0: c10a 2c3d 8a80 e1bd d5b6 eb3c 86ad 20bc
000001e0: f8ed f8bb 4251 4abd 0aef 773c 44d1 e63c
000001f0: d2e5 25bd 62eb c5bc ec9e e53c b3a8 acbc
00000200: 941a 533d 5ad5 a0bd cf27 15bd b76d 90bd
00000210: 6a7f 923d 923c 253d 09e3 cabc 081e edbc
00000220: 3894 1b3d 6b9a 9dbc 610a 33bc 5e4b 073d
00000230: a30a eebd 0f2e 9abc 1503 183e f91c b0bc
00000240: fb45 05be 8a12 093b 1696 913d a88a 9bbd
00000250: 346d 503b 22dc 89bd 8554 7fbc f548 55bd
00000260: 3f09 863b 7347 d0bd e9e1 b1bc 1a39 14bb
00000270: c2b0 22bc 21b6 86bc d854 2d3d d379 12bc
00000280: b5e6 243c 08d1 5a3b 0140 e8ba 2a46 83bc
00000290: ca5e 503b 11c4 f1bd f019 b7bc b11c ff39
000002a0: 8b65 e8bc 61c9 0ebd 91c8 95bd 4990 7bbd
000002b0: ad9c 133d 3145 863c b0af cc3c c7da 37bd
000002c0: 7d08 06bc 4098 813d 34f9 7fbc 675f 26bc
000002d0: fd7d 5d3b 5dc4 b6bc 9485 1d3d 6721 d8bd
000002e0: add7 913d 3ca0 04bd dc13 663c 0d76 48bd
000002f0: 13ef b6bc a542 81bc 3572 663c eaac 93bc
00000300: 23b2 71bc 7165 003c 3466 bdbd bbb8 923d
00000310: b817 d83c 7f71 ec3d 0a9a 9fbd 11eb 843c
00000320: b552 a7bc db5c 58bd 04f6 863d fe1b 0a3d
00000330: bbb9 29bd 3ea6 0ebd 36b0 21bd 5163 f23d
00000340: 9f79 2d3d 8e3d 1ebd fb82 333c e408 4d3d
00000350: 541e c13c a4f8 7b3e 6d6c 0cbd 7e85 dfbc
00000360: 49ae e93c 4455 06be 87cd 733b 5cc2 25bd
00000370: d6ae 0a3d 7586 09bd e7a5 f3bd e58e 4eba
00000380: 9a4a b5bd 2dfd ddbc d5e8 63bd d555 d33c
00000390: 6ec6 3cbd be3e 98bc bed2 36bd 75bb f03b
000003a0: 5f1b 7bbc 0bd9 3e3d e00d bb3c d53d c13d
000003b0: 9379 563d 1725 9c3d 0b3f ff3c 8cb7 a83c
000003c0: fdd1 cfbc 1e7b fabd efdb 98bd bc04 0e3c
000003d0: 86ed acbc eb3e e73d 47f7 8abc 1d75 39bc
000003e0: cb8c 5a3c 03cb 913d e546 ebbc 0d11 2bbd
000003f0: 3c54 213d 8cb2 683c 205c 1fbc 7281 b13c
-0.041513935 0.055524535 0.060921926 0.07009845 -0.05261236 -0.041549526 0.016546987 0.018026154
-0.047049575 0.031124046 -0.004476557 -0.045597002 0.11538188 0.029428702 -0.15136175 0.021612186
0.11448833 -0.014222643 -0.040752232 0.08781309 -0.0076298104 0.04508678 0.012237777 0.03296014
-0.02876943 0.10583097 0.01758333 0.0023716423 0.0015062225 -0.015125374 -0.038642302 0.0040354733
-0.011163147 -0.0068241856 0.024022939 0.037060138 -0.010088398 0.12202318 0.026367493 0.021404445
0.034557156 0.040046953 0.048822258 0.06556149 -0.010628843 -0.025139855 -0.014065877 0.074800745
0.027595228 -0.037577912 0.025960771 0.012796538 -0.012783851 0.020766668 -0.03721224 0.08329266
-0.06927122 0.03629497 -0.0043733036 0.06860973 0.011062127 0.025221802 -0.018790597 0.025882056
0.013401724 -0.004061396 0.090589225 -0.06859563 -0.043320283 -0.113020375 0.08701166 -0.043771327
0.018808326 0.06673124 -0.038585253 -0.024780454 0.026832588 0.026093805 0.028084816 -0.13643259
-0.043361884 0.049294766 -0.010024578 -0.026409494 -0.03598936 -0.23645613 0.046404485 0.02329531
-0.027737532 0.13643524 -0.011029354 0.043883014 -0.033130214 0.03732818 0.10799478 0.005382012
0.09675506 -0.0035175483 0.033606384 -0.018997284 0.055208344 0.021099199 0.029794624 0.011085721
-0.005378936 -0.04824641 -0.017486932 -0.08773073 -0.047545716 -0.068636246 -0.031056905 -0.04193831
0.03347068 0.13971993 0.09137861 -0.022662431 0.042002443 -0.11010845 0.028773705 -0.009806996
-0.0075967275 -0.0493939 0.015132675 0.028175958 -0.040502377 -0.02416009 0.028029881 -0.021076536
0.05153902 -0.078531936 -0.036414918 -0.070521764 0.071532086 0.040340967 -0.024766462 -0.028944984
0.03798315 -0.019238671 -0.0109277675 0.03303086 -0.116231225 -0.01882079 0.14844926 -0.02149819
-0.13014977 0.002091559 0.07108705 -0.07594806 0.0031803371 -0.0673144 -0.015584116 -0.05207153
0.0040904577 -0.10169878 -0.021714168 -0.0022617043 -0.009929838 -0.016444268 0.04231724 -0.008940178
0.0100647705 0.0033388752 -0.001771927 -0.016024668 0.003179478 -0.11804975 -0.022351235 0.00048658767
-0.028368732 -0.03486002 -0.07313646 -0.061416898 0.03603809 0.016390415 0.024986118 -0.044886377
-0.008180735 0.063278675 -0.0156233795 -0.010154582 0.0033797019 -0.02231043 0.03845747 -0.10553246
0.07121215 -0.032379374 0.014042821 -0.048940707 -0.022330796 -0.015778849 0.014065315 -0.018026788
-0.014751944 0.0078366855 -0.09248009 0.07164141 0.026378497 0.11545085 -0.077930525 0.01622537
-0.02042518 -0.05282293 0.065898925 0.0337181 -0.041436892 -0.03482651 -0.03947469 0.11835349
0.042352315 -0.038632922 0.010956521 0.050057307 0.023574032 0.24606568 -0.03428309 -0.027285334
0.028525488 -0.13118464 0.0037201361 -0.04046856 0.033858143 -0.033575494 -0.11896878 -0.00078795693
-0.0885212 -0.027098263 -0.055641968 0.025797764 -0.046087675 -0.018584605 -0.044634573 0.0073465654
-0.01532635 0.046593707 0.022833765 0.09435622 0.052362036 0.07624262 0.03115799 0.020595334
-0.025368685 -0.12230514 -0.07463824 0.008668121 -0.021109354 0.112912975 -0.016963614 -0.011319426
0.013339232 0.071187995 -0.028720329 -0.041764308 0.039386973 0.014202725 -0.009726554 0.02166817

action_model._discrete_distribution.branches.2.bias f4 [2]
00000000: 708a 513d 6b8a 51bd
0.051157415 -0.051157396

exp_avg f4 [128, 4]
00000000: 9c47 2fba 1abc 0eba 532e b139 40e8 78b6
00000010: 3c7f 573a d159 283a 6173 d239 aab9 f8b8
00000020: 8366 0aba 9b38 fb39 158a d239 fe41 1d3a
00000030: 5b1d 243a 2c8d f639 d1c7 2a3a 4ae9 763a
00000040: 45f3 35b8 50bf b239 e2b7 c037 c0d7 7635
00000050: e25d 6138 8695 74b8 ee29 20ba 6b0b fd39
00000060: a663 79b8 ae41 63b9 842a 5ab8 e025 5139
00000070: 5285 7a39 8e6b 63ba 9a39 f0b8 365a a6b9
00000080: 2f52 8d3a cbfc 3f3a 653b 143a 5f3c 8cb9
00000090: 16f6 9aba 4438 d939 dc0b 65ba 6e05 eb39
000000a0: f2bd 2aba 9e13 593a e363 3cba 4189 133a
000000b0: f1da 44ba 9c49 8f39 30af 16ba 984b 133a
000000c0: 601b 90b6 eb04 673a cc01 d938 e31a 123a
000000d0: 9299 97b9 009e 5736 382a 98ba b042 0239
000000e0: d600 c2b9 2286 6339 0b56 b7ba 4f67 4d39
000000f0: 3562 6539 e250 03b9 4fbb d039 bbd6 a2b9
00000100: d76f 133a c0d3 bab8 6118 093a 9683 dc39
00000110: 41eb cc39 66ba 0e39 a655 fb39 86d0 91b9
00000120: ffc6 2b3a 28cb 51b9 1740 183a 2b4d c0b9
00000130: 0afa 3339 c2ad 2b3a 3992 02bb 6612 69ba
00000140: 1955 f7b9 468e 74b9 1853 3738 704c f039
00000150: 8b13 09ba c885 4a3a fb44 8839 e6ae fc39
00000160: ab3b ff38 6d71 9838 c4e0 5939 ec4e 5839
00000170: cb7c ae39 1388 f4b9 c2e5 183a 0824 0b38
00000180: 7910 02ba 5b8b b0b9 841b 93ba cc9a 183a
00000190: fc46 fc39 ad63 2439 c1df 213a 373f 523a
000001a0: e2ff b6b7 e078 bb39 045e 22b9 4e46 3439
000001b0: 1d92 fe39 c3d4 01ba 6051 e837 e4ec 9db9
000001c0: bc0a a539 5f87 fcb9 7fd7 793a e0a1 5f39
000001d0: c08f 27b9 d86b 7fba 8aad ddb9 5289 34ba
000001e0: d255 72ba cd17 a439 302b 73b8 a4ac 0dba
000001f0: 19d8 14b9 469f 6039 2cb8 6eb9 beff 76b9
00000200: bde3 853a 6d39 463a 2622 9e39 92c8 7b3a
00000210: 225b e4b9 120d e039 3d03 d7b8 82ef d939
00000220: 00fb 31b6 d0d4 5cba a8d4 263a c682 3a39
00000230: 3eb1 d7b9 cae6 26ba 20ff 3ab9 12b6 05ba
00000240: 98c9 d238 13fc 6139 38d3 feb8 ce42 2338
00000250: 9ea8 25ba 5d1e cf39 5e47 92b9 b617 c739
00000260: 9c19 c638 4e13 413a 5c6f b1ba f05d 4fb8
00000270: ba4b 033a 3e0b 7339 5735 153a ec9e bbb8
00000280: b492 60b9 6616 9639 9f44 0039 88b0 3c3a
00000290: bb56 333a 289f 40b8 76f0 7e39 62dc 66b9
000002a0: 36e2 ed39 8e77 1639 3a8d a8b8 369b 74b9
000002b0: 3fe9 a839 1c37 573a 4954 2f3a 5e8e aa39
000002c0: 2e22 eb39 e89f 38b8 1b1d d439 10e6 0138
000002d0: 0071 29ba 65c9 a639 3118 4bba d2c1 84b9
000002e0: 1eb8 e038 960b 7eb9 3022 15ba b97f 26ba
000002f0: 58b4 39b9 6b41 5e39 03aa 2439 db82 2e3a
00000300: 73ad 3739 7991 b2b9 1b1e 3b38 bcaa fa38
00000310: 10bf d6b7 a969 07ba 4a82 5a39 ae0a b538
00000320: 8eb8 eab9 5cb2 b739 22b7 93b9 e7ec 253a
00000330: 6208 3e38 54f5 a238 a6c5 3839 13b7 e739
00000340: 40b4 fe39 f1f7 01ba 70b4 7339 4eff 5e39
00000350: 9458 0d3a 0612 363a 1718 0039 6e7d 9139
00000360: b448 1c3a 012c 5439 280a 9739 e619 7c3a
00000370: 555d ac3a c5ac 05b9 063f e539 bfc7 633a
00000380: 8090 8bba 8ab9 693a c2b1 bb38 b98f b839
00000390: ba8c e2b8 ff66 c439 8ce0 8bb9 d121 28ba
000003a0: 13d2 30b9 dfa7 a1b9 8433 7fb8 2256 85b8
000003b0: 482f 43b9 2cdc 02ba 2054 b739 3eb1 08b9
000003c0: c0c8 0c3a 8a51 13ba 85ee b439 6743 8f38
000003d0: 6cdc 8a3a e740 b739 81d4 8a3a ae06 2c3a
000003e0: e22d f239 9265 63b9 cbb0 3039 9bd6 c2b8
000003f0: e699 97b9 4afc 91b9 962c 81b9 457b 4db9
-0.0006686391 -0.00054448994 0.00033794585 -3.7090067e-06 0.00082205585 0.0006422075 0.00040140285 -0.00011860144
-0.00052795577 0.00047916625 0.000401572 0.00059989083 0.0006260478 0.00047025958 0.00065147603 0.0009418918
-4.3380325e-05 0.00034093345 2.297381e-05 9.19561e-07 5.3731615e-05 -5.8313388e-05 -0.00061097636 0.00048264427
-5.945903e-05 -0.00021672875 -5.2014846e-05 0.00019945903 0.00023891524 -0.00086753897 -0.00011454821 -0.000317292
0.0010781939 0.0007323741 0.00056546024 -0.0002674786 -0.0011822607 0.00041431386 -0.0008737424 0.00044826738
-0.00065132894 0.0008280816 -0.0007186515 0.00056280574 -0.00075094315 0.0002732993 -0.0005748151 0.00056188693
-4.2947213e-06 0.00088126835 0.00010347701 0.00055734644 -0.00028915383 3.2129465e-06 -0.0011609262 0.00012422609
-0.00037003186 0.00021698375 -0.0013987435 0.00019588809 0.00021875727 -0.00012523265 0.00039812407 -0.00031059035
0.00056242704 -8.908613e-05 0.0005229768 0.0004205971 0.0003908519 0.00013611614 0.00047938264 -0.00027811917
0.0006552785 -0.00020007475 0.000580789 -0.00036678588 0.00017163917 0.0006549024 -0.0019923581 -0.0008890986
-0.00047174914 -0.00023322654 4.3707987e-05 0.00045833318 -0.00052290474 0.00077256234 0.00025991336 0.00048195495
0.000121704616 7.269052e-05 0.00020778464 0.00020628766 0.00033280844 -0.0004664069 0.00058325764 3.317374e-05
-0.0004961561 -0.00033673164 -0.001122341 0.00058214064 0.00048118073 0.00015677391 0.00061750045 0.0008020284
-2.1815245e-05 0.00035757478 -0.00015484547 0.00017192328 0.00048555518 -0.00049526634 2.7694448e-05 -0.0003012187
0.0003147925 -0.00048166045 0.00095307076 0.0002132724 -0.00015979912 -0.0009743548 -0.00042281701 -0.00068869174
-0.00092443556 0.0003129825 -5.7975936e-05 -0.00054044486 -0.00014194883 0.00021421639 -0.00022766058 -0.0002355566
0.0010214966 0.00075616577 0.0003016155 0.00096047774 -0.00043555448 0.00042734348 -0.00010252602 0.00041567913
-2.6521157e-06 -0.00084240455 0.0006364086 0.00017787059 -0.0004114005 -0.0006366788 -0.00017833384 -0.0005100678
0.0001005113 0.00021551577 -0.000121510064 3.8924445e-05 -0.00063193764 0.0003950474 -0.00027900463 0.00037973904
9.446146e-05 0.00073652423 -0.0013537216 -4.9440132e-05 0.00050085376 0.00023178474 0.0005691847 -8.9464564e-05
-0.00021416956 0.00028626918 0.00012232595 0.0007197936 0.0006841232 -4.5924593e-05 0.00024312906 -0.00022016608
0.00045372703 0.00014349652 -8.03717e-05 -0.00023327474 0.0003221724 0.0008209811 0.00066882797 0.00032531
0.0004484816 -4.4017943e-05 0.00040457476 3.097026e-05 -0.00064636767 0.00031812038 -0.000774744 -0.0002532141
0.00010715447 -0.00024227644 -0.0005688993 -0.00063514296 -0.00017710158 0.0002119594 0.00015703593 0.0006657072
0.00017516855 -0.0003405919 4.4612312e-05 0.00011952731 -2.5599758e-05 -0.0005165586 0.00020838637 8.632742e-05
-0.00044769462 0.00035037368 -0.0002817447 0.00063295517 4.5307337e-05 7.770458e-05 0.00017621237 0.00044196154
0.00048580952 -0.00049579056 0.00023241504 0.00021266678 0.00053919223 0.0006945435 0.00012216005 0.00027750008
0.00059617613 0.00020234288 0.0002880853 0.0009616896 0.0013150374 -0.0001274823 0.0004372524 0.0008689127
-0.0010647923 0.0008915892 8.949965e-05 0.00035202297 -0.00010802732 0.0003746077 -0.00026679446 -0.00064137304
-0.00016862927 -0.00030833387 -6.0844715e-05 -6.357978e-05 -0.00018614263 -0.00049919146 0.00034967158 -0.00013035999
0.000537049 -0.0005619755 0.00034509986 6.831326e-05 0.0010594255 0.00034952836 0.0010591896 0.00065622746
0.00046192022 -0.00021686245 0.00016850528 -9.290614e-05 -0.00028915628 -0.00027844525 -0.00024638016 -0.00019596245
