results/PushButton_1/PushButton/PushButton-500019.pt (torch, 448170 bytes, 46 tensors)

discrete_act_size_vector f4 [1, 3]
3.0 3.0 2.0
00000000: 0000 4040 0000 4040 0000 0040

network_body._body_endoder.seq_layers.0.weight f4 [128, 4]
0.34926206 -0.056277968 0.7390754 -0.10856106 -0.43347588 0.19785708 -1.1382592 0.31280652
0.13607304 0.5016556 -0.2702126 -0.9931222 0.5205132 -0.14039019 -0.85356086 0.25233415
-0.6916699 0.8439503 -0.7728579 0.54146504 -0.5234114 -0.03221019 -0.4464834 -0.0717074
1.2091776 0.83432406 0.17381074 0.2864358 -0.6560509 -0.011153106 0.838137 0.1067046
0.74704564 0.4663141 -1.4851036 0.25607672 -0.9224 -0.056304254 0.1908407 0.034540147
0.15609613 -1.0032383 -0.44614458 -0.097835705 -0.94471455 -0.10714946 -0.442937 -0.534423
1.4394872 0.31476495 -0.45333114 -0.38109437 0.112209044 -0.89607626 -0.06941767 0.53865355
-0.46119 -0.9840708 0.26278242 0.5162447 -0.7192286 0.33542624 -0.013424813 1.5130935
0.18754458 0.36504158 -0.17862421 -0.52352923 0.7088088 0.67807066 -0.070942685 -0.565461
0.15904531 -0.27603248 0.14021322 0.5109228 0.5211746 -1.3612738 -0.3172657 0.87977237
0.44775343 0.2814013 -0.6975955 0.23629248 1.2526284 0.2687957 -0.1929793 -0.6755265
-0.204766 0.42732936 -0.49694145 -0.68407995 0.079797946 -0.2672413 0.23798175 -0.8259201
-0.8176669 -0.643077 0.1201142 0.16309386 0.6521776 0.47466886 0.12157774 -0.6786862
-0.06459676 -0.4328835 -0.35204342 0.17500481 0.65159774 -0.8291845 0.21699399 0.3597356
-0.61122227 0.031070227 0.4516601 -1.4504547 -0.5494853 -0.79085547 0.47009787 -0.51804185
0.14958704 -0.69008195 0.78776973 -0.39320484 0.56086534 0.020441888 0.23784436 0.2921914
-0.50633717 1.8739034 -0.11715085 -0.5661607 0.69389063 0.14762864 0.9575635 0.84206706
-0.06457143 0.023198964 1.5008461 -0.20420158 0.78601116 0.46837568 0.5178999 0.28873494
-0.3254164 -0.16960639 -0.6127914 -0.09843758 -0.4630496 0.88417196 -0.8005321 0.34831807
-0.055942457 -0.903835 -0.28504354 0.5855761 0.32629317 -0.023185607 -1.2660036 -0.2683658
-0.47767365 -0.14143176 -0.31701845 0.5273612 0.24005206 -0.6468511 0.31461746 0.7052891
-0.21225107 0.48937973 -0.2549792 -0.24253002 0.7011777 0.35044587 -0.7004324 -0.1131799
-0.13963915 -0.74553263 -0.13029918 0.9904391 -0.5499561 0.26879087 0.4619624 0.0078990795
-0.7616204 0.004783267 0.66184664 -0.05772155 -0.36017746 0.9144622 -0.1515091 0.061071575
0.17451623 -0.14168434 0.74744475 0.5271466 0.8268773 0.064368345 0.8804874 0.0149808265
0.006648055 -0.30979165 -0.68688613 -0.014680499 -0.034072686 -1.3479325 -0.06961828 -1.1181256
0.8081776 0.6730695 0.04482603 -0.20757316 -0.16120896 0.13905768 -0.9214863 -0.045951016
0.21681565 0.86697394 0.2884067 -0.3075611 -0.95042974 -0.4146139 -0.6536901 0.17627782
-0.33663747 -0.28720337 0.0635811 -0.43550882 0.98053217 0.23479852 0.49873474 0.84839404
-0.5643834 0.39311516 0.6764041 -0.52559566 -0.029964887 -0.19954722 0.3275116 -0.7088099
-0.4085271 0.19167489 -0.87116903 1.0704852 -1.2337303 -0.055235237 -0.011811073 0.2797373
0.35666716 0.29321834 -0.22512892 0.06900509 -0.22704463 -0.037095215 0.44900304 0.8197344
00000000: 7ad2 b23e ba83 66bd 0c34 3d3f 4355 debd
00000010: 8df0 ddbe 0c9b 4a3e 7ab2 91bf 2d28 a03e
00000020: bb56 0b3e 806c 003f 4e59 8abe 423d 7ebf
00000030: 5a40 053f 72c2 0fbe f782 5abf f131 813e
00000040: 4711 31bf 200d 583f 04da 45bf 749d 0a3f
00000050: 4afe 05bf d5ee 03bd 7999 e4be 54db 92bd
00000060: 55c6 9a3f 4396 553f 71fb 313e b7a7 923e
00000070: f4f2 27bf 84bb 36bc 2590 563f f187 da3d
00000080: 623e 3f3f b9c0 ee3e e017 bebf 7d1c 833e
00000090: 6822 6cbf 4a9f 66bd bf6b 433e f879 0d3d
000000a0: aad7 1f3e 1d6a 80bf 106d e4be 165e c8bd
000000b0: d0d8 71bf 2d71 dbbd a3c8 e2be f2cf 08bf
000000c0: 1e41 b83f df28 a13e 051b e8be cd1e c3be
000000d0: dbcd e53d 4165 65bf da2a 8ebd 33e5 093f
000000e0: 1821 ecbe 10ec 7bbf 6b8b 863e 9d28 043f
000000f0: 5e1f 38bf fdbc ab3e bff3 5bbc 0cad c13f
00000100: b00b 403e bbe6 ba3e 44e9 36be 0306 06bf
00000110: 7e74 353f 0a96 2d3f 664a 91bd 0dc2 10bf
00000120: c6dc 223e 2154 8dbe 0e94 0f3e d6cb 023f
00000130: b36b 053f 383e aebf a670 a2be c338 613f
00000140: f03f e53e d513 903e 9e95 32bf a8f6 713e
00000150: 2156 a03f 979f 893e 5e9c 45be 4eef 2cbf
00000160: 2eae 51be eaca da3e 1c6f febe dd1f 2fbf
00000170: 1b6d a33d dad3 88be 7db1 733e 806f 53bf
00000180: 9e52 51bf b2a0 24bf 6ffe f53d 1402 273e
00000190: 1cf5 263f cc07 f33e c0fd f83d 61be 2dbf
000001a0: 4e4b 84bd e8a2 ddbe 093f b4be 7634 333e
000001b0: 1ccf 263f 6f45 54bf ac33 5e3e 442f b83e
000001c0: 1079 1cbf fd86 fe3c fe3f e73e 80a8 b9bf
000001d0: 12ab 0cbf 8175 4abf abb0 f03e 649e 04bf
000001e0: 582d 193e 36a9 30bf 47ab 493f 2552 c9be
000001f0: df94 0f3f bf75 a73c 798d 733e 1c9a 953e
00000200: 509f 01bf 11dc ef3f c9ec efbd e8ef 10bf
00000210: d1a2 313f f62b 173e e222 753f b591 573f
00000220: 073e 84bd c10b be3c ba1b c03f 381a 51be
00000230: 0738 493f f0ce ef3e 1695 043f 11d5 933e
00000240: fa9c a6be 4cad 2dbe e6df 1cbf a499 c9bd
00000250: d614 edbe 1859 623f acef 4cbf bf56 b23e
00000260: eb23 65bd bb61 67bf 3af1 91be 51e8 153f
00000270: e60f a73e beef bdbc 680c a2bf 3e67 89be
00000280: a491 f4be 7dd3 10be 3e50 a2be 2501 073f
00000290: 35d0 753e 0998 25bf 8a15 a13e d48d 343f
000002a0: 5858 59be fb8f fa3e a28c 82be ca59 78be
000002b0: 6280 333f a46d b33e 8a4f 33bf ddca e7bd
000002c0: 91fd 0ebe 3adb 3ebf 266d 05be 6b8d 7d3f
000002d0: ecc9 0cbf f59e 893e 5686 ec3e 246b 013c
000002e0: 8ef9 42bf f4bc 9c3b c86e 293f 6f6d 6cbd
000002f0: 2e69 b8be 321a 6a3f 3425 1bbe 3026 7a3d
00000300: 62b4 323e b315 11be 8a58 3f3f 14f3 063f
00000310: 3bae 533f 8dd3 833d 9f67 613f 2472 753c
00000320: edd7 d93b 039d 9ebe c5d7 2fbf 7a86 70bc
00000330: cd8f 0bbd 0d89 acbf 0794 8ebd bd1e 8fbf
00000340: bae4 4e3f 484e 2c3f 809b 373d 0f8e 54be
00000350: f613 25be 2365 0e3e 87e6 6bbf 2237 3cbd
00000360: ec04 5e3e 01f2 5d3f 0baa 933e a678 9dbe
00000370: 5d4f 73bf 4648 d4be 3c58 27bf 2c82 343e
00000380: bf5b acbe 520c 93be cf36 823d 03fb debe
00000390: 2804 7b3f 066f 703e 295a ff3e 5a30 593f
000003a0: 6e7b 10bf 6446 c93e d228 2d3f 708d 06bf
000003b0: ec78 f5bc 1b56 4cbe 9aaf a73e 9174 35bf
000003c0: 772a d1be 6c46 443e ef04 5fbf a905 893f
000003d0: e0ea 9dbf 583e 62bd 3b83 41bc ba39 8f3e
000003e0: 149d b63e b720 963e 3288 66be 8a52 8d3d
000003f0: 637e 68be 27f1 17bd bae3 e53e 1dda 513f

network_body._body_endoder.seq_layers.0.bias f4 [128]
0.17547038 0.15950117 0.19239642 0.16207333 0.09271077 0.2108852 0.08146234 0.007857771
0.08646157 -0.1472824 0.04991027 0.12291376 0.044075266 -0.06152035 -0.014304926 0.05013145
-0.0322289 -0.051247913 -0.08386705 0.20734169 0.10916714 0.13320005 0.019783214 0.19282822
-0.15247783 0.03559164 0.018843303 -0.08333735 0.19386287 0.095232375 0.0584781 -0.03667479
0.01598377 0.16283457 0.0047828346 0.0035240366 0.029857045 0.10593392 -0.08749338 0.105209686
-0.04100748 0.02495879 -0.222487 0.09764203 0.16362119 -0.21748793 -0.045021262 -0.09102789
0.06693708 0.008113397 0.08554316 0.12604043 -0.09932186 0.08106837 -0.055428546 0.14711288
0.16720691 0.17292538 0.094984815 0.17750521 0.17221887 -0.048408702 -0.19102016 0.054253142
0.06930271 -0.06688346 0.042456575 0.104784474 0.1341843 0.19219644 0.177721 0.103552125
-0.08314504 0.16625811 0.2297591 -0.0021400824 -0.13277116 -0.05264549 -0.05728286 0.03655831
-0.08932547 0.16144449 -0.063617006 0.053621072 -0.13537788 -0.12600136 0.09394374 -0.120458685
0.14803293 0.014217862 0.17813785 -0.07386842 0.12969398 -0.02508305 -0.044869382 0.042963337
0.2430198 0.122821964 0.02634435 -0.03526946 0.19628024 -0.19491914 0.12452439 0.112399206
0.1231458 0.102766074 -0.112356454 0.019883595 0.08059172 -0.014179684 0.13580455 0.08932659
-0.04703203 0.1391075 -0.12247772 0.033455264 0.19995977 0.062082026 0.18041025 0.05865579
0.042493355 0.06695406 0.009769303 0.08848967 0.24370949 0.13672893 0.014757273 -0.05990832
00000000: 82ae 333e 4654 233e 9103 453e 8df6 253e
00000010: 25df bd3d 4af2 573e bad5 a63d e1bd 003c
00000020: c312 b13d 33d1 16be b66e 4c3d 36ba fb3d
00000030: 4488 343d c3fc 7bbd 355f 6abc a356 4d3d
00000040: 7302 04bd 55e9 51bd 7dc2 abbd 6151 543e
00000050: 0693 df3d 9865 083e 6810 a23c c374 453e
00000060: 2623 1cbe 8ac8 113d 455d 9a3c c6ac aabd
00000070: fd83 463e 3109 c33d bb86 6f3d 4e38 16bd
00000080: 65f0 823c 1bbe 263e 53b9 9c3b 86f3 663b
00000090: c396 f43c e2f3 d83d bb2f b3bd 2d78 d73d
000000a0: 76f7 27bd 6076 cc3c a2d3 63be 8bf8 c73d
000000b0: 508c 273e 28b5 5ebe 3768 38bd d56c babd
000000c0: 4f16 893d 0eee 043c 4131 af3d be10 013e
000000d0: 4269 cbbd 2c07 a63d 0b09 63bd c2a4 163e
000000e0: 4a38 2b3e 5a13 313e 6687 c23d edc3 353e
000000f0: 255a 303e 3448 46bd ca9a 43be 8b38 5e3d
00000100: 94ee 8d3d 32fa 88bd f2e6 2d3d 3e99 d63d
00000110: 9c67 093e 25cf 443e 7efc 353e 2313 d43d
00000120: f247 aabd 913f 2a3e f845 6b3e a040 0cbb
00000130: 2af5 07be cca2 57bd 6fa1 6abd 2bbe 153d
00000140: 46f0 b6bd b451 253e a249 82bd c5a1 5b3d
00000150: 80a0 0abe 8006 01be 9365 c03d 0bb3 f6bd
00000160: f295 173e 09f2 683c c569 363e 5448 97bd
00000170: 80ce 043e f87a cdbc f5c8 37bd 53fa 2f3d
00000180: 2fda 783e 158a fb3d 1bd0 d73c b676 10bd
00000190: b0fd 483e e298 47be a506 ff3d 8e31 e63d
000001a0: dd33 fc3d 0577 d23d 241b e6bd ece2 a23c
000001b0: 460d a53d e851 68bc 5910 0b3e dcf0 b63d
000001c0: a8a4 40bd 3272 0e3e 99d5 fabd 6308 093d
000001d0: 41c2 4c3e b949 7e3d 77bd 383e 0e41 703d
000001e0: 830d 2e3d 361f 893d 6d0f 203c 123a b53d
000001f0: fb8e 793e ab02 0c3e 7dc8 713c 6d62 75bd

network_body._body_endoder.seq_layers.2.weight f4 [128, 128]
-0.0009572381 -0.19439681 -0.20795944 -0.10577746 0.03420821 0.010937425 0.017127495 -0.042098414
-0.06786835 -0.081813425 0.009428701 -0.10218451 -0.16189867 0.02700737 0.07070514 -0.04170308
-0.03542304 -0.23018184 -0.01880028 -0.13880749 0.05912761 -0.14333513 -0.01491515 -0.16703482
0.041570872 -0.15813406 -0.05392503 -0.082722716 -0.25877717 -0.08567372 0.04753245 -0.0962977
-0.2514288 0.12562902 -0.042588525 -0.056244254 -0.17790534 -0.156112 -0.15447944 -0.0069629904
0.09850274 0.17241941 0.009522834 -0.07782425 0.1417485 -0.14473608 -0.103372626 0.080327936
0.057035405 -0.03447154 -0.18968126 0.047399953 -0.027769977 -0.21451275 -0.0018908462 -0.004417118
-0.085804276 0.0592649 -0.1032123 -0.09038361 0.03806051 0.08141227 -0.21277404 0.07846845
-0.006799617 0.067086406 -0.16680922 -0.32100442 -0.2357159 -0.0019608343 0.025304567 0.09469946
-0.08874116 -0.20061675 -0.069826715 -0.14300494 -0.13317321 -0.068861485 0.08391691 -0.09879035
-0.035991162 0.081350155 -0.089905076 -0.021243518 -0.14952321 -0.091405116 0.034191646 -0.15507515
-0.022136336 0.09139014 -0.13028152 0.026533138 -0.25297892 -0.0783399 -0.2107371 -0.17770031
0.09386952 -0.15037833 -0.094998226 -0.27794954 0.13538733 0.08011763 -0.04787539 0.11692543
-0.18993823 0.026918268 -0.08626225 0.082559794 0.069404475 -0.017386055 0.0958942 -0.0677464
-0.24097878 -0.15313111 0.029901097 -0.0152571965 0.22059363 -0.05034375 -0.17683616 0.15873647
-0.02432174 -0.12614875 -0.112154126 -0.3596856 0.17307678 -0.20215511 0.10933089 -0.10543956
0.02618529 -0.06412796 -0.053602356 -0.09715453 0.08194301 0.05425324 -0.09427706 0.05011354
0.056622025 -0.04303629 -0.067057334 0.0025506173 -0.057181895 0.011480302 -0.07235222 0.070910156
-0.14631201 -0.16963743 0.27072883 0.13139424 -0.17328943 -0.35117835 -0.11342318 -0.1695997
0.006129448 -0.16887115 0.18909213 0.050296325 -0.12685308 -0.039332006 -0.037157264 0.068655305
-0.20501381 0.08911103 0.053282846 0.07539191 -0.039039176 0.07004211 0.008577345 -0.12894402
-0.023611385 0.1536918 0.08525228 -0.02765881 0.111467205 -0.06663893 -0.108886264 0.054487754
0.10984956 -0.035503853 -0.0023715992 -0.050699066 -0.06709747 -0.06669466 -0.10335964 -0.0835805
-0.03617706 -0.020350374 -0.2944339 -0.1296146 -0.08325955 0.16331246 -0.024854647 0.10228782
0.07600996 -0.15413424 -0.16396081 -0.24623303 -0.19690083 0.13170394 -0.14145005 -0.21902968
0.12266439 0.028070634 -0.18433827 -0.074256696 -0.16310026 -0.0553442 -0.057746332 0.007471241
0.11809704 -0.0037387158 0.20312631 0.035042755 -0.09076985 0.040760655 -0.16249849 0.12406693
-0.2715048 -0.03039535 -0.1887082 -0.059279818 -0.16278405 -0.08365963 -0.10678543 0.11481196
0.027258905 0.08411702 0.16122225 -0.11330489 -0.05529877 0.07654891 -0.15808085 0.031886235
-0.2751168 0.07201188 0.025843006 0.18801005 -0.14297092 -0.048423678 0.0030494188 0.046944972
-0.1850789 -0.17446063 -0.17824213 0.022343323 -0.054215077 0.17173085 0.06480836 0.110845976
0.053575452 0.18170078 -0.105268165 -0.20736365 0.19033575 -0.19379587 0.05579719 0.021911966
00000000: 29ef 7aba f50f 47be 52f3 54be daa1 d8bd
00000010: e81d 0c3d e332 333c f64e 8c3c 636f 2cbd
00000020: 90fe 8abd cc8d a7bd d77a 1a3c 1d46 d1bd
00000030: c4c8 25be 8f3e dd3c dbcd 903d d9d0 2abd
00000040: c017 11bd cab4 6bbe 0b03 9abc 8d23 0ebe
00000050: cb2f 723d 72c6 12be ac5e 74bc 2d0b 2bbe
00000060: 3846 2a3d e5ed 21be 7ee0 5cbd 876a a9bd
00000070: 717e 84be b475 afbd 63b1 423d bb37 c5bd
00000080: 47bb 80be e5a4 003e 4e71 2ebd 6060 66bd
00000090: d12c 36be d3db 1fbe dc2f 1ebe cc29 e4bb
000000a0: cebb c93d b78e 303e a905 1c3c 5262 9fbd
000000b0: 8526 113e b235 14be 07b5 d3bd f982 a43d
000000c0: f59d 693d 0832 0dbd ce3b 42be 7426 423d
000000d0: dd7d e3bc 3ba9 5bbe 45d6 f7ba 79bd 90bb
000000e0: 27ba afbd c0bf 723d f860 d3bd 0b1b b9bd
000000f0: 56e5 1b3d 7abb a63d 70e1 59be 11b4 a03d
00000100: 52cf debb 9964 893d 09d0 2abe b15a a4be
00000110: 825f 71be 5781 00bb 864b cf3c caf1 c13d
00000120: edbd b5bd 7a6e 4dbe 4f01 8fbd e36f 12be
00000130: 8f5e 08be 4007 8dbd a1dc ab3d 9852 cabd
00000140: 786b 13bd e99a a63d 2720 b8bd e306 aebc
00000150: 9d1c 19be 9b32 bbbd 8a0c 0c3d 05cc 1ebe
00000160: 4357 b5bc c12a bb3d 8568 05be 065c d93c
00000170: 7486 81be ab70 a0bd 77cb 57be 12f7 35be
00000180: aa3e c03d c7fc 19be 6e8e c2bd 674f 8ebe
00000190: faa2 0a3e b614 a43d fc18 44bd 9a76 ef3d
000001a0: 2b7f 42be b383 dc3c 43aa b0bd 1c15 a93d
000001b0: ef23 8e3d 336d 8ebc 2e64 c43d a0be 8abd
000001c0: 24c3 76be 67ce 1cbe 25f3 f43c 52f9 79bc
000001d0: 4ce3 613e 3f35 4ebd 8a14 35be d08b 223e
000001e0: 633e c7bc 232d 01be 10b1 e5bd b628 b8be
000001f0: 0a3b 313e c001 4fbe e0e8 df3d b2f0 d7bd
00000200: 8982 d63c 8555 83bd 258e 5bbd f4f8 c6bd
00000210: bdd1 a73d a538 5e3d 5514 c1bd db43 4d3d
00000220: 7fec 673d d246 30bd 5b55 89bd 4228 273b
00000230: 9037 6abd e017 3c3c 672d 94bd 5839 913d
00000240: d1d2 15be 6fb5 2dbe f89c 8a3e 368c 063e
00000250: c972 31be a6cd b3be 6a4a e8bd 8bab 2dbe
00000260: 89d9 c83b 8fec 2cbe 5ea1 413e 8503 4e3d
00000270: c6e5 01be 991a 21bd 3732 18bd 279b 8c3d
00000280: 24ef 51be d87f b63d 1d3f 5a3d 1367 9a3d
00000290: 8be7 1fbd 3d72 8f3d fe87 0c3c e709 04be
000002a0: aa6c c1bc 6261 1d3e bf98 ae3d bb94 e2bc
000002b0: eb48 e43d fe79 88bd c3ff debd 8d2e 5f3d
000002c0: cef8 e03d 7d6c 11bd d56c 1bbb d3a9 4fbd
000002d0: 666a 89bd 3697 88bd 38ae d3bd 412c abbd
000002e0: 662e 14bd d4b5 a6bc 0ac0 96be b1b9 04be
000002f0: fc83 aabd 623b 273e f99b cbbc 477c d13d
00000300: 1cab 9b3d 5ed5 1dbe 58e5 27be 8324 7cbe
00000310: 5fa0 49be 66dd 063e 48d8 10be 5149 60be
00000320: 7837 fb3d 63f4 e53c 2cc3 3cbe e513 98bd
00000330: c103 27be 9ab0 62bd 6b87 6cbd 50d1 f43b
00000340: dcdc f13d 3e05 75bb 5800 503e fe88 0f3d
00000350: 8be5 b9bd a5f4 263d 0166 26be cd16 fe3d
00000360: ad02 8bbe abff f8bc b93c 41be 65cf 72bd
00000370: ddb0 26be bd55 abbd 52b2 dabd 8822 eb3d
00000380: 114e df3c 8b45 ac3d 7217 253e 650c e8bd
00000390: f780 62bd adc5 9c3d f2df 21be 249b 023d
000003a0: 1cdc 8cbe f77a 933d b6b4 d33c b585 403e
000003b0: f866 12be e857 46bd c2d8 473b 5f49 403d
000003c0: 5385 3dbe cfa5 32be 1b85 36be 5809 b73c
000003d0: a110 5ebd 36da 2f3e 3fba 843d 3703 e33d
000003e0: ef71 5b3d c50f 3a3e d696 d7bd 2357 54be
000003f0: 60e7 423e 6d72 46be 988b 643d b980 b33c

network_body._body_endoder.seq_layers.2.bias f4 [128]
0.06645898 0.10016387 0.2083528 0.071209684 -0.08982725 -0.028793206 0.15708609 0.0852907
-0.050068863 0.13978007 0.15370004 0.041730333 0.18996717 0.1723681 -0.013097964 0.03593392
0.121147685 0.07097364 0.025013193 0.14147037 -0.025034202 0.10801234 0.13097954 0.12812477
-0.05933607 0.15339674 0.0648689 0.009310221 0.018877821 -0.011655 0.17247654 0.032054182
-0.028999371 0.09174548 0.16939403 0.10334133 0.15666267 0.13894404 0.0828001 0.10887672
0.049014054 0.16006148 0.0018368516 -0.005379393 0.014822595 0.07428103 0.07987689 0.16298269
-0.04108687 0.051933892 0.1496598 0.14724766 0.10151178 0.012318008 0.1042506 0.09714757
0.12927674 0.0673953 0.0022702578 0.0745824 0.15550816 0.09026316 0.1633767 0.030250913
0.06456793 -0.03226757 0.2151345 0.040357873 -0.10184613 0.10511023 0.12995143 -4.3304995e-06
0.021652482 0.22633432 0.06979782 0.21832825 0.052931547 0.08807525 0.110661425 0.1920474
-0.07723668 0.091684796 0.09725668 -0.07203386 0.109989725 0.024889586 0.18265992 0.10516216
-0.005540383 0.13308106 0.12809257 0.08400463 0.08425161 0.099020004 0.11493294 0.058434904
0.1320901 0.14205505 0.13112122 0.07190101 0.104894206 0.1519129 0.104402676 0.15543468
0.068531856 0.19828452 0.092432044 -0.08585163 0.12552115 0.09460284 -0.09335944 0.13001588
0.20523554 0.18244866 0.12051778 0.065611154 0.049144432 0.0066010626 0.15419623 0.17379504
0.03509215 0.08017587 0.0008403483 0.20350264 0.13415284 -0.01084993 0.027397346 0.12807351
00000000: a51b 883d b722 cd3d 705a 553e 62d6 913d
00000010: 59f7 b7bd bbdf ebbc 2ddb 203e e4ac ae3d
00000020: 0215 4dbd 8222 0f3e 8b63 1d3e 6ded 2a3d
00000030: c186 423e 4381 303e d898 56bc 722f 133d
00000040: 471c f83d a15a 913d 78e8 cc3c 9cdd 103e
00000050: 8714 cdbc 9335 dd3d 801f 063e 2433 033e
00000060: 610a 73bd 0914 1d3e fcd9 843d e689 183c
00000070: a9a5 9a3c 9df4 3ebc b19d 303e 3f4b 033d
00000080: 1790 edbc 0ee5 bb3d a175 2d3e 9fa4 d33d
00000090: 2e6c 203e 5947 0e3e 1993 a93d c2fa de3d
000000a0: f6c2 483d 28e7 233e 83c2 f03a 9f45 b0bb
000000b0: 78da 723c a720 983d 7f96 a33d efe4 263e
000000c0: b54a 28bd a2b8 543d 6b40 193e 17c8 163e
000000d0: 68e5 cf3d 78d1 493c 5781 d53d 4ef5 c63d
000000e0: 1f61 043e 8c06 8a3d 9bc8 143b a8be 983d
000000f0: 883d 1f3e e4db b83d 394c 273e c3d0 f73c
00000100: 313c 843d 002b 04bd 384c 5c3e 4c4e 253d
00000110: b494 d0bd 0844 d73d fd11 053e b54e 91b6
00000120: 8c60 b13c 2fc4 673e 29f2 8e3d 7191 5f3e
00000130: c0ce 583d cc60 b43d 75a2 e23d 13a8 443e
00000140: 442e 9ebd 3dc5 bb3d 832e c73d 7d86 93bd
00000150: 4b42 e13d 3fe5 cb3c 340b 3b3e 425f d73d
00000160: 1a8c b5bb 6746 083e b32a 033e 9f0a ac3d
00000170: 1c8c ac3d 00cb ca3d f661 eb3d 7059 6f3d
00000180: a142 073e e176 113e a444 063e d640 933d
00000190: c6d2 d63d 0e8f 1b3e 12d1 d53d 452a 1f3e
000001a0: 6e5a 8c3d 190b 4b3e 034d bd3d fbd2 afbd
000001b0: 9e88 003e 22bf c13d 3c33 bfbd e222 053e
000001c0: 4429 523e d2d3 3a3e 07d2 f63d 245f 863d
000001d0: ac4b 493d ba4d d83b 9ee5 1d3e 54f7 313e
000001e0: c9bc 0f3d 3f33 a43d d24a 5c3a ff62 503e
000001f0: 5d5f 093e e8c3 31bc 6670 e03c b425 033e

action_model._discrete_distribution.branches.0.weight f4 [3, 128]
0.06385789 0.036864586 0.036079418 0.046924867 -0.03848554 -0.054952927 -0.095456384 -0.104919724
-0.0047682547 0.08675438 -0.11304634 -0.024549732 0.04121449 -0.14025263 0.041145507 -0.06424578
0.06756327 -0.018046947 0.0042292657 -0.1448701 -0.010285019 -0.07229004 0.013110972 0.07345993
-0.03991965 -0.045330033 0.0081143845 0.032105442 0.04580004 -0.016839957 0.12661403 -0.018287258
-0.069472864 -0.07217671 0.011065698 -0.03754688 -0.009003057 0.08946515 -0.23571594 0.011825734
0.048657544 0.14996631 -0.053014427 -0.07487012 -0.00015109812 -0.030202426 -0.067225635 0.12017902
0.05189675 0.04154571 -0.12562186 0.13317177 -0.017402215 0.025064526 -0.05580203 0.011738702
0.034608968 -0.021922559 -0.054330535 -0.02606937 0.059521817 -0.04720245 0.05283608 0.004391257
0.014825132 0.032550324 -0.041605506 -0.016311 -0.0025632072 -0.25551847 -0.11619083 0.0002629406
0.031740066 0.090384245 -0.098327756 0.2040047 0.03134375 0.027358046 0.046739437 -0.18282768
0.041031234 0.061620694 0.06759236 -0.04972057 0.13187261 -0.051906966 0.060772818 0.062640205
-0.023441272 0.047604263 0.052459083 -0.04163777 -0.010026687 -0.017200174 0.036138024 0.044406448
-0.029576482 0.0721018 -0.11416764 -0.07130522 -0.012986821 0.11773955 -0.061880473 0.13742816
0.022666473 -0.21483544 -0.030683346 -0.12694189 0.14760622 0.068459824 0.071748555 0.04045681
-0.081770666 -0.049253915 0.053139552 -0.15016003 -0.058045093 -0.082930304 0.09896525 0.047379166
0.03829566 -0.07924278 0.06442815 -0.19223003 -0.091949515 -0.026716769 0.0053783343 0.093785845
0.0024866534 -0.011687371 0.047075167 -0.040147252 -0.009774262 0.041566923 -0.0069406247 -0.20223407
-0.020532304 -0.08219418 0.014898708 -0.019658847 0.03504816 0.09340959 -0.25769946 0.040582195
0.04276699 -0.03297195 0.054810185 -0.050436314 0.005408028 -0.18751355 -0.03401832 -0.029527564
0.0018748725 0.012526153 -0.046924304 -0.004272335 -0.06416767 -0.034654874 -0.062409736 0.003815452
0.014687521 -0.018646654 -0.0006258252 0.06174763 0.010104125 0.019090537 -0.109232776 -0.010826313
-0.03655409 -0.15263249 0.053711567 0.0012066613 0.034899976 0.036669217 -0.0024936039 -0.16718867
-0.030266691 -0.033588182 0.1501538 -0.09688098 0.109444775 -0.06089076 -0.005361843 -0.01635372
0.1543981 0.037685197 0.04428318 0.049939148 0.0008252583 0.005017614 0.06082513 0.028661245
0.066957206 0.0027557095 0.08960801 0.029306615 -0.04943905 0.046452228 -0.024913765 0.0112503525
-0.028765215 0.045472417 0.0150196925 0.024369461 0.011640653 0.0037045022 0.07679323 0.06327525
-0.093899935 -0.07951452 -0.03473779 0.024854053 -0.09105736 0.068926394 0.017394498 0.005558464
-0.08995219 0.017922701 -0.010099176 0.045807052 -0.094696365 -0.010469252 -0.00073074363 -0.047531772
0.028902972 -0.023651551 -0.08808275 -0.0052060857 -0.30429095 -0.10036131 -0.059140243 -0.06513471
-0.03975222 0.14833912 -0.0061792294 0.07578241 -0.06880389 -0.060811505 -0.11679431 0.019371662
0.027338363 0.012747876 -0.0033664058 -0.0637031 -0.04889821 -0.089372225 0.007568213 0.0076813563
-0.021442387 0.0443436 -0.055108782 0.08083127 0.06645966 -0.060746886 0.010941398 -0.08889081
00000000: edc7 823d 52ff 163d 03c8 133d 4a34 403d
00000010: 03a3 1dbd 5216 61bd a37e c3bd 27e0 d6bd
00000020: 053f 9cbb 48ac b13d d784 e7bd 851c c9bc
00000030: 86d0 283d 639e 0fbe 3188 283d 4b93 83bd
00000040: 9d5e 8a3d 31d7 93bc a795 8a3b d458 14be
00000050: 7f82 28bc cd0c 94bd 67cf 563c 2972 963d
00000060: c982 23bd fcab 39bd 32f2 043c ff80 033d
00000070: d398 3b3d f3f3 89bc 1ca7 013e 29cf 95bc
00000080: ca47 8ebd 62d1 93bd e74c 353c c2ca 19bd
00000090: 8f81 13bc 8139 b73d 855f 71be b9c0 413c
000000a0: 224d 473d c590 193e a825 59bd 8155 99bd
000000b0: 1870 1eb9 146b f7bc 98ad 89bd 6b20 f63d
000000c0: b091 543d d62b 2a3d 04a3 00be 2e5e 083e
000000d0: 178f 8ebc 1f54 cd3c ab90 64bd af53 403c
000000e0: 22c2 0d3d f096 b3bc b289 5ebd 6e8f d5bc
000000f0: 26cd 733d 5b57 41bd a56a 583d 89e4 8f3b
00000100: 1ce5 723c 7d53 053d 896a 2abd a59e 85bc
00000110: 7bfb 27bb 51d3 82be 75f5 edbd 4adb 8939
00000120: df01 023d 601b b93d 1060 c9bd 9ce6 503e
00000130: 4e62 003d fb1d e03c da71 3f3d 2e37 3bbe
00000140: 5e10 283d fb65 7c3d dd6d 8a3d cca7 4bbd
00000150: 9d09 073e 669c 54bd ebec 783d 8249 803d
00000160: e907 c0bc b0fc 423d 56df 563d 5e8c 2abd
00000170: f946 24bc 61e7 8cbc 7705 143d 89e3 353d
00000180: 614a f2bc 1caa 933d b9d0 e9bd 7908 92bd
00000190: adc6 54bc 6f21 f13d 6176 7dbd f8b9 0c3e
000001a0: 0aaf b93c d2fd 5bbe a45b fbbc 0efd 01be
000001b0: 1626 173e aa34 8c3d e8f0 923d 0ab6 253d
000001c0: 6177 a7bd 79be 49bd dca8 593d 8dc3 19be
000001d0: b1c0 6dbd 5dd7 a9bd 4bae ca3d a810 423d
000001e0: e9db 1c3d 0a4a a2bd e8f2 833d f3d7 44be
000001f0: 0750 bcbd 20dd dabc bd3c b03b cb12 c03d
00000200: 1ff7 223b 637c 3fbc e4d1 403d 7271 24bd
00000210: 3a24 20bc 1442 2a3d 2e6e e3bb 7316 4fbe
00000220: 5d33 a8bc 6c55 a8bd b619 743c 970b a1bc
00000230: a98e 0f3d 874d bf3d 2ff1 83be 8439 263d
00000240: 702c 2f3d 980d 07bd a580 603d 4f96 4ebd
00000250: d435 b13b 8d03 40be cb56 0bbd cae3 f1bc
00000260: 48be f53a 7e3a 4d3c b333 40bd f2fe 8bbb
00000270: 576a 83bd 45f2 0dbd 5aa1 7fbd aa0c 7a3b
00000280: eea3 703c dec0 98bc 6b0e 24ba 15eb 7c3d
00000290: c68b 253c c263 9c3c 6fb5 dfbd d960 31bc
000002a0: beb9 15bd b14b 1cbe a900 5c3d d628 9e3a
000002b0: 47f3 0e3d 7632 163d bb6b 23bb 8233 2bbe
000002c0: daf1 f7bc c393 09bd ebc1 193e 8969 c6bd
000002d0: 9524 e03d 9768 79bd 66b2 afbb 3df8 85bc
000002e0: 891a 1e3e cb5b 1a3d 4862 353d fe8c 4c3d
000002f0: 2656 583a cc6a a43b c623 793d fdca ea3c
00000300: dc20 893d 2299 343b 6884 b73d 6d14 f03c
00000310: 9a80 4abd b144 3e3d f417 ccbc 6653 383c
00000320: 07a5 ebbc 4941 3a3d 2815 763c 77a2 c73c
00000330: 70b8 3e3c 3cc7 723b c545 9d3d 7496 813d
00000340: 9c4e c0bd 82d8 a2bd 3649 0ebd ba9a cb3c
00000350: 487c babd 4829 8d3d e87e 8e3c c723 b63b
00000360: db38 b8bd a1d2 923c 0477 25bc 2da0 3b3d
00000370: 2bf0 c1bd 3a87 2bbc 608f 3fba adb0 42bd
00000380: edc5 ec3c e6c0 c1bc bb64 b4bd d097 aabb
00000390: 06cc 9bbe 3b8a cdbd 0a3d 72bd 5965 85bd
000003a0: 39d3 22bd 36e6 173e 227b cabb cf33 9b3d
000003b0: 0ee9 8cbd 7c15 79bd db31 efbd 52b1 9e3c
000003c0: b4f4 df3c 78dc 503c eb9e 5cbb c576 82bd
000003d0: 7d49 48bd c908 b7bd c6fe f73b e3b3 fb3b
000003e0: f2a7 afbc a2a1 353d bfb9 61bd dd8a a53d
000003f0: 011c 883d bad1 78bd 8d43 333c 630c b6bd

action_model._discrete_distribution.branches.0.bias f4 [3]
0.027299052 -0.005773336 -0.015601457
00000000: 43a2 df3c 412e bdbb 419d 7fbc

action_model._discrete_distribution.branches.1.weight f4 [3, 128]
-0.1107444 -0.064935595 0.18099898 -0.02820978 0.007686458 -0.03931054 0.12296885 -0.06766807
0.033512633 0.051045556 0.0476114 0.022385407 -0.15007581 -0.108319305 -0.025175486 0.043239944
0.027708225 -0.044784974 -0.18848747 0.08379956 0.03162121 -0.07159702 -0.09141743 0.031108433
-0.0102305915 0.041122116 -0.09108665 -0.03154443 -0.097248144 0.0022925711 -0.035118703 -0.06280555
-0.04000363 -0.03769156 -0.09551467 0.07303226 0.06795421 -0.09656505 -0.09238305 0.015360804
0.013264462 -0.1099769 -0.06095124 0.036265995 0.013534479 -0.02108818 0.0711401 -0.1923702
-0.034003288 0.02980925 -0.121895224 0.060484808 -0.07183945 -0.018484207 0.022276364 -0.024306176
0.25296673 0.007247321 0.004119745 0.034366272 0.0018593858 -0.041095585 0.2569638 -0.0006267067
0.022688448 0.06984976 0.18572098 0.033605754 -0.057487763 0.021530028 0.03503479 0.017498607
-0.06385888 -0.06792599 -0.021513363 0.09645317 -0.0024731026 -0.021865796 0.026701404 0.093286015
-0.043647394 0.048460864 0.043697063 0.024842417 0.09190476 0.0030279814 0.15791003 0.052695286
-0.0003296342 -0.01896676 0.12628336 -0.031872194 0.0033592924 0.045772105 0.02333981 -0.023079
-0.10810883 0.020623997 0.091631725 0.05561643 0.014477299 -0.01363841 -0.114366725 0.01583608
0.0128919 -0.009036372 0.03007987 -0.052418258 -0.15841581 0.05780021 -0.0040892498 -0.008321939
0.036373086 -0.13368458 0.02383332 -0.14180672 -0.11111764 -0.14798005 0.082107544 -0.030538622
0.021417003 0.10049476 -0.010632262 0.06196789 0.041642494 -0.043391515 0.025915662 0.063644245
-0.100392565 0.014212536 -0.012575413 0.050640218 0.04317538 -0.0061174883 -0.007406763 0.075100526
0.007825298 0.05347155 -0.014257667 0.012742257 0.009570357 -0.23234992 0.18658894 0.05254067
-0.005359075 0.010158627 -0.14121051 -0.032722507 0.0110357255 0.08365793 0.010335567 -0.02103998
-0.0051231217 0.010372604 0.011730414 0.038436104 0.0725082 -0.022901272 -0.024357999 0.042727206
-0.04293744 0.013135522 -0.00016589707 0.01147987 -0.044322617 0.06493226 0.15282951 -0.052653056
0.011111873 0.042289983 0.070500664 0.0025323855 -0.08174227 -0.11869975 -0.033521455 0.14312506
0.011614218 -0.052262496 -0.08181013 0.0020678157 0.04039186 0.044127215 -0.058811624 -0.0073624905
-0.3080625 -0.046754766 -0.04891268 -0.014048237 0.0045194463 -0.023733106 -0.29826874 0.01918297
-0.13988104 0.009910466 -0.2649966 -0.14520004 0.04528434 -0.0007726277 -0.009118993 0.043612015
0.021190513 0.03542896 -0.03738308 -0.021023775 -0.003941092 0.007827233 -0.0326227 -0.036449846
0.081832275 0.012567301 0.0055057784 -0.023757383 -0.016194519 0.03461711 -0.18288547 -0.037680496
0.02220066 0.026661884 0.013239105 -0.03265553 0.024071403 0.016848087 -0.03093069 0.015419946
-0.066109 -0.006591163 -0.0041073095 0.019260067 0.09552697 0.012480423 -0.014419426 -0.02227193
-0.03434138 0.06944202 -0.044811696 0.08960468 0.09321483 0.03429769 -0.028645879 -0.03960618
-0.040382706 0.069720514 -0.03313484 0.06981254 0.033354875 0.16419446 -0.050191592 0.0052942494
-0.02321441 0.058506336 -0.0018398508 -0.008523428 -0.052358136 -0.010969388 -0.09909795 0.0198736
00000000: f6cd e2bd f4fc 84bd cc57 393e 3218 e7bc
00000010: afde fb3b 1704 21bd 18d7 fb3d 8f95 8abd
00000020: 8b44 093d 2515 513d 2c04 433d 9a61 b73c
00000030: 79ad 19be 83d6 ddbd d23c cebc 5e1c 313d
00000040: 5cfc e23c 7370 37bd dc02 41be 1b9f ab3d
00000050: 3e85 013d 75a1 92bd 1039 bbbd 1dd7 fe3c
00000060: 369e 27bc aa6f 283d a38b babd bb34 01bd
00000070: 092a c7bd f63e 163b a1d8 0fbd 32a0 80bd
00000080: d9da 23bd 7762 1abd 329d c3bd f091 953d
00000090: 942b 8b3d e6c3 c5bd 5333 bdbd e2ab 7b3c
000000a0: 3053 593c 923b e1bd 02a8 79bd a78b 143d
000000b0: b8bf 5d3c 1ec1 acbc e7b1 913d b2fc 44be
000000c0: 0847 0bbd 8732 f43c 34a4 f9bd ebbe 773d
000000d0: 9020 93bd 316c 97bc ec7c b63c bf1d c7bc
000000e0: db84 813e ef7a ed3b edfe 863b a6c3 0c3d
000000f0: a2b6 f33a d853 28bd c290 833e 9349 24ba
00000100: 20dd b93c 640d 8f3d a42d 3e3e 30a6 093d
00000110: 4a78 6bbd be5f b03c a480 0f3d 3d59 8f3c
00000120: 72c8 82bd c81c 8bbd cb3c b0bc 3d89 c53d
00000130: c713 22bb e61f b3bc e7bc da3c bd0c bf3d
00000140: 9cc7 32bd e67e 463d b1fb 323d 5382 cb3c
00000150: 9038 bc3d 1971 463b 2bb3 213e 03d7 573d
00000160: c1d2 acb9 2e60 9bbc 6d50 013e 6b8c 02bd
00000170: 9327 5c3b 887b 3b3d 2133 bf3c 2c10 bdbc
00000180: 2a68 ddbd a8f3 a83c 6aa9 bb3d 0ece 633d
00000190: 3132 6d3c a373 5fbc 1a39 eabd abba 813c
000001a0: 8c38 533c 4b0d 14bc 0f6a f63c 87b4 56bd
000001b0: c137 22be eabf 6c3d 1dff 85bb be58 08bc
000001c0: f2fb 143d 9ce4 08be 183e c33c c835 11be
000001d0: a591 e3bd 1588 17be 0028 a83d 222c fabc
000001e0: b672 af3c 32d0 cd3d f032 2ebc 0bd2 7d3d
000001f0: 5291 2a3d 4dbb 31bd 154d d43c ea57 823d
00000200: 9e9a cdbd b2db 683c 1b09 4ebc 1e6c 4f3d
00000210: abd8 303d 3675 c8bb 6eb4 f2bb 4ece 993d
00000220: ae35 003c fc04 5b3d fd98 69bc e6c4 503c
00000230: fdcc 1c3c 23ed 6dbe 2c11 3f3e e334 573d
00000240: 2e9b afbb 5f70 263c 7d99 10be 0908 06bd
00000250: 30cf 343c d954 ab3d 8356 293c 095c acbc
00000260: dcdf a7bb dbf1 293c ec30 403c 2d6f 1d3d
00000270: 2e7f 943d 739b bbbc 6d8a c7bc b902 2f3d
00000280: 2bdf 2fbd 5f36 573c a8f4 2db9 1116 3c3c
00000290: a28b 35bd 34fb 843d 577f 1c3e bbaa 57bd
000002a0: 930e 363c 4338 2d3d a762 903d 61f6 253b
000002b0: 7e68 a7bd db18 f3bd cb4d 09bd 608f 123e
000002c0: 9049 3e3c 3311 56bd 128c a7bd 3184 073b
000002d0: ef71 253d bdbe 343d 75e4 70bd 0c41 f1bb
000002e0: 5eba 9dbe ed81 3fbd aa58 48bd 942a 66bc
000002f0: dd17 943b ee6b c2bc aeb6 98be 9b25 9d3c
00000300: fa3c 0fbe 825f 223c a2ad 87be 52af 14be
00000310: 127c 393d 2b8a 4aba d467 15bc 83a2 323d
00000320: ba97 ad3c f51d 113d 001f 19bd 0d3a acbc
00000330: 4724 81bb cb3d 003c 619f 05bd 6f4c 15bd
00000340: ae97 a73d 15e7 4d3c d169 b43b d89e c2bc
00000350: 5eaa 84bc acca 0d3d 5446 3bbe dd56 1abd
00000360: 29de b53c 066a da3c d5e8 583c cec1 05bd
00000370: 6431 c53c 0005 8a3c 5c62 fdbc f1a3 7c3c
00000380: 2864 87bd affa d7bb 9c96 86bb 4ac7 9d3c
00000390: a5a3 c33d b07a 4c3c 753f 6cbc 9f73 b6bc
000003a0: 8ca9 0cbd 9e37 8e3d 788c 37bd a982 b73d
000003b0: 6be7 be3d bc7b 0c3d c3aa eabc 173a 22bd
000003c0: 5668 25bd a1c9 8e3d 66b8 07bd e1f9 8e3d
000003d0: 1f9f 083d 9822 283e b395 4dbd 627b ad3b
000003e0: 252c bebc 57a4 6f3d 2627 f1ba d9a5 0bbc
000003f0: 7c75 56bd f3b8 33bc def3 cabd f6cd a23c

action_model._discrete_distribution.branches.1.bias f4 [3]
0.02626434 -0.038239356 0.022253457
00000000: 5028 d73c dfa0 1cbd e24c b63c

action_model._discrete_distribution.branches.2.weight f4 [2, 128]
-0.03818919 0.05077969 0.05336842 0.060869623 -0.059631445 -0.04641144 0.0028000327 0.018742139
-0.051854447 0.029301152 -0.011140562 -0.050863195 0.1129313 0.020230556 -0.14181376 0.01880463
0.1113869 -0.018653672 -0.045289002 0.075690605 -0.014193271 0.04814832 0.011107902 0.027254108
-0.035764977 0.10038328 0.016656423 -0.0031258997 -0.0041890633 -0.019311553 -0.039223995 0.0013219332
-0.014732063 -0.011347272 0.017861368 0.026503988 -0.015503234 0.10732189 0.018797003 0.018236283
0.026987089 0.030001523 0.04215124 0.056270193 -0.006905452 -0.02054193 -0.021991119 0.0661663
0.024135895 -0.043447617 0.01993943 0.012767612 -0.01792543 0.01823832 -0.041372273 0.081141025
-0.07548474 0.027821297 -0.010981335 0.062786475 0.0012311799 0.027213315 -0.02451642 0.01858658
0.022212693 -0.011387907 0.08449161 -0.057792936 -0.049122658 -0.120559834 0.07634971 -0.050938856
0.016312487 0.055486772 -0.041526604 -0.034512877 0.021598855 0.017013662 0.017406438 -0.14244789
-0.040330082 0.045537814 -0.015271763 -0.032172482 -0.033395268 -0.23976268 0.03925651 0.014647236
-0.03589225 0.12713699 -0.023277972 0.035534404 -0.022109542 0.037638996 0.09790725 -0.0056921276
0.09048549 -0.0050286963 0.033764336 -0.032191236 0.060972817 0.021181714 0.021696653 0.010465983
-0.011423651 -0.047722116 -0.020042198 -0.09511324 -0.055389993 -0.07341838 -0.03186234 -0.049528968
0.033148 0.13547064 0.08184865 -0.02485667 0.044712123 -0.10769566 0.021817366 -0.01691154
-0.014952938 -0.05252255 0.011712017 0.019361991 -0.046182755 -0.030839687 0.032610517 -0.025439817
0.048214275 -0.07378714 -0.0288614 -0.06129295 0.07855111 0.045202896 -0.011019509 -0.029660983
0.04278802 -0.01741577 -0.0042637526 0.038297053 -0.113780655 -0.009622667 0.13890128 -0.018690629
-0.12704857 0.0065226294 0.07562375 -0.06382558 0.009743794 -0.07037598 -0.014454291 -0.04636553
0.011085961 -0.096251085 -0.020787256 0.0032358384 -0.004234558 -0.012258053 0.04289893 -0.006226634
0.013633684 0.007861957 0.00438963 -0.0054685106 0.0085943 -0.10334845 -0.0147807505 0.0036547296
-0.020798653 -0.024814507 -0.066465534 -0.052125614 0.032314688 0.011792457 0.03291137 -0.03625183
-0.0047213887 0.06914838 -0.0096020335 -0.010125652 0.008521283 -0.01978208 0.042617496 -0.1033808
0.07742567 -0.02390572 0.02065086 -0.043117613 -0.012499859 -0.017770367 0.019791141 -0.010731308
-0.023562925 0.015163193 -0.08638248 0.060838737 0.032180823 0.1229903 -0.06726857 0.023392865
-0.01792934 -0.041578513 0.068840146 0.043450546 -0.03620316 -0.02574638 -0.028796297 0.124369
0.03932052 -0.034875963 0.016203742 0.055820283 0.020979993 0.24937221 -0.027135106 -0.01863725
0.036680207 -0.12188647 0.015968742 -0.03211994 0.022837475 -0.033886306 -0.10888125 0.010286171
-0.08225162 -0.025587112 -0.05579992 0.038991705 -0.051852148 -0.01866712 -0.036536533 0.007966296
-0.009281638 0.04606941 0.02538903 0.101738736 0.060206313 0.08102475 0.031963423 0.028186027
-0.025046017 -0.11805582 -0.065108284 0.010862391 -0.023819057 0.110500194 -0.010007278 -0.004214886
0.020695455 0.07431661 -0.02529965 -0.032950297 0.045067344 0.020882325 -0.014307193 0.026031448
00000000: 456c 1cbd 5dfe 4f3d d898 5a3d 6d52 793d
00000010: 1a40 74bd ec19 3ebd c180 373b 1d89 993c
00000020: 5465 54bd f808 f03c e786 36bc ed55 50bd
00000030: 8748 e73d 8dba a53c a037 11be 2b0c 9a3c
00000040: d11e e43d 96cf 98bc f680 39bd ad03 9b3d
00000050: e58a 68bc 2c37 453d ebfd 353c 0244 df3c
00000060: 4c7e 12bd c095 cd3d 0d73 883c e5db 4cbb
00000070: 6944 89bb 4333 9ebc 57a9 20bd b844 ad3a
00000080: c05e 71bc e9e9 39bc 0152 923c e41e d93c
00000090: 4701 7ebc 94cb db3d 2cfc 993c 4264 953c
000000a0: 0714 dd3c c1c5 f53c c7a6 2c3d 937b 663d
000000b0: 2147 e2bb 8d47 a8bc b826 b4bc 3282 873d
000000c0: a4b8 c53c 21f6 31bd 0458 a33c 3f2f 513c
000000d0: 5ad8 92bc 8768 953c f975 29bd 442d a63d
000000e0: be97 9abd 7de9 e33c 0feb 33bc 3296 803d
000000f0: 8b5f a13a 75ee de3c a9d6 c8bc e242 983c
00000100: 65f7 b53c 5894 3abc f009 ad3d 49b8 6cbd
00000110: d734 49bd 13e8 f6bd 3d5d 9c3d 43a5 50bd
00000120: c4a1 853c 1946 633d cd17 2abd 605d 0dbd
00000130: 15f0 b03c 3c60 8b3c f297 8e3c dcdd 11be
00000140: 2831 25bd dc85 3a3d 6b36 7abc 4bc7 03bd
00000150: 7ac9 08bd 5984 75be 6fcb 203d f6fa 6f3c
00000160: c003 13bd 3330 023e 72b1 bebc 868c 113d
00000170: 121f b5bc 592b 1a3d 9983 c83d 0785 babb
00000180: 7550 b93d c3c7 a4bb 794c 0a3d f5da 03bd
00000190: a2be 793d 4685 ad3c 2ebd b13c 8479 2b3c
000001a0: 442a 3bbc 4478 43bd 892f a4bc bbca c2bd
000001b0: 9ee0 62bd 605c 96bd 1682 02bd e3de 4abd
000001c0: 32c6 073d d1b8 0a3e 44a0 a73d 37a0 cbbc
000001d0: 0f24 373d 8b8f dcbd 55ba b23c 128a 8abc
000001e0: 2bfd 74bc e321 57bd c2e3 3f3c 0a9d 9e3c
000001f0: 212a 3dbd 83a3 fcbc 9b92 053d 2a67 d0bc
00000200: 557c 453d b61d 97bd be6e ecbc 510e 7bbd
00000210: 68df a03d ac26 393d 2c8b 34bc 97fb f2bc
00000220: 7e42 2f3d 84ab 8ebc f3b6 8bbb 5fdd 1c3d
00000230: d505 e9bd 64a8 1dbc 233c 0e3e 171d 99bc
00000240: 0519 02be c8bb d53b a0e0 9a3d fcb6 82bd
00000250: 6fa4 1f3c 4821 90bd b1d1 6cbc c8e9 3dbd
00000260: e4a1 353c 4a1f c5bd 094a aabc 5c10 543b
00000270: 0cc2 8abb 00d6 48bc cab6 2f3d cb08 ccbb
00000280: d15f 5f3c 70cf 003c e3d6 8f3b 3131 b3bb
00000290: 1bcf 0c3c 5aa8 d3bd f62a 72bc 3084 6f3b
000002a0: f061 aabc cb47 cbbc 151f 88bd ab81 55bd
000002b0: 685c 043d 2635 413c 13ce 063d cd7c 14bd
000002c0: e1b5 9abb aa9d 8d3d d951 1dbc 10e6 25bc
000002d0: da9c 0b3c 070e a2bc af8f 2e3d 50b9 d3bd
000002e0: 5a91 9e3d eed5 c3bc fe2b a93c 189c 30bd
000002f0: 35cc 4cbc 2993 91bc 0821 a23c 5ed2 2fbc
00000300: 0907 c1bc 0b6f 783c 4ce9 b0bd 0a32 793d
00000310: 0ad0 033d 57e2 fb3d 1bc4 89bd 65a2 bf3c
00000320: 8de0 92bc 3b4e 2abd 10fc 8c3d 33f9 313d
00000330: c449 14bd 13ea d2bc 36e6 ebbc 2db5 fe3d
00000340: 8e0e 213d 19da 0ebd b6bd 843c cfa3 643d
00000350: 3cde ab3c 6e5b 7f3e 714a debc 25ad 98bc
00000360: fc3d 163d 9d9f f9bd e1d0 823c 3390 03bd
00000370: a815 bb3c 5ecc 0abd 22fd debd 5487 283c
00000380: 8a73 a8bd 109c d1bc 758e 64bd c4b5 1f3d
00000390: eb62 54bd caeb 98bc 55a7 15bd 1185 023c
000003a0: 0312 18bc 47b3 3c3d a8fc cf3c 665c d03d
000003b0: e59a 763d 4ef0 a53d 14ec 023d 62e6 e63c
000003c0: 4e2d cdbc 40c7 f1bd 7e57 85bd 2cf8 313c
000003d0: 2f20 c3bc ed4d e23d 91f5 23bc 071d 8abb
000003e0: 8489 a93c 4f33 983d 3641 cfbc e4f6 06bd
000003f0: 8998 383d 6911 ab3c b868 6abc e73f d53c

action_model._discrete_distribution.branches.2.bias f4 [2]
0.040912125 -0.040912107
00000000: 7993 273d 7493 27bd

exp_avg f4 [128, 4]
0.00013160509 0.00034960764 0.00038274215 0.0002820825 0.00022602812 -0.00016207053 0.00014824005 -0.0004146799
-0.00017965332 -0.00028244025 -0.00012539508 -0.00033749224 -0.00026764782 -0.00055116985 -0.00042209678 -0.0007815191
7.165116e-05 1.4154099e-05 -8.891917e-05 0.00021901661 0.00018718508 0.0002762515 0.00019490183 0.00063405815
0.00018812076 5.0040613e-05 0.00022345725 0.00013884426 -0.00015825816 8.623979e-05 -0.00016314199 -1.1103941e-05
-0.00029539267 -0.00029163298 -0.00035375595 -0.00022375878 0.00030118343 0.00033636854 0.0005061575 0.00038863972
0.000121074125 -0.00018682462 0.0003400174 -0.00058281724 -0.00024124162 0.00020613612 -0.00026354726 0.0006236275
-0.00013815543 -0.00033320423 -0.00029245022 0.00045162888 0.000110459805 -0.00016938809 3.0435796e-05 -0.0005081037
0.00039913922 0.0003131965 0.00094556774 0.00029282592 6.520616e-05 -6.934063e-05 4.642066e-05 9.380665e-05
-9.3108494e-05 -0.00022722395 -2.0390726e-05 -0.00033851742 -0.00013366534 -0.00034915982 -4.9550872e-05 -0.00063899095
-0.00015480505 -3.0047426e-05 -0.00064650504 0.00028598757 0.00014569063 -0.0002713484 -0.0001433296 -0.00050244364
2.4221068e-05 -0.00017927094 -0.0003241493 -0.00047807762 -4.2895088e-05 -0.00018200897 0.0004828006 -0.0001335118
-0.00034804724 -0.000230926 -5.42707e-05 -4.8876653e-05 0.00012662183 -0.00013451632 -2.6945188e-05 -0.00030116158
0.00066086947 0.00046534726 0.00087040855 0.0006621114 -0.00011683737 3.822843e-05 -7.352846e-05 0.00018806121
0.00013487972 -0.000107090586 0.00024073341 -0.00047861962 -0.00027553836 0.00039749325 -0.0010589125 0.0003540283
0.00022616563 7.147476e-05 6.3659725e-05 9.102796e-05 0.00024043882 0.00047253378 4.0960138e-05 0.00044059206
3.475411e-05 -0.00044103648 0.00020843731 -0.00074067333 -6.665982e-05 -3.0590672e-05 -0.00034487783 7.482344e-06
0.00013370615 -8.174234e-05 0.00042959081 -0.00035505195 0.00024118373 7.3940355e-06 0.00013043816 -0.00011302459
-0.00031184702 -0.00015570191 -0.0002738333 -0.00050830183 2.386974e-05 0.00025338004 -5.4356497e-05 0.00042281134
8.464086e-05 0.00017889774 6.278339e-05 9.1259106e-05 -9.8694865e-05 8.966753e-05 -0.00026360108 -4.0585364e-06
0.00019072992 -9.049591e-05 0.00029131485 -0.00033285786 -0.000369461 -0.0005486351 -0.00049297226 -0.0007496871
0.00014949507 0.00012261116 3.706458e-05 6.977974e-05 -0.00018332971 4.0030412e-05 -0.00086607086 0.00011637515
-0.0001118911 5.9541468e-05 -0.0001776063 0.00013804832 -0.0005247183 -0.00037501997 -0.00073087687 -0.00013387954
0.00016539803 -4.6183486e-05 -0.00014246718 -1.0808126e-05 6.9541056e-05 0.00013056069 0.00039531075 0.00015125063
0.0002467784 -0.00015098206 0.0008115055 -0.0003961479 6.3672676e-05 0.00013944178 -0.00012031831 -2.0538893e-05
-0.00015334086 -0.00030493658 -0.00054259936 -0.0007192127 -0.0001888625 0.00015024337 -1.9142819e-05 0.00034273765
-0.00018963365 -0.00031887862 -0.00035663488 -0.00057189865 6.639952e-05 -0.00026174504 0.00060001557 -0.00021600309
-0.00020817509 -0.00013542219 -0.00011451457 -0.0003740123 8.353154e-05 -0.0003109086 6.5831537e-06 -0.00041763438
0.00012174721 0.00020267023 0.00037977548 0.00021882175 0.00044734415 6.685785e-05 0.00022736238 8.305437e-05
-2.8976143e-05 -0.00021423603 0.00023014487 -0.00029625423 7.3774274e-05 -0.000115423914 7.36711e-05 -1.4072835e-05
0.00023410172 0.00042280892 0.00072262005 0.00057748193 -6.0438297e-06 -1.6552007e-05 0.00011594671 0.00019553144
0.000101311845 0.00013987119 0.0001077211 4.9916445e-05 1.4858497e-05 0.00016553295 -0.00023591093 0.0005049988
0.0002274752 0.00010193067 -0.00012432953 -0.00016516318 -0.00028867397 -0.00023673891 -0.00050311006 -0.00014828853
00000000: 79ff 0939 8b4b b739 c8aa c839 79e4 9339
00000010: f601 6d39 7af1 29b9 e370 1b39 6569 d9b9
00000020: 5261 3cb9 7d14 94b9 7c7c 03b9 71f1 b0b9
00000030: 1553 8cb9 627c 10ba df4c ddb9 dcde 4cba
00000040: 6c43 9638 6477 6d37 1e7a bab8 d3a7 6539
00000050: 1d47 4439 d9d5 9039 905e 4c39 ec36 263a
00000060: 4842 4539 b3e2 5138 d94f 6a39 b996 1139
00000070: 1af2 25b9 a2db b438 1811 2bb9 104b 3ab7
00000080: efde 9ab9 51e6 98b9 5278 b9b9 caa0 6ab9
00000090: 28e8 9d39 9f5a b039 a8af 043a 57c2 cb39
000000a0: 2de9 fd38 5ae6 43b9 5d44 b239 34c8 18ba
000000b0: cef5 7cb9 3e26 5839 b72c 8ab9 ef7a 233a
000000c0: d1dd 10b9 eab1 aeb9 0154 99b9 9ac8 ec39
000000d0: a8a6 e738 c59d 31b9 6050 ff37 4332 05ba
000000e0: 8f43 d139 8634 a439 fadf 773a 6e86 9939
000000f0: 4abf 8838 f86a 91b8 ceb3 4238 10ba c438
00000100: 3e43 c3b8 f742 6eb9 c00c abb7 0a7b b1b9
00000110: 8428 0cb9 700f b7b9 d8d4 4fb8 f581 27ba
00000120: 2a53 22b9 5b0e fcb7 387a 29ba 9af0 9539
00000130: 88c4 1839 c443 8eb9 bf4a 16b9 6cb6 03ba
00000140: 592e cb37 adfa 3bb9 95f2 a9b9 7ea6 fab9
00000150: 40ea 33b8 a9d9 3eb9 6620 fd39 4dff 0bb9
00000160: 1c7a b6b9 ba24 72b9 b8a0 63b8 e800 4db8
00000170: cac5 0439 f30c 0db9 5a08 e2b7 39e5 9db9
00000180: 333e 2d3a daf9 f339 212c 643a 8b91 2d3a
00000190: 9606 f5b8 7757 2038 4b33 9ab8 4c32 4539
000001a0: 806e 0d39 d295 e0b8 626d 7c39 3def fab9
000001b0: 2276 90b9 a466 d039 35cb 8aba e09c b939
000001c0: e026 6d39 b8e4 9538 0e81 8538 44e6 be38
000001d0: 4e1e 7c39 69be f739 9dcc 2b38 44ff e639
000001e0: f1c4 1138 ea3a e7b9 f78f 5a39 bf29 42ba
000001f0: b8cb 8bb8 7c4e 00b8 b8d0 b4b9 d810 fb36
00000200: 7933 0c39 166d abb8 b43a e139 4426 bab9
00000210: 44e6 7c39 481a f836 3ac6 0839 9d07 edb8
00000220: 667f a3b9 ea43 23b9 4991 8fb9 8f3f 05ba
00000230: e03b c837 18d8 8439 d8fc 63b8 c7ac dd39
00000240: 3781 b138 7f96 3b39 93aa 8338 5c62 bf38
00000250: 67fa ceb8 e30b bc38 f033 8ab9 902e 88b6
00000260: acfe 4739 9fc8 bdb8 9ebb 9839 6d83 aeb9
00000270: 37b4 c1b9 47d2 0fba cf3a 01ba a686 44ba
00000280: c7c1 1c39 2f91 0039 ca75 1b38 b656 9238
00000290: 323c 40b9 54e6 2738 0809 63ba 6f0e f438
000002a0: 14a7 eab8 2abc 7938 d43b 3ab9 10c1 1039
000002b0: 408d 09ba 549e c4b9 5198 3fba 0462 0cb9
000002c0: b26e 2d39 24b5 41b8 3e63 15b9 8c54 35b7
000002d0: 92d6 9138 1ee7 0839 b641 cf39 0899 1e39
000002e0: 0962 8139 f050 1eb9 36bb 543a 12b2 cfb9
000002f0: 0288 8538 1e37 1239 6753 fcb8 f04a acb7
00000300: 20ca 20b9 e5df 9fb9 3a3d 0eba 8c89 3cba
00000310: 6409 46b9 a68a 1d39 e494 a0b7 78b1 b339
00000320: 65d8 46b9 2a2f a7b9 b9fa bab9 78eb 15ba
00000330: f93f 8b38 d33a 89b9 5d4a 1d3a e37e 62b9
00000340: 9349 5ab9 1e00 0eb9 8b27 f0b8 1517 c4b9
00000350: a72d af38 7201 a3b9 dce4 dc36 f0f5 dab9
00000360: 8952 ff38 e083 5439 9a1c c739 8473 6539
00000370: 8489 ea39 0936 8c38 2068 6e39 7a2d ae38
00000380: cb11 f3b7 8ca4 60b9 0b53 7139 9252 9bb9
00000390: 43b7 9a38 be0f f2b8 df7f 9a38 5e1a 6cb7
000003a0: 3479 7539 74ac dd39 366e 3d3a 2862 173a
000003b0: 1acc cab6 2ad9 8ab7 6a28 f338 9207 4d39
000003c0: 6277 d438 63aa 1239 53e8 e138 605d 5138
000003d0: c248 7937 ea92 2d39 dc5e 77b9 e561 043a
000003e0: 6986 6e39 9dc3 d538 745e 02b9 a72f 2db9
000003f0: 2a59 97b9 1e3d 78b9 25e3 03ba e67d 1bb9
