Assets/ML-Agents/results/Test2/PushButton/checkpoint.pt (torch, 457314 bytes, 46 tensors)

discrete_act_size_vector f4 [1, 3]
0	0x40400000	3.0
1	0x40400000	3.0
2	0x40000000	2.0

network_body._body_endoder.seq_layers.0.weight f4 [128, 7]
0	0x3c71ec55	0.014765819
1	0x3e73a342	0.23792747
2	0x3edfab41	0.43685344
3	0x3e19a7ed	0.15005465
4	0xbf80744f	-1.0035495
5	0x3f2ac74f	0.6671037
6	0x3e17a4a0	0.14808893
7	0xbf5b88cb	-0.85755605
8	0xbe1cf443	-0.15327553
9	0xbe0fe835	-0.14053424
10	0xbdd65628	-0.10465652
11	0xbe87740c	-0.26455724
12	0xbf01a32d	-0.5063961
13	0xbe41a26b	-0.18909614
14	0x3cdb3b77	0.026761753
15	0x3f2b8396	0.6699766
16	0x3e0a7bef	0.1352384
17	0x3ea3decd	0.3200592
18	0xbe159246	-0.1460658
19	0xbe545384	-0.20734984
20	0xbe818fa0	-0.2530489
21	0x3ebff699	0.37492827
22	0xbeaaa36f	-0.33327815
23	0x3f2a6bcc	0.66570735
24	0x3f25c7b9	0.6475788
25	0x3f06bd77	0.5263285
26	0x3e64bcba	0.22337618
27	0xbed92b17	-0.42415687
28	0x3dac432d	0.0841125
29	0xbdc552f3	-0.09634962
30	0x3ea9fef8	0.33202338
31	0xbd7d3979	-0.06182239
32	0x3f0c271b	0.5474717
33	0xbc517540	-0.012784302
34	0x3ec5ce6c	0.3863405
35	0xbe26bd3a	-0.16283122
36	0x3edb5ffc	0.42846668
37	0xbf864c06	-1.049195
38	0x3cf244c6	0.02957381
39	0xbf1cf2f2	-0.61308205
40	0x3f1b8098	0.60743093
41	0xbe2b862d	-0.16750403
42	0xbe983533	-0.29728088
43	0xbdd1d32b	-0.10245355
44	0xbdbcf744	-0.0922685
45	0x3e1afb47	0.15134917
46	0xbe4905cd	-0.19631119
47	0x3eb3b2d9	0.35097387
48	0xbe4ceca4	-0.20012146
49	0x3daded2d	0.08492503
50	0xbe755ff9	-0.23962392
51	0x3ee171f1	0.44032243
52	0xbf1b9c34	-0.6078522
53	0x3c0117a8	0.007879175
54	0xbf0c9037	-0.54907554
55	0x3e4b4269	0.19849552
56	0xbe26216c	-0.16223687
57	0xbe92fa40	-0.2870655
58	0xbea1b304	-0.3158189
59	0xbecebde3	-0.40379247
60	0xbdebbc0e	-0.11510478
61	0x3ec2a0a4	0.38013184
62	0xbe1bc7c9	-0.1521293
63	0x3d9510e2	0.07278611
64	0x3d7efe84	0.062254444
65	0xbf43043e	-0.7617835
66	0xbf5901e4	-0.8476851
67	0x3f31f6f8	0.6951747
68	0x3eac9248	0.33705354
69	0x3e83019c	0.25587165
70	0xbd5146f7	-0.051093068
71	0x3f4dab84	0.8033984
72	0x3d9acd2a	0.07558663
73	0xbf733c18	-0.9501357
74	0x3edb378d	0.4281582
75	0x3e2d81f6	0.16944107
76	0xbe85b57a	-0.26115018
77	0x3c5e4aab	0.013567607
78	0x3f130cd4	0.5744145
79	0x3e8fcda1	0.2808657
80	0xbefd5f54	-0.49486792
81	0xbefcc38b	-0.49367937
82	0xbd72de01	-0.05929375
83	0x3eeb4aea	0.45955592
84	0x3daa1da7	0.08306437
85	0xbd867e67	-0.06567078
86	0x3eb51b3b	0.35372338
87	0xbee64614	-0.4497534
88	0x3f0478b4	0.5174668
89	0xbe9d26e7	-0.30693743
90	0xbefbcf89	-0.49181774
91	0x3a033f8d	0.0005006723
92	0xbc354dab	-0.011065881
93	0xbed4cf39	-0.41564348
94	0xbeb680a8	-0.35645032
95	0x3f016721	0.5054799
96	0xbe4af992	-0.19821766
97	0x3edfb395	0.43691698
98	0x3f6803e1	0.9063092
99	0x3e8a99e6	0.2707054
100	0xbe7ebe95	-0.24877389
101	0xbae7f31f	-0.0017696357
102	0x3f0e8c73	0.5568306
103	0x3e98bb2b	0.29830298
104	0xbe15ccbc	-0.14628881
105	0x3dd8f0c4	0.105927974
106	0x3dcf3f22	0.101194635
107	0x3ea7ec23	0.32797346
108	0x3e3ab87b	0.18234436
109	0xbe74d9f1	-0.23911263
110	0xbead2b73	-0.33822212
111	0x3e91044c	0.2832359
112	0xbe47f6bf	-0.1952772
113	0xbd7a7889	-0.061150108
114	0x3eb57c3b	0.35446343
115	0xbd1d6edb	-0.0384358
116	0xbea1264e	-0.31474537
117	0xbec677f7	-0.387634
118	0xbd91b815	-0.07115189
119	0x3d9ebb4d	0.077505685
120	0x3f74791f	0.95497316
121	0xbe57b121	-0.21063663
122	0x3f1e896d	0.61928445
123	0x3f3f34f8	0.746902
124	0xbeb17284	-0.3465768
125	0x3eaeb0f0	0.34119368
126	0x3e42bf50	0.19018292
127	0x3ebbee20	0.36705112
128	0x3ed04a25	0.40681568
129	0xbe59597b	-0.2122554
130	0xbd35e2f6	-0.0444059
131	0x3f4228cb	0.75843495
132	0x3e12e372	0.14344576
133	0xbeb2b1cd	-0.34901276
134	0x3d6bbb26	0.057551526
135	0xbe37ca01	-0.17948152
136	0xbe5b1be9	-0.21397366
137	0x3e0ccf23	0.13750891
138	0xbc5d228c	-0.013497006
139	0xbe5332e4	-0.20624882
140	0x3f0bd04d	0.54614717
141	0xbe919530	-0.28434134
142	0x3e405400	0.18782043
143	0xbee37ae2	-0.4442969
144	0x3f16282d	0.58655053
145	0x3f781a02	0.96914685
146	0x3d40d3b6	0.047076903
147	0xbf084de8	-0.53243876
148	0x3f698085	0.9121173
149	0x3ec43047	0.38318083
150	0x3e63d90a	0.22250763
151	0x3f3d6bc9	0.7399259
152	0x3c65f7f1	0.014036165
153	0x3e81a918	0.2532432
154	0x3e89f3f7	0.26943943
155	0xbe7f869f	-0.24953698
156	0x3dc362eb	0.095403515
157	0x3d8627ce	0.06550561
158	0xbf1fc426	-0.62408674
159	0x3eaa132b	0.3321775
160	0x3f246c77	0.64228004
161	0xbe4dac7a	-0.20085326
162	0xbea4a988	-0.32160592
163	0xbd2723e2	-0.040805705
164	0x3f870e56	1.055125
165	0x3da5216c	0.08063015
166	0x3f18f4ce	0.5974854
167	0xbf060114	-0.52345395
168	0xbeb4258d	-0.351849
169	0xbdf5e7b2	-0.12007083
170	0xbea7f173	-0.328014
171	0xbeac021b	-0.33595356
172	0xbdca1688	-0.09867579
173	0x3ec4dc7f	0.38449475
174	0x3e514205	0.2043534
175	0x3e46182c	0.19345158
176	0xbdbac71a	-0.09120007
177	0xbec30175	-0.3808705
178	0xbe0c672f	-0.13711236
179	0x3eb75663	0.35808095
180	0x3f379968	0.71718454
181	0x3ebe067d	0.37114325
182	0xbeadc402	-0.33938605
183	0xbf1941d6	-0.5986608
184	0x3a230452	0.00062186003
185	0xbea9b3d5	-0.33145013
186	0x3e83102a	0.2559827
187	0xbeb3a0ca	-0.3508361
188	0x3e2e0bf4	0.16996747
189	0xbf5ef4dd	-0.8709238
190	0xbf0dfae6	-0.55460966
191	0xbd256514	-0.0403796
192	0xbf0e586a	-0.5560366
193	0x3d6b3293	0.05742128
194	0xbe6e119c	-0.23248905
195	0xbe3cf38b	-0.1845228
196	0x3e2048d5	0.15652783
197	0xbe7d667b	-0.24746124
198	0xbdb0f23e	-0.08639954
199	0x3d119ce1	0.035550002
200	0xbe4c5f41	-0.19958211
201	0x3ea03d92	0.31296974
202	0xbe890170	-0.2675891
203	0xbe777ccf	-0.24168704
204	0xbe3ed203	-0.186348
205	0xbe121359	-0.14265193
206	0xbe99e3aa	-0.30056506
207	0x3cd0af66	0.025474261
208	0xbdfc0e4f	-0.12307417
209	0x3f35fd4c	0.71089625
210	0xbe70d7bd	-0.23519798
211	0xbee06afb	-0.4383162
212	0xbef4651c	-0.4773339
213	0xbcbec2f0	-0.023286313
214	0xbeb42d96	-0.3519103
215	0x3d8989a8	0.06715709
216	0x3c76c402	0.01506138
217	0xbeaaa048	-0.3332541
218	0x3e0c9b1c	0.13731045
219	0x3e2c1221	0.1680379
220	0x3ef541ae	0.47901672
221	0xbd804c5e	-0.06264566
222	0xbdd967dd	-0.106155135
223	0xbeffadde	-0.49937338
224	0xbe88cdfe	-0.2671966
225	0x3e42e2b8	0.19031799
226	0x3c8a4552	0.016878758
227	0x3ebf29a9	0.37336472
228	0x3dabae5e	0.08382867
229	0x3cbc286a	0.02296849
230	0xbcf36205	-0.029709825
231	0xbd7b95af	-0.061422046
232	0x3e7f7eba	0.24950686
233	0xbf3d7ece	-0.74021614
234	0x3e97bc3a	0.29635793
235	0xbe1ca8aa	-0.15298715
236	0x3b576416	0.0032866052
237	0x3d7739c0	0.06035781
238	0xbea515af	-0.32243106
239	0x3ed2c512	0.41165978
240	0xbe1df89f	-0.15426873
241	0x3e0567a7	0.13027821
242	0xbed09176	-0.40735978
243	0xbf00a07a	-0.5024487
244	0xbdc26594	-0.09492031
245	0x3d74d5b8	0.05977413
246	0xbece1db8	-0.4025705
247	0xbea2e406	-0.31814593
248	0xbe9e93fe	-0.30972284
249	0xbde97739	-0.11399693
250	0xbe897aa6	-0.26851386
251	0x3d323cb3	0.04351492
252	0xbe68e970	-0.227453
253	0x3ef5ec85	0.48032013
254	0x3eaa4310	0.3325429
255	0xbe8fbe6f	-0.28074977

network_body._body_endoder.seq_layers.0.bias f4 [128]
0	0x3a9116a1	0.0011069366
1	0x3b9cbc12	0.004783162
2	0x3c2d73e7	0.010586715
3	0xbb942586	-0.0045210747
4	0x3bb31fbc	0.0054664295
5	0xbb928d91	-0.0044724424
6	0x3c96de0e	0.01841643
7	0xbc3793e7	-0.011204696
8	0x3ca321fa	0.019913662
9	0x3b4bfc1c	0.003112561
10	0xbb461e63	-0.0030230514
11	0xbbb540db	-0.005531413
12	0x3aadacfd	0.0013250407
13	0x3c3293b0	0.010899469
14	0x3bc91f86	0.006137791
15	0xbb823df0	-0.0039746687
16	0x3bcfe556	0.0063444776
17	0x3994404f	0.00028276673
18	0xbb6c1c1c	-0.0036027497
19	0x3c85f9ef	0.01635453
20	0xbccebbaf	-0.025235979
21	0x3b855841	0.0040693586
22	0xbc08e769	-0.008355954
23	0x3c9453db	0.018106392
24	0x3cf74168	0.030182555
25	0x3c08b959	0.008344972
26	0x3d35dd22	0.04440034
27	0x3d1e99b2	0.038720794
28	0x3c6b91ca	0.014378021
29	0x3d03d233	0.032182883
30	0x3d59bddc	0.05315958
31	0xbb4399d3	-0.0029846325
32	0x3c270117	0.010193131
33	0x3c146224	0.009056602
34	0xba81e141	-0.000990905
35	0x3d0e42a3	0.03473152
36	0xbb8ba021	-0.004261032
37	0xbc207458	-0.0097933635
38	0xbb414716	-0.0029491833
39	0x3c32a970	0.010904655
40	0xbab04d16	-0.0013450708
41	0x3af65a94	0.0018795305
42	0x3b26091c	0.002533502
43	0x3cc12a3b	0.023579707
44	0x3a64e453	0.0008731533
45	0xbca2cd79	-0.019873368
46	0xbc2493e7	-0.010045028
47	0x3c990e3b	0.018683543
48	0xbc7bb671	-0.015363322
49	0x3c70466d	0.014665228
50	0xbb4469a1	-0.0029970186
51	0x3d029b52	0.031886406
52	0xbc0ace5e	-0.008472053
53	0x3b57c8ea	0.003292615
54	0x3c31dfdc	0.010856595
55	0xbb901881	-0.0043974523
56	0xbb295695	-0.002583896
57	0xbc295128	-0.010334291
58	0x3c5682bb	0.013092692
59	0x3bc04790	0.005867906
60	0x3ca45fc8	0.020065203
61	0x3c98e02c	0.018661581
62	0x3ce866e0	0.028369367
63	0xbc2a96da	-0.010411942
64	0x3a779929	0.0009445125
65	0x3c4cd91a	0.012502933
66	0x3d1327ba	0.035926558
67	0xbbcb202a	-0.0061989026
68	0x3b8495f4	0.004046196
69	0x3c85ddf9	0.016341196
70	0x3cd108ce	0.025516894
71	0xbaf33b2e	-0.0018557066
72	0xbc5fac85	-0.013651972
73	0xbbb9f04b	-0.005674397
74	0x3c2f7d80	0.010711074
75	0x3d56f65c	0.05248104
76	0x3d186ee5	0.037215132
77	0xbc353131	-0.011059091
78	0x3c9baebf	0.019004224
79	0xbd16660b	-0.03671841
80	0x3c4e937b	0.012608404
81	0xbc1b6fd2	-0.009487109
82	0xbcb93f08	-0.022613063
83	0x3d370157	0.044679012
84	0xbc8fba6e	-0.017544951
85	0xbb8f1400	-0.004366398
86	0x3b866716	0.0041016443
87	0x3d0b1387	0.03395417
88	0x3c47ecd8	0.012202464
89	0x3c58a7a9	0.013223567
90	0xbc0148cc	-0.007890891
91	0x3cae72a1	0.021294894
92	0xbb493cb2	-0.0030706343
93	0xbbec1c94	-0.007205555
94	0x3a8a67c3	0.0010559488
95	0x3a82cb5f	0.0009978822
96	0x3c866e3a	0.016409982
97	0xbaddc522	-0.0016919712
98	0x3c63bc73	0.01389991
99	0xbcdd026c	-0.026978694
100	0x3d71c005	0.059021015
101	0xbce2b9d5	-0.027676502
102	0xbad6a3ad	-0.0016375683
103	0x3b6f186b	0.003648306
104	0x3afddbbf	0.0019367858
105	0xbc1b4711	-0.009477393
106	0x3ba374a2	0.004988269
107	0x3967481e	0.00022056742
108	0xbb4612f2	-0.0030223695
109	0x3c6168d8	0.013757907
110	0x3b5b337b	0.0033447433
111	0x3ca0b8c0	0.019619346
112	0xbcaaa420	-0.020830214
113	0x3ce45cbf	0.027876256
114	0xbb5749bd	-0.0032850348
115	0x3c851f46	0.016250264
116	0x3c251ffc	0.010078426
117	0x3ab7179c	0.0013968828
118	0xbb914bde	-0.004434093
119	0xbca5d4a2	-0.020242993
120	0xbb8649a1	-0.0040981327
121	0x3a06ff52	0.000514974
122	0x3c5756d3	0.013143259
123	0xbb4268ff	-0.0029664633
124	0xbca4981f	-0.020092068
125	0xbc9a1eb0	-0.018813461
126	0x3c89083b	0.016727557
127	0x3ba2f5c1	0.004973144

network_body._body_endoder.seq_layers.2.weight f4 [128, 128]
0	0x3d2f9e90	0.042875826
1	0xbd41313f	-0.047166105
2	0x3d5f8f18	0.054579824
3	0xbb1fbe9e	-0.0024375091
4	0xbba5477f	-0.0050439234
5	0x3de2eda7	0.11080485
6	0x3baa35c0	0.005194396
7	0xbd369082	-0.044571407
8	0x3c6a4838	0.014299445
9	0xbd43c899	-0.047798727
10	0xbd7fabc1	-0.062419657
11	0xbdd86234	-0.10565606
12	0xbd96c30d	-0.07361422
13	0x3e05a050	0.13049436
14	0xbd8c9b40	-0.06865549
15	0xbdde6097	-0.10858267
16	0x3d7c2cd6	0.061566196
17	0x3b89af0a	0.0042017745
18	0xbe12d5a5	-0.14339311
19	0xbe42b65e	-0.1901488
20	0x3e0d0f7b	0.13775437
21	0xbc10e5f5	-0.0088438885
22	0x3cc9d3b4	0.02463708
23	0xbd82eef5	-0.06393234
24	0x3dae536e	0.08512007
25	0xbe3425f5	-0.17592604
26	0x3dbc1b51	0.09184898
27	0xbb4f0def	-0.0031593998
28	0xbdb1dda8	-0.08684856
29	0xbe638fd1	-0.2222283
30	0xbe20575a	-0.15658322
31	0xbd8073cd	-0.06272087
32	0x3d4a36b6	0.049368583
33	0x3c3d05ff	0.011537074
34	0xbe23af04	-0.15984732
35	0xbda3033f	-0.079596035
36	0xbcf40165	-0.029785821
37	0xbdcc7a32	-0.099842444
38	0x3dec4d91	0.11538232
39	0xbdac8953	-0.0842463
40	0xbdf961b1	-0.12176836
41	0xbdfdea27	-0.12398177
42	0xbaca98d5	-0.0015456924
43	0xbdbe7af0	-0.09300792
44	0x3e487fc2	0.19579986
45	0xbe0aa513	-0.13539533
46	0x3e355660	0.1770873
47	0xbdee40b3	-0.11633434
48	0xbddbaac8	-0.10725933
49	0x3da9d1d1	0.082919724
50	0x3d45c4ed	0.048283506
51	0x3e25c000	0.16186523
52	0xbdc8ed0c	-0.09810838
53	0xbdd8ca2e	-0.10585438
54	0xbd21eddc	-0.03953348
55	0xbe265273	-0.1624239
56	0xbdea8e93	-0.11452975
57	0xbdb3b52d	-0.08774791
58	0x3e577ca1	0.21043636
59	0xbd71c5dd	-0.059026588
60	0xbdda2425	-0.10651425
61	0xbb68fd5f	-0.0035551412
62	0xbd6cc5f9	-0.05780599
63	0x3e314aae	0.17313644
64	0x3d61c705	0.05512144
65	0x3d7768e2	0.06040276
66	0x3dabb56d	0.083842136
67	0xbc3e6e73	-0.011623013
68	0x3c04d0f2	0.008106457
69	0xbdcd384e	-0.10020505
70	0xbde19ce7	-0.11016255
71	0xbd7f895a	-0.062386848
72	0x3d9a1a65	0.075245656
73	0xbc132ee0	-0.008983344
74	0xbd10b624	-0.035329953
75	0xbb841964	-0.004031347
76	0x3e08b52b	0.1335036
77	0x3d95cb49	0.07314164
78	0x3d543478	0.05180785
79	0xbd6e18c8	-0.058129102
80	0xbd10484f	-0.03522521
81	0xbd872df8	-0.06600565
82	0x3d557d60	0.05212152
83	0xbe18f696	-0.14937815
84	0xbe317bdf	-0.1733241
85	0x3c48c5dd	0.0122542055
86	0xbdd27411	-0.10276044
87	0x3e6bfa86	0.23044786
88	0xbd47b2c4	-0.04875447
89	0x3c4c59bb	0.012472565
90	0x3dc3e8ae	0.095658645
91	0xbd8d9185	-0.06912521
92	0xbcc9c561	-0.02463025
93	0x3d6e553d	0.05818676
94	0xbcbdc1e8	-0.02316375
95	0x3cd0b238	0.025475606
96	0xbda656b2	-0.081220046
97	0xbe0b7f21	-0.13622715
98	0xbe410a4f	-0.18851589
99	0x3c55df6f	0.013053759
100	0xbcefb717	-0.029262109
101	0xbd0b1e51	-0.03396446
102	0x3e02a80d	0.12759419
103	0xbd0c7ba2	-0.034297593
104	0x3bcfbb2e	0.006339452
105	0xbd1bdfb7	-0.038055148
106	0x3da05294	0.078282505
107	0x3dce7f60	0.100828886
108	0x3d830652	0.0639769
109	0x3e03243c	0.12806791
110	0x3d49469f	0.049139615
111	0xbe05683a	-0.1302804
112	0xb96e3592	-0.00022717405
113	0xbddb2eae	-0.10702263
114	0xbd2cca77	-0.042185273
115	0xbdb30393	-0.08740916
116	0xbcba40ce	-0.02273598
117	0xbd5ca871	-0.053871576
118	0xbddac9b8	-0.10683006
119	0x3caa61dc	0.020798616
120	0xbd8d3cfd	-0.06896398
121	0x3cb8a85d	0.02254122
122	0xbd1c968d	-0.038229514
123	0xbc250c35	-0.010073711
124	0xbe268c60	-0.16264486
125	0x3de930c6	0.11386256
126	0xbda45f99	-0.08026046
127	0xbad00c03	-0.001587272
128	0x3de8d94d	0.11369572
129	0xbe07e6e5	-0.13271673
130	0xbc8fb859	-0.017543959
131	0xbdd79dd8	-0.10528153
132	0xbdf9d4bf	-0.12198781
133	0xbd000405	-0.031253833
134	0xbce432db	-0.027856281
135	0xbe383725	-0.17989786
136	0xbe5139db	-0.20432226
137	0x3cb350aa	0.02188905
138	0xbd0e95c0	-0.03481078
139	0x3dbe1e50	0.092831254
140	0x3a8cd905	0.0010745829
141	0xbe2f0990	-0.17093492
142	0xbc7d562e	-0.015462441
143	0xbd9c348d	-0.07627211
144	0x3d53d907	0.051720645
145	0xbc31782e	-0.010831876
146	0xbaea92ce	-0.0017896534
147	0xbe15d6cb	-0.14632718
148	0xbd602280	-0.0547204
149	0x3dd39a84	0.10332206
150	0xbdc1b207	-0.09457784
151	0x3c2ea886	0.010660296
152	0x3cf41b66	0.02979822
153	0x3e3368e4	0.17520481
154	0xbb86584e	-0.004099882
155	0xbdadfe80	-0.08495808
156	0x3d701283	0.058611404
157	0x3d9ee171	0.07757843
158	0xbdb7079f	-0.089370005
159	0x3d641a1b	0.05568896
160	0xbe20d9b8	-0.15708053
161	0x3dba9a5d	0.09111474
162	0x3d83ee3f	0.06441926
163	0xbe4cf7c4	-0.2001639
164	0x3d532111	0.051545206
165	0xbde09fff	-0.10968017
166	0xbd958369	-0.07300455
167	0xbcadef7c	-0.02123236
168	0x3cfecb2e	0.031102743
169	0x3dadc24f	0.08484327
170	0x3d4e0a36	0.050302707
171	0x3c765c4b	0.015036653
172	0x3c282133	0.010261822
173	0x3e0f724f	0.14008449
174	0xbcd10ce9	-0.025518851
175	0xbe147842	-0.14499
176	0x3cce6777	0.02519582
177	0xbcf18da9	-0.029486494
178	0x3c0fd884	0.008779649
179	0xbce14917	-0.027500672
180	0xbc45b962	-0.0120681245
181	0xbd25f5a5	-0.040517468
182	0x3c5fdaa3	0.013662967
183	0x3cc3e8da	0.023914743
184	0xbc16eb97	-0.009211442
185	0x3df5a06e	0.1199349
186	0x3d355dda	0.044278957
187	0x3d6de043	0.0580752
188	0xbcfb0609	-0.030642526
189	0xbcaee691	-0.021350177
190	0xbcac4c29	-0.02103241
191	0x3dc7ca42	0.097553745
192	0xbd43d570	-0.04781097
193	0x3bdd4663	0.0067527755
194	0xbdf7efab	-0.1210626
195	0x3e83b930	0.25727224
196	0x3d8a30eb	0.067476116
197	0xbe2e1c0d	-0.17002888
198	0x3b9a6e6d	0.004712871
199	0x3cebfc63	0.02880687
200	0x3aea24be	0.0017863733
201	0x3dbb333c	0.091406316
202	0x3c4fefed	0.01269148
203	0x3dfd6904	0.12373546
204	0x3c875462	0.016519729
205	0x3d58739d	0.052844632
206	0x3e5fe55c	0.21864837
207	0xbcf546e3	-0.029941028
208	0x3d85c89a	0.06532402
209	0x3db7dcad	0.089776374
210	0x3d28eacf	0.041239556
211	0xbe364bf2	-0.17802408
212	0xbd345676	-0.044027768
213	0xbd459552	-0.048238106
214	0x3d07f98b	0.033196967
215	0x3df214b3	0.11820354
216	0x3b61d1fa	0.0034457431
217	0x3ccab279	0.024743306
218	0x3d6ae8f3	0.057351064
219	0x3cdd2037	0.0269929
220	0x3e340f0c	0.17583865
221	0x3d36ea7e	0.044657223
222	0xbd42059f	-0.047368642
223	0x3d7d72b9	0.061876986
224	0x3e5e0e7f	0.21685217
225	0xbd8ae4d2	-0.06781925
226	0xbd28fd56	-0.041257225
227	0xbd135cf6	-0.035977326
228	0x3c5110cb	0.012760351
229	0x3dacc543	0.08436062
230	0xbc65340e	-0.013989462
231	0xbdc1d84d	-0.09465084
232	0xbcd35d24	-0.025801249
233	0x3a5650ee	0.00081755116
234	0xbcc5e184	-0.024155386
235	0xbd306fc6	-0.043075345
236	0xbe146997	-0.14493404
237	0xbe0326f3	-0.12807827
238	0x3c29517e	0.010334371
239	0x3e11c3d1	0.14234854
240	0xbdb92731	-0.09040678
241	0xbd72e3b6	-0.059299193
242	0xbde1a548	-0.11017853
243	0xbd1b2b2c	-0.03788297
244	0xbc83bc71	-0.016081067
245	0xbcc53f0a	-0.02407791
246	0x3ceffbfe	0.029294964
247	0x3d73c6df	0.05951583
248	0xbc3e01b9	-0.01159709
249	0x3cccfdb4	0.025023319
250	0x3d914752	0.070936814
251	0xbd18948c	-0.03725104
252	0x3e0272ae	0.1273906
253	0x3dc7fd89	0.09765155
254	0x3df552bf	0.11978673
255	0x3b8828eb	0.0041552684

network_body._body_endoder.seq_layers.2.bias f4 [128]
0	0xbc76b302	-0.015057327
1	0xba422c24	-0.000740709
2	0x3a1cc95e	0.0005980934
3	0x39de3692	0.00042383798
4	0x3c4d45b1	0.012528823
5	0x3c759e26	0.014991319
6	0x3ca08608	0.019595161
7	0xbc8c6e7a	-0.017142523
8	0xbac494b0	-0.0014997926
9	0x3cb23b6f	0.021756856
10	0xbac642da	-0.0015126124
11	0xba582376	-0.000824503
12	0x3ca06d5a	0.019583393
13	0xbc2aef66	-0.010433054
14	0x3c8520ed	0.016251052
15	0xbb65b51f	-0.0035050584
16	0xbbf7ae3c	-0.007558612
17	0x3c8228f3	0.015888667
18	0x3ab539c8	0.0013826424
19	0xbca5e5e2	-0.020251218
20	0xbc26e241	-0.010185779
21	0xbaebf1c6	-0.0018001131
22	0x3cca4de9	0.024695354
23	0xbab36182	-0.0013685676
24	0x3a8140b4	0.0009861202
25	0x3c25f39a	0.01012888
26	0x3bc626e8	0.0060471185
27	0xbba76df4	-0.005109543
28	0x3b15d60c	0.0022863178
29	0x3be895d4	0.007097939
30	0xbbf929be	-0.007603853
31	0xbc5f687e	-0.013635753
32	0xbc3a8fde	-0.01138684
33	0xbcbfc278	-0.02340816
34	0x3b86b152	0.0041104937
35	0x3bf6161b	0.0075099594
36	0x3a9c0b91	0.0011905303
37	0x3a2fdccc	0.00067086215
38	0xbc7566d6	-0.014978131
39	0xb9ebf6ff	-0.0004500672
40	0xbc3a96c6	-0.011388486
41	0x3d2d6264	0.04233016
42	0xbbe60015	-0.0070190527
43	0x3b86faa7	0.0041192356
44	0x3b34b917	0.0027576142
45	0xba951822	-0.001137499
46	0x3c84ee0c	0.01622679
47	0xbc297214	-0.01034214
48	0xbc3d7b18	-0.011564992
49	0xba886d40	-0.0010408536
50	0xbc2444cf	-0.010026171
51	0x3c6165a7	0.013757146
52	0x3cf640d1	0.030060204
53	0xbc17207f	-0.009224056
54	0x3c8011fd	0.015633577
55	0x3b177bd3	0.0023114576
56	0x3c3328f3	0.010935056
57	0xbc4ac849	-0.012376853
58	0xbc848e68	-0.016181186
59	0x3c214674	0.0098434575
60	0xbc0d16e1	-0.008611412
61	0x3b96bc7d	0.0046001063
62	0xbc0af0ec	-0.008480292
63	0xbbc2f3f8	-0.0059494935
64	0x3b3cecfa	0.0028827772
65	0xbbcc2e6e	-0.006231121
66	0x3c7bbe89	0.015365251
67	0x3c715b81	0.014731289
68	0x3c4581a4	0.0120548345
69	0x3a81aa9a	0.0009892762
70	0x3d025d89	0.031827483
71	0x3c4ee74a	0.012628386
72	0x3be9ca0a	0.0071346806
73	0xbae9c882	-0.0017836245
74	0xbc18455b	-0.009293879
75	0x3b98f32f	0.0046676616
76	0x3ca6e899	0.020374583
77	0x3c2bbd14	0.010482091
78	0x3d1c5bd3	0.038173508
79	0xbc1e237a	-0.009652013
80	0x3bc468f8	0.0059939586
81	0xbc4fc55d	-0.012681332
82	0xbc9eaa63	-0.019368356
83	0x3c05f056	0.008174976
84	0x3d39e562	0.045384772
85	0x3c0e839a	0.008698368
86	0xbbe00d14	-0.0068374965
87	0xbb8b9a46	-0.004260334
88	0x3cd7d13f	0.026344894
89	0x3ad40d8e	0.0016178356
90	0xbb946419	-0.004528534
91	0x3c368cfc	0.011142012
92	0x3bc46217	0.0059931385
93	0xb92f684c	-0.00016728154
94	0xbc10696b	-0.008814196
95	0xbb2f4eca	-0.0026749843
96	0x3c80a20f	0.015702276
97	0x3b781933	0.0037856817
98	0x3b4722d4	0.003038575
99	0x3ca6100a	0.02027132
100	0x3c82a5ab	0.015948137
101	0x3ca929fe	0.020649906
102	0xbb39d5c4	-0.0028356174
103	0xbb134e2f	-0.002247702
104	0x3c98ca0f	0.018651037
105	0xb9534d9c	-0.0002015144
106	0xbc7cd30a	-0.015431175
107	0xbc300c2e	-0.010745091
108	0xbac2b3a2	-0.001485456
109	0x3b90735a	0.004408282
110	0x3af1442f	0.0018407161
111	0x3ca12a4e	0.019673493
112	0x3b0c9bd2	0.002145518
113	0xba680cbd	-0.0008851996
114	0xbc12a28e	-0.008949889
115	0x3cabd162	0.020973865
116	0x3c3014ed	0.010747177
117	0xbc99b1dc	-0.018761568
118	0xbc572b2c	-0.013132852
119	0xbaaf2fc2	-0.0013365673
120	0x3cfbb4ed	0.03072592
121	0x3c5935d7	0.013257465
122	0xbbb1d782	-0.005427302
123	0x3c3b1217	0.011417887
124	0x3b6675ea	0.0035165497
125	0x3c4a134a	0.0123337
126	0x3cfadc59	0.030622648
127	0xbb9aff38	-0.0047301315

action_model._discrete_distribution.branches.0.weight f4 [3, 128]
0	0x3d271cb4	0.040798858
1	0x3c304e34	0.010760833
2	0xbc0758ec	-0.008260947
3	0xbb64d16a	-0.003491486
4	0xbc95e68b	-0.018298408
5	0xbc0b518c	-0.008503329
6	0xbaec8391	-0.0018044581
7	0x3c65e651	0.0140319625
8	0x3d15bc55	0.03655656
9	0xbb50d245	-0.0031863612
10	0x3ca5e1d5	0.020249287
11	0x3d0010e4	0.03126611
12	0xbc15f21f	-0.009151964
13	0x3be843ce	0.007088161
14	0x3bce5113	0.006296286
15	0x3c9511d6	0.018196981
16	0x3cec9d2a	0.028883535
17	0xbd03acb9	-0.032147143
18	0x3c4352bc	0.011921581
19	0x3bf89e8a	0.0075872587
20	0xb9ff209d	-0.0004866169
21	0xb8cbb806	-9.714071e-05
22	0xbc929791	-0.017894538
23	0x3c467f7f	0.012115358
24	0x3bac28d1	0.005253889
25	0xbc1d81df	-0.009613483
26	0x3972068f	0.00023081362
27	0x3c9a6a1a	0.018849421
28	0xbc2a4e87	-0.010394699
29	0xb9929e10	-0.00027965056
30	0x3c5b5cc1	0.0133888135
31	0x3ca1d205	0.019753465
32	0x3aa30150	0.0012436304
33	0x3a9054a0	0.0011011548
34	0xb8ebf407	-0.00011251127
35	0xbc3e9a15	-0.011633416
36	0xbc8d8658	-0.017275974
37	0xbc5a654b	-0.013329814
38	0x3cbb9335	0.022897342
39	0x3c16d475	0.009205927
40	0x3cad422b	0.021149715
41	0xbd511827	-0.051048424
42	0x3cc7089e	0.024296101
43	0xbba3df76	-0.005001004
44	0xbb5f0b89	-0.0034033975
45	0xb8e297cb	-0.000108047934
46	0xbc5fa5ab	-0.013650338
47	0x3c08709d	0.00832763
48	0x3c68fb8d	0.014220131
49	0x3b2e7817	0.0026621872
50	0x3c80fead	0.015746439
51	0x3d0f2255	0.03494485
52	0xbc7a2f50	-0.015270069
53	0x3b756399	0.0037443398
54	0x3b8d456b	0.004311254
55	0x3c33817b	0.0109561635
56	0xbca5ca45	-0.020238051
57	0x3a3429d0	0.00068726856
58	0x3ceb06c7	0.028689755
59	0x3c3c339c	0.011486914
60	0x3c254669	0.010087588
61	0xbc8f939b	-0.017526438
62	0x3c5c6a26	0.013453042
63	0x3bdf32e1	0.006811485
64	0x3c33a411	0.010964409
65	0x3c0fcada	0.008776391
66	0x3c11f1f0	0.00890778
67	0xbb6cdd2d	-0.0036142573
68	0xbc945309	-0.018106
69	0x3cd0f38b	0.025506755
70	0xbd16edb5	-0.03684779
71	0x39e2718e	0.00043190684
72	0x3c9f9059	0.01947801
73	0x3c1ec095	0.00968947
74	0x3bb69378	0.005571779
75	0xbbc9c379	-0.0061573354
76	0xbcefe0c7	-0.029281987
77	0x3c51429f	0.012772231
78	0xbd2bab5b	-0.041911464
79	0x3c948a1a	0.018132258
80	0x3d247c4c	0.0401576
81	0x3c7e0c2a	0.01550583
82	0x3c97966c	0.018504344
83	0x3ba51b7d	0.0050386772
84	0xbd23eada	-0.040018894
85	0x3cdfa4c5	0.027300248
86	0x3c62491a	0.013811374
87	0x3bc311d4	0.005953053
88	0x3b9a56e1	0.004710064
89	0x3caca975	0.021076897
90	0x3c304fd9	0.010761225
91	0x3d0cff3d	0.0344231
92	0x3d08d539	0.03340647
93	0xbb4c7925	-0.0031200137
94	0x3b8d68d1	0.0043154736
95	0x3c83a509	0.016069906
96	0x3d383164	0.044968978
97	0x3c054ba9	0.008135715
98	0x3cd56fcb	0.026054284
99	0xbcdbbfd7	-0.026824875
100	0x3c31b215	0.010845681
101	0x3bb0aa14	0.0053913686
102	0x3cb7b119	0.022423314
103	0x3a47ea55	0.0007626166
104	0xbc30bc0e	-0.010787023
105	0xbc81c7a9	-0.015842276
106	0x3bf6cb9e	0.0075315973
107	0x3caba156	0.020950954
108	0x3c9e30a1	0.019310297
109	0xb99ebf2a	-0.00030278537
110	0x3c618157	0.013763747
111	0xbc819030	-0.015815824
112	0x3c41aecf	0.011821463
113	0x3bbda504	0.0057874937
114	0x38f4d0d8	0.00011673727
115	0xbc48e303	-0.012261155
116	0xbc4b742b	-0.012417833
117	0x3b87beb7	0.004142608
118	0x3c83f970	0.016110152
119	0x3bf429b4	0.0074512605
120	0xbd3b5845	-0.045738477
121	0xbc832eb8	-0.016013488
122	0x3b6aa719	0.0035805164
123	0x3d02bca7	0.031918194
124	0x3c4e6ab7	0.012598685
125	0xbbc9318d	-0.00613994
126	0xbcc681ae	-0.024231758
127	0x3cf28c0a	0.029607791
128	0xbad7ea18	-0.0016472964
129	0x3bda72e8	0.00666653
130	0xbc80d78c	-0.01572778
131	0x3b829a1c	0.0039856564
132	0x3bfb9316	0.007677446
133	0xbbdd7bee	-0.0067591583
134	0xbc0de6dc	-0.008660998
135	0x3b3f678e	0.002920601
136	0xbaeed564	-0.0018221554
137	0xbbc99928	-0.006152291
138	0x3bc4f26f	0.0060103456
139	0xbc0a1bdf	-0.008429497
140	0xb88ba354	-6.658459e-05
141	0xbab6082c	-0.0013887933
142	0xbbfd2323	-0.007725136
143	0xbb8801a0	-0.0041505843
144	0x3c82e630	0.015978903
145	0x3c8b54a2	0.01700813
146	0x3b71f096	0.0036917082
147	0xbb415e38	-0.0029505622
148	0xbaba5bec	-0.0014218069
149	0xbb985e88	-0.004649941
150	0x3bbc9861	0.0057554697
151	0x3bcba371	0.006214552
152	0xbc09a07f	-0.008400082
153	0xb9f76fbd	-0.00047194763
154	0x3c538289	0.01290954
155	0xbc9499a9	-0.018139677
156	0x3c839ab5	0.016064981
157	0x3af4936b	0.0018659657
158	0xba76441e	-0.00093943055
159	0xbc825f48	-0.015914574
160	0xbb42c7f7	-0.002972124
161	0x3bf7e74c	0.0075654145
162	0x3bc50a33	0.0060131787
163	0xbba9fe35	-0.0051877745
164	0xbc013f68	-0.007888652
165	0xb90550cb	-0.00012713966
166	0xbb8e9287	-0.0043509635
167	0xb96c23ca	-0.00022520046
168	0xbc26c40e	-0.010178579
169	0x3c3ba81d	0.011453656
170	0x3c75d2d2	0.015003877
171	0xbbc4153d	-0.005983977
172	0xbc8bb0f9	-0.01705216
173	0x3ca92472	0.020647261
174	0xbae6f432	-0.0017620383
175	0xbbaac1b0	-0.0052110776
176	0xbca767f4	-0.02043531
177	0x3c131ab6	0.008978536
178	0xbc5f3dc4	-0.013625566
179	0xbca8bc33	-0.020597553
180	0xbcd9d23d	-0.026589507
181	0xbb7fc686	-0.0039028241
182	0x3bdadb0f	0.006678946
183	0x3bd8410b	0.0065995506
184	0xbc97c89c	-0.018528275
185	0xbb6ebef2	-0.003642973
186	0xbb21b64d	-0.002467531
187	0x3ca67a91	0.020322116
188	0x3c26d577	0.01018273
189	0xbcb9f753	-0.022700941
190	0xbc310b1e	-0.010805873
191	0xbc0fb729	-0.008771696
192	0xbc26f531	-0.010190294
193	0xbc05e665	-0.008172606
194	0xbcc59cc9	-0.024122613
195	0xbc942e0a	-0.01808836
196	0x3b46c9db	0.0030332718
197	0x3c637513	0.013882893
198	0xbb428590	-0.002968166
199	0x3b8d1cdb	0.0043064184
200	0xbc82ef51	-0.015983256
201	0x3c3fb407	0.011700637
202	0xbbb5d108	-0.0055486
203	0xbc59ed82	-0.013301255
204	0xb90c86dc	-0.0001340168
205	0xbb9b6414	-0.004742155
206	0xbc886821	-0.016651215
207	0x3c2f2929	0.010690966
208	0xbcd4348f	-0.025903968
209	0x3c2bd7aa	0.01048843
210	0xbbf73aaf	-0.0075448374
211	0x3958427a	0.0002062413
212	0xbad265fa	-0.001605212
213	0xbae5c7c5	-0.001753085
214	0xbb583e49	-0.003299611
215	0xbc1916df	-0.009343832
216	0xbc9b6b43	-0.018972045
217	0x3c843475	0.016138295
218	0xbb9f362d	-0.004858753
219	0x3c57646d	0.013146502
220	0x3bb22931	0.0054370393
221	0x3aea18c3	0.0017860163
222	0x3c9be141	0.019028308
223	0xbcad9384	-0.021188505
224	0x3c1aac21	0.009440453
225	0x3ca38a3e	0.01996338
226	0x3baf8dd1	0.005357482
227	0xb9a8bca3	-0.00032184002
228	0x3c08f0f1	0.008358226
229	0xbb5dd069	-0.0033846146
230	0xbb873783	-0.0041264906
231	0xba0523e8	-0.0005078898
232	0xbc29373f	-0.010328113
233	0xbb63d268	-0.0034762863
234	0xbc1a0d88	-0.00940264
235	0x3bb3dd40	0.0054890215
236	0xbb5e60cc	-0.0033932207
237	0x3c1e304d	0.0096550705
238	0x3aa630d1	0.0012679343
239	0x3be07182	0.0068494687
240	0x3bde9e82	0.006793798
241	0x3c36c732	0.01115589
242	0x3bf00dc1	0.0073258583
243	0x3b9db020	0.0048122555
244	0xbb6f84c8	-0.003654765
245	0xbc14170a	-0.009038696
246	0x3ca70fc7	0.020393265
247	0xbc452caf	-0.012034579
248	0x3cdb151c	0.026743464
249	0x3bb846df	0.005623683
250	0xbc12b38d	-0.008953941
251	0xb9c0f7b6	-0.00036805653
252	0x3c55fc2e	0.013060613
253	0xbbf2ff56	-0.0074156923
254	0xbb9bbfdb	-0.0047530956
255	0xbcc0b4d0	-0.023523718

action_model._discrete_distribution.branches.0.bias f4 [3]
0	0xbc632d9d	-0.0138658555
1	0xbac7bfd6	-0.0015239667
2	0x3c896282	0.016770605

action_model._discrete_distribution.branches.1.weight f4 [3, 128]
0	0xbba42119	-0.0050088284
1	0x3c63bfad	0.01390068
2	0xbb3a4da0	-0.0028427616
3	0xbb826349	-0.003979121
4	0xb9ecf2ca	-0.0004519432
5	0xbcbae78f	-0.022815494
6	0xbcbd7341	-0.023126246
7	0x3c5037f1	0.01270865
8	0x3bd0d8cc	0.0063735005
9	0xbd318abb	-0.043345194
10	0x3bc1f798	0.005919408
11	0x3cf1db14	0.02952341
12	0xbbd57d8a	-0.0065152096
13	0x3ced4685	0.02896429
14	0x3caacc3d	0.020849342
15	0x3a4b6e87	0.00077603053
16	0x3ca1aef6	0.019736748
17	0x3cc8e915	0.024525205
18	0xbc015df1	-0.0078959325
19	0x3c39896c	0.011324268
20	0x3d200ac4	0.039072767
21	0x3ba7cfd8	0.0051212125
22	0xbc88a719	-0.01668124
23	0xbb9e9ce8	-0.004840482
24	0xbb9dc58a	-0.0048148083
25	0xb96a8f17	-0.00022369284
26	0xbbef5100	-0.007303357
27	0xba9281be	-0.0011177582
28	0xbb362493	-0.0027792796
29	0x3c7f1c76	0.01557075
30	0x3bc81df7	0.0061070877
31	0x3c87c519	0.016573476
32	0x3c52c0b2	0.012863325
33	0xbb53285d	-0.0032220103
34	0x3c2ddb50	0.01061137
35	0xbc3121e0	-0.010811299
36	0x3c9209c3	0.01782692
37	0xbb85b9bc	-0.004080979
38	0x3b500e33	0.0031746745
39	0xbc85ff49	-0.016357081
40	0xbb71b95a	-0.003688416
41	0xbcd8b848	-0.02645506
42	0xbc122558	-0.008920036
43	0x3c010593	0.007874864
44	0xbc88ae41	-0.016684653
45	0x3c88cae6	0.016698312
46	0xbca0aaa7	-0.019612623
47	0xb92d80c4	-0.00016546535
48	0xbb8bc79d	-0.004265739
49	0x3c13ca6e	0.009020431
50	0x3cbb3817	0.022853894
51	0x3c447d15	0.0119927125
52	0xbd17f48e	-0.03709846
53	0x3c864211	0.016388925
54	0xbd0f46b3	-0.034979533
55	0xbc6ca657	-0.014443955
56	0x3acf2a4d	0.0015805453
57	0x3ca89322	0.02057797
58	0x3ad17d12	0.0015982708
59	0x3c0aa1de	0.008461444
60	0x3c35a1a8	0.011085905
61	0x3acaacd4	0.0015462884
62	0x3c5215cb	0.012822579
63	0x3a87dbd1	0.0010365193
64	0xba695d38	-0.00089021353
65	0x3cedd340	0.029031396
66	0xbca11015	-0.019660989
67	0x3c9cef4e	0.019157078
68	0x3be5cae7	0.0070127132
69	0xbb57c17c	-0.0032921722
70	0x3bb61a08	0.0055573024
71	0xbc43d48b	-0.01195253
72	0xbcb6286f	-0.022236077
73	0xbc9a33cb	-0.018823525
74	0xbb041af5	-0.002015767
75	0x3bd4a84c	0.006489789
76	0x3c5e9ee1	0.013587684
77	0xbcf3e23b	-0.029770961
78	0x3b480a26	0.0030523627
79	0xba7ae528	-0.000957089
80	0xbc0af4da	-0.008481229
81	0x3ca39efa	0.019973267
82	0x3c50532e	0.012715144
83	0x3cd5e9cc	0.02611246
84	0xbd486ff0	-0.048934877
85	0x3ce87283	0.028374916
86	0x3bbc4a8d	0.005746192
87	0xbcb91e97	-0.022597594
88	0xbcfdbefc	-0.030974858
89	0xbc391a5b	-0.011297788
90	0x3c43dee7	0.0119549995
91	0xbbe3033d	-0.0069278763
92	0xbbc40f4a	-0.005983268
93	0x3bd5dc65	0.006526517
94	0x3bbbe97b	0.00573462
95	0x3c71b96e	0.014753683
96	0x3c6fe679	0.014642351
97	0x3b69283b	0.0035576958
98	0x3c6c2a11	0.014414326
99	0xb90dceca	-0.00013523843
100	0xbd14560a	-0.036214866
101	0xbcd69c0d	-0.026197458
102	0xbc49b3a9	-0.012310901
103	0xbba2c9d7	-0.004967909
104	0xbc7a904c	-0.015293192
105	0x3ce22b48	0.027608529
106	0xbb607b01	-0.0034253004
107	0x3b95b23c	0.0045683663
108	0xbc6413cf	-0.013920738
109	0x3c343334	0.010998536
110	0xbc478619	-0.0121779675
111	0xbc70d6df	-0.014699667
112	0x3b66ef35	0.0035237793
113	0x3c2d5f78	0.010581844
114	0x3b976577	0.00462025
115	0x3c51c0f2	0.012802349
116	0x3af88863	0.0018961545
117	0xbab6a1b9	-0.0013933695
118	0x3bee24d7	0.0072675752
119	0x3c84a56e	0.016192164
120	0x3a0e0a93	0.0005418446
121	0x3cecd3bf	0.028909562
122	0xbc6fb5c7	-0.014630741
123	0xbc153122	-0.009105952
124	0x3d0d2fd7	0.03446945
125	0xbc7016bb	-0.014653857
126	0xbc96581f	-0.018352566
127	0x3c8029b8	0.015644893
128	0x3b3b7c97	0.0028608197
129	0x3ad7264f	0.0016414615
130	0x3c887100	0.016655445
131	0x3cbc1c94	0.022962846
132	0x3b518d29	0.0031975007
133	0x3bd60de1	0.006532416
134	0x3be8b38a	0.007101481
135	0x3c86509f	0.016395865
136	0x3c116c7e	0.008875964
137	0xbc0905da	-0.0083632115
138	0xbc8828f1	-0.016621085
139	0x3c08e0da	0.00835439
140	0xbc9b7917	-0.018978639
141	0xbc098446	-0.008393353
142	0xbc0acf13	-0.008472222
143	0x3af8ba56	0.0018976431
144	0xba419dac	-0.00073858607
145	0x3bf4a604	0.0074660797
146	0xbbf0e453	-0.007351437
147	0x3c0d4a39	0.008623653
148	0x3bc819af	0.0061065773
149	0xbb90f0a0	-0.004423216
150	0x3b0db684	0.002162368
151	0x3bf67c3b	0.0075221336
152	0xbb66f51c	-0.0035241311
153	0xbbb14ef9	-0.0054110256
154	0xbb765ee2	-0.0037593176
155	0x3c4c46da	0.012468064
156	0xbc1258ab	-0.008932273
157	0x3bc2a0ab	0.0059395633
158	0x3c3a2bdd	0.011362997
159	0x3bf12d34	0.007360125
160	0xbc077e92	-0.008269923
161	0x3b1c6395	0.0023863066
162	0x3afb5542	0.0019175189
163	0xbc781e26	-0.015143907
164	0x3bd39185	0.0064565563
165	0x3c4f1c38	0.012641005
166	0x3bf37678	0.007429894
167	0x3a684a1e	0.0008861142
168	0xbba7a651	-0.005116262
169	0xbc9f8db7	-0.019476755
170	0x3c805850	0.01566711
171	0x3c88d13d	0.016701335
172	0x3c4a2cfd	0.012339828
173	0xbb1150f7	-0.0022173503
174	0xbc4105e9	-0.011781194
175	0xbc3970dc	-0.011318412
176	0x3c6bb306	0.014385944
177	0x3c8f7716	0.01751284
178	0x3c6be527	0.014397896
179	0x3bdffcd1	0.006835558
180	0xbba301ce	-0.0049745804
181	0x3caf0de2	0.021368925
182	0xba40c118	-0.0007352992
183	0xbad53c72	-0.0016268624
184	0x3b490982	0.0030675833
185	0x3c26531b	0.01015165
186	0x3c8ebaf5	0.017423132
187	0x3c116d11	0.008876101
188	0x3c4fe106	0.012687927
189	0xbaee2f70	-0.0018172096
190	0x3c5187b0	0.012788698
191	0x3bd93722	0.006628887
192	0xbc7b41a3	-0.015335473
193	0xbbc32cf5	-0.005956287
194	0x3c132ac8	0.008982368
195	0x3bfe0cde	0.0077529987
196	0xba738df6	-0.0009290868
197	0x3b03cdf4	0.0020111771
198	0x3c85b19f	0.016320048
199	0xba189bd2	-0.0005821559
200	0x3c05dbc7	0.008170075
201	0x3a119a35	0.00055542897
202	0xbaa59e6d	-0.0012635716
203	0x3c400bfe	0.011721609
204	0xb98850e4	-0.0002600021
205	0xbb881d5a	-0.0041538896
206	0x3b4a626d	0.003088142
207	0xbbc4b93f	-0.0060035284
208	0x3bc89356	0.0061210794
209	0xbb99b6fe	-0.004691004
210	0xbc11444a	-0.008866379
211	0x3bc6bcb9	0.006064978
212	0xbc8df761	-0.017329874
213	0x3c691a00	0.01422739
214	0xbc9455db	-0.018107345
215	0x3ba6abfb	0.0050864196
216	0xbc3b8cec	-0.011447173
217	0x3b06f380	0.0020591915
218	0xbc21169b	-0.00983205
219	0x3b026e3b	0.0019902128
220	0xbc023f6f	-0.007949694
221	0xbc31ab67	-0.010844088
222	0xba080e07	-0.00051900785
223	0x3c980bb2	0.018560264
224	0x3bd0edce	0.006376005
225	0x3c41a4da	0.011819089
226	0xba770ae0	-0.0009423923
227	0xbc5615bf	-0.013066708
228	0xbc98755b	-0.018610647
229	0x3a67966d	0.0008834366
230	0x3c758f80	0.014987826
231	0x3c2b5317	0.010456822
232	0x3b86b794	0.0041112397
233	0x3c241277	0.010014168
234	0x39ad8916	0.00033099268
235	0x3af3b702	0.0018593969
236	0x3ba1f7f7	0.00494289
237	0x3c86bebc	0.016448371
238	0xbcb05bf8	-0.02152823
239	0xbbf342f7	-0.0074237543
240	0xbbbf4bc3	-0.005837889
241	0x3b06b42b	0.0020554166
242	0x3b5d0c30	0.0033729188
243	0x3c22c5ed	0.0099348845
244	0x3c0fb88e	0.008772029
245	0xbc6c834d	-0.014435601
246	0x3bbff53c	0.0058580916
247	0x3b9e2b0c	0.004826909
248	0xbc394449	-0.011307784
249	0xb9d1de13	-0.00040029045
250	0xbc3ce398	-0.011528872
251	0x3c02f92d	0.007993978
252	0xbbe72cda	-0.0070549073
253	0xbb844c48	-0.0040374137
254	0x3baafbd4	0.0052180085
255	0xbc1ff221	-0.009762318

action_model._discrete_distribution.branches.1.bias f4 [3]
0	0xbc099754	-0.008397896
1	0xbb8636bf	-0.0040958817
2	0x3c3b5bf5	0.0114354985

action_model._discrete_distribution.branches.2.weight f4 [2, 128]
0	0x3bcb9580	0.00621289
1	0xbc9da5f9	-0.019244181
2	0xbbb30659	-0.005463403
3	0xbbcb5cf5	-0.0062061497
4	0x393ae170	0.00017822324
5	0xbbea1e66	-0.007144737
6	0x3cbfa18e	0.023392465
7	0xbc1b7ab4	-0.009489704
8	0x3b08d1d2	0.0020877016
9	0x3bf79124	0.007555144
10	0x3c0cd171	0.008594857
11	0x3b3ce146	0.0028820797
12	0x3b605774	0.0034231814
13	0xbc6dd212	-0.014515417
14	0x3afddf32	0.0019368886
15	0xbc427405	-0.0118684815
16	0xbc87d796	-0.016582292
17	0x3c77235c	0.015084114
18	0xbccc1e4e	-0.024916794
19	0x3ba566b6	0.0050476445
20	0xbb33863e	-0.0027393247
21	0x3c7a4a8e	0.015276564
22	0x3c409a22	0.011755498
23	0x3c48869d	0.012239126
24	0xbc4c007b	-0.012451286
25	0x3c9efa0c	0.019406341
26	0xbc25dae3	-0.010122987
27	0xbc33b657	-0.010968766
28	0x3bd339e9	0.0064461124
29	0x3ca83ee7	0.020537807
30	0x3a24c188	0.0006284942
31	0xbc8fb95b	-0.017544439
32	0x3989bb4f	0.00026270232
33	0xbbafbca8	-0.0053630657
34	0x3c245aec	0.010031443
35	0x3b7b1456	0.0038311682
36	0x3c027014	0.007961292
37	0xbc65e1bd	-0.014030871
38	0xbbf1d086	-0.0073795943
39	0xbb20cc92	-0.0024535996
40	0x3b943bbf	0.004523724
41	0x3c820dee	0.015875783
42	0xbca3d2bf	-0.019997953
43	0xbbe1acc0	-0.0068870485
44	0x3b5164fe	0.0031951065
45	0xbb9ed91c	-0.004847659
46	0x3ab0ec78	0.0013498208
47	0xbbbf3cc9	-0.0058361036
48	0x3bc2aa51	0.0059407135
49	0x3bc6e3bd	0.006069629
50	0x3b826c15	0.0039801695
51	0xbc1e6545	-0.009667699
52	0x3b772e22	0.0037716706
53	0xbb01f26b	-0.001982833
54	0x3bffaf62	0.0078028897
55	0xbc4d66c0	-0.012536705
56	0xbc2a3948	-0.0103896335
57	0xbbd784b8	-0.0065771006
58	0xbc759ff2	-0.014991747
59	0x37fed3a8	3.037772e-05
60	0x38eb589b	0.00011222177
61	0x3c22f730	0.009946629
62	0x3bdd1865	0.006747293
63	0xbb533754	-0.0032229023
64	0x3baf7733	0.005354786
65	0x3c5f094d	0.013613057
66	0xbba6803a	-0.0050812038
67	0xbb886b7f	-0.004163205
68	0x3c1b32bb	0.009472544
69	0x3a954aad	0.0011390053
70	0x3b5cc434	0.0033686282
71	0xbbacd95e	-0.0052749356
72	0xbc409c37	-0.0117559945
73	0x3b92d13e	0.00448051
74	0xbc42914f	-0.011875465
75	0xbccb88be	-0.024845477
76	0x3a6d4a71	0.0009051925
77	0x3bf65362	0.007517264
78	0x3c40cdbd	0.011767802
79	0xbc0bac8f	-0.008525028
80	0x3b887511	0.004164346
81	0x3c9098cd	0.017650986
82	0x3bce5261	0.0062964414
83	0x3ade91b4	0.0016980679
84	0xba6b096f	-0.0008965944
85	0x3ba60b28	0.005067248
86	0xba98c551	-0.0011655485
87	0xb99be788	-0.00029736408
88	0xbb17fe3c	-0.0023192307
89	0x3c2a6754	0.010400612
90	0xbc34f1c8	-0.011043973
91	0x3c9ded36	0.01927815
92	0x3c93623f	0.017991183
93	0xbca3b5d5	-0.019984165
94	0x3c4bf5c2	0.01244873
95	0x3b871f8d	0.004123634
96	0xb90fbc25	-0.00013707632
97	0x3c81bc35	0.015836814
98	0x3a3f3f48	0.00072955014
99	0x3bda028b	0.006653135
100	0x3be59758	0.007006567
101	0x3c0baa23	0.0085244505
102	0x3b66d995	0.0035224904
103	0x3ade3e49	0.0016955818
104	0xbbed0dc4	-0.007234307
105	0xbc73f067	-0.014888859
106	0xba38cca9	-0.00070495397
107	0xbba30c11	-0.0049758037
108	0x3bcc62d9	0.0062373695
109	0xbc345a5a	-0.01100787
110	0x3c73990d	0.014868033
111	0x3c198615	0.009370347
112	0x3c9267ad	0.017871702
113	0x3bf01228	0.007326383
114	0xbb7b0855	-0.0038304527
115	0x3c1233da	0.008923495
116	0xbaeb1a67	-0.0017936946
117	0xbb38219c	-0.0028096205
118	0x3bfa4b18	0.0076383464
119	0xbbdb84b3	-0.0066991686
120	0x3c36c36e	0.0111549925
121	0xbb8e532c	-0.004343411
122	0x3b8239f9	0.003974196
123	0xbb57f8c7	-0.003295468
124	0xbb1c7f1d	-0.0023879476
125	0xbb44cec3	-0.0030030466
126	0xbb51cdb2	-0.0032013473
127	0xbab368e7	-0.001368788
128	0x3c45ca56	0.012072166
129	0x3c0a5197	0.008442304
130	0xbcb1b4b7	-0.021692617
131	0x3b8e0ab0	0.00433477
132	0xbbb09820	-0.0053892285
133	0x3c3ec736	0.011644175
134	0x3c32d93c	0.0109160505
135	0x3c710205	0.014709954
136	0xbbf88aa6	-0.0075848876
137	0x3c0813f8	0.008305542
138	0x3b825fcb	0.0039787046
139	0xbc0473fb	-0.0080842925
140	0xbbe161c5	-0.00687811
141	0x37cb4c1c	2.4234927e-05
142	0x39946d82	0.0002831035
143	0x3c218229	0.009857693
144	0x3b7703ad	0.00376914
145	0xbc4b0201	-0.0123906145
146	0xbbbaa836	-0.005696322
147	0x3c8f082e	0.017459955
148	0x3bfc9d60	0.0077091902
149	0x3c4d3bdd	0.01252648
150	0xbc0203dd	-0.007935491
151	0x3b3ba6c4	0.0028633336
152	0xbb8a399a	-0.0042182924
153	0xbbcb1b23	-0.0061983033
154	0x3ba5c681	0.005059064
155	0x3be41c06	0.0069613485
156	0xbc11f84e	-0.008909298
157	0xbc171c90	-0.009223118
158	0x3c2f8622	0.010713132
159	0x3c197c5b	0.009368028
160	0xbba9c899	-0.005181384
161	0x39233236	0.00015563596
162	0x3b98f401	0.0046677594
163	0xbcadb3a7	-0.021203829
164	0xbb893c92	-0.0041881287
165	0x3c828d02	0.015936378
166	0x3c837295	0.016045848
167	0x3bbbd57e	0.0057322374
168	0x3a1bb365	0.00059395126
169	0xbc3301d0	-0.010925725
170	0xbc253169	-0.010082581
171	0x3b78b012	0.0037946743
172	0xbc2bad4a	-0.010478327
173	0xbbce2d58	-0.0062920265
174	0xba3bc1da	-0.000716237
175	0xbb86d9ac	-0.004115304
176	0x3a6aa07a	0.00089503045
177	0xbac378b0	-0.0014913287
178	0x3abc7229	0.0014377284
179	0xbc0cac3b	-0.008585985
180	0xbc7ffe74	-0.015624631
181	0xbadce755	-0.001685361
182	0xbb479afc	-0.0030457368
183	0x3abc0980	0.0014346093
184	0xb88e979f	-6.799329e-05
185	0xbbd04754	-0.006356159
186	0xba4d13c1	-0.0007823073
187	0xbb494a88	-0.003071459
188	0x3c94e290	0.01817444
189	0xbbb66390	-0.005566068
190	0x3c9f5fb6	0.019454818
191	0x3b7d2716	0.0038628033
192	0x3b54fea6	0.0032500415
193	0x3c70a816	0.014688512
194	0xbb2ee6cf	-0.0026687866
195	0x3b81a4ee	0.0039564287
196	0xbc96d58b	-0.018412372
197	0xbaf1209b	-0.0018396558
198	0xbc04595d	-0.0080779465
199	0x3aa11746	0.0012290261
200	0xbb38805a	-0.0028152675
201	0x3b5908e4	0.0033116871
202	0xbbab062a	-0.0052192407
203	0x39d7f5f4	0.00041191245
204	0x3b91cf8f	0.0044497917
205	0x3b80a309	0.0039256853
206	0xbc3b2bed	-0.011424047
207	0xbc422479	-0.011849516
208	0x3c532fe6	0.012889838
209	0x3b35a5c0	0.0027717203
210	0xbc19f9ff	-0.009397983
211	0x3bee7bc8	0.0072779395
212	0xbc9bc8c7	-0.019016637
213	0x3c5a0176	0.013306012
214	0xbc3f8eea	-0.011691788
215	0x3bace1ab	0.005275925
216	0xbc0eef7d	-0.008724091
217	0xbc97bfa1	-0.018523993
218	0x3c35c48c	0.011094224
219	0xbc6cbd61	-0.014449448
220	0xbcb6a3ad	-0.022294844
221	0x3bda068c	0.0066536125
222	0xbc57de22	-0.013175519
223	0x3ba8224b	0.005131041
224	0xbbe2ce8a	-0.006921594
225	0x3c1c2308	0.0095298365
226	0x3bcd624a	0.0062678205
227	0xbc014b6d	-0.007891518
228	0xbb2b89e2	-0.0026174714
229	0xbc10b3ac	-0.0088319
230	0x3c75e8a4	0.015009079
231	0xbc29367f	-0.010327934
232	0x3b1f9db7	0.002435548
233	0xbc5f0d92	-0.013614075
234	0x39d720b2	0.00041032356
235	0x3ad29ac8	0.0016067857
236	0xbc3bd8e2	-0.011465283
237	0x3bfde15b	0.0077478117
238	0xbaa171fb	-0.0012317294
239	0xbbd80978	-0.0065929256
240	0x3be64ef1	0.0070284535
241	0x3c28cac3	0.010302248
242	0xbc2f9401	-0.010716439
243	0xbcc0c3fb	-0.02353095
244	0x3c375754	0.011190254
245	0xbc0578f7	-0.008146516
246	0x3c120859	0.008913123
247	0xba52539f	-0.0008023325
248	0xbc635d69	-0.013877251
249	0xbb575267	-0.0032855512
250	0xbb608b82	-0.003426284
251	0xbb90be2a	-0.0044172006
252	0xbca90ab9	-0.020634996
253	0xb9ca6284	-0.00038601842
254	0x3b6b2726	0.0035881489
255	0x3b10f474	0.0022118362

action_model._discrete_distribution.branches.2.bias f4 [2]
0	0x3aaef894	0.0013349229
1	0xbaaef89a	-0.0013349236

exp_avg f4 [128, 7]
0	0x3768a2a6	1.3866147e-05
1	0xb6fd6ea1	-7.5528665e-06
2	0xb79b9058	-1.8544655e-05
3	0x371eb14c	9.458814e-06
4	0x3733063e	1.0670685e-05
5	0x376d0c23	1.4129127e-05
6	0x00000000	0.0
7	0x36866e98	4.006386e-06
8	0x36206c2f	2.390483e-06
9	0xb6ab2d0c	-5.1014413e-06
10	0xb69dda5b	-4.7043845e-06
11	0x370861ab	8.128972e-06
12	0x3695f6f2	4.4692943e-06
13	0x00000000	0.0
14	0x37b718bc	2.1826818e-05
15	0xb6aa5230	-5.0759627e-06
16	0xb7b90d6d	-2.205997e-05
17	0x36e166b8	6.7174806e-06
18	0x37aa9595	2.0335234e-05
19	0x374311f2	1.1627084e-05
20	0x00000000	0.0
21	0xb7cda7a0	-2.451596e-05
22	0x38bbd2c7	8.956115e-05
23	0xb8b1a7a2	-8.471242e-05
24	0xb76aeb01	-1.4002203e-05
25	0x36efb140	7.1433897e-06
26	0x3934d948	0.00017247081
27	0x00000000	0.0
28	0xb9150ed6	-0.00014215274
29	0x3894f912	7.103583e-05
30	0x37b80e90	2.194129e-05
31	0x37c5b114	2.3566688e-05
32	0xb9135e1e	-0.00014054074
33	0x3915870d	0.00014260058
34	0x00000000	0.0
35	0xb780d240	-1.5356694e-05
36	0xb7bbdbec	-2.2394546e-05
37	0x39845a45	0.00025244258
38	0xb8c1b2f2	-9.236288e-05
39	0xb82811d0	-4.007091e-05
40	0xb9e788d0	-0.00044161687
41	0x00000000	0.0
42	0x37d61e59	2.552492e-05
43	0x373d2b46	1.1275353e-05
44	0x3879568c	5.944683e-05
45	0x37844f20	1.5772472e-05
46	0xb7d1615d	-2.496008e-05
47	0xb923e3e2	-0.00015629784
48	0x00000000	0.0
49	0x379f31e1	1.8977504e-05
50	0xb680d51e	-3.8395074e-06
51	0xb785c623	-1.59471e-05
52	0xb43beba8	-1.7501463e-07
53	0x37b28302	2.1280259e-05
54	0x36dce315	6.5829468e-06
55	0x00000000	0.0
56	0x39eba4bd	0.00044945432
57	0xb7b00279	-2.0981986e-05
58	0xba017eae	-0.0004939836
59	0x3890695d	6.8860805e-05
60	0x39f473de	0.00046625634
61	0x399b5b10	0.0002963175
62	0x00000000	0.0
63	0x394fa6e1	0.00019803226
64	0xb7b8c211	-2.2024878e-05
65	0xb91022a5	-0.00013745816
66	0xb809b8d3	-3.2835476e-05
67	0x39676759	0.00022068377
68	0xb7edce89	-2.8348777e-05
69	0x00000000	0.0
70	0xb94fa2ab	-0.00019801657
71	0x37d5d118	2.5488946e-05
72	0x3967457d	0.00022055763
73	0x36affccd	5.2448363e-06
74	0xb97bf543	-0.00024028592
75	0xb91333ea	-0.00014038352
76	0x00000000	0.0
77	0xb787914e	-1.6160917e-05
78	0xb77331b2	-1.4495499e-05
79	0x37fbf89d	3.0037301e-05
80	0x385e42a3	5.2990985e-05
81	0xb87d034a	-6.0322964e-05
82	0xb7f4c2ee	-2.9177838e-05
83	0x00000000	0.0
84	0xb95fa780	-0.00021329336
85	0x38c19d60	9.2322705e-05
86	0x3934de74	0.00017249008
87	0x36d936e0	6.4734922e-06
88	0xb980999a	-0.00024528505
89	0xb836e24c	-4.3602937e-05
90	0x00000000	0.0
91	0xb7214b70	-9.613912e-06
92	0x37d5c9a6	2.5485479e-05
93	0xb79d0250	-1.8716935e-05
94	0x395a8e81	0.00020843187
95	0xb929c98a	-0.00016192175
96	0x38189f00	3.6387704e-05
97	0x00000000	0.0
98	0xb8d13fbd	-9.977769e-05
99	0x381d36a5	3.748261e-05
100	0x38b2f6ac	8.5336476e-05
101	0x377c53d2	1.5039886e-05
102	0xb8f6d1a9	-0.00011769246
103	0xb7d6baba	-2.559774e-05
104	0x00000000	0.0
105	0xb734e001	-1.0780991e-05
106	0x36fe0707	7.570608e-06
107	0xb6494070	-2.9988842e-06
108	0xb6181eb4	-2.2667637e-06
109	0xb6e7790c	-6.898428e-06
110	0x37719770	1.4399979e-05
111	0x00000000	0.0
112	0x3751af2d	1.2498157e-05
113	0xb5a69c0a	-1.2413377e-06
114	0xb6dd298c	-6.59115e-06
115	0x37583c85	1.2888694e-05
116	0x35e1bc98	1.6818694e-06
117	0xb6799380	-3.7189748e-06
118	0x00000000	0.0
119	0xb9251f2f	-0.00015747243
120	0xb7521232	-1.2521212e-05
121	0x395fc111	0.0002133886
122	0xb809a919	-3.282083e-05
123	0xb93175b3	-0.00016923882
124	0xb92a6104	-0.00016248605
125	0x00000000	0.0
126	0xb9768c1a	-0.0002351258
127	0x386e6fa7	5.6847606e-05
128	0x39b12371	0.00033786477
129	0xb7d4e414	-2.5378577e-05
130	0xb994b95e	-0.0002836687
131	0xb98074ee	-0.00024501182
132	0x00000000	0.0
133	0x3929f377	0.00016207794
134	0x379d1401	1.8725174e-05
135	0xb95259bc	-0.0002006059
136	0x381cdf2e	3.740115e-05
137	0x392e74ec	0.0001663749
138	0x3920ce1d	0.00015335572
139	0x00000000	0.0
140	0xb9502f94	-0.0001985415
141	0x384f7f92	4.9471455e-05
142	0x38dc8f6d	0.000105171326
143	0xb8a7c258	-7.99938e-05
144	0xb90bd3a2	-0.00013334912
145	0x384fb36b	4.9519742e-05
146	0x00000000	0.0
147	0x37bf6cde	2.281967e-05
148	0x3885faeb	6.388671e-05
149	0xb8b26db4	-8.508135e-05
150	0xb8f41b93	-0.00011639963
151	0x3905de06	0.00012766579
152	0x38fa21dd	0.000119272365
153	0x00000000	0.0
154	0x370aea00	8.279923e-06
155	0xb66e9026	-3.554867e-06
156	0xb770e75f	-1.4358985e-05
157	0xb6b5695f	-5.406487e-06
158	0x376a8fb4	1.3980945e-05
159	0x3696be78	4.492522e-06
160	0x00000000	0.0
161	0xb898393a	-7.258584e-05
162	0xb806da8c	-3.2151627e-05
163	0x39683c7a	0.00022147773
164	0x37880c0f	1.6218079e-05
165	0xb918a4ef	-0.00014557292
166	0xb99def3c	-0.00030123617
167	0x00000000	0.0
168	0x399ef83a	0.00030321052
169	0x3857084e	5.126773e-05
170	0xb9ba965c	-0.0003558871
171	0xb8911866	-6.918683e-05
172	0x39d26496	0.00040129264
173	0x39747cec	0.0002331619
174	0x00000000	0.0
175	0x37cf7128	2.4729015e-05
176	0x38612116	5.3674994e-05
177	0x38d229ac	0.00010021342
178	0xb945fb20	-0.00018880935
179	0x38e88212	0.000110868496
180	0xb981dc56	-0.0002476896
181	0x00000000	0.0
182	0x38fb4f97	0.000119834374
183	0x37f5c0ec	2.9296112e-05
184	0xb8cf2d44	-9.8789606e-05
185	0x384ea9b6	4.9272283e-05
186	0x38ac2268	8.208008e-05
187	0x3843ad34	4.665293e-05
188	0x00000000	0.0
189	0xb88c7f29	-6.699406e-05
190	0x38307c0d	4.20772e-05
191	0x38e9b046	0.00011143139
192	0x375d452c	1.3188732e-05
193	0xb8dcf3fb	-0.000105358624
194	0xb8ab7f21	-8.177595e-05
195	0x00000000	0.0
196	0xb7c441d7	-2.339568e-05
197	0x3852b090	5.023234e-05
198	0x3741adc8	1.1544158e-05
199	0xb76bbed1	-1.4051519e-05
200	0xb792bb92	-1.74919e-05
201	0x376ae89c	1.40016455e-05
202	0x00000000	0.0
203	0x38db3180	0.00010451954
204	0xb6a261a0	-4.8393413e-06
205	0xb8238c4c	-3.899289e-05
206	0x391e34e6	0.0001508776
207	0xb79cf778	-1.8711886e-05
208	0xb7e172d4	-2.6875561e-05
209	0x00000000	0.0
210	0x398b083e	0.00026518287
211	0xb7b5df85	-2.1680966e-05
212	0xb8f49ee3	-0.000116644216
213	0x3810b1e8	3.4497963e-05
214	0x395f04bc	0.00021268701
215	0xb8e34b83	-0.00010838269
216	0x00000000	0.0
217	0x36dd90f8	6.60319e-06
218	0xb678cf03	-3.7075376e-06
219	0xb70eec84	-8.518928e-06
220	0x364d89b6	3.0627539e-06
221	0x36d4f844	6.3469943e-06
222	0x3707e3e3	8.099686e-06
223	0x00000000	0.0
224	0xb86ebce6	-5.6919547e-05
225	0x36bca8ef	5.622503e-06
226	0x38dbbd0e	0.00010477948
227	0x35b04838	1.313404e-06
228	0xb8b20789	-8.489105e-05
229	0xb9001691	-0.00012215438
230	0x00000000	0.0
231	0xb72c0150	-1.02523045e-05
232	0xb8007d76	-3.0634423e-05
233	0x3944a664	0.00018754002
234	0xb895c875	-7.142212e-05
235	0xb7882cc0	-1.6233302e-05
236	0xb99c4918	-0.00029809098
237	0x00000000	0.0
238	0x37c24aa2	2.3161356e-05
239	0x3629eaf6	2.5319728e-06
240	0xb7c9b3ee	-2.4044853e-05
241	0xb620d53c	-2.3965977e-06
242	0x37e6e3bc	2.7524184e-05
243	0x3782dd98	1.5600395e-05
244	0x00000000	0.0
245	0x38a3e22c	7.8145735e-05
246	0x388e598f	6.787769e-05
247	0xb8e321ea	-0.000108305205
248	0xb71111ec	-8.646846e-06
249	0x38c902c4	9.584942e-05
250	0x38d588e8	0.00010182132
251	0x00000000	0.0
252	0x37121aba	8.708501e-06
253	0xb798f098	-1.8231847e-05
254	0xb6cd3ba9	-6.1164214e-06
255	0x37892f45	1.6353684e-05
