results/Test1/PushButton.onnx (onnx, 82172 bytes, 11 tensors)

discrete_act_size_vector f4 [1, 3]
0	0x40400000	3.0
1	0x40400000	3.0
2	0x40000000	2.0

network_body._body_endoder.seq_layers.0.weight f4 [128, 4]
0	0x3f044ec9	0.51682717
1	0xbd5dfadb	-0.054194313
2	0xbe8b5c81	-0.27219012
3	0x3ee01ab7	0.43770382
4	0xbdd70a41	-0.10500003
5	0xbed32cc4	-0.4124509
6	0x3f10eb6c	0.56609225
7	0x3e6ab808	0.22921765
8	0x3eb8f97e	0.36127847
9	0x3eb6a553	0.35673007
10	0x3f0ccaee	0.54997146
11	0xbe40146c	-0.1875779
12	0xbf1fea46	-0.6246685
13	0xbf104c0b	-0.5636603
14	0x3e9567ab	0.29180655
15	0x3ea9ebdd	0.33187762
16	0x3e74d0d6	0.2390779
17	0x3ec518a0	0.3849535
18	0xbea3372f	-0.3187804
19	0x3e7695d8	0.24080598
20	0x3f32eb29	0.69890076
21	0xbf3248f5	-0.69642574
22	0x3ea6b1c8	0.3255751
23	0x3e3d2808	0.18472302
24	0xbd06fb1f	-0.03295433
25	0xbe622911	-0.22085978
26	0xbed40a9c	-0.41414344
27	0xbf181a3e	-0.5941504
28	0x3ea9a8d7	0.33136627
29	0xbe9679cd	-0.29389802
30	0x3ee3f0e7	0.4451973
31	0x3e91e542	0.28495222
32	0x3e296754	0.16543323
33	0xbe6fc20e	-0.2341387
34	0x3e357948	0.17722046
35	0x3e93b7a4	0.28851044
36	0xbec81fd1	-0.39086774
37	0x3c6cf7d1	0.014463381
38	0xbf0e3968	-0.55556345
39	0xbe944201	-0.28956607
40	0xbcc8b65d	-0.02450102
41	0xbe4eaebb	-0.20183842
42	0x3ed38377	0.41311237
43	0xbe7a77b6	-0.24459729
44	0x3e78550b	0.24251191
45	0x3cf581a7	0.02996905
46	0x3f362b1a	0.7115952
47	0x3d9688ed	0.07350335
48	0xbdc90552	-0.09815468
49	0xbed3fb31	-0.4140258
50	0x3e595a5d	0.21225877
51	0xbf26b9cf	-0.6512727
52	0xbe33ac9e	-0.17546317
53	0xbed04f10	-0.4068532
54	0x3ebe851c	0.3721093
55	0x3f2779d0	0.65420246
56	0x3f466dbb	0.77511185
57	0x3f0eec53	0.5582935
58	0x3f534d27	0.825396
59	0x3e326e9c	0.17425007
60	0x3ea061f9	0.31324747
61	0xbe84d1a9	-0.25941208
62	0x3eb721fb	0.35768113
63	0xbca2df4d	-0.019881869
64	0x3f0b22dd	0.5435007
65	0xbed6d4ca	-0.4195922
66	0xbef8b441	-0.48575023
67	0xbf5dd423	-0.8665182
68	0xbde44cd1	-0.11147464
69	0x3ed408d1	0.41412976
70	0xbee97cb2	-0.45602947
71	0x3e8411f8	0.2579496
72	0x3f198960	0.5997524
73	0x3e83d7b1	0.25750497
74	0xbf0a5dcb	-0.54049367
75	0x3b19b7dc	0.0023455536
76	0xbd9284ae	-0.07154213
77	0x3eed49c9	0.46345356
78	0x3f731848	0.94958925
79	0xbf47e333	-0.78081053
80	0xbf030d1d	-0.51191884
81	0xbe0008be	-0.12503335
82	0x3eccfe7a	0.400379
83	0xbf125f19	-0.5717636
84	0xbee60bff	-0.44931027
85	0xbe5313c9	-0.20613016
86	0xbf0cdda4	-0.55025697
87	0x3f64de04	0.8940127
88	0x3db616c0	0.08891058
89	0xbe352cea	-0.17692915
90	0xbdf2f3c7	-0.11862903
91	0x3df939cd	0.12169228
92	0x3e77a581	0.24184228
93	0x3ec7444c	0.38919294
94	0x3eb69711	0.3566213
95	0x3f172569	0.5904146
96	0x3fb2e702	1.3976748
97	0x3e318f51	0.17339827
98	0xbefd2843	-0.4944478
99	0xbf11e7b8	-0.569942
100	0xbf456b44	-0.771168
101	0x3ed0a8d5	0.4075381
102	0x3f9dc0e7	1.2324494
103	0xbf121ab1	-0.5707198
104	0x3e43825a	0.19092694
105	0xbefe77d5	-0.497008
106	0x3ed6e849	0.41974095
107	0x3d3e04dd	0.046391357
108	0xbf82c69c	-1.0216861
109	0xbf0edc9e	-0.55805385
110	0xbfeb96df	-1.8405417
111	0xbd7cb281	-0.061693672
112	0x3e80f594	0.2518736
113	0x3f3cb32f	0.7371091
114	0x3f827568	1.019208
115	0xbf2201a5	-0.6328376
116	0xbe376fb6	-0.17913708
117	0xbf272f35	-0.6530641
118	0x3f0c46ed	0.54795724
119	0x3f1206fc	0.5704191
120	0xbb25cfef	-0.002530094
121	0xbf196cce	-0.5993165
122	0xbe547932	-0.20749357
123	0x3dfc9806	0.12333684
124	0x3db2532c	0.0870727
125	0xbea9d482	-0.33169943
126	0x3f7e8ad6	0.99430597
127	0x3e789810	0.24276757
128	0x3f0a6491	0.540597
129	0xbe31810b	-0.17334382
130	0x3f127fc4	0.57226205
131	0x3e1c7992	0.1528075
132	0x3e826eba	0.25475103
133	0xbec619f6	-0.38691682
134	0xbd91e4be	-0.07123707
135	0xbe02f643	-0.12789254
136	0xbe3ac8b2	-0.18240622
137	0xbde4d323	-0.11173084
138	0x3f2fc88a	0.68665373
139	0x3f98c6c9	1.1935664
140	0x3eb772e2	0.35829836
141	0x3eb178e9	0.3466256
142	0x3cb425f6	0.021990757
143	0x3edc255d	0.42997256
144	0xbed4c58d	-0.4155697
145	0x3f60170d	0.8753517
146	0xbf253b60	-0.64543724
147	0xbf4fd56d	-0.81185037
148	0xbe9a4027	-0.3012707
149	0xbed1f9ec	-0.41010988
150	0x3e1337ca	0.1437675
151	0x3e80612a	0.2507413
152	0x3e998081	0.29980853
153	0xbded35d5	-0.11582533
154	0xbdd0c6c0	-0.101941586
155	0xbe18d6de	-0.14925715
156	0xbf56d3df	-0.8391704
157	0x3e41c851	0.18924071
158	0xbea58b38	-0.32332778
159	0x3f127704	0.57212853
160	0xbe29aa53	-0.1656888
161	0xbef60199	-0.48048094
162	0xbdf8b148	-0.12143189
163	0x3d8a8891	0.06764329
164	0x3efbddbb	0.49192604
165	0xbe732a92	-0.23746708
166	0x3ee78f91	0.4522672
167	0x3e344011	0.17602564
168	0x3f40a1e8	0.7524705
169	0xbeaf679a	-0.3425873
170	0xbd84f776	-0.06492512
171	0x3ecb6b04	0.39730084
172	0x3eb5e9e5	0.3553001
173	0xbf85f841	-1.0466386
174	0x3d0074b9	0.031361315
175	0xbe2c46ab	-0.16823833
176	0x3e76b458	0.24092233
177	0x3e57f774	0.2109049
178	0x3f03d090	0.51490116
179	0xbfb195de	-1.3873861
180	0xbf538b61	-0.8263455
181	0x3d5e7b28	0.05431667
182	0xbf546705	-0.82969695
183	0xbeb0f577	-0.34562275
184	0xbee879ec	-0.4540552
185	0x3f20ffd9	0.6289039
186	0xbe17f800	-0.14840698
187	0x3ced61cd	0.0289773
188	0xbf1a6d9b	-0.60323495
189	0xbf83a9ce	-1.0286195
190	0x3e3f8f43	0.18706994
191	0xbea879a4	-0.32905304
192	0x3dccdd21	0.100031145
193	0xbfcaf774	-1.5856767
194	0x3ef93d6c	0.48679674
195	0x3e862f0f	0.26207778
196	0xbdd7b710	-0.10532963
197	0x3ef8733d	0.4852542
198	0x3f37ae67	0.7175049
199	0x3c09696b	0.00838695
200	0xbf81cb70	-1.0140209
201	0x3f1b6556	0.607015
202	0x3f1d3698	0.6141143
203	0xbec2a797	-0.38018486
204	0xbeca0f9c	-0.39465034
205	0x3f427a53	0.759679
206	0x3f6c00ae	0.9218854
207	0x3f2ad2e3	0.6672804
208	0xbde79e1a	-0.11309452
209	0x3d35b04b	0.04435758
210	0xbde16ed4	-0.11007467
211	0xbe4d5839	-0.20053186
212	0x3e56a23a	0.20960322
213	0x3cdc9310	0.026925594
214	0xbeb2d8b9	-0.3493097
215	0x3f16cafc	0.5890348
216	0xbee6fdcc	-0.45115507
217	0xbecbf271	-0.39833406
218	0xbf9b8924	-1.2151227
219	0x3f0d8b55	0.5529073
220	0xbf18894e	-0.5958451
221	0x3e3c00b2	0.1835964
222	0xbeea632d	-0.4577879
223	0xbd8d8d93	-0.06911769
224	0x3f815b73	1.0106033
225	0x3e5fbc62	0.21849206
226	0xbf171581	-0.5901719
227	0x3eb34b64	0.35018456
228	0xbebf88ea	-0.37409145
229	0xbd52e21c	-0.051485166
230	0xbea1b43b	-0.31582817
231	0x3e201ef4	0.15636808
232	0x3e9cdc7c	0.30636966
233	0xbe08a144	-0.13342768
234	0xbe2655dc	-0.1624369
235	0xbc3e7156	-0.011623701
236	0x3f4976ff	0.786972
237	0xbe69f869	-0.22848667
238	0xbf19505c	-0.59888244
239	0xbd931d08	-0.07183272
240	0x3fa34f85	1.2758642
241	0xbe86836d	-0.26272145
242	0xbf39ed4a	-0.726277
243	0xbe9a38ba	-0.30121404
244	0x3dc3379b	0.0953209
245	0xbef7882c	-0.48346078
246	0x3f1d9009	0.61547905
247	0xbebe55f4	-0.37174952
248	0xbe36d8ec	-0.17856187
249	0x3e3dbfeb	0.18530242
250	0xbeb29c83	-0.34885034
251	0x3f834a7f	1.0257109
252	0x3e6e0abf	0.23246287
253	0x3d4519aa	0.04812018
254	0x3e28f4b2	0.16499594
255	0x3d1aa1e9	0.037752066

network_body._body_endoder.seq_layers.0.bias f4 [128]
0	0x3b97cdc3	0.004632683
1	0xbb893497	-0.0041871774
2	0x3a880f22	0.0010380486
3	0xbb24152d	-0.0025037036
4	0xbb082a46	-0.002077715
5	0x3b661415	0.0035107185
6	0xba45ce52	-0.0007545698
7	0xbbbe8566	-0.005814242
8	0xbb883292	-0.004156419
9	0xbba8e5aa	-0.005154331
10	0x3b1341e1	0.0022469687
11	0x3aad015e	0.001319926
12	0xbbd742e0	-0.0065692514
13	0x3aba2480	0.0014201552
14	0xbb7478b3	-0.0037303388
15	0x3aa61558	0.0012671156
16	0x3b80d11c	0.003931178
17	0x3c16641b	0.00917914
18	0xbac49faf	-0.0015001203
19	0xbabe1b2e	-0.001450395
20	0xbad9311a	-0.001657042
21	0x3af1851f	0.0018426514
22	0x3b2f6e7e	0.002676874
23	0xbacdf32d	-0.0015712731
24	0xbbb52970	-0.0055286214
25	0xba2faa0d	-0.000670106
26	0x3a0b07f2	0.0005303613
27	0x3bb58429	0.0055394364
28	0x39dc3d30	0.00042007258
29	0xbb3350e1	-0.002736144
30	0xbb57f5fb	-0.0032953012
31	0xbc2c1d03	-0.010504964
32	0x3b7c6616	0.0038512996
33	0xbb9b0999	-0.0047313687
34	0x3ac78359	0.001522164
35	0xbb78d672	-0.0037969616
36	0x3b4b5c81	0.0031030478
37	0xba4d6819	-0.0007835641
38	0x39d34774	0.00040298293
39	0x3b813575	0.00394314
40	0xbbc5b58a	-0.006033604
41	0x3bf06614	0.0073363874
42	0xbac639a2	-0.0015123377
43	0xbbf3180c	-0.007418638
44	0xba808a9e	-0.0009806936
45	0x3ab0bbdf	0.0013483724
46	0x3bd48db9	0.006486621
47	0xbb01316c	-0.0019713296
48	0x3bed8a5d	0.00724916
49	0x3ad15703	0.0015971366
50	0x3c1d6e88	0.009608872
51	0x39620c0b	0.00021557526
52	0xbb927862	-0.004469917
53	0xbb6642e3	-0.0035135082
54	0xbb8690b3	-0.004106605
55	0x3c263817	0.010145209
56	0xba12faa2	-0.0005606805
57	0xbbcdf5ee	-0.0062854206
58	0xbac8c315	-0.0015316928
59	0x3ae919f1	0.001778422
60	0x3b03a63c	0.0020088097
61	0x3b981e94	0.004642317
62	0x3b2635b5	0.0025361602
63	0x3b4d8d26	0.0031364649
64	0xbb8b90d1	-0.004259207
65	0x3af0c06c	0.0018367893
66	0xbb2a7e80	-0.0026015341
67	0x39b175af	0.00033847752
68	0xbb4ea50a	-0.0031531476
69	0x3bbad82e	0.00570204
70	0xbbb05623	-0.005381362
71	0xbb2599c5	-0.0025268656
72	0x3aef4db2	0.0018257408
73	0x3b36b473	0.0027878552
74	0xbc19b968	-0.009382583
75	0xbb803af9	-0.00391328
76	0xbb4c4dc9	-0.0031174293
77	0x3c0fe075	0.008781542
78	0xbaa3583d	-0.001246221
79	0xbc025c0a	-0.007956514
80	0x38db17a8	0.0001044714
81	0xb9784c0e	-0.00023679456
82	0x3b747935	0.003730369
83	0xbabc917a	-0.0014386617
84	0xbbd52826	-0.00650503
85	0x3ae82a42	0.0017712789
86	0x3963c654	0.0002172229
87	0x39a56798	0.00031548436
88	0xbb2a2e3d	-0.0025967502
89	0xbb8a5634	-0.004221702
90	0x3ae410e8	0.0017400058
91	0xbb8ca6e0	-0.004292354
92	0x3b093ba0	0.002094008
93	0x3ac5d360	0.0015092902
94	0x3b148e56	0.0022667847
95	0xbbac08a1	-0.005250052
96	0xbac35b2e	-0.0014904493
97	0xba9b8361	-0.0011864715
98	0xbbb9501e	-0.0056553027
99	0x3bcadad1	0.0061906357
100	0xba78904a	-0.000948195
101	0xbbfd9903	-0.0077391877
102	0x39532c8a	0.0002013912
103	0x3a9eafe1	0.0012106859
104	0x3c002b34	0.0078228
105	0x39bdf1b6	0.00036228978
106	0xbb4ec6ce	-0.0031551602
107	0x3b4aab8a	0.0030925
108	0xbb4785f7	-0.003044484
109	0x3c149b4d	0.00907023
110	0x3b455b5c	0.003011427
111	0xbb95006c	-0.0045471694
112	0xbba1921b	-0.004930747
113	0x3c0c4217	0.008560679
114	0xbbaf9a5f	-0.0053589786
115	0xbbc2f28f	-0.0059493254
116	0xbb450f07	-0.0030068771
117	0xbb5cdaa8	-0.0033699665
118	0x3aa2e4d7	0.0012427819
119	0xbc026d2c	-0.007960599
120	0xbb457f60	-0.0030135736
121	0xbb37d70e	-0.0028051767
122	0xbb91ffc4	-0.0044555385
123	0x3c1e1a67	0.0096498495
124	0xb99592c4	-0.00028528844
125	0xbbc5c6a4	-0.0060356427
126	0xba952774	-0.0011379556
127	0x3befac4d	0.007314241

network_body._body_endoder.seq_layers.2.weight f4 [128, 128]
0	0x3dcfbc92	0.10143389
1	0x3d8fc6e6	0.07020359
2	0x3e064f2f	0.13116144
3	0xbdaa4a62	-0.08314969
4	0x3dcf1a98	0.10112494
5	0x3db81a37	0.08989375
6	0x3da31fac	0.07965025
7	0x3bf96b9e	0.007611706
8	0x3dce9fcb	0.10089072
9	0xbdd63ddd	-0.10461018
10	0x3d522fe0	0.05131519
11	0x3be671cf	0.00703261
12	0x3d908273	0.07056131
13	0x3d2c4d15	0.0420657
14	0xbceb199e	-0.028698739
15	0xbc81958b	-0.015818378
16	0xbdaa16ba	-0.08305116
17	0xbdaef18b	-0.085421644
18	0x3dfa1f33	0.12212982
19	0x3e0b0b73	0.13578586
20	0xbdbda115	-0.092592396
21	0xbd54054b	-0.05176286
22	0x3d079c01	0.03310776
23	0x3da3d1ef	0.07999026
24	0x3db14f72	0.08657731
25	0x3d98bf68	0.07458383
26	0x3e27ee60	0.16399527
27	0x3d46f6b6	0.048575126
28	0xbda1acf8	-0.07894319
29	0x3e02088a	0.1269857
30	0x3d9310e9	0.0718096
31	0x3d93944c	0.0720602
32	0x3abba615	0.0014316464
33	0xbd833b5b	-0.064078055
34	0xbd89178e	-0.06693946
35	0xbde04ce0	-0.10952163
36	0xbdc878b7	-0.097886495
37	0xbe267982	-0.16257289
38	0x3d526a18	0.05137071
39	0xbdde2061	-0.108460195
40	0xbd654138	-0.0559704
41	0x3d8e50b5	0.069489874
42	0x3d151239	0.03639433
43	0x3da018dc	0.078172415
44	0xbdc8b2b8	-0.09799713
45	0x3d06a3ee	0.03287118
46	0x3db6e898	0.089310825
47	0xbdba0c3b	-0.09084364
48	0xbde74f63	-0.11294439
49	0x3da26c85	0.07930855
50	0xbe35f7fc	-0.1777038
51	0xbe302414	-0.17201263
52	0xbdf07dd3	-0.11742749
53	0xbc8efc63	-0.017454332
54	0xbc09a7a1	-0.008401782
55	0x3e07a760	0.13247442
56	0xbcb296a9	-0.021800356
57	0xbd58840d	-0.05286031
58	0xbdd79633	-0.10526695
59	0x3c28e985	0.010309582
60	0xbc3568d2	-0.011072354
61	0x3dbf24ac	0.093331665
62	0x3e07f9cd	0.13278885
63	0x3d1f6359	0.038913105
64	0xbdbd96ad	-0.09257255
65	0xbceb6ee5	-0.028739402
66	0xbd3bff65	-0.04589786
67	0x3a8f6e9c	0.0010942998
68	0x3d960790	0.07325661
69	0xbd1bef1b	-0.038069826
70	0xbd574cd0	-0.05256349
71	0x3d11faee	0.035639696
72	0x3d85f669	0.0654114
73	0x3e42737c	0.18989366
74	0xbd894dfc	-0.067043275
75	0x3c8c8870	0.017154902
76	0xbe1138d3	-0.14181833
77	0x3dacd2b7	0.08438628
78	0x3d613e50	0.054991066
79	0x3da29784	0.079390556
80	0x3e355b1e	0.1771054
81	0x3d56a888	0.052406818
82	0x3e027413	0.12739591
83	0xbdc29ae6	-0.09502201
84	0x3d6f3db9	0.058408473
85	0x3cd37a88	0.025815263
86	0x3c010a3a	0.007875973
87	0x3d7516a1	0.059836034
88	0x3ddfca53	0.10927262
89	0xbbac68f1	-0.0052615334
90	0x3d20eb46	0.039286874
91	0x3d8aad29	0.06771309
92	0xbd1de78f	-0.03855091
93	0x3c0893b2	0.008335995
94	0xbde767f0	-0.112991214
95	0x3e3f63cd	0.18690415
96	0xbd552798	-0.052039713
97	0xbe76bed1	-0.24096228
98	0xbdac9976	-0.08427708
99	0x3d87eb74	0.06636706
100	0xbe39c28b	-0.18140619
101	0x3e20d9ae	0.15708038
102	0xbd5ce764	-0.05393161
103	0x3e079526	0.1324049
104	0xbe4d2341	-0.2003298
105	0x3d560421	0.05225003
106	0x3bde3833	0.006781602
107	0x3e8da3fe	0.2766418
108	0x3d7b8944	0.061410204
109	0x3ccdcd93	0.02512244
110	0x3d0ad2e1	0.033892516
111	0xbca1782d	-0.019710625
112	0xbd252756	-0.040320717
113	0x3a304604	0.00067243003
114	0xbd3c4ee2	-0.045973666
115	0xbd125b91	-0.035731856
116	0xbd84f395	-0.06491772
117	0xbe8c6f8d	-0.27428856
118	0xbd754832	-0.059883304
119	0x3e1ed090	0.15509248
120	0xbc965fd0	-0.018356234
121	0xbd9db02c	-0.07699618
122	0x3dec7706	0.115461394
123	0xbdeb42e9	-0.114873715
124	0x3d9fd465	0.07804183
125	0xbd3f845b	-0.046757083
126	0x3d82aee6	0.063810155
127	0x3e4d7f86	0.20068178
128	0xbe10a68a	-0.1412603
129	0xbc9c7186	-0.019097101
130	0x3c85508c	0.01627376
131	0xbd738281	-0.05945063
132	0x3d617727	0.055045273
133	0x3e07551d	0.13216062
134	0x3d0fa3b7	0.03506824
135	0x3d850c47	0.06496482
136	0x3ce8d214	0.028420486
137	0xbcd41bea	-0.025892217
138	0xbd7cfa8e	-0.061762385
139	0xbb549305	-0.0032436263
140	0xbd2a670c	-0.04160218
141	0x3d928e5e	0.07156061
142	0x3d707b5c	0.058711395
143	0xbdd14ee1	-0.10220123
144	0xbda14f89	-0.07876498
145	0xbca59615	-0.020213166
146	0x3d808547	0.06275421
147	0xbd0c2640	-0.034216166
148	0xbe1f3a11	-0.15549494
149	0x3e184cbc	0.14873022
150	0x3c1970bf	0.00936526
151	0x3d242e00	0.04008293
152	0x3e1d7742	0.15377524
153	0xbae95673	-0.0017802253
154	0x3d9d5d96	0.07683866
155	0x3e10bad0	0.14133763
156	0xbd3325be	-0.043737166
157	0x3dae1422	0.08499934
158	0xbdd89165	-0.10574607
159	0xbe4d38b7	-0.20041166
160	0xbc816e99	-0.015799807
161	0xbd3b781c	-0.045768842
162	0xbcb38489	-0.021913784
163	0xbd840b31	-0.06447447
164	0x3b9e3f3b	0.004829315
165	0x3ce4aea5	0.027915308
166	0xbd9a04b7	-0.075204305
167	0xbd587403	-0.052845012
168	0xbc46af6a	-0.012126783
169	0xbd372661	-0.044714335
170	0x3ddaeb37	0.10689395
171	0x3ca517ab	0.020152887
172	0x3dbc28cd	0.0918747
173	0x3c5e46b1	0.013566659
174	0x3db23810	0.08702099
175	0x3d37ca2f	0.04487055
176	0xbe395d7b	-0.18102066
177	0xbd592910	-0.053017676
178	0xbd23ff20	-0.040038228
179	0x3cfdcfb3	0.030982828
180	0xbd2c2c2f	-0.042034324
181	0x3c98f884	0.018673189
182	0x3d85916c	0.06521878
183	0xbe00e494	-0.12587196
184	0xbe3a0e8d	-0.18169613
185	0xbdec4cb2	-0.11538066
186	0x3e1b0dc6	0.15141973
187	0xbe9dbb60	-0.30807018
188	0xbde253f5	-0.1105117
189	0x3b1a9053	0.002358456
190	0x3bee1812	0.007266053
191	0xbe07fb7b	-0.13279526
192	0x3d7d56e9	0.061850462
193	0xbc3fe730	-0.011712834
194	0x3ce395a7	0.02778132
195	0xbbe47f90	-0.0069732144
196	0x3dea639c	0.1144478
197	0x3e4c6002	0.19958499
198	0x3d066659	0.03281245
199	0xbdc4ecb9	-0.09615464
200	0x3cc900da	0.024536539
201	0x3bf426b7	0.007450904
202	0xbe0b78c8	-0.13620293
203	0x3c2d5dba	0.010581428
204	0xbd432aef	-0.047648367
205	0xbc8fe257	-0.017563982
206	0x3d34e2b7	0.044161525
207	0x3dac7434	0.084206015
208	0xbd8b1826	-0.06791715
209	0xbc750410	-0.014954582
210	0x3d852106	0.06500439
211	0x3d805343	0.06265881
212	0x3d8bec8e	0.068322286
213	0x3ba8f2aa	0.005155881
214	0x3d3e4074	0.046448186
215	0xbc988edf	-0.018622814
216	0xbcc223fe	-0.023698803
217	0x3d9cfd14	0.07665458
218	0x3d16d736	0.036826335
219	0xbbf37fae	-0.007430992
220	0x3d98b496	0.07456319
221	0xbd944e61	-0.07241512
222	0xbda3a7b2	-0.0799097
223	0xbc997b61	-0.01873559
224	0x3b37d68d	0.0028051466
225	0xbdcf0a79	-0.101094194
226	0xbcac58fe	-0.021038529
227	0x3da11cba	0.07866807
228	0xbda159f5	-0.07878486
229	0xbdd4e5fa	-0.10395427
230	0x3e5354ba	0.2063779
231	0xbddcb4ef	-0.10776698
232	0xbd94c411	-0.07263959
233	0xbb8b0dec	-0.004243603
234	0xbe1abb5a	-0.15110531
235	0xbe5d0576	-0.21584114
236	0x3d90ea02	0.070758834
237	0x3bb2c04d	0.005455053
238	0xbb582ebf	-0.0032986847
239	0xbde0749a	-0.1095974
240	0xbe0e00c5	-0.13867481
241	0xbe088edd	-0.13335748
242	0xbc17cdca	-0.0092653725
243	0xbe0e5d5c	-0.13902801
244	0x3d0fe7bf	0.03513312
245	0x3cffa933	0.03120861
246	0x3d9fdd80	0.0780592
247	0xbdf78ee0	-0.12087798
248	0x3d9fe865	0.078079976
249	0x3cc55602	0.024088863
250	0xbdc7c876	-0.09755032
251	0xbd51adc9	-0.051191125
252	0xbcc154e1	-0.023600044
253	0xb9b76363	-0.0003497853
254	0xbd6db1cd	-0.058030892
255	0x3d29ab70	0.04142326

network_body._body_endoder.seq_layers.2.bias f4 [128]
0	0xba6b5067	-0.00089765195
1	0xb967c2a8	-0.00022102392
2	0xbb7766cb	-0.0037750478
3	0x3bc0e936	0.005887176
4	0xbb3dd085	-0.0028963399
5	0xbb508dfd	-0.0031822913
6	0xb9b5a6e2	-0.00034647348
7	0x3bd63d72	0.0065380866
8	0xba897328	-0.001048659
9	0xbb8fdf05	-0.0043905997
10	0xbb8d9bc6	-0.004321548
11	0xbb6ab197	-0.0035811418
12	0xbb00df0f	-0.0019664203
13	0x3b553329	0.0032531715
14	0xbb121e70	-0.0022295974
15	0xbb46ea4a	-0.003035205
16	0xbb6fb0bc	-0.0036573848
17	0x3b3c1585	0.002869935
18	0x3a2f3423	0.0006683489
19	0x3ba1c901	0.0049372916
20	0xbb51491a	-0.003193444
21	0x3c4c564e	0.0124717485
22	0x3b0ab199	0.0021162985
23	0x3c42308d	0.011852396
24	0xbb0c7d70	-0.0021437071
25	0x3b11ab85	0.0022227478
26	0xba93c599	-0.0011274099
27	0x3a60c36e	0.0008574043
28	0x3c1b17f4	0.00946616
29	0xbb9ca5cc	-0.0047805067
30	0x3b0edf7f	0.0021800695
31	0xba8290c4	-0.0009961356
32	0xba4f21b2	-0.00079014443
33	0x39fa9870	0.0004779729
34	0xbbbd50f1	-0.0057774712
35	0xbacc47c3	-0.0015585352
36	0xbb57cbb5	-0.0032927815
37	0xbae0d897	-0.0017154393
38	0xba3d929e	-0.00072316255
39	0xba927046	-0.0011172376
40	0x3af386d0	0.0018579606
41	0xba1ddbc0	-0.000602182
42	0xbb0592b0	-0.0020381622
43	0x3b223252	0.0024749232
44	0x3a801b6d	0.0009773799
45	0x39c54721	0.00037627763
46	0xbb1533cb	-0.0022766467
47	0xba9cf8eb	-0.0011976039
48	0x3b90553c	0.004404692
49	0xbb27aaf4	-0.0025584074
50	0x3bb7daf3	0.0056108176
51	0xbb3ff800	-0.0029292107
52	0xbba9894f	-0.005173839
53	0xba11db4f	-0.00055639906
54	0x3bc52490	0.0060163215
55	0xbb71d4ce	-0.0036900523
56	0x3bdac5f4	0.00667643
57	0xbac5646e	-0.0015059838
58	0x3ba149ba	0.004922119
59	0xba862498	-0.0010234294
60	0xbbd0eeb1	-0.0063761105
61	0xbc218938	-0.009859376
62	0xbb285bdc	-0.0025689518
63	0x3b0f00d6	0.0021820567
64	0x3be12448	0.00687078
65	0x3b08fc6b	0.0020902406
66	0xbad89f2b	-0.0016526928
67	0xba704a29	-0.0009166324
68	0xbb24e134	-0.0025158646
69	0x3ae64eb4	0.0017571063
70	0x3bcee1d6	0.006313543
71	0x3b6ae5e0	0.0035842583
72	0xbc076292	-0.008263247
73	0xbb292a2b	-0.0025812488
74	0x3aec93ff	0.0018049477
75	0xb9b6ba48	-0.00034852535
76	0xbc5e19b8	-0.0135559365
77	0x3ba2dd74	0.004970247
78	0x3a5cb8e6	0.0008419886
79	0xbb963069	-0.0045834077
80	0xb9e42491	-0.00043514793
81	0xbb13d541	-0.002255753
82	0x3a73f657	0.0009306422
83	0x3adc8fe6	0.0016827553
84	0x3c32b522	0.010907443
85	0x398c0592	0.0002670703
86	0xbbb570b1	-0.0055371155
87	0xbb3c5e96	-0.00287429
88	0xb9c4614c	-0.00037456525
89	0x3b5184ca	0.0031970018
90	0x3b8ff30d	0.0043929876
91	0xbad3023d	-0.001609869
92	0xbb2cd824	-0.0026373947
93	0xbbe7fe2e	-0.007079861
94	0xbb2d7259	-0.0026465862
95	0x38f1fe10	0.00011539098
96	0xbbe56700	-0.007000804
97	0x3bd7c850	0.0065851584
98	0xbad2d3d7	-0.0016084862
99	0xbb8ed424	-0.004358785
100	0x3bfddfc8	0.007747624
101	0x39e305d9	0.0004330117
102	0x3b944562	0.0045248726
103	0xbb44c3f4	-0.0030024024
104	0xba80f9cb	-0.0009840069
105	0x3aa3a16e	0.0012484023
106	0xbacc743f	-0.0015598609
107	0x3bd71922	0.0065642754
108	0xbbd96807	-0.0066347155
109	0xbb3c3ff8	-0.0028724652
110	0x3b41dce6	0.0029581129
111	0xbc2892c5	-0.010288899
112	0x3c416f94	0.011806387
113	0xbb520716	-0.003204768
114	0xbbd1adaa	-0.006398876
115	0xbb8ab6d4	-0.0042332206
116	0x3b4fa282	0.0031682556
117	0xbb1fca22	-0.0024381955
118	0xbbbd7080	-0.0057812333
119	0x3ae22a5a	0.0017255053
120	0xbbbd6bf8	-0.005780693
121	0x3928b6c7	0.00016089818
122	0xb9d8b9de	-0.00041337212
123	0xbb012bc5	-0.0019709927
124	0x39edd1e6	0.0004536055
125	0x3bb49457	0.0055108475
126	0x3a44c7f6	0.0007506603
127	0x3b94946f	0.004534296

action_model._discrete_distribution.branches.0.weight f4 [3, 128]
0	0x3bc711d4	0.0060751233
1	0xbb95365d	-0.0045535997
2	0x3b4c7b6f	0.0031201502
3	0x3c1fc1d3	0.009750801
4	0xb8cf60a8	-9.888533e-05
5	0x3bbf4c9d	0.0058379904
6	0xbbb5bc8d	-0.0055461586
7	0x3c09f446	0.008420056
8	0x3c757901	0.014982463
9	0xbb60ec7c	-0.0034320643
10	0xbc66926c	-0.014072996
11	0xbc16faf4	-0.009215105
12	0xbcc0c56e	-0.023531642
13	0xb972a99a	-0.000231421
14	0x3b16b622	0.0022996743
15	0xbaf7f282	-0.0018916877
16	0xba2b3e75	-0.0006532439
17	0x3a9919ce	0.0011680664
18	0x3c513c4e	0.012770725
19	0xbc126a1c	-0.008936431
20	0xbbca4e91	-0.0061739166
21	0x3c202a1a	0.009775663
22	0xbb3efb68	-0.002914155
23	0x3bd55b16	0.0065111024
24	0xbc15f745	-0.009153192
25	0xbc750a09	-0.014956006
26	0xbccf9eef	-0.02534434
27	0xbb8f21cf	-0.004368044
28	0xb930df99	-0.00016867965
29	0xbb7662d8	-0.0037595537
30	0x3c9032d0	0.017602354
31	0x3aaef1f3	0.0013347253
32	0xbc8000c5	-0.015625367
33	0xbc4a739f	-0.012356668
34	0xbc7beb72	-0.015375959
35	0xbbbe7cc1	-0.0058132117
36	0xba7b0a82	-0.0009576456
37	0x3bc5618b	0.006023591
38	0x3b5fa20c	0.0034123687
39	0xbb29b8ad	-0.002589743
40	0xbbeff4ee	-0.007322899
41	0xbb683298	-0.0035430547
42	0xbba99197	-0.0051748264
43	0xba2e9edb	-0.00066612446
44	0xbbd2230f	-0.0064128707
45	0x3c06b109	0.008220919
46	0xbb91e8f3	-0.0044528185
47	0x3a0f8bfb	0.0005475876
48	0x3c70aeef	0.014690145
49	0xbc063259	-0.008190715
50	0xbc5b8546	-0.013398474
51	0xbbaf1647	-0.005343232
52	0x3aae0740	0.0013277307
53	0x3b301356	0.0026866994
54	0xbcad472a	-0.021152098
55	0xbb244b98	-0.0025069471
56	0x3c30b2ff	0.0107848635
57	0xbc0a8940	-0.0084555745
58	0x3c83ce78	0.016089663
59	0xbb6deebd	-0.003630563
60	0xbbb5e4ca	-0.0055509554
61	0xba150cec	-0.00056858244
62	0xbc61f7a7	-0.013791955
63	0xb99d532e	-0.00030007347
64	0x3b3e366a	0.0029024133
65	0xbb5124de	-0.0031912844
66	0x3b724b46	0.0036971136
67	0xbc4b4e20	-0.012408763
68	0xbb9efefa	-0.004852173
69	0x3956b15e	0.00020474705
70	0x3c45a8c0	0.012064159
71	0x3c807099	0.01567869
72	0xbb310796	-0.0027012578
73	0x3a03aae2	0.0005022717
74	0xbc3d0393	-0.011536497
75	0xbc1ad1b4	-0.009449411
76	0x3b846124	0.0040399004
77	0xbc48de5e	-0.012260048
78	0x3adda305	0.0016909546
79	0xbc58d3d8	-0.013234101
80	0xbbe4ab29	-0.0069784117
81	0x3a2f4d75	0.0006687262
82	0x3ca30555	0.019900003
83	0x3bba2784	0.00568098
84	0x3c38a810	0.011270538
85	0x3cadeb3e	0.021230336
86	0xbc475a7d	-0.01216757
87	0x393c1db7	0.00017940147
88	0xbb2d08ae	-0.0026402879
89	0x3cb4beff	0.02206373
90	0x3c01c221	0.007919819
91	0x3c156f25	0.009120737
92	0xbba306c3	-0.0049751713
93	0xbc5e7c9a	-0.013579512
94	0xbb4183f6	-0.0029528118
95	0xbc03d528	-0.008046426
96	0x3b120a61	0.0022284018
97	0x3bd1eedc	0.006406648
98	0x3c46d8fb	0.012136693
99	0x3aca9fb6	0.0015458975
100	0xbc288c9e	-0.010287432
101	0xba60b72e	-0.0008572218
102	0xba147332	-0.00056629174
103	0xbcb14e7b	-0.021643868
104	0xb96e9776	-0.00022753872
105	0xbb619ce4	-0.003442579
106	0xbc8de98f	-0.017323283
107	0x3c83a19d	0.016068274
108	0xbbf8477a	-0.00757688
109	0x3c0fd73b	0.008779342
110	0x3cab37aa	0.020900566
111	0x3c041eb5	0.008063962
112	0x3c00d5e2	0.007863494
113	0xbb442dfd	-0.0029934638
114	0xbc38e32d	-0.011284632
115	0x3c55b547	0.013043708
116	0xbc18fc1e	-0.009337453
117	0xbc6c1868	-0.014410116
118	0x3b844cf0	0.004037492
119	0x3abbb910	0.0014322121
120	0xbbba1b69	-0.005679537
121	0xba6ad4c6	-0.00089580973
122	0x3ae22ae1	0.001725521
123	0xbc167981	-0.009184242
124	0xbbf7eca4	-0.0075660516
125	0x3b5a2d8d	0.003329131
126	0xbbf0f76d	-0.007353714
127	0xbc28c5f9	-0.010301107
128	0x3bf4ce46	0.007470879
129	0x3a96df02	0.0011510553
130	0xbc03d6d9	-0.008046829
131	0xbc97b22c	-0.018517576
132	0x3bf9ff18	0.0076292865
133	0xbb79e3c4	-0.0038130144
134	0xbb21d817	-0.002469545
135	0xbbeda55f	-0.00725238
136	0xbc98249b	-0.018572142
137	0x396305ae	0.00021650523
138	0x3ba9e868	0.0051851757
139	0x3c679bcc	0.014136266
140	0x3bc51d26	0.0060154377
141	0xba1962fa	-0.00058512355
142	0x3b8c5ed9	0.0042837677
143	0xbc364c13	-0.011126536
144	0xbbb959cb	-0.005656456
145	0xbadd323e	-0.0016875935
146	0xbc969578	-0.01838182
147	0xbc48aa2f	-0.012247606
148	0x3b2c8ec8	0.0026330221
149	0xbbb3f7d1	-0.0054921885
150	0x3c03dc8f	0.008048191
151	0xbc2e1a82	-0.010626437
152	0x39e5df6a	0.0004384474
153	0x3c5c89ea	0.013460616
154	0x3c39a3c1	0.011330546
155	0x3ba9db8f	0.005183644
156	0xbbbf3583	-0.0058352365
157	0x3a89df02	0.0010518732
158	0x39311389	0.00016887313
159	0x3b71c8fc	0.0036893478
160	0xbb895eab	-0.0041921935
161	0xba961c64	-0.0011452553
162	0xbbdb58e8	-0.006693948
163	0xbbae4b9b	-0.0053190715
164	0x3c515457	0.012776456
165	0xbc8c0e91	-0.01709679
166	0x3af343f4	0.001855968
167	0x3a92e9b6	0.0011208567
168	0xbbf5c97d	-0.007500826
169	0xbbc48aa1	-0.005997971
170	0x3abf6471	0.0014602077
171	0x3b146064	0.002264046
172	0xbb5fdf4c	-0.0034160195
173	0x3c26c178	0.0101779625
174	0xbc87b85d	-0.016567403
175	0x3c4e43a3	0.012589368
176	0x3be2e6d5	0.00692449
177	0x3bc6086e	0.0060434854
178	0x3c63f36b	0.013913016
179	0x3c4ba98e	0.012430562
180	0xbb4d5438	-0.0031330716
181	0x3c028193	0.007965463
182	0xbbb5a1a9	-0.005542953
183	0xbc3f4363	-0.011673781
184	0x3bc0d7eb	0.0058851144
185	0x3b085d9e	0.0020807753
186	0xbc14ccb2	-0.009082006
187	0x3b99819e	0.004684641
188	0x3b7076df	0.0036691946
189	0x3b407b90	0.0029370524
190	0x3bae5e89	0.005321328
191	0x3c36a895	0.0111485915
192	0xbb7922da	-0.0038015158
193	0x3c5cef92	0.013484852
194	0xbafbfd53	-0.0019225277
195	0x3c25add8	0.010112248
196	0xbbb0eb45	-0.00539914
197	0x3b80e5df	0.003933653
198	0x3c1e995e	0.00968012
199	0x3c7f47fc	0.015581127
200	0xbb38d99b	-0.0028205875
201	0x3c074012	0.008255022
202	0x3c3b7d4f	0.01144345
203	0xbbcb0e39	-0.006196764
204	0x3c4cc02a	0.012496987
205	0xbb8ecd84	-0.0043579955
206	0x3c404901	0.0117361555
207	0xbc224862	-0.009904953
208	0x3aebb4d9	0.0017982974
209	0x3a5d8b79	0.0008451264
210	0xbc1730e3	-0.009227964
211	0x3b86ea38	0.0041172765
212	0xb9555dbf	-0.00020348186
213	0xba936c49	-0.0011247481
214	0x3a9eaad1	0.0012105351
215	0xbbb71692	-0.0055874074
216	0xbc1eae1f	-0.009685068
217	0x3c2978a6	0.010343706
218	0x3b1b33cb	0.0023681994
219	0x395fdbf2	0.00021348873
220	0xbbefc90e	-0.0073176688
221	0x3c06b500	0.008221865
222	0x3c6f3c1c	0.014601734
223	0xbb4c141d	-0.0031139918
224	0xbbaa8a54	-0.0052044783
225	0xbbaf61e0	-0.005352244
226	0xbbca1a50	-0.0061676875
227	0xbbe9812f	-0.0071259956
228	0xbad58cbc	-0.0016292552
229	0xbc056ce6	-0.008143639
230	0xba3714f9	-0.0006984021
231	0x3c87d35f	0.016580282
232	0xbc48c77c	-0.012254592
233	0x3b412c11	0.0029475729
234	0xbc162a35	-0.009165336
235	0xbc6d0179	-0.014465683
236	0xbb277e29	-0.0025557375
237	0xbc224c21	-0.009905846
238	0xbd0740c0	-0.033020735
239	0x3c190dcb	0.009341667
240	0xbc8febdd	-0.017568523
241	0x39cadc18	0.00038692425
242	0x3b0dd4b2	0.002164167
243	0xbbd5ed1a	-0.006528509
244	0x3b911872	0.004427963
245	0xbb4ddc68	-0.003141189
246	0xbc2a8b01	-0.010409118
247	0xbcbc6431	-0.022996994
248	0xbc2cc6af	-0.010545417
249	0x3b82f87b	0.0039969063
250	0xbc008efb	-0.007846589
251	0x3bc8ef9e	0.00613208
252	0xbb0f4540	-0.0021861345
253	0xbc37e61b	-0.011224295
254	0xbb7aa51c	-0.0038245386
255	0x3b1f2917	0.0024285966

action_model._discrete_distribution.branches.0.bias f4 [3]
0	0x3b96d3df	0.0046028937
1	0x3ac13708	0.0014741132
2	0xbba95c9c	-0.0051685106

action_model._discrete_distribution.branches.1.weight f4 [3, 128]
0	0xba977333	-0.0011554718
1	0x3c791778	0.015203349
2	0x3c0387da	0.008027995
3	0x3c90a2e9	0.017655807
4	0x3b9fdead	0.00487884
5	0x3bd93624	0.0066287685
6	0xbb7708bb	-0.0037694413
7	0xbc35ba1d	-0.011091736
8	0x3c2de35a	0.010613287
9	0xbbe5a95f	-0.007008716
10	0xbc02cd17	-0.007983468
11	0x3c1cccce	0.009570314
12	0x3b47bf9f	0.0030479205
13	0x3c669323	0.014073166
14	0xbaf5700c	-0.0018725409
15	0x3bcd973e	0.006274133
16	0xbb498d6b	-0.0030754458
17	0xbbb2f1f3	-0.0054609715
18	0xbc94ddf3	-0.01817224
19	0xbc3d8fb7	-0.011569909
20	0x3c2ac290	0.010422364
21	0x3c82eb8c	0.015981458
22	0x3b4d39a6	0.0031314879
23	0x3bfef005	0.0077800774
24	0xba96f4ec	-0.0011517084
25	0xbc4dcd08	-0.01256109
26	0xbb027940	-0.0019908696
27	0xbab6a8e6	-0.0013935834
28	0x3c16fdcb	0.009215782
29	0x3c68f73d	0.014219102
30	0xbbce0aa0	-0.0062878877
31	0x3cc4c6aa	0.024020512
32	0xbaa8d1ca	-0.0012879905
33	0x3bbb78b1	0.0057211746
34	0x3b07d7ef	0.0020728072
35	0xb96b08fa	-0.0002241469
36	0xb957d479	-0.0002058315
37	0xbc09a511	-0.008401171
38	0xbc4650e7	-0.01210425
39	0x3b6cf661	0.0036157595
40	0xbbe6a71a	-0.007038963
41	0xbbda83a2	-0.006668524
42	0x3c42ada9	0.011882224
43	0xbac6112f	-0.0015111322
44	0xbcb586d8	-0.022159025
45	0x3cbfe935	0.023426631
46	0x3c1b31aa	0.00947229
47	0x3bd9d627	0.0066478434
48	0x39f960f9	0.0004756523
49	0x3b3a4aa5	0.002842584
50	0xbc214603	-0.009843352
51	0x3c2d2b94	0.010569472
52	0x3bce13b2	0.006288969
53	0xbc11eb7c	-0.0089062415
54	0xbc11ad4c	-0.008891415
55	0x3ca338c8	0.019924536
56	0xb9a99a9e	-0.0003234939
57	0xbcd356ad	-0.025798166
58	0x3acde913	0.001570972
59	0xbc196a69	-0.009363749
60	0x3a8e0251	0.001083443
61	0x3ac3e257	0.0014944774
62	0x3c33d17d	0.010975239
63	0xbc11dcb1	-0.008902715
64	0x3be229b7	0.0069019455
65	0xbb61ad0d	-0.0034435422
66	0x3c00f2bd	0.007870373
67	0x3abef22a	0.001456802
68	0x3bd04479	0.006355819
69	0xbc58eaf6	-0.013239613
70	0xbc1c1504	-0.009526495
71	0x3c45b6c2	0.012067499
72	0xbc16c1e9	-0.009201505
73	0xbb45fbeb	-0.003020997
74	0x3c4c6fa0	0.012477785
75	0xbc64ea7f	-0.013971924
76	0xbbc45194	-0.00599117
77	0x3bbf137e	0.005831181
78	0xbc0a3a2f	-0.008436724
79	0x3c08a7f6	0.008340826
80	0x3c6fbf5d	0.014633027
81	0xba81878e	-0.0009882317
82	0xbbf976dd	-0.0076130466
83	0x3b919ef1	0.004443996
84	0x3cdf9966	0.027294826
85	0x3cbdfd2e	0.023192015
86	0xbbb7addf	-0.005605444
87	0xbc3c13a5	-0.011479293
88	0xbba7a824	-0.0051164795
89	0xbc122052	-0.008918839
90	0x3bfd12f6	0.0077232076
91	0xbbd6c419	-0.0065541384
92	0x3bcd3cbe	0.0062633445
93	0xbc0b3072	-0.008495437
94	0x3b205a3f	0.0024467853
95	0x3c8599d9	0.016308712
96	0x3c0df892	0.008665221
97	0x3b92215e	0.004459544
98	0x3bfcfd67	0.0077206376
99	0xbbced524	-0.0063120294
100	0xbb1c666e	-0.0023864764
101	0x3c0b3553	0.0084966
102	0xbbe923dc	-0.0071148705
103	0x3c09bd9a	0.008407021
104	0x3be0c00a	0.0068588303
105	0x3ac60235	0.0015106859
106	0xbc0c09d3	-0.008547264
107	0x3c303c4b	0.010756562
108	0x3abd95ef	0.0014464239
109	0xbbdd492e	-0.0067531085
110	0x3bcf56aa	0.00632747
111	0xbb3d4558	-0.0028880443
112	0x3bc06045	0.005870851
113	0xbb5b0e6c	-0.0033425344
114	0xbb0c9651	-0.00214519
115	0x3c1bbfa7	0.009506143
116	0x39bc6d6e	0.00035939686
117	0x3a855610	0.0010172743
118	0xbc421e10	-0.011847988
119	0x3bec4a81	0.00721103
120	0x3bac775a	0.0052632513
121	0x3c1778c0	0.009245098
122	0xbb9e1a36	-0.004824902
123	0x3b2fa04a	0.002679842
124	0xbc98393f	-0.018581985
125	0x3c62801f	0.013824492
126	0x3b8c23b4	0.004276717
127	0x3c578bd1	0.013155893
128	0xbc4422b4	-0.0119711645
129	0xbb44d781	-0.0030035677
130	0x3a9b4102	0.0011844935
131	0xbc90598b	-0.017620822
132	0xba441172	-0.0007479406
133	0x3c49b4ce	0.012311174
134	0xbc6bfd0a	-0.014403591
135	0xbbfb2e45	-0.007665428
136	0xbc7aab4e	-0.015299631
137	0x3c8fa048	0.017532483
138	0xbaa6db47	-0.0012730145
139	0x38800778	6.104907e-05
140	0x3b89efdb	0.004209501
141	0xbc1489d0	-0.00906606
142	0xbb0a50eb	-0.002110536
143	0xbb7ee30c	-0.0038892655
144	0xbc7f8c7a	-0.015597457
145	0xbb20490a	-0.0024457597
146	0x3c2091aa	0.009800354
147	0xbaa7054f	-0.0012742671
148	0xbb8e3361	-0.004339621
149	0xbc56f5e3	-0.013120147
150	0x3cb2f111	0.021843465
151	0xbbd7f304	-0.006590249
152	0xbb54fa89	-0.0032497963
153	0xbc59e410	-0.013299003
154	0xb9c6d9d8	-0.0003792781
155	0xbc5d3515	-0.013501425
156	0xbbdd1a34	-0.0067475084
157	0x3b3d0ec0	0.0028847903
158	0xbc202742	-0.009774985
159	0x3baab3b2	0.0052094096
160	0x3b76304f	0.0037565415
161	0xbcda754e	-0.026667263
162	0xbc5be0da	-0.013420308
163	0xbb8314e3	-0.0040002926
164	0xbc08e7b0	-0.00835602
165	0x3c72872d	0.014802736
166	0x3a5d2199	0.00084354874
167	0x3c54c312	0.0129859615
168	0x3a27cb6a	0.00064008555
169	0x3c85dab3	0.016339635
170	0xbb6d3d4d	-0.0036199868
171	0x3c1bd066	0.009510135
172	0x3c01e1ea	0.007927397
173	0xbb4bea80	-0.0031115115
174	0xbb8e0bd3	-0.0043349057
175	0xbb74f10e	-0.0037375125
176	0x3ab3bffa	0.001371383
177	0xbbcdbc5c	-0.0062785577
178	0xbb665eb5	-0.0035151665
179	0x3b0a57e9	0.0021109527
180	0xbc56e565	-0.013116215
181	0x3c54fc1d	0.012999562
182	0xbc3fa95d	-0.011698094
183	0xbba66cb3	-0.005078876
184	0x3af3501a	0.0018563301
185	0xbb90d7a1	-0.004420236
186	0xbb131e1c	-0.0022448367
187	0xbc47c57b	-0.012193079
188	0x3a594617	0.0008288337
189	0x3b781063	0.0037851564
190	0x3b97d2e7	0.004633296
191	0xbb2cd790	-0.0026373602
192	0x3bcabc23	0.0061869784
193	0x3bff8ff4	0.007799143
194	0xbc9fb3c2	-0.019494895
195	0x3b89cf1f	0.004205599
196	0x3c2ce72e	0.010553164
197	0x3ba63951	0.0050727506
198	0xbc05ecd0	-0.008174136
199	0xbc6ae50b	-0.014336835
200	0xbc2fcfe3	-0.010730716
201	0xbb9aa1fe	-0.004719018
202	0xbb45123b	-0.003007068
203	0x3c1e0a3a	0.009645993
204	0x3accb917	0.0015619126
205	0x3c2505f8	0.010072224
206	0x3c10454c	0.008805584
207	0x3ba135c3	0.004919739
208	0x3c3b94e8	0.011449076
209	0x3c3e6146	0.0116198715
210	0x3beb74e7	0.0071855667
211	0x3c3f6f8b	0.011684309
212	0xbba709d7	-0.0050976085
213	0x3b136721	0.002249189
214	0x3c231cd5	0.009955605
215	0xbbe87d4f	-0.007095016
216	0x3b425215	0.0029650975
217	0xbb7873ab	-0.003791074
218	0xbace472c	-0.0015737764
219	0x3c0cc06e	0.008590801
220	0x3c28c327	0.010300434
221	0x3be23cca	0.0069042193
222	0xbb1d6552	-0.002401669
223	0xbc8fa949	-0.017536776
224	0x3c3eb616	0.011640092
225	0x3c420ea2	0.011844309
226	0xba207649	-0.00061211415
227	0xbb811f62	-0.0039405087
228	0xbc015e05	-0.007895951
229	0xbb06ba68	-0.0020557884
230	0xbb71eece	-0.003691602
231	0xbb126d9c	-0.0022343164
232	0x3b087b9e	0.0020825635
233	0x3c4ecd4b	0.012622188
234	0x3c9e0977	0.019291623
235	0xbc579ebc	-0.013160404
236	0xbb9fee74	-0.0048807207
237	0x3b5c70bd	0.0033636533
238	0xbb9c6163	-0.0047723516
239	0x3b794525	0.0038035598
240	0xba487950	-0.00076474715
241	0xbb890563	-0.0041815504
242	0x35e7d5c0	1.7273051e-06
243	0x3bc76f2c	0.0060862508
244	0x3c23c15c	0.009994831
245	0x3be46a48	0.0069706775
246	0x3ba8405f	0.0051346268
247	0x3b57ed45	0.003294782
248	0x3b8d9894	0.0043211672
249	0xbbca7910	-0.0061789826
250	0x3cbbab49	0.022908824
251	0x3bc66730	0.0060547814
252	0x3c37e2a6	0.011223471
253	0xbad575d3	-0.0016285725
254	0xbc3d35f8	-0.011548512
255	0xbcb2140a	-0.021738071

action_model._discrete_distribution.branches.1.bias f4 [3]
0	0x3a96b9b8	0.001149944
1	0xba70ed83	-0.00091906654
2	0xb99739ef	-0.00028844128

action_model._discrete_distribution.branches.2.weight f4 [2, 128]
0	0xbb3cee05	-0.0028828394
1	0x3ad7d04e	0.0016465278
2	0x3bbb21dc	0.0057108235
3	0xb9fc5522	-0.00048128614
4	0x3c8a238c	0.016862653
5	0xbb80d75d	-0.0039319233
6	0x3bb9db51	0.0056718965
7	0xbbb4490d	-0.0055018724
8	0xbcad62cb	-0.021165272
9	0x3bfd3d52	0.007728257
10	0x3b8cb73c	0.004294304
11	0x3b580a17	0.0032964998
12	0x38a07a2e	7.652152e-05
13	0xbb9b2a74	-0.0047352854
14	0xb8d45465	-0.000101246675
15	0xbb4e728e	-0.0031501385
16	0xbc92aeed	-0.017905677
17	0xbb7feb26	-0.0039050072
18	0xb941f921	-0.00018498722
19	0x3c11310b	0.00886179
20	0xbb1f1491	-0.0024273733
21	0xbc0d3f46	-0.008621043
22	0xbc693f71	-0.014236317
23	0xbc451840	-0.012029707
24	0x3b841459	0.004030746
25	0xbb38b94e	-0.0028186622
26	0xba06012d	-0.00051118695
27	0xbbd107ad	-0.006379089
28	0x3b670c78	0.0035255235
29	0x3c7dfa64	0.015501592
30	0x3b7a94d0	0.0038235672
31	0x3c918c92	0.017767224
32	0x3c58204f	0.013191297
33	0xbbcc4995	-0.0062343576
34	0xb752aff5	-1.2557944e-05
35	0xbb21a140	-0.0024662763
36	0xbabcfa1a	-0.0014417798
37	0x3bfa93c7	0.007647011
38	0x3c2e62b5	0.010643651
39	0x3b369e9c	0.0027865535
40	0xbc4758b3	-0.012167144
41	0xbb0dc29a	-0.0021630884
42	0xbb93117a	-0.0044881674
43	0xbbd03e0c	-0.006355053
44	0xbc122898	-0.008920811
45	0x3c453429	0.012036362
46	0x3b8af9a1	0.004241184
47	0xbba16561	-0.0049254154
48	0xbc446f97	-0.011989496
49	0x3bdfb7ce	0.006827331
50	0x3c628624	0.013825927
51	0x3c3fd307	0.011708028
52	0xbb2ce8f9	-0.002638398
53	0x3c19f0ae	0.009395761
54	0xbba40eb3	-0.005006635
55	0x3c9f04e7	0.019411517
56	0xbc769f24	-0.0150525905
57	0xbba3e8bf	-0.0050021107
58	0xbbb232e5	-0.005438196
59	0xba7afbb4	-0.000957425
60	0xbc17cc29	-0.009264984
61	0xbaf024af	-0.001832148
62	0x3c414229	0.011795559
63	0x3c17ce90	0.009265557
64	0x3c7bfe9d	0.015380529
65	0xbc094630	-0.00837855
66	0x3c21baf2	0.009871231
67	0xba2d93d6	-0.00066214555
68	0xbc860261	-0.016358556
69	0xbad58449	-0.0016290034
70	0x3b2fdceb	0.0026834558
71	0x3b8f9f6d	0.0043830187
72	0xbb28178a	-0.0025648796
73	0xbb9625cb	-0.004582142
74	0xbbc733b6	-0.0060791625
75	0xbb41e41d	-0.002958543
76	0xb792e37c	-1.7510487e-05
77	0x3b7c19e8	0.003846759
78	0x3b595ca2	0.0033166786
79	0x3a725f23	0.0009245744
80	0x3b9ea6b4	0.00484165
81	0x3b71346c	0.0036804928
82	0x3c4bfcd0	0.012450412
83	0x3bd86554	0.006603876
84	0xbb9df58e	-0.004820532
85	0x3b9e965a	0.0048397006
86	0xbc3d00ec	-0.011535864
87	0xbc25395b	-0.010084475
88	0x3c03617d	0.0080188485
89	0x3bdaae01	0.006673575
90	0xbb1f9efb	-0.0024356234
91	0xbba3c24e	-0.004997528
92	0xbb32f511	-0.0027306715
93	0xba6d2eb5	-0.00090477924
94	0x3c88aeaa	0.016684849
95	0xbc2d99ee	-0.010595782
96	0x3c2f5a36	0.01070266
97	0xbbf306e7	-0.0074165943
98	0x3ba785da	0.005112392
99	0x3b453fd0	0.003009785
100	0xbbb96dee	-0.0056588566
101	0xbc1d3067	-0.00959406
102	0xbc3a5e1e	-0.011374978
103	0xba1d7749	-0.00060068496
104	0xbbb53f6e	-0.005531243
105	0x3b8eed9c	0.0043618213
106	0xb9a4e4ca	-0.0003145098
107	0xbbf9a6cc	-0.0076187607
108	0xbba8c58f	-0.005150504
109	0x3b1c4619	0.0023845492
110	0x3c2394b7	0.009984187
111	0x3c2631fd	0.010143754
112	0xbc375837	-0.011190466
113	0xbc87e7c9	-0.016590016
114	0x3a92ed4a	0.0011209634
115	0x3912b27b	0.00013990134
116	0xbb69c57d	-0.003567069
117	0xba17adc2	-0.0005786085
118	0xba1aa9c7	-0.00058999326
119	0xbb8d7ca7	-0.0043178382
120	0x3b213a1e	0.002460129
121	0xbc5aca45	-0.013353889
122	0x3b9de0dd	0.0048180656
123	0x3b236d94	0.002493714
124	0xb8be23be	-9.0665635e-05
125	0xbb6564cd	-0.003500271
126	0xbb885f62	-0.004161761
127	0x3b06b519	0.002055472
128	0x3b9a32f6	0.004705782
129	0xbc593088	-0.0132562
130	0x3b2b076d	0.0026096955
131	0x39f729c1	0.0004714262
132	0xbba9610d	-0.00516904
133	0xbbc608b5	-0.0060435184
134	0xb902e4e3	-0.00012483033
135	0x3a72e22a	0.00092652685
136	0xb76f1e16	-1.4252515e-05
137	0xbc49c916	-0.012316009
138	0x3b3d28d7	0.0028863454
139	0xbb73b1b3	-0.0037184774
140	0x3cd9fe32	0.026610468
141	0xbc01e345	-0.00792772
142	0xbc0335e6	-0.008008456
143	0x3b2957dc	0.0025839722
144	0xbca6666f	-0.020312516
145	0xba932b16	-0.001122805
146	0x3cac5341	0.021035792
147	0x3c0af2f4	0.008480776
148	0xbab44c23	-0.0013755601
149	0xba01e22b	-0.0004954661
150	0x3b6fd662	0.0036596288
151	0xbbb0c8c0	-0.005395025
152	0xbaabb20a	-0.0013099324
153	0xbc03d1fa	-0.008045668
154	0xbc748b4d	-0.01492579
155	0xbbccfe29	-0.006255884
156	0x3b3cd4e2	0.0028813411
157	0x3c3a8713	0.011384743
158	0xba17b36d	-0.00057869294
159	0xbb51e373	-0.003202644
160	0x3b51c063	0.003200554
161	0xbc1a2eb9	-0.009410554
162	0x3be06ede	0.006849154
163	0xbbbb8da7	-0.0057236734
164	0xbc40a0f6	-0.011757126
165	0xbc38f55e	-0.011288969
166	0xbb9414c8	-0.004519079
167	0xbbaf301d	-0.0053463117
168	0x3b972996	0.0046131117
169	0x3bc80bb7	0.006104912
170	0xba6dcc02	-0.0009071232
171	0xbaeaf88e	-0.0017926858
172	0x3cb1b074	0.021690585
173	0xbab308c0	-0.0013659224
174	0xbc4bbf3d	-0.0124357315
175	0x3accc3e2	0.0015622342
176	0xbb3e46ac	-0.0029033823
177	0xbbc65917	-0.006053101
178	0x3bfe5029	0.0077610207
179	0x39271ef0	0.00015937886
180	0x3a923888	0.0011155764
181	0x3bc1c4c0	0.005913347
182	0x3b9535e9	0.0045535457
183	0xbc43e3ff	-0.011956214
184	0xbbf44075	-0.007453973
185	0x3a9afbbf	0.0011824294
186	0x3b87df0a	0.0041464614
187	0x3b5a37ab	0.003329734
188	0xbc9bdcdd	-0.019026214
189	0xbbaeb1d4	-0.0053312574
190	0x3bfe8af3	0.007768029
191	0xbc8e0c26	-0.017339777
192	0x3ba12e08	0.0049188174
193	0x3b9cab78	0.004781183
194	0xbbaba2e5	-0.0052379244
195	0xba6c721b	-0.00090196886
196	0x3c752603	0.014962676
197	0x3c8584fc	0.016298763
198	0x3c1e5b62	0.009665342
199	0x3bfd2c97	0.007726263
200	0xbc0608ab	-0.008180778
201	0x3c1357b7	0.008993081
202	0xba84cd1b	-0.0010131927
203	0xbae67af4	-0.001758425
204	0xbcb34e03	-0.021887785
205	0x3b718b4c	0.003685671
206	0xbb2ea723	-0.0026649914
207	0x3b33125c	0.0027324175
208	0x3bd09fb1	0.006366693
209	0x3c0e75cd	0.008695078
210	0xbc4c30fe	-0.0124628525
211	0x3a4a843c	0.0007725393
212	0xbb212067	-0.0024585964
213	0xbc046cae	-0.008082552
214	0xbad48255	-0.0016213158
215	0xbc890da8	-0.016730145
216	0xbaa591e9	-0.0012631986
217	0x3b1c0cb9	0.0023811294
218	0x39e13f78	0.00042962632
219	0x3c579224	0.013157401
220	0x39d8f388	0.00041380175
221	0xbc410330	-0.011780545
222	0x3c06d2c6	0.008228963
223	0x3b863fa2	0.004096941
224	0xbb722dca	-0.0036953562
225	0xbbf7c19d	-0.0075609223
226	0xb9855982	-0.00025434425
227	0x3c40012b	0.011719028
228	0xbafcfe20	-0.0019301809
229	0xbc21a531	-0.009866045
230	0xba0e43d4	-0.00054269773
231	0xbc37e9eb	-0.011225204
232	0x3b98448d	0.0046468438
233	0x3b60f188	0.0034323651
234	0xb9b6ce5c	-0.00034867495
235	0xbae4558d	-0.0017420516
236	0x3c2744c7	0.010209269
237	0xbbf25bb6	-0.0073961867
238	0x3c7b5bef	0.015341743
239	0x3b6b9551	0.0035947154
240	0x3c61fc88	0.013793118
241	0xbc68ff8a	-0.0142210815
242	0xbb4fc487	-0.0031702833
243	0xbb2babc5	-0.0026194912
244	0x3c0a693a	0.0084479395
245	0xbc69bf5e	-0.014266817
246	0xbc4af986	-0.012388593
247	0x3b73b054	0.0037183957
248	0xbbc76a70	-0.0060856864
249	0x3bb44c63	0.00550227
250	0x3b0a460b	0.0021098878
251	0xbc30a195	-0.010780712
252	0x3b8df228	0.004331846
253	0xbbc0e945	-0.005887183
254	0x3c341e78	0.010993592
255	0x3b5ffa8c	0.0034176437

action_model._discrete_distribution.branches.2.bias f4 [2]
0	0xbb59bee0	-0.0033225343
1	0x3b59bedf	0.003322534
