Assets/ML-Agents/results/test3/CatchTheMouse/checkpoint.pt (torch, 150626 bytes, 16 tensors)

discrete_act_size_vector f4 [1, 3]
3.0 3.0 2.0
00000000: 0000 4040 0000 4040 0000 0040

network_body._body_endoder.seq_layers.0.weight f4 [128, 3]
-0.23071837 -0.3266083 -0.2854731 -0.36082074 0.38297147 -0.05873023 -0.46221605 -0.14808105
-0.8386516 0.1796896 0.6000144 0.5370162 0.54231 -0.2325226 0.110767685 -0.64085007
0.9423958 -0.7113067 0.29655486 -0.26297858 -0.5523302 0.63697326 -0.6989022 0.88241893
-0.34138384 0.34528178 -0.12796608 -0.3776955 0.6048151 -0.11511421 0.5609321 0.38578868
0.8380295 0.40782592 -0.3721994 1.0149463 0.028840108 -0.23509414 0.18139623 0.12045231
-0.5616834 0.7714654 0.77852917 0.15588503 -0.2531879 0.43880102 0.2073166 -0.024344139
-0.06817152 -0.21033388 -0.0025839473 0.74492955 0.01012941 -0.074973896 0.34117916 -0.24364999
0.006613835 -0.5896595 0.8512485 0.6378394 -0.32007688 -0.6154517 0.58967996 -0.11579357
0.34759212 0.083117 0.43099207 -0.88689846 -0.2152107 -0.7129571 0.32642996 0.512837
0.35613444 -0.47757378 -0.35804644 -0.52907085 0.5009384 -0.40123266 0.3323788 0.24804588
0.7189619 0.0113320835 -0.7795457 -1.2958658 0.21358463 -0.52377117 1.5950888 -0.4531062
1.2148461 -0.3588809 0.8773365 -0.047873054 -0.37559417 0.23656699 0.65990907 0.052579496
0.037513096 -0.61194444 -0.15847243 -1.5749378 0.8093662 -0.03885381 -0.26096633 0.5649652
1.0835637 0.44560218 0.24291496 -0.19988137 -0.5824328 -0.16172218 0.42451438 -0.7959153
0.12247584 -0.74384874 0.41474995 -0.7796359 -0.16497752 -0.079765186 0.28394508 -0.29366115
0.05363495 -1.168727 0.4573265 -0.69321114 -0.0014791981 0.299875 -0.08406908 -0.20789695
-0.79520684 0.71201605 0.34917128 0.056707 1.0034813 -0.59131 -0.5497975 0.14036469
0.2681984 0.46892557 -0.52537394 0.96357983 -0.64394677 -0.22300513 0.8649181 0.6647348
-0.6906196 -0.3658644 0.42108333 -0.25830784 0.36547366 -0.1553259 -0.47103038 -0.7136872
0.014303557 -1.1084669 0.41660964 0.14635357 0.010394981 0.41930124 0.23898104 0.4549661
-0.28559026 0.41381705 0.41681457 0.24419476 0.047488946 -0.56385463 0.104539 0.2936931
-0.37263334 1.4202725 -0.7723471 -0.10348868 -0.6660858 0.8101762 0.74435574 0.9140824
0.65307754 0.1299845 -0.44370538 0.5359349 0.30747223 0.35581076 0.7080538 0.58865345
-0.59504783 -0.43367323 0.44092658 -1.046746 0.13839579 -0.3090619 0.37140056 -1.2888473
1.0602772 0.12213718 -0.30381563 0.062456943 -0.18394338 0.047278687 -0.42394772 0.6864584
-0.36080405 1.1041939 1.0400207 -0.21989703 -0.095333815 0.08815791 0.7217671 0.62674814
0.68700224 -0.1850458 -0.4497479 0.31432903 0.20507821 -0.5362498 -0.018816853 0.10655582
-0.80308235 0.691186 -0.65135205 -0.010865294 -0.3937722 -0.119152844 -0.6434711 0.16433807
-0.045921214 0.13423729 0.097362325 -0.198723 0.58636934 -0.36916184 -0.39134875 -1.1020076
-0.14898045 -0.8583101 0.82783383 0.03298645 -0.031828642 0.6050388 -0.51292336 0.7908371
-0.88743186 -0.72197855 -0.07125468 0.80083436 -0.09771554 -0.400778 0.08267693 0.54323936
-0.31674495 0.3108 0.47657162 -0.12990998 -0.2712164 0.20375188 0.19097489 0.22355618
00000000: 7041 6cbe 3439 a7be 8829 92be 7fbd b8be
00000010: d614 c43e 1c8f 70bd 95a7 ecbe 8fa2 17be
00000020: dfb1 56bf 8d00 383e 8b9a 193f e579 093f
00000030: d4d4 0a3f 681a 6ebe 2bda e23d c00e 24bf
00000040: da40 713f 3218 36bf 0ad6 973e 21a5 86be
00000050: 8365 0dbf ae10 233f 41eb 32bf 35e6 613f
00000060: ddc9 aebe c6c8 b03e 8a09 03be 4e61 c1be
00000070: 2ad5 1a3f 00c1 ebbd 3f99 0f3f 1886 c53e
00000080: 1a89 563f 8fce d03e eb90 bebe c3e9 813f
00000090: 1742 ec3c 85bc 70be efbf 393e b3af f63d
000000a0: 7cca 0fbf c27e 453f b04d 473f 53a0 1f3e
000000b0: d8a1 81be 87aa e03e ce4a 543e 5c6d c7bc
000000c0: 839d 8bbd c461 57be 7157 29bb b4b3 3e3f
000000d0: d3f5 253c ea8b 99bd 09af ae3e 627f 79be
000000e0: dfb8 d83b edf3 16bf 6ceb 593f 7149 233f
000000f0: 1ee1 a3be 3e8e 1dbf 44f5 163f 2e25 edbd
00000100: 98f7 b13e 3f39 aa3d feaa dc3e c70b 63bf
00000110: 3260 5cbe 5b84 36bf d421 a73e 4949 033f
00000120: 4157 b63e 8d84 f4be dd51 b7be 3071 07bf
00000130: 803d 003f 5e6e cdbe 8e2d aa3e bdff 7d3e
00000140: e30d 383f 34aa 393c 4f90 47bf eede a5bf
00000150: eeb5 5a3e de15 06bf df2b cc3f 89fd e7be
00000160: 1480 9b3f 3dbf b7be 2099 603f 8916 44bd
00000170: e14d c0be 9e3e 723e cdef 283f 995d 573d
00000180: 55a7 193d 64a8 1cbf 9946 22be 9097 c9bf
00000190: a032 4f3f 2c25 1fbd 619d 85be 8fa1 103f
000001a0: 37b2 8a3f f825 e43e b3be 783e b4ad 4cbe
000001b0: 511a 15bf 809a 25be f359 d93e 1bc1 4bbf
000001c0: 9dd4 fa3d df6c 3ebf 1b5a d43e 3896 47bf
000001d0: deef 28be ee5b a3bd 4061 913e c15a 96be
000001e0: 52b0 5b3d d998 95bf b326 ea3e 4976 31bf
000001f0: a7e1 c1ba 3789 993e 692c acbd f0e2 54be
00000200: ad92 4bbf af46 363f 94c6 b23e 9945 683d
00000210: 1372 803f 1860 17bf 87bf 0cbf c3bb 0f3e
00000220: 4d51 893e 0317 f03e e87e 06bf 2bad 763f
00000230: b2d9 24bf 755b 64be 466b 5d3f 0f2c 2a3f
00000240: 72cc 30bf 9452 bbbe 3c98 d73e ed40 84be
00000250: 5d1f bb3e c10d 1fbe e52a f1be 34b4 36bf
00000260: 7759 6a3c 3ee2 8dbf dc4d d53e b6dd 153e
00000270: b64f 2a3c a7ae d63e 72b7 743e 51f1 e83e
00000280: e338 92be d4df d33e b868 d53e 310e 7a3e
00000290: c583 423d c758 10bf 8b18 d63d f15e 963e
000002a0: ccc9 bebe 7dcb b53f 8ab8 45bf e0f1 d3bd
000002b0: 9984 2abf b567 4f3f 198e 3e3f 4e01 6a3f
000002c0: 1730 273f a81a 053e 5a2d e3be 0833 093f
000002d0: 006d 9d3e d42c b63e 0443 353f feb1 163f
000002e0: 0e55 18bf 6b0a debe 21c1 e13e c6fb 85bf
000002f0: a0b7 0d3e 5d3d 9ebe 3728 be3e f3f8 a4bf
00000300: 2ab7 873f 0f23 fa3d b98d 9bbe dad2 7f3d
00000310: a75b 3cbe 4ca7 413d ad0f d9be bdbb 2f3f
00000320: 4fbb b8be 3a56 8d3f 661f 853f b02c 61be
00000330: 603e c3bd 228c b43d bbc5 383f 9172 203f
00000340: 61df 2f3f a57c 3dbe 5b45 e6be bcef a03e
00000350: 0600 523e ab47 09bf cd25 9abc f039 da3d
00000360: ce96 4dbf 91f1 303f 02bf 26bf 5904 32bc
00000370: 839c c9be 6806 f4bd 86ba 24bf 3d48 283e
00000380: e217 3cbd 8075 093e e665 c73d 0b7e 4bbe
00000390: 4d1c 163f c802 bdbe dd5e c8be 960e 8dbf
000003a0: 558e 18be 36ba 5bbf ebec 533f cd1c 073d
000003b0: c05e 02bd d3e3 1a3f f24e 03bf 4d74 4a3f
000003c0: bc2e 63bf 96d3 38bf f9ed 91bd 7b03 4d3f
000003d0: 161f c8bd c632 cdbe 8652 a93d bc11 0b3f
000003e0: 652c a2be 2d21 9f3e 3201 f43e 1f07 05be
000003f0: e0dc 8abe 55a4 503e ec8e 433e e9eb 643e

network_body._body_endoder.seq_layers.0.bias f4 [128]
0.0 0.0 0.0 0.0 0.0 0.0 0.0 0.0
0.0 0.0 0.0 0.0 0.0 0.0 0.0 0.0
0.0 0.0 0.0 0.0 0.0 0.0 0.0 0.0
0.0 0.0 0.0 0.0 0.0 0.0 0.0 0.0
0.0 0.0 0.0 0.0 0.0 0.0 0.0 0.0
0.0 0.0 0.0 0.0 0.0 0.0 0.0 0.0
0.0 0.0 0.0 0.0 0.0 0.0 0.0 0.0
0.0 0.0 0.0 0.0 0.0 0.0 0.0 0.0
0.0 0.0 0.0 0.0 0.0 0.0 0.0 0.0
0.0 0.0 0.0 0.0 0.0 0.0 0.0 0.0
0.0 0.0 0.0 0.0 0.0 0.0 0.0 0.0
0.0 0.0 0.0 0.0 0.0 0.0 0.0 0.0
0.0 0.0 0.0 0.0 0.0 0.0 0.0 0.0
0.0 0.0 0.0 0.0 0.0 0.0 0.0 0.0
0.0 0.0 0.0 0.0 0.0 0.0 0.0 0.0
0.0 0.0 0.0 0.0 0.0 0.0 0.0 0.0
00000000: 0000 0000 0000 0000 0000 0000 0000 0000
00000010: 0000 0000 0000 0000 0000 0000 0000 0000
00000020: 0000 0000 0000 0000 0000 0000 0000 0000
00000030: 0000 0000 0000 0000 0000 0000 0000 0000
00000040: 0000 0000 0000 0000 0000 0000 0000 0000
00000050: 0000 0000 0000 0000 0000 0000 0000 0000
00000060: 0000 0000 0000 0000 0000 0000 0000 0000
00000070: 0000 0000 0000 0000 0000 0000 0000 0000
00000080: 0000 0000 0000 0000 0000 0000 0000 0000
00000090: 0000 0000 0000 0000 0000 0000 0000 0000
000000a0: 0000 0000 0000 0000 0000 0000 0000 0000
000000b0: 0000 0000 0000 0000 0000 0000 0000 0000
000000c0: 0000 0000 0000 0000 0000 0000 0000 0000
000000d0: 0000 0000 0000 0000 0000 0000 0000 0000
000000e0: 0000 0000 0000 0000 0000 0000 0000 0000
000000f0: 0000 0000 0000 0000 0000 0000 0000 0000
00000100: 0000 0000 0000 0000 0000 0000 0000 0000
00000110: 0000 0000 0000 0000 0000 0000 0000 0000
00000120: 0000 0000 0000 0000 0000 0000 0000 0000
00000130: 0000 0000 0000 0000 0000 0000 0000 0000
00000140: 0000 0000 0000 0000 0000 0000 0000 0000
00000150: 0000 0000 0000 0000 0000 0000 0000 0000
00000160: 0000 0000 0000 0000 0000 0000 0000 0000
00000170: 0000 0000 0000 0000 0000 0000 0000 0000
00000180: 0000 0000 0000 0000 0000 0000 0000 0000
00000190: 0000 0000 0000 0000 0000 0000 0000 0000
000001a0: 0000 0000 0000 0000 0000 0000 0000 0000
000001b0: 0000 0000 0000 0000 0000 0000 0000 0000
000001c0: 0000 0000 0000 0000 0000 0000 0000 0000
000001d0: 0000 0000 0000 0000 0000 0000 0000 0000
000001e0: 0000 0000 0000 0000 0000 0000 0000 0000
000001f0: 0000 0000 0000 0000 0000 0000 0000 0000

network_body._body_endoder.seq_layers.2.weight f4 [128, 128]
-0.0781331 0.044128597 -0.05424171 0.060155515 0.19219118 -0.005278921 0.004888063 0.016604492
0.018959453 0.07645733 0.17679207 0.08655588 0.15904437 0.082336746 0.011094891 -0.15654437
-0.07629766 0.006734945 -0.025988648 -0.035735548 -0.111832626 0.056098085 0.0010482244 -0.0032282108
0.03817391 -0.019075714 -0.020850884 0.16701755 0.078198895 0.07460297 -0.040450428 -0.040337063
0.050181422 0.0046465904 -0.054346565 -0.09084091 0.054672286 -0.16807812 0.14144056 -0.07387909
-0.13729316 -0.14084426 -0.10514506 0.008223098 0.05607823 0.07098862 0.097844996 -0.04812125
0.08169813 0.0062392745 -0.110422 0.08083314 -0.090788364 -0.11468992 0.17410146 0.09923831
-0.05473044 -0.050378524 0.058622856 -0.12015259 0.038967844 0.0068414053 -0.011438089 0.02598449
0.2339206 0.023641221 0.026453283 -0.086619094 -0.08614402 0.026743598 0.032355677 0.028062822
-0.024341058 -0.05955766 -0.061537158 0.081125595 0.05178045 -0.019257858 0.11533362 -0.03551724
-0.102897756 0.030576177 0.1237841 -0.022060024 0.06617758 0.00061598973 -0.00910808 0.024444513
-0.024365311 -0.06464729 0.19160867 -0.16332017 0.022448277 -0.080071695 0.10435998 -0.04046944
0.01600128 -0.019748421 0.0028635352 -0.016414227 0.009018597 -0.1229821 -0.04630344 0.0019575295
-0.096830316 0.0039290716 0.0433665 -0.17877097 -0.029005166 -0.14659834 -0.067799985 0.08260872
-0.10626354 0.10115121 -0.009678026 0.008827001 0.08785965 -0.06643559 0.068571255 -0.10804071
-0.14137292 0.0072583826 -0.058244873 0.085531145 0.108430184 -0.015812047 0.039788846 -0.09655101
0.06991717 -0.009272255 0.08449606 -0.12442595 0.10738505 0.15883082 -0.12006082 -0.14380802
-0.2688898 0.16528746 -0.01245947 0.04391228 -0.085512064 0.033741355 -0.083417095 0.013510039
0.060220912 -0.27625883 0.09074827 -0.05516507 -0.028966172 -0.08413883 -0.1425225 0.05327572
-0.024711592 0.11268526 -0.14439045 -0.03880803 0.011322063 0.097117916 0.008457938 0.058699664
-0.07461117 -0.12069793 -0.011838538 0.13656579 0.037130136 -0.029344102 0.06739504 0.11090809
0.03651071 0.077157386 -0.03772168 -0.064367294 0.049322803 0.026481306 -0.09266775 -0.02032498
0.008701837 -0.014420207 0.028375255 -0.017758273 0.03535939 0.07986187 -0.041031912 0.013029146
0.008931129 -0.12532502 -0.040080182 -0.037653003 -0.041452464 0.057857264 0.14598761 0.012872601
-0.08164888 0.08452296 -0.11186372 0.112561524 0.06366914 -0.10236513 -0.0560862 -0.07922233
-0.100040056 -0.013541178 0.045767438 0.026339006 -0.119362906 -0.16481261 -0.08392823 0.07106497
-0.1315711 0.054771483 0.03537552 -0.01046912 -0.13148151 0.020813331 0.23804314 -0.059588153
0.015325489 -0.12577695 -0.04425851 0.11161774 0.06500494 0.14073986 0.07286333 -0.019710988
0.0573756 -0.07866826 0.018247582 -0.061218258 0.1014512 -0.04008847 0.021999463 0.047989678
0.064363755 -0.0007577341 -0.12541766 0.062123597 -0.06487315 -0.01786256 0.11789537 0.08524171
0.01632066 -0.06578043 0.10672157 -0.0118893245 -0.10630498 -0.048772544 -0.09966459 -0.09745705
0.13175264 -0.07707712 -0.05199624 0.057953663 0.16197228 0.027541587 -0.11608388 0.0019401391
00000000: 3f04 a0bd 30c0 343d 8e2c 5ebd a165 763d
00000010: c4cd 443e cdfa acbb 0b2c a03b 2506 883c
00000020: db50 9b3c a995 9c3d fb08 353e 3644 b13d
00000030: 87dc 223e 2ba0 a83d 58c7 353c 2b4d 20be
00000040: f341 9cbd d0b0 dc3b 25e6 d4bc 705f 12bd
00000050: 8108 e5bd 1bc7 653d 9364 893a 6490 53bb
00000060: 3f5c 1c3d ac44 9cbc 79cf aabc a606 2b3e
00000070: be26 a03d 71c9 983d 59af 25bd 7a38 25bd
00000080: 098b 4d3d 6d42 983b 819a 5ebd cd0a babd
00000090: 0cf0 5f3d ac1c 2cbe cbd5 103e ec4d 97bd
000000a0: 9496 0cbe 7a39 10be 4b56 d7bd 2cba 063c
000000b0: 49b2 653d 7b62 913d f562 c83d ca1a 45bd
000000c0: 5951 a73d d472 cc3b ee24 e2bd d88b a53d
000000d0: 40ef b9bd 8ce2 eabd a747 323e 743d cb3d
000000e0: 072d 60bd b659 4ebd 851e 703d 9012 f6bd
000000f0: bf9c 1f3d de2d e03b d366 3bbc 6ddd d43c
00000100: e288 6f3e 3cab c13c 8eb4 d83c 5a65 b1bd
00000110: 476c b0bd 6415 db3c 6387 043d 01e4 e53c
00000120: e666 c7bc bcf2 73bd 630e 7cbd 2d25 a63d
00000130: bd17 543d a8c2 9dbc 0834 ec3d 877a 11bd
00000140: 0fbc d2bd e47a fa3c 8582 fd3d 39b7 b4bc
00000150: 1c88 873d 5f7a 213a 0e3a 15bc dc3f c83c
00000160: c399 c7bc cc65 84bd 1035 443e 673d 27be
00000170: 73e5 b73c a1fc a3bd afba d53d 49c3 25bd
00000180: 1e15 833c 71c7 a1bc 26aa 3b3b 2177 86bc
00000190: bdc2 133c 0ade fbbd ada8 3dbd e549 003b
000001a0: f94e c6bd 71bf 803b 12a1 313d bd0f 37be
000001b0: 3e9c edbc e01d 16be b8da 8abd c32e a93d
000001c0: b3a0 d9bd 5e28 cf3d 9590 1ebc 209f 103c
000001d0: c3ef b33d 620f 88bd 166f 8c3d 7344 ddbd
000001e0: 10c4 10be bad7 ed3b 2d92 6ebd f42a af3d
000001f0: a510 de3d 4488 81bc a1f9 223d 89bc c5bd
00000200: bc30 8f3d a8ea 17bc 450c ad3d 08d3 febd
00000210: b1ec db3d 8ca4 223e 72e2 f5bd 6942 13be
00000220: edab 89be 1e41 293e ce22 4cbc 5ddd 333d
00000230: f320 afbd 6034 0a3d 95d6 aabd 3659 5d3c
00000240: 34aa 763d cc71 8dbe 3bda b93d c5f4 61bd
00000250: 774a edbc fb50 acbd 6bf1 11be a437 5a3d
00000260: f76f cabc 88c7 e63d 17db 13be 2bf5 1ebd
00000270: 2d80 393c c2e5 c63d 2a93 0a3c 0f6f 703d
00000280: becd 98bd 7a30 f7bd 6df6 41bc e7d7 0b3e
00000290: c515 183d 0b63 f0bc 6906 8a3d c823 e33d
000002a0: 418c 153d b104 9e3d 0c82 1abd 00d3 83bd
000002b0: b506 4a3d 53ef d83c 97c8 bdbd 9380 a6bc
000002c0: 2692 0e3c bb42 6cbc 3973 e83c cc79 91bc
000002d0: 02d5 103d 9f8e a33d 1411 28bd 3378 553c
000002e0: df53 123c 3455 00be 1e2b 24bd 093a 1abd
000002f0: 0fca 29bd bdfb 6c3d c77d 153e 9ae7 523c
00000300: 8737 a7bd 601a ad3d ce18 e5bd a886 e63d
00000310: f764 823d cfa4 d1bd a5ba 65bd 513f a2bd
00000320: cde1 ccbd d1db 5dbc a376 3b3d e6c4 d73c
00000330: 8a74 f4bd a3c4 28be 90e2 abbd 838a 913d
00000340: 93ba 06be 1058 603d ece5 103d ac86 2bbc
00000350: 17a3 06be b880 aa3c 95c1 733e b512 74bd
00000360: c317 7b3c accb 00be 6948 35bd d797 e43d
00000370: 4f21 853d 1c1e 103e 5f39 953d f078 a1bc
00000380: ad02 6b3d d31c a1bd f47b 953c ffbf 7abd
00000390: a6c5 cf3d cf33 24bd 3838 b43c d390 443d
000003a0: 25d1 833d ada2 46ba 7d6d 00be 5075 7e3d
000003b0: 37dc 84bd 8154 92bc 2173 f13d 3593 ae3d
000003c0: e8b2 853c e4b7 86bd d790 da3d 71cb 42bc
000003d0: 6db6 d9bd b8c5 47bd f31c ccbd 9097 c7bd
000003e0: 2aea 063e 9cda 9dbd 02fa 54bd d260 6d3d
000003f0: 10dc 253e e59e e13c 63bd edbd 444c fe3a

network_body._body_endoder.seq_layers.2.bias f4 [128]
0.0 0.0 0.0 0.0 0.0 0.0 0.0 0.0
0.0 0.0 0.0 0.0 0.0 0.0 0.0 0.0
0.0 0.0 0.0 0.0 0.0 0.0 0.0 0.0
0.0 0.0 0.0 0.0 0.0 0.0 0.0 0.0
0.0 0.0 0.0 0.0 0.0 0.0 0.0 0.0
0.0 0.0 0.0 0.0 0.0 0.0 0.0 0.0
0.0 0.0 0.0 0.0 0.0 0.0 0.0 0.0
0.0 0.0 0.0 0.0 0.0 0.0 0.0 0.0
0.0 0.0 0.0 0.0 0.0 0.0 0.0 0.0
0.0 0.0 0.0 0.0 0.0 0.0 0.0 0.0
0.0 0.0 0.0 0.0 0.0 0.0 0.0 0.0
0.0 0.0 0.0 0.0 0.0 0.0 0.0 0.0
0.0 0.0 0.0 0.0 0.0 0.0 0.0 0.0
0.0 0.0 0.0 0.0 0.0 0.0 0.0 0.0
0.0 0.0 0.0 0.0 0.0 0.0 0.0 0.0
0.0 0.0 0.0 0.0 0.0 0.0 0.0 0.0
00000000: 0000 0000 0000 0000 0000 0000 0000 0000
00000010: 0000 0000 0000 0000 0000 0000 0000 0000
00000020: 0000 0000 0000 0000 0000 0000 0000 0000
00000030: 0000 0000 0000 0000 0000 0000 0000 0000
00000040: 0000 0000 0000 0000 0000 0000 0000 0000
00000050: 0000 0000 0000 0000 0000 0000 0000 0000
00000060: 0000 0000 0000 0000 0000 0000 0000 0000
00000070: 0000 0000 0000 0000 0000 0000 0000 0000
00000080: 0000 0000 0000 0000 0000 0000 0000 0000
00000090: 0000 0000 0000 0000 0000 0000 0000 0000
000000a0: 0000 0000 0000 0000 0000 0000 0000 0000
000000b0: 0000 0000 0000 0000 0000 0000 0000 0000
000000c0: 0000 0000 0000 0000 0000 0000 0000 0000
000000d0: 0000 0000 0000 0000 0000 0000 0000 0000
000000e0: 0000 0000 0000 0000 0000 0000 0000 0000
000000f0: 0000 0000 0000 0000 0000 0000 0000 0000
00000100: 0000 0000 0000 0000 0000 0000 0000 0000
00000110: 0000 0000 0000 0000 0000 0000 0000 0000
00000120: 0000 0000 0000 0000 0000 0000 0000 0000
00000130: 0000 0000 0000 0000 0000 0000 0000 0000
00000140: 0000 0000 0000 0000 0000 0000 0000 0000
00000150: 0000 0000 0000 0000 0000 0000 0000 0000
00000160: 0000 0000 0000 0000 0000 0000 0000 0000
00000170: 0000 0000 0000 0000 0000 0000 0000 0000
00000180: 0000 0000 0000 0000 0000 0000 0000 0000
00000190: 0000 0000 0000 0000 0000 0000 0000 0000
000001a0: 0000 0000 0000 0000 0000 0000 0000 0000
000001b0: 0000 0000 0000 0000 0000 0000 0000 0000
000001c0: 0000 0000 0000 0000 0000 0000 0000 0000
000001d0: 0000 0000 0000 0000 0000 0000 0000 0000
000001e0: 0000 0000 0000 0000 0000 0000 0000 0000
000001f0: 0000 0000 0000 0000 0000 0000 0000 0000

action_model._discrete_distribution.branches.0.weight f4 [3, 128]
0.0043886113 -0.0041014175 0.00956767 0.0142399175 -0.015148242 0.0011473865 -0.0044347267 0.0016144973
0.008440041 -0.01162337 -0.0044971057 0.013183946 0.0021571221 -0.010275849 -0.019456912 0.004836089
-0.0013613756 0.00087416184 0.0058053765 -0.014130716 -0.0070701414 0.007122756 -0.007988281 0.0040819035
-0.003179916 0.007161929 -0.0003104901 -0.004876189 -0.008450144 0.0017365689 0.0077160164 -0.012107014
-0.008317643 -0.003927618 0.008021156 0.012756485 -0.020877542 0.008808011 0.0062681246 -2.5410109e-05
-0.0040276223 0.010753328 0.003979198 0.009985558 -0.007598765 0.0028421294 0.0074336114 -0.018144121
0.00235166 -0.0035664875 -0.00048806448 0.0018890643 0.007390605 -0.0016796341 0.009293156 -0.0007424058
-0.00024684452 0.0066030584 0.008984461 -0.0030821303 0.0022778052 -0.013848591 0.00038835473 0.010381126
0.0115542775 -0.004063612 -0.0025812734 0.0014637441 -0.0013859272 -0.012569583 -0.0021626728 -0.0019460872
0.018575836 0.014129209 0.0049040793 0.005755827 0.013707531 0.0027491346 0.0062811873 -0.0060122465
-0.009909972 -0.004375528 0.014567405 0.0012747358 0.0062299087 -0.0139059825 0.0023228095 0.017100362
-0.0064109205 -0.0019263389 0.0067650075 -0.0021520501 -0.0014318214 0.004369918 -0.0060860068 0.003132466
-0.005366964 -0.0048979786 -0.008250983 0.007776202 -0.010364245 0.012439724 -0.015198926 0.0024572185
0.0024730423 -0.002705531 -0.0060380953 0.008940037 0.013242686 -0.007955174 -0.017279422 -0.0017803609
-0.006356658 -0.00571941 -0.010882855 -0.0013053989 -0.017314471 -0.0064320005 0.0052320748 0.009187584
-0.0026988974 0.019088779 -0.0125234 0.00786554 -0.009086267 -0.0029227077 0.006588639 0.005307091
-0.0062392326 -0.0026314158 -0.0042628776 0.0054464806 0.0007269466 0.0072664157 0.02112958 0.013125673
0.002125216 0.014289736 0.0044065057 0.0011850967 -0.007855373 0.0047947946 0.008878828 0.009704789
-0.006090458 0.003070183 -0.012396898 -0.002526499 0.0048243287 -0.00063465507 -0.0021779274 -0.0020215537
0.016430512 0.009523653 0.0031112097 0.0015190659 0.0025906912 0.005922357 -0.0009364999 -0.003817626
-0.014166193 -0.0047769276 -0.0013890001 -0.01376568 -0.006651134 0.02258977 0.0042787204 0.013385276
-0.00040170853 0.010277013 -0.002137986 -0.004262756 0.0022432776 0.0031478815 0.006040479 -0.008645568
0.006327486 -0.0072814524 0.0024324225 -0.0060617984 0.0062957676 0.0027681882 -0.0068739317 -0.0046190605
-0.012273052 0.008494624 0.0040641166 0.0028635582 0.008030868 0.009940828 0.0009281464 -0.0037022082
-0.0054448093 0.0027713312 0.009528233 -0.0027179178 -0.013734561 0.01398138 0.0174035 0.014085016
0.011463749 -0.003783817 -0.00011404805 -0.013558405 -0.003023741 0.007150323 0.0057922755 0.005126124
0.006449667 -0.018763479 0.0010441086 -0.003493327 0.0026421738 0.002737903 0.003672689 -0.007680004
0.006223338 0.018348692 0.0085823005 -0.00071269594 -0.008091931 0.017259685 0.0004903371 0.0055250097
0.00028876498 -0.006830759 -0.011000948 -0.008205095 0.005268097 -0.010434593 -0.0035050889 0.004480928
-0.006038669 -0.0023208035 0.00029329568 0.000112030735 0.0014262496 -0.009541889 -0.0017827733 0.009561039
-0.013121984 0.010784955 0.01440443 0.0037552684 0.011758339 -0.006333341 0.014190967 0.009300742
-1.1648647e-05 0.0017175839 -0.0073886947 -0.000934958 -0.005947522 0.00907364 -0.007025949 0.012764762
00000000: 57ce 8f3b 2f65 86bb b7c1 1c3c 8b4e 693c
00000010: 5530 78bc e763 963a 2f51 91bb 8a9d d33a
00000020: 1948 0a3c f36f 3ebc 755c 93bb 7a01 583c
00000030: 815e 0d3b 095c 28bc 1a64 9fbc 0e78 9e3b
00000040: 2f70 b2ba 0228 653a 073b be3b 8584 67bc
00000050: a5ac e7bb 0266 e93b 47e1 02bc 7dc1 853b
00000060: 2366 50bb 9dae ea3b 47c9 a2b9 70c8 9fbb
00000070: 7972 0abc 959d e33a a3d6 fc3b 7f5c 46bc
00000080: b946 08bc 3fb3 80bb 2b6b 033c 9300 513c
00000090: 6107 abbc 7a4f 103c d764 cd3b cb27 d5b7
000000a0: 25fa 83bb ba2e 303c ef63 823b 779a 233c
000000b0: 10ff f8bb 0543 3a3b a795 f33b fba2 94bc
000000c0: 4f1e 1a3b bbbb 69bb e8e2 ffb9 7b9a f73a
000000d0: e32c f23b 2b27 dcba 5242 183c 039e 42ba
000000e0: e96a 81b9 785e d83b 9033 133c 91fd 49bb
000000f0: 3b47 153b 33e5 62bc 179c cb39 9915 2a3c
00000100: 274e 3d3c 0c28 85bb 952a 29bb 1adb bf3a
00000110: 00a8 b5ba a7f0 4dbc a1bb 0dbb da13 ffba
00000120: 5a2c 983c 337e 673c 66b2 a03b 609b bc3b
00000130: 8d95 603c d32a 343b 6bd2 cd3b 6102 c5bb
00000140: 6f5d 22bc 9760 8fbb 20ac 6e3c 0915 a73a
00000150: 4324 cc3b ebd5 63bc 473a 183b 0f16 8c3c
00000160: b312 d2bb 357d fcba ffac dd3b 6909 0dbb
00000170: f4ab bbba 8731 8f3b 206d c7bb 0f4a 4d3b
00000180: 5bdd afbb 397f a0bb 222f 07bc 83cf fe3b
00000190: cbce 29bc fccf 4b3c eb04 79bc 4909 213b
000001a0: c412 223b 474f 31bb 37db c5bb 3c79 123c
000001b0: daf7 583c 6b56 02bc 938d 8dbc 005b e9ba
000001c0: 834b d0bb e369 bbbb 014e 32bc eb19 abba
000001d0: 14d7 8dbc 88c3 d2bb d371 ab3b 8587 163c
000001e0: fcdf 30bb 1260 9c3c f22e 4dbc 77de 003c
000001f0: 91de 14bc e68a 3fbb 83e5 d73b 1be7 ad3b
00000200: 7a72 ccbb d573 2cbb 9caf 8bbb 6478 b23b
00000210: 8f90 3e3a 1d1b ee3b f117 ad3c 100d 573c
00000220: 3547 0b3b 7f1f 6a3c 7364 903b 3f55 9b3a
00000230: d3b3 00bc a71d 9d3b 8178 113c d600 1f3c
00000240: 7792 c7bb 2035 493b 5c1c 4bbc 9f93 25bb
00000250: 6715 9e3b fb5e 26ba 8fbb 0ebb 0b7c 04bb
00000260: 4899 863c 1909 1c3c 70e5 4b3b 651b c73a
00000270: 96c8 293b 5510 c23b 727f 75ba 2331 7abb
00000280: 5219 68bc c687 9cbb 1c0f b6ba 7289 61bc
00000290: c2f1 d9bb 2e0e b93c 8234 8c3b eb4d 5b3c
000002a0: 689c d2b9 eb60 283c 741d 0cbb 97ae 8bbb
000002b0: f403 133b b04c 4e3b 36ef c53b 24a6 0dbc
000002c0: cd56 cf3b 4099 eebb 4769 1f3b 0da2 c6bb
000002d0: ba4c ce3b 7e6a 353b b83e e1bb 7d5b 97bb
000002e0: e914 49bc 092d 0b3c 482c 853b 89aa 3b3b
000002f0: e793 033c dbde 223c da4e 733a bfa0 72bb
00000300: 5f6a b2bb 399f 353b 4e1c 1c3c 181f 32bb
00000310: ed06 61bc 2812 653c c991 8e3c d7c4 663c
00000320: 73d2 3b3c eaf9 77bb 152d efb8 1324 5ebc
00000330: f529 46bb 424d ea3b 21cd bd3b 0bf9 a73b
00000340: ba57 d33b deb5 99bc 79da 883a 4df0 64bb
00000350: 5228 2d3b 646e 333b 7fb1 703b 8ba8 fbbb
00000360: 25ed cb3b ff4f 963c c79c 0c3c 37d4 3aba
00000370: 0594 04bc 2f64 8d3c f789 003a 240b b53b
00000380: 6165 9739 8fd4 dfbb 523d 34bc aa6e 06bc
00000390: 00a0 ac3b dbf5 2abc a2b5 65bb c0d4 923b
000003a0: 07e0 c5bb 9f18 18bb 7bc5 9939 0bf2 ea38
000003b0: fff0 ba3a 9555 1cbc f2ab e9ba e7a5 1c3c
000003c0: 97fd 56bc 61b3 303c 8f00 6c3c f31a 763b
000003d0: 0ca6 403c ea87 cfbb 3b81 683c 2462 183c
000003e0: 8f6e 43b7 8d20 e13a dd1c f2bb f817 75ba
000003f0: 6ee3 c2bb 9ba9 143c ef39 e6bb 4b23 513c

action_model._discrete_distribution.branches.0.bias f4 [3]
0.0 0.0 0.0
00000000: 0000 0000 0000 0000 0000 0000

action_model._discrete_distribution.branches.1.weight f4 [3, 128]
0.005756217 0.013350281 -0.0018592923 -0.017042255 0.0038863781 0.00019854345 0.00271292 0.0027694318
-0.004705297 0.0024280383 0.013228397 0.009986362 -0.014361328 0.0070765764 -0.005467913 0.005905234
-0.0010995003 0.010884452 -0.004893321 0.009874673 -0.00074805197 -0.004164033 -0.0017898126 0.0024540955
-0.015217942 -0.0105546955 -0.011040625 0.005866786 0.024461115 0.004448232 -0.0075178184 -0.009499617
-0.0064563574 0.01237485 -0.016912423 -0.008339639 0.0034023903 0.007151448 0.020184096 -0.0028314455
-0.0070464397 0.012975849 0.0064904513 0.005517092 0.00766287 -0.0005833431 -0.0064429617 0.008682227
0.0032093364 -0.0034498335 -0.012197247 0.003910479 0.00015513132 -0.0023192544 0.012524711 0.00451316
-0.0021302968 -0.0018534024 0.00027924668 0.005853789 -2.0509982e-05 -0.0032881144 -0.0144035565 -0.016652154
-0.009141252 -0.013669232 -0.0042897966 0.009943729 -0.0007804543 -0.0094481995 0.025824904 0.0023905137
-0.0031820983 -0.001160527 -0.013460189 0.006727806 -0.0049597165 -0.00032958327 0.01325317 0.003297962
-0.0016761025 0.0028154412 -0.006683661 0.0057754978 0.00089097116 0.003779587 0.0031568648 -0.0060502156
0.008487618 0.0021976994 0.0054384624 0.0043973206 -0.012076211 -0.0027755739 0.0042156647 0.0031047245
0.012502305 0.0061847433 -0.0014122505 0.014105489 0.0053793206 -0.0023074683 -0.0091461865 -0.009170357
0.0025795947 -0.0041222028 0.004533732 0.0005361677 -0.010681132 0.0036905743 0.011377786 -0.002445126
-0.009085118 -0.004496757 0.014687794 0.01152753 0.0038293935 0.00968704 0.010080858 -0.0018388644
0.0031273358 -0.0036088636 0.009900515 0.0012983418 0.015258363 -0.007108917 -0.00524797 -0.012589087
-0.008585659 -0.011543308 -0.015171221 -0.0008652185 0.0032375385 -0.004798072 -0.00919771 0.009605174
-7.274809e-05 0.010376877 0.019616744 0.008723813 -0.0012386108 0.008575013 0.016005842 0.01911437
0.0049559358 -0.0070608095 -0.0048706774 -0.0037088213 0.0029603366 0.007923088 0.022121362 -0.009441731
0.017788863 0.0006924764 -0.0018090379 -0.0036370251 0.0199009 0.0034065496 0.018611666 -0.013027568
-0.0023275968 0.002655627 0.009626656 -0.0043467223 0.009362286 -0.00083165115 0.0073300386 0.019591933
-0.013216308 0.008168462 0.0067868605 -0.007912758 -0.0012459283 0.00066679955 0.0006915709 0.0015325118
0.0099008 0.008834298 0.008409145 0.009259794 -0.0051758587 0.0053018373 0.018717257 0.011766112
0.0035059494 -0.01664686 0.008504338 -0.002395856 0.0029901403 0.012162219 -0.005302357 0.0011825312
0.0059038964 0.006453299 0.011560954 -0.007960445 -0.007762354 0.0045594363 -0.00493136 0.009238202
-0.0062210998 0.004869954 0.01949465 0.0049688867 0.0097095845 -0.0004850691 0.0042534536 -0.0012813866
0.0023149576 0.004541256 -0.0005085484 0.0038062725 0.01466875 -0.0036320842 0.0148568405 -0.016555686
0.0024120454 0.005045255 0.013093357 0.00089331175 0.0062708594 -0.0077316174 0.010215818 -0.016636243
-0.0022136923 -0.0030614375 -0.017695865 0.0029329152 0.0020881305 0.025299335 0.009292637 -9.10624e-05
0.0020893605 -0.0083698565 0.011572987 0.008152376 0.012140189 0.005315554 -0.0055753337 -0.0035000038
0.0035340455 0.0035266809 0.011501218 -0.010288562 0.0002865712 -0.007665243 0.0054889317 0.0026304086
-0.004431083 0.02302899 0.0062870504 -0.010816394 0.009274647 -0.006167775 -0.011851279 0.004215852
00000000: a69e bc3b 23bb 5a3c 7fb3 f3ba 339c 8bbc
00000010: 9bb2 7e3b 1a30 5039 3fcb 313b 5b7f 353b
00000020: e42e 9abb b91f 1f3b ebbb 583c d79d 233c
00000030: c74b 6bbc a0e2 e73b 2e2c b3bb b180 c13b
00000040: 1c1d 90ba b354 323c 2758 a0bb 61c9 213c
00000050: eb18 44ba 7172 88bb 2598 eaba e4d4 203b
00000060: ad54 79bc 9aed 2cbc bde3 34bc 2b3e c03b
00000070: ad62 c83c 79c2 913b 0858 f6bb 48a4 1bbc
00000080: da8f d3bb e2bf 4a3c ec8b 8abc fba2 08bc
00000090: a3fa 5e3b b256 ea3b 1e59 a53c c68f 39bb
000000a0: d2e5 e6bb a898 543c daad d43b b9c8 b43b
000000b0: d018 fb3b 7eeb 18ba 7b1f d3bb e63f 0e3c
000000c0: bb53 523b 9a16 62bb f6d6 47bc 7a23 803b
000000d0: bfaa 2239 a2fe 17bb 7234 4d3c 21e3 933b
000000e0: 739c 0bbb dded f2ba db67 9239 24d1 bf3b
000000f0: da0c acb7 687d 57bb e5fc 6bbc 196a 88bc
00000100: 31c5 15bc eaf4 5fbc 6c91 8cbb 06eb 223c
00000110: 6797 4cba 9fcc 1abc c08e d33c 2aaa 1c3b
00000120: c08a 50bb d31c 98ba 2088 5cbc ed74 dc3b
00000130: 1e85 a2bb ebcb acb9 d323 593c 9f22 583b
00000140: abb0 dbba 4483 383b 9d02 dbbb 6340 bd3b
00000150: 1090 693a f3b2 773b 67e3 4e3b e340 c6bb
00000160: a60f 0b3c 4707 103b 2135 b23b 6617 903b
00000170: 4ddb 45bc 67e6 35bb 8f23 8a3b a278 4b3b
00000180: 78d6 4c3c 63a9 ca3b 431b b9ba b51a 673c
00000190: 0345 b03b e538 17bb e3d9 15bc 443f 16bc
000001a0: 6b0e 293b 8b13 87bb b38f 943b 9b8d 0c3a
000001b0: eaff 2ebc 90dd 713b e569 3a3c 683e 20bb
000001c0: bfd9 14bc 8859 93bb 13a5 703c f7dd 3c3c
000001d0: 90f6 7a3b 64b6 1e3c 2f2a 253c 0d06 f1ba
000001e0: fdf3 4c3b af82 6cbb c535 223c 1f2d aa3a
000001f0: 37fe 793c ebf1 e8bb 2af7 abbb 7542 4ebc
00000200: ddaa 0cbc 2520 3dbc b790 78bc d5cf 62ba
00000210: e22c 543b 2539 9dbb feb1 16bc 055f 1d3c
00000220: 5590 98b8 c703 2a3c 4bb3 a03c 53ee 0e3c
00000230: e258 a2ba 367e 0c3c af1e 833c bd95 9c3c
00000240: 6765 a23b 5d5e e7bb 349a 9fbb b20f 73bb
00000250: 3502 423b d7cf 013c dc37 b53c 7db1 1abc
00000260: f3b9 913c 4e87 353a 3d1d edba 285b 6ebb
00000270: 3607 a33c 6b40 5f3b 7e77 983c 9571 55bc
00000280: 988a 18bb 070a 2e3b 1fb9 1d3c f36e 8ebb
00000290: 4664 193c 2a03 5aba d230 f03b 437f a03c
000002a0: 3789 58bc 03d5 053c 5064 de3b 83a4 01bc
000002b0: 6b4e a3ba 29cc 2e3a 8a4a 353a 90de c83a
000002c0: f736 223c bbbd 103c 83c6 093c 64b6 173c
000002d0: 409a a9bb 09bb ad3b ef54 993c a7c6 403c
000002e0: 12c4 653b ff5e 88bc c755 0b3c cb03 1dbb
000002f0: 3bf6 433b 0b44 473c 65bf adbb 2aff 9a3a
00000300: 7975 c13b 3276 d33b 286a 3d3c 876c 02bc
00000310: 585b febb 5367 953b 3f97 a1bb d45b 173c
00000320: 5eda cbbb 2394 9f3b 3fb3 9f3c 0bd2 a23b
00000330: f314 1f3c df50 feb9 8e60 8b3b 33f4 a7ba
00000340: 8bb6 173b d1ce 943b 1b50 05ba a872 793b
00000350: 3255 703c 4308 6ebb 1b6a 733c ca9f 87bc
00000360: 6813 1e3b ab52 a53b 8585 563c 232d 6a3a
00000370: c87b cd3b 8259 fdbb 3f60 273c bb48 88bc
00000380: 9813 11bb 66a2 48bb ebf6 90bc 2736 403b
00000390: 04d9 083b 8d40 cf3c 2540 183c c1f8 beb8
000003a0: a7ed 083b b921 09bc a09c 3d3c 8b91 053c
000003b0: a5e7 463c 192e ae3b 4ab1 b6bb 5260 65bb
000003c0: 729b 673b e31f 673b 9b6f 3c3c 5b91 28bc
000003d0: ef3e 9639 b82c fbbb 7fdc b33b ef62 2c3b
000003e0: 9e32 91bb 4ba7 bc3c 9a03 ce3b 3f37 31bc
000003f0: b0f4 173c 0c1b cabb de2b 42bc 2125 8a3b

action_model._discrete_distribution.branches.1.bias f4 [3]
0.0 0.0 0.0
00000000: 0000 0000 0000 0000 0000 0000

action_model._discrete_distribution.branches.2.weight f4 [2, 128]
-0.009989905 -0.0018805945 0.0150110265 0.004697779 0.011477924 0.003557202 0.018575773 -0.010254308
-0.01525105 0.011689237 -0.005375575 -0.015410294 -0.013950802 -0.012885369 -0.005503196 -0.010844703
-0.001685744 0.019048532 -0.015455844 0.002873019 -0.011886883 0.00053115835 0.0049353014 -0.013007501
0.008053618 0.017840035 -0.015406224 -0.0120774135 0.00502881 -0.002827149 0.008441701 -0.0036696189
0.002863641 -0.0074615562 0.0024043557 -0.0024320611 0.0012826581 0.013781579 -0.007385257 0.012001085
-0.017910955 -0.0010026082 0.0142766405 0.0021266432 -0.0054791938 0.002826977 -0.003255884 0.008251794
0.005068138 0.0060561276 -0.016342519 -0.016424924 0.0022092431 0.002834421 0.005247318 0.00085101667
-0.00826099 -0.00093421526 0.010371314 0.012506443 0.0021702459 0.014803836 -0.003531087 0.0018183688
-0.006623098 -0.009979828 0.013350065 0.007434521 -0.001079679 6.803047e-05 -0.001716318 0.007543119
0.004747256 -0.004781785 -0.016883075 3.648272e-05 -0.012646972 -0.00026095426 -0.01068356 -0.008176702
0.022700878 -0.000558854 0.0064208517 -0.0036055811 0.010723508 0.007584614 0.00395137 -0.009736743
-4.7126505e-05 0.0054655205 0.010330682 -0.0009441798 -0.002864531 -0.010170347 -0.0011975124 0.008667283
0.019888481 0.016583486 0.0036482064 0.0013061812 -0.0047711986 0.014250221 -0.0041186674 -0.00057357067
0.004186858 -0.0004942195 -0.0036668796 -0.010661292 0.00010107853 0.0005822759 -0.0028374284 0.010716677
-0.009127339 0.0058558076 0.009445091 -0.010350219 0.011302709 -0.005489036 -0.00534388 0.0065475698
0.0033431798 -0.0032165707 -0.012038606 0.0066592894 0.0055011874 0.0067668557 -0.00052004727 0.0046916907
-0.0065777265 -0.00033192453 -0.007609322 0.001960678 0.013670725 -0.0025201805 0.009612133 -0.0038267176
0.006661529 -0.0011207712 0.014226514 0.007737778 -0.0039573307 -0.010972607 -0.012136273 -0.005476785
0.0025919285 -0.0027070127 0.0045704343 -0.0058972356 0.017835164 0.019013427 0.014911045 -0.0007905496
-0.010233728 0.0101563325 0.009370304 -0.016149504 -0.0059541636 -0.00800757 0.010720782 -0.019675972
0.0108530335 0.015250464 0.00057447853 0.0068257824 0.002456294 -0.009641366 0.007720902 -0.0020841078
-0.00040304638 0.007621391 -0.006269148 0.010257441 0.006184137 0.009196896 -0.0047236863 0.009320948
0.0028431294 -0.011550502 -0.0036384815 -0.013845216 0.0074166334 -0.0023674944 -0.017025322 0.005775336
-0.008293193 -0.001045826 0.008688012 0.012830741 -0.0032689373 -0.022054216 0.0011634285 6.6748034e-05
-0.0028221204 -0.00590542 -0.0035073285 0.002004856 0.0011030674 0.0028850555 0.020537658 0.021015521
-0.02301567 0.0036297657 0.00093942945 0.00259175 0.0046732225 -0.01618759 -0.011518629 -0.006440664
0.0064407215 -0.009125509 0.009026081 0.010773974 -0.008113289 -0.013131501 0.0013334429 -0.010738249
0.0034378849 0.007936935 0.0015205549 -0.0031848997 0.0023186856 0.014367707 0.002347816 0.0013011054
0.007958376 -0.00028044794 -0.002547329 -0.0012333052 -0.011934118 0.0019143488 -0.005982594 -0.014234598
0.0020886862 0.013925201 -0.021421012 0.0060856696 0.0014714914 -0.0168218 -0.0049685272 -0.001534712
0.008265711 0.013672478 0.0032837894 -0.008642341 -0.0023505527 0.0021729935 -0.00183793 0.010117742
0.0017741589 -0.0015943954 -0.0019331804 0.008177313 -0.017861828 -0.0020603195 -0.020936582 0.005388648
00000000: b3ac 23bc 487e f6ba cff0 753c d4ef 993b
00000010: e70d 3c3c f21f 693b 382c 983c af01 28bc
00000020: 8adf 79bc 3784 3f3c 9725 b0bb 757b 7cbc
00000030: e891 64bc 281d 53bc 2754 b4bb fbad 31bc
00000040: 2ff4 dcba ab0b 9c3c 823a 7dbc 4349 3c3b
00000050: 33c1 42bc 6f3d 0b3a 4fb8 a13b 6a1d 55bc
00000060: 52f3 033c 4425 923c 636a 7cbc 58e0 45bc
00000070: b7c8 a43b b047 39bb 0f4f 0a3c fd7d 70bb
00000080: ecab 3b3b 1280 f4bb 6592 1d3b 3763 1fbb
00000090: dd1e a83a 22cc 613c 0700 f2bb 33a0 443c
000000a0: ffb9 92bc f369 83ba 92e8 693c 275f 0b3b
000000b0: cf8a b3bb ce44 393b ab60 55bb 8832 073c
000000c0: 9f12 a63b 7b72 c63b bfe0 85bc 908d 86bc
000000d0: f3c8 103b b1c1 393b b2f1 ab3b c316 5f3a
000000e0: 1a59 07bc 20e6 74ba 72ec 293c d3e7 4c3c
000000f0: af3a 0e3b ca8b 723c cf69 67bb 5556 ee3a
00000100: 9306 d9bb 6f82 23bc 3bba 5a3c 489d f33b
00000110: 0484 8dba 95ab 8e38 13f6 e0ba 452c f73b
00000120: df8e 9b3b 85b0 9cbb 604e 8abc 0605 1938
00000130: 3f35 4fbc b0d0 88b9 190a 2fbc 93f7 05bc
00000140: 31f7 b93c 0f80 12ba 0266 d23b 9d4b 6cbb
00000150: a7b1 2f3c 5b88 f83b 7e7a 813b dc86 1fbc
00000160: b3a9 45b8 1c18 b33b 0542 293c d582 77ba
00000170: dbba 3bbb 87a1 26bc d9f5 9cba 3801 0e3c
00000180: 2bed a23c 17da 873c bf16 6f3b 2b34 ab3a
00000190: b757 9cbb c279 693c e3f5 86bb ad5b 16ba
000001a0: e931 893b 828e 01ba 0850 70bb b3ac 2ebc
000001b0: 1ffa d338 e0a3 183a 26f4 39bb 0095 2f3c
000001c0: d68a 15bc 13e2 bf3b 95bf 1a3c f793 29bc
000001d0: ff2e 393c 5fdd b3bb b71b afbb ff8c d63b
000001e0: 4019 5b3b 1acd 52bb 933d 45bc 2b36 da3b
000001f0: 4e43 b43b 80bc dd3b c853 08ba c1bc 993b
00000200: f889 d7bb 2806 aeb9 9f57 f9bb b87e 003b
00000210: 2dfb 5f3c 9d29 25bb 357c 1d3c abc9 7abb
00000220: f548 da3b d7e6 92ba 5316 693c 308d fd3b
00000230: 7fac 81bb 73c6 33bc 38d7 46bc 9a76 b3bb
00000240: 58dd 293b 2368 31bb 95c3 953b 993d c1bb
00000250: 0d1b 923c 0cc2 9b3c 754d 743c e33c 4fba
00000260: 5eab 27bc bf66 263c e785 193c f74b 84bc
00000270: 251b c3bb 2f32 03bc 38a6 2f3c 812f a1bc
00000280: ecd0 313c 15dd 793c 9a98 163a d0aa df3b
00000290: c6f9 203b d2f6 1dbc 9fff fc3b 8795 08bb
000002a0: f84f d3b9 ddbc f93b 6d6d cdbb d30e 283c
000002b0: 4da4 ca3b 94ae 163c 27c9 9abb e4b6 183c
000002c0: cc53 3a3b 513e 3dbc 9773 6ebb 0bd7 62bc
000002d0: 3b07 f33b f727 1bbb b078 8bbc 083f bd3b
000002e0: 2ce0 07bc 1914 89ba 2a58 0e3c 0738 523c
000002f0: ab3b 56bb 0bab b4bc 2f7e 983a 14fb 8b38
00000300: 53f3 38bb 4182 c1bb 35db 65bb e763 033b
00000310: cd94 903a 3313 3d3b 973e a83c be28 ac3c
00000320: 5c8b bcbc 5de1 6d3b 0b44 763a 59da 293b
00000330: d521 993b d69b 84bc a2b8 3cbc 350c d3bb
00000340: b00c d33b 2983 15bc 21e2 133c 5285 303c
00000350: 9aed 04bc 8225 57bc ebc6 ae3a 7bef 2fbc
00000360: 234e 613b eb09 023c 5b4d c73a c0b9 50bb
00000370: 17f5 173b 8866 6b3c d1dd 193b da89 aa3a
00000380: d963 023c 1609 93b9 17f1 26bb dba6 a1ba
00000390: 5287 43bc e3ea fa3a a309 c4bb 3b38 69bc
000003a0: 57e2 083b 8726 643c 1e7b afbc 4c6a c73b
000003b0: 0fdf c03a dfcd 89bc 07cf a2bb 6428 c9ba
000003c0: e86c 073c 8702 603c d834 573b 9b98 0dbc
000003d0: bb0b 1abb c868 0e3b b2e6 f0ba e3c4 253c
000003e0: e58a e83a 08fb d0ba c562 fdba 23fa 053c
000003f0: f852 92bc 6d06 07bb 3283 abbc 4193 b03b

action_model._discrete_distribution.branches.2.bias f4 [2]
0.0 0.0
00000000: 0000 0000 0000 0000

network_body._body_endoder.seq_layers.0.weight f4 [128, 3]
-0.8771895 -0.20642515 0.3833131 -0.23847097 -0.85292906 -0.059504613 0.07304296 0.3967522
0.13201298 0.72892654 0.38292223 -0.3948055 -0.6469693 0.5919513 -0.5063376 -0.19543356
-0.022306073 0.007524444 0.6264474 -0.054349534 0.5280291 -0.5035373 0.82151496 -0.3475852
-0.17972924 0.22425291 -0.20464468 -0.0761378 -0.6057398 0.11772767 0.59161276 -0.53811705
0.4936416 -0.26041967 0.26449305 -0.024597568 0.6592126 0.68340176 0.14400814 -0.86620116
0.18500529 -0.4860619 0.28135082 0.57728857 -0.15723363 0.032149117 -0.19361761 0.48329335
1.0714495 -0.49213853 -0.35293275 -0.17778675 0.0666708 -0.09915134 0.050469484 0.18347448
-0.62920135 0.35097456 -0.17137243 -0.5431015 -0.22504549 0.41836804 -0.5833722 0.75672454
-0.57121766 -0.100673765 0.12291458 0.19173318 0.23535565 -0.060736224 0.3083547 0.28217554
0.3224701 1.4594976 0.19835807 0.026855694 -0.44319552 0.6148942 -0.2869582 0.42889243
-0.4607384 -0.43569058 -0.15920135 -0.31364816 0.3293998 -0.6504934 -0.61176085 0.29831854
0.15240486 -0.05554289 0.5383503 -0.31943604 0.104143836 0.4652234 -0.3139746 -0.1908183
0.26856512 0.23847586 0.19825949 0.044654258 -0.915008 -0.8256939 0.37902868 0.16730374
-0.22239523 -0.49826878 1.8038216 -0.22970708 0.096155815 -0.24947649 -0.14482407 -0.3682014
-0.49063045 0.550985 -0.510951 0.48173648 -0.51843184 0.40497747 0.22450668 -0.3298478
0.20972894 0.027319891 0.47647655 -0.5828587 0.08348011 -1.2697419 -0.10602911 0.050622404
0.23111372 -0.4950463 -0.34000033 0.29258057 -0.21507639 0.22211601 0.17720245 -0.17780955
-0.7634499 -0.09982597 1.137817 -0.0470256 -0.56814545 0.71127385 0.80656344 0.065711536
-0.087403156 -0.6842562 1.1092862 -0.2916167 0.7286191 -0.6434752 -0.8861337 0.20192151
-0.9292965 0.79236716 -0.010418289 1.2655667 -1.0200425 -0.23227622 0.075054035 0.3939526
-0.5168994 0.46811506 0.35202858 -1.0107234 -0.3449186 0.34269437 0.6308394 0.5131695
-0.28830874 0.70750844 0.25408828 0.13617441 -0.91460544 1.1109822 0.11215339 -0.19341019
0.30041185 -0.08434393 -0.2565052 0.53233725 -0.41114098 0.58423483 0.25169414 -0.4727362
0.06112524 -0.47326794 0.1974849 -1.0749106 -0.06476163 0.021392224 -0.31798506 0.115018845
-0.29517764 -0.056298416 0.399379 -0.2524782 0.45553324 -0.31094044 0.22708881 -0.46373802
0.22167082 -0.7112285 -0.091014765 -0.17214005 -0.002164703 0.32085907 0.8234661 0.22962484
0.22804129 0.12411126 -0.8415189 0.34713462 -0.2302486 -0.8998743 -0.3497387 -0.1590021
0.2253125 0.6074501 -0.11414342 -0.24047616 0.2920087 0.29655138 0.9989236 -1.2162846
-1.2032335 0.035379283 0.82996583 -0.97604066 0.33860877 0.0908311 0.41283327 -0.049556978
-0.42140833 0.07532793 -1.0791976 -1.2132252 -0.26495725 0.043003503 0.13147345 0.44557366
-0.07107095 -0.12112628 -0.15637742 0.18827271 0.5527403 -0.5459888 0.21654671 0.5001691
0.3975197 1.6051812 0.27820477 -0.48409528 -0.13064952 0.16361564 -0.85822976 -0.6048574
00000000: 7e8f 60bf 1d61 53be 9d41 c43e bc31 74be
00000010: 8f59 5abf 1cbb 73bd 8c97 953d 1b23 cb3e
00000020: 692e 073e ee9a 3a3f 620e c43e f223 cabe
00000030: c89f 25bf 1f8a 173f 579f 01bf bc1f 48be
00000040: 3abb b6bc 9c8f f63b db5e 203f 9e9d 5ebd
00000050: ea2c 073f d2e7 00bf ce4e 523f b0f6 b1be
00000060: f10a 38be 8ea2 653e 608e 51be 23ee 9bbd
00000070: c311 1bbf 341b f13d ef73 173f 0ac2 09bf
00000080: 97be fc3e ba55 85be a26b 873e d780 c9bc
00000090: 28c2 283f 6bf3 2e3f df76 133e 5cbf 5dbf
000000a0: 0772 3d3e 1bdd f8be 370d 903e 2fc9 133f
000000b0: da01 21be cbae 033d b243 46be 3a72 f73e
000000c0: 4225 893f 95f9 fbbe 9ab3 b4be bb0d 36be
000000d0: b38a 883d dc0f cbbd 17b9 4e3d bce0 3b3e
000000e0: 5713 21bf f0b2 b33e 417c 2fbe b308 0bbf
000000f0: 5372 66be 5634 d63e e157 15bf b3b8 413f
00000100: 523b 12bf 0c2e cebd a4ba fb3d b455 443e
00000110: 1201 713e 8cc6 78bd abe0 9d3e 5079 903e
00000120: cd1a a53e d1d0 ba3f 611e 4b3e 7900 dc3c
00000130: 86ea e2be b569 1d3f 2fec 92be ca97 db3e
00000140: e7e5 ebbe d612 dfbe ae05 23be 7e96 a0be
00000150: 17a7 a83e bc86 26bf 5c9c 1cbf 35bd 983e
00000160: 0510 1c3e f180 63bd 53d1 093f 1f8d a3be
00000170: 5d49 d53d c331 ee3e 47c1 a0be df65 43be
00000180: 5e81 893e 0433 743e 8904 4b3e 62e7 363d
00000190: f73d 6abf ad60 53bf 0c10 c23e ac51 2b3e
000001a0: 93bb 63be 161d ffbe a0e3 e63f 5538 6bbe
000001b0: 57ed c43d c476 7fbe c34c 14be e584 bcbe
000001c0: ea33 fbbe 5a0d 0d3f afcd 02bf 2aa6 f63e
000001d0: f3b7 04bf 3559 cf3e 14e5 653e d0e1 a8be
000001e0: 2fc3 563e f7cd df3c bcf4 f33e 3a36 15bf
000001f0: 9ff7 aa3d e786 a2bf ca25 d9bd 7059 4f3d
00000200: 13a9 6c3e b576 fdbe 8614 aebe 1fcd 953e
00000210: fc3c 5cbe 6172 633e 8f74 353e b513 36be
00000220: 7471 43bf 8f71 ccbd fda3 913f ea9d 40bd
00000230: fb71 11bf 0b16 363f f17a 4e3f c593 863d
00000240: 6d00 b3bd 6a2b 2fbf 17fd 8d3f c94e 95be
00000250: c886 3a3f caba 24bf a8d9 62bf 83c4 4e3e
00000260: 60e6 6dbf 93d8 4a3f 79b1 2abc 17fe a13f
00000270: c190 82bf d1d9 6dbe eeb5 993d 28b4 c93e
00000280: 8553 04bf c7ac ef3e 173d b43e 625f 81bf
00000290: 2c99 b0be a375 af3e b17e 213f 145f 033f
000002a0: 349d 93be 461f 353f dc17 823e 4e71 0b3e
000002b0: 9523 6abf aa34 8e3f adb0 e53d 520d 46be
000002c0: 95cf 993e 83bc acbd a654 83be 4147 083f
000002d0: 1281 d2be 6a90 153f 0ede 803e 7b0a f2be
000002e0: 765e 7a3d 2d50 f2be 7b39 4a3e ac96 89bf
000002f0: bfa1 84bd bf3e af3c f0ce a2be 008f eb3d
00000300: 8621 97be 2b99 66bd 677b cc3e d344 81be
00000310: a73b e93e 9633 9fbe f889 683e 126f edbe
00000320: adfd 623e 1213 36bf f365 babd 7b45 30be
00000330: b1dd 0dbb a447 a43e adce 523f c622 6b3e
00000340: a883 693e 0b2e fe3d c86d 57bf a1bb b13e
00000350: 4ac6 6bbe 2a5e 66bf f310 b3be 72d1 22be
00000360: 52b8 663e da81 1b3f 06c4 e9bd 623f 76be
00000370: 2a82 953e 95d5 973e 75b9 7f3f 37af 9bbf
00000380: 8e03 9abf dee9 103d a478 543f cddd 79bf
00000390: 215e ad3e a805 ba3d e25e d33e 42fc 4abd
000003a0: d5c2 d7be 8845 9a3d 2623 8abf f74a 9bbf
000003b0: 7aa8 87be 7124 303d faa0 063e 3b22 e43e
000003c0: a58d 91bd 0e11 f8bd 6721 20be 90ca 403e
000003d0: 6380 0d3f ecc5 0bbf 6cbe 5d3e 150b 003f
000003e0: b487 cb3e 9476 cd3f db70 8e3e 56db f7be
000003f0: fdc8 05be dc8a 273e f2b4 5bbf efd7 1abf

network_body._body_endoder.seq_layers.0.bias f4 [128]
0.0 0.0 0.0 0.0 0.0 0.0 0.0 0.0
0.0 0.0 0.0 0.0 0.0 0.0 0.0 0.0
0.0 0.0 0.0 0.0 0.0 0.0 0.0 0.0
0.0 0.0 0.0 0.0 0.0 0.0 0.0 0.0
0.0 0.0 0.0 0.0 0.0 0.0 0.0 0.0
0.0 0.0 0.0 0.0 0.0 0.0 0.0 0.0
0.0 0.0 0.0 0.0 0.0 0.0 0.0 0.0
0.0 0.0 0.0 0.0 0.0 0.0 0.0 0.0
0.0 0.0 0.0 0.0 0.0 0.0 0.0 0.0
0.0 0.0 0.0 0.0 0.0 0.0 0.0 0.0
0.0 0.0 0.0 0.0 0.0 0.0 0.0 0.0
0.0 0.0 0.0 0.0 0.0 0.0 0.0 0.0
0.0 0.0 0.0 0.0 0.0 0.0 0.0 0.0
0.0 0.0 0.0 0.0 0.0 0.0 0.0 0.0
0.0 0.0 0.0 0.0 0.0 0.0 0.0 0.0
0.0 0.0 0.0 0.0 0.0 0.0 0.0 0.0
00000000: 0000 0000 0000 0000 0000 0000 0000 0000
00000010: 0000 0000 0000 0000 0000 0000 0000 0000
00000020: 0000 0000 0000 0000 0000 0000 0000 0000
00000030: 0000 0000 0000 0000 0000 0000 0000 0000
00000040: 0000 0000 0000 0000 0000 0000 0000 0000
00000050: 0000 0000 0000 0000 0000 0000 0000 0000
00000060: 0000 0000 0000 0000 0000 0000 0000 0000
00000070: 0000 0000 0000 0000 0000 0000 0000 0000
00000080: 0000 0000 0000 0000 0000 0000 0000 0000
00000090: 0000 0000 0000 0000 0000 0000 0000 0000
000000a0: 0000 0000 0000 0000 0000 0000 0000 0000
000000b0: 0000 0000 0000 0000 0000 0000 0000 0000
000000c0: 0000 0000 0000 0000 0000 0000 0000 0000
000000d0: 0000 0000 0000 0000 0000 0000 0000 0000
000000e0: 0000 0000 0000 0000 0000 0000 0000 0000
000000f0: 0000 0000 0000 0000 0000 0000 0000 0000
00000100: 0000 0000 0000 0000 0000 0000 0000 0000
00000110: 0000 0000 0000 0000 0000 0000 0000 0000
00000120: 0000 0000 0000 0000 0000 0000 0000 0000
00000130: 0000 0000 0000 0000 0000 0000 0000 0000
00000140: 0000 0000 0000 0000 0000 0000 0000 0000
00000150: 0000 0000 0000 0000 0000 0000 0000 0000
00000160: 0000 0000 0000 0000 0000 0000 0000 0000
00000170: 0000 0000 0000 0000 0000 0000 0000 0000
00000180: 0000 0000 0000 0000 0000 0000 0000 0000
00000190: 0000 0000 0000 0000 0000 0000 0000 0000
000001a0: 0000 0000 0000 0000 0000 0000 0000 0000
000001b0: 0000 0000 0000 0000 0000 0000 0000 0000
000001c0: 0000 0000 0000 0000 0000 0000 0000 0000
000001d0: 0000 0000 0000 0000 0000 0000 0000 0000
000001e0: 0000 0000 0000 0000 0000 0000 0000 0000
000001f0: 0000 0000 0000 0000 0000 0000 0000 0000
