Assets/Models/model_3.onnx (onnx, 73826 bytes, 6 tensors)

action_model._discrete_distribution.branches.0.bias f4 [4]
00000000: 6ae9 24bb 69dc 803c 94da 08bc 5978 d5bb
-0.002516354 0.0157301 -0.008352894 -0.0065145907

action_model._discrete_distribution.branches.0.weight f4 [4, 128]
00000000: 39d3 d4bc ef14 223d ce24 343d 8a78 43bd
00000010: 3325 f73c 0a3d 11bc 74ba d93a dda7 dcbc
00000020: e3ea aabc 7115 72bd 967b b6bc 6361 d4bb
00000030: 7bde 5fbd 979d 56bd e047 7cbd 2956 1b3d
00000040: 0a9a 38bd d7e0 2fbd 7337 943d 18e3 80bd
00000050: 3535 2dbd 7ed5 78bd fa1c 19bd 1ff7 5c3d
00000060: 862e 52bd 6a7a c2bc 4bab a23c 9183 633b
00000070: 49a6 e03c 63ef e13a 68da fe3c a30d 4bbd
00000080: 3aca f5bb 7c0c 0ebd f026 e23b e3a7 b9bb
00000090: 4b3d e2bc 63bc 4dbd 1901 27bd a365 3abd
000000a0: 1a95 843d 1e5a 43bd 1f3f adbc 0c6c 57bb
000000b0: 7f4c b7ba f3d7 753d 67fa 5abd 63c4 e7bc
000000c0: b10f 98bc 3604 b23b ed3e 80bc 40e2 96bc
000000d0: afab 3cbd a7bb 9cbc 68e6 513d 3b3c 45bd
000000e0: 3668 823c f52f 5ebd 3dcc 5f3d 85a0 ef3c
000000f0: 826f 5e3c 157c 543d 8a2a 7f3c 3aba 14bd
00000100: 2cb7 b5bc 9579 ac3c 2dfd 423d 0e31 323c
00000110: d9d5 493c 4215 69bd 3006 a6bb 3014 be3b
00000120: b91c a83c 9d83 25bd 021e 2bbd c21e ee3c
00000130: b6a6 5bbd 5efd 5a3c b83d 47bd 9485 dcbc
00000140: d3bb 2bbd 9741 533c c926 353d d5df be3c
00000150: c690 0abc ac31 00bd eaa8 04bd 4df3 35bb
00000160: 9a71 24bd da87 3e3d 2944 1abc d9d6 76bc
00000170: fc24 92bc af36 693d 086a cd3c 93d7 afbc
00000180: cc7d 2fbd 11a2 983d 03b3 e73c bf23 e23c
00000190: 1314 7a3d 7e5b 663c 982b 40bd 0450 743c
000001a0: d0b1 75ba 9209 d93c 9c5b 083b dcaf 21bd
000001b0: 6002 81bd 36de e33c b7f7 3dbd 59ea 333c
000001c0: 9ff8 ea3a 8031 2f3d cf38 aabc 12c4 a2bb
000001d0: 04e6 bb3c d580 1a3d 9958 263d 40cb dabc
000001e0: 1cdc 74bd eab8 d0bb 47ae 15bd 2442 6f3d
000001f0: 8917 4d3d 6ad9 50bd 8b88 0cbd 6f6f 77bb
00000200: 495d 313d 6dcb 7cbd d6ef fbbc 48ce bb3c
00000210: a00e 2cbd a3e4 ee3c 47cf a23b f2e0 29bc
00000220: 4b64 54bc 8b76 cb3c f173 e23c 9d92 c33b
00000230: 4d1a 8a3d 4d7a 303d 488b 6f3c ee40 30bd
00000240: eac9 a33c 579d b53c 8ccf aebd 5fc4 513d
00000250: 1084 e03a ce9b 143d 79c2 49bb b286 64bd
00000260: 369b bf3c e56a 4fbc e59a f43b ae33 dfbb
00000270: 1cdb 843c c40d 01bd add7 55bd 5481 313d
00000280: 8d57 26bd 4d7b 193d 8f52 813c db93 05bb
00000290: a183 373c 9083 173d 45c1 643c fd27 123d
000002a0: f5c1 f4bc a1b8 9c3c 2a56 883b 156f 1bbc
000002b0: e6f2 ecbc c061 14bd f0ce 2b3d 5f80 ee3c
000002c0: 6bf4 923b 8cb4 10bd 4819 1bba 8283 c13c
000002d0: 4536 153d 868e 53bc adfc 60bd 4b21 073d
000002e0: 8388 10bd 1437 103d a57d 31bd d1f7 67bd
000002f0: db34 2ebd c46f 3cbd 9ab6 75bc ed5b 813c
00000300: 8089 b03c 134a e3bc 0063 d4bc 874c 993c
00000310: 2637 b2bc 3e2b 483d 02f1 b83b e352 b5bb
00000320: d9a5 02bd 23b5 eb3c fdcd 2c3d 9ed2 cfbc
00000330: 8373 1a3d acc1 e5bc 851d 653d 8fb0 1a3d
00000340: 2614 6b3d 8d68 52bc 8397 88bd c8e6 44bd
00000350: 0d7b d2bc de4b 5b3d 8ab9 063d 75a9 753a
00000360: 6b09 ad3c 8633 5bbd a0d2 8b3c f95f 273d
00000370: 9107 9d3c 4980 6dbd 54f6 adbc 5d31 f63c
00000380: 10f5 093d 2007 b5bd 981c 3cbd 4235 53bd
00000390: a50a 31bd 54fe 8dbd a56e 003d 85b8 1abd
000003a0: 0305 b93c 463e 34bd e9c2 02bd 4221 fe3c
000003b0: 26c0 223d e156 b4bc df69 253d dd0b 4dbc
000003c0: f9f3 02bc e02a 993a ae5e fc3c d2a3 a53c
000003d0: 984d 8e3b 1ed3 1bbd 8879 49bc ea96 1d3d
000003e0: 576a 173d 8be5 093c d843 033d 3a7e 95bd
000003f0: a167 a0bd c414 1c3d ba68 d13b feff 703b
-0.025979625 0.039570745 0.043980412 -0.047722377 0.030169105 -0.0088646505 0.0016611353 -0.026935512
-0.020863956 -0.05910248 -0.022275727 -0.006481336 -0.054655533 -0.052396383 -0.061591983 0.037923966
-0.045068778 -0.042939033 0.072371386 -0.06293315 -0.04228707 -0.060750477 -0.03738115 0.05394661
-0.0513139 -0.023740012 0.01985707 0.003471587 0.027423041 0.001723748 0.031110004 -0.049573552
-0.007500914 -0.034679875 0.0069016144 -0.0056657656 -0.027617117 -0.050228488 -0.04077253 -0.045507085
0.06473751 -0.047693364 -0.021148263 -0.0032870797 -0.001398459 0.0600204 -0.05346146 -0.028291887
-0.01856217 0.005432631 -0.015655005 -0.018418431 -0.046062168 -0.019132448 0.051245123 -0.048153143
0.015918832 -0.054244954 0.054638136 0.029251346 0.01357639 0.051876146 0.015574107 -0.036310412
-0.02218207 0.021054069 0.04760473 0.010875953 0.012319052 -0.05690504 -0.0050666556 0.0058007464
0.020521509 -0.04040872 -0.041776665 0.0290674 -0.053625785 0.0133660715 -0.048642844 -0.026919164
-0.04192717 0.012894056 0.04422644 0.02330009 -0.008457368 -0.03129737 -0.03238765 -0.0027763427
-0.0401474 0.046516277 -0.009415665 -0.015065872 -0.017839901 0.056936916 0.025074974 -0.021465098
-0.04284458 0.07452787 0.028283602 0.027604936 0.0610543 0.014059899 -0.046916574 0.014911655
-0.00093725044 0.026493821 0.0020806557 -0.039474353 -0.06299281 0.02781592 -0.046378817 0.010981166
0.0017926878 0.042771816 -0.020779042 -0.004967221 0.022936828 0.03772052 0.040611837 -0.026708245
-0.059780225 -0.0063696997 -0.036543157 0.058412686 0.050071273 -0.050988592 -0.034309905 -0.0037755629
0.043301854 -0.06171744 -0.030754011 0.022925511 -0.042006135 0.029161757 0.004968557 -0.010368573
-0.012963365 0.0248368 0.027643176 0.0059684054 0.06743298 0.043085385 0.01462061 -0.04303067
0.019993741 0.022169752 -0.0853568 0.051212665 0.0017129201 0.0362814 -0.003078608 -0.055792518
0.02338944 -0.012659763 0.007464754 -0.0068115806 0.01621776 -0.03150727 -0.052207638 0.043336228
-0.04061084 0.037471104 0.015786437 -0.0020382318 0.011200816 0.036990702 0.013962095 0.035682667
-0.029877642 0.019131007 0.004160662 -0.009486933 -0.028924417 -0.036226034 0.041945398 0.029113946
0.0044847033 -0.035328433 -0.0005916548 0.023622278 0.03642871 -0.012912398 -0.05492847 0.032990735
-0.035286438 0.035208777 -0.043332715 -0.05663282 -0.042530876 -0.046005026 -0.014997149 0.015790904
0.02154994 -0.027745282 -0.025926113 0.018713249 -0.021754812 0.048869364 0.0056439647 -0.0055335625
-0.031896446 0.028772896 0.042188633 -0.025368985 0.037707817 -0.028046452 0.055936355 0.037766036
0.057392262 -0.01284231 -0.066695236 -0.048071653 -0.02569344 0.05353915 0.032891788 0.00093712594
0.021122655 -0.053515933 0.017068207 0.04086301 0.019168647 -0.05798367 -0.021235622 0.030052835
0.033680975 -0.088392496 -0.045925707 -0.051564462 -0.043223042 -0.06933275 0.03135552 -0.037773628
0.022585398 -0.0440047 -0.031924162 0.031021718 0.03973403 -0.022014083 0.04038417 -0.012515035
-0.007992738 0.0011685751 0.030806866 0.020219717 0.004342746 -0.038043134 -0.012297042 0.038474
0.036966648 0.008416544 0.032047123 -0.072994664 -0.07832266 0.03810574 0.006390658 0.0036773677

network_body._body_endoder.seq_layers.0.bias f4 [128]
00000000: 4155 073c 3f9c 9e3d cbd1 fb3c 754d 563d
00000010: d084 153d ede8 053d 591f 023d 9583 2f3d
00000020: 1f34 673d 98ea 893d 76ed 633d 8740 f33a
00000030: a7d9 a33d a566 583d 61f0 b43c 8097 353c
00000040: 43b4 4b3d d154 5b3d 837a 973d 5e6c f93b
00000050: 55ff 7f3d acb9 393d 1416 5f3d 16dd a6bc
00000060: 84e1 6e3d 212f 2b3d 546c 043d 82c8 013d
00000070: e12d b93c c6e0 963d 6a10 813d 12cf 7b3d
00000080: 3c32 003d 51a9 0f3d c686 2b3d aae9 673d
00000090: 5539 873d fdad 423d 2d7b 153d 8ebb 923d
000000a0: 5835 cb3c 60d4 943d d9fb 6d3d 6f9e 5e3d
000000b0: 6589 f63a edc7 9f3c 8532 583d 7413 2f3d
000000c0: e746 533d 6be0 f3bc b89b 8b3d 6b34 813d
000000d0: af50 7d3b c975 4f3d ba6f 6f3c 1c47 26bc
000000e0: d688 8d3d bc36 af3d 41db 583d 4f21 633d
000000f0: 46fa 783d 8100 8a3c ff94 553d 18fb 5a3d
00000100: 47d6 883d 2b8e 483d bc41 483d 1137 ce3c
00000110: 5f8d 3d3d 2814 343d dbc3 353d 2087 6e3d
00000120: 807e 623d 384a 723d 4927 a23d 5ba3 793c
00000130: 1aad 8e3d 933e a03c 685c fc3b b545 f43b
00000140: 11c6 453d c8c9 983d c46e 673b 5b74 1d3d
00000150: f276 493d 3b3a 553d 8e00 333d 5d04 fa3c
00000160: 07f5 803d 0748 803d cdab ec3b e0dd 383d
00000170: 9ee3 a83d 6214 4d3d c23f 413d efa9 1e3d
00000180: 2f1f 473d 6243 6f3d c617 2a3d 7c83 6f3d
00000190: a774 2a3d 9997 bb3c 5ad8 d13c 8fb2 433d
000001a0: c55a 383d 94c9 4a3d 79e0 5d3d 2ec0 21bd
000001b0: 7452 463c c7f7 8a3d 52ec 233c 3e0e 873d
000001c0: 7371 1e3d bcd3 833d 2157 f03c 894b 853d
000001d0: 1324 2e3d 171d 923d 9343 243d 12d5 a73d
000001e0: 238d c13c 824c 273d 7c48 943d f1ee 053d
000001f0: 19be 5b3d b4ef 6c3d 9474 6f3d b510 303d
0.008260072 0.07744645 0.030739686 0.052319963 0.036503613 0.03269284 0.031768177 0.042850096
0.05644619 0.06734198 0.055646382 0.0018558659 0.08000498 0.052832264 0.022087278 0.011083484
0.049732458 0.053547684 0.07396414 0.0076117953 0.062499363 0.045343086 0.054464415 -0.020369094
0.058320537 0.041792993 0.032329872 0.03168536 0.022604885 0.07367091 0.06301959 0.061476775
0.031297907 0.035073582 0.041876577 0.056619324 0.06602732 0.04752921 0.036494423 0.071646795
0.02480571 0.0726707 0.05810151 0.054350313 0.0018809257 0.019504512 0.052782554 0.04274316
0.05158129 -0.029770097 0.0681681 0.06308826 0.0038652827 0.050649438 0.01461404 -0.01014879
0.06910865 0.08555362 0.05294347 0.055451687 0.060785554 0.016845943 0.052144047 0.053462118
0.06681495 0.048963707 0.048890814 0.025172742 0.0462774 0.043964535 0.044376235 0.058234334
0.05529642 0.05915281 0.07917649 0.015236701 0.0696661 0.019561088 0.0077014454 0.007454599
0.048284594 0.07460362 0.0035313824 0.038441043 0.0491857 0.052057486 0.0437017 0.030519659
0.06296735 0.06263738 0.0072226287 0.04513347 0.082465395 0.050068267 0.047179945 0.03873628
0.048613723 0.05841387 0.04152658 0.058475003 0.041615155 0.022899436 0.02561586 0.04777771
0.04500844 0.049508646 0.054169152 -0.039489917 0.012104619 0.06785541 0.010005074 0.06594513
0.038682412 0.064368695 0.029338421 0.06508548 0.04251487 0.07134455 0.040103506 0.08194937
0.02362687 0.040844448 0.07240388 0.032698575 0.053648088 0.057845786 0.058460787 0.042984683

network_body._body_endoder.seq_layers.0.weight f4 [128, 6]
00000000: 3b85 313f 0f07 0d3f cc20 ecbe 4ab9 ecbe
00000010: a565 d2be 042c 0dbe bd9e e0bd 47a5 66be
00000020: 1ae0 f2be 7ae5 413e cb53 4abf 6852 fc3e
00000030: 3748 8e3e 41e7 dcbe b019 073f f8c5 043d
00000040: 2687 ef3e cd37 013f 41bb 7f3f b5dd a7ba
00000050: cd88 d63b 3d59 4abe cdf2 12bd f979 91be
00000060: a82a 963e a079 0fbe 2f67 c03e 9327 9fbe
00000070: ae56 c3be 49fa ba3d fe59 c43d ad61 69be
00000080: 6b7e 15be 7ab8 96be 5004 90bd 1bfd 413f
00000090: 340d 473c cb6c 8ebe 3501 babe ab10 e1bd
000000a0: 1113 4d3f d5e7 2b3d dae9 84be 3d45 57bf
000000b0: 7ee6 d73e e61f b83d 74f9 10be f646 383e
000000c0: 2031 3fbe 5c90 823c b0a2 c1bc b076 00bf
000000d0: bd72 e5bc 78c5 d7bd c37e 0dbf f09a ddbe
000000e0: 8321 12bf d3ed e5be abef 40be c571 8c3d
000000f0: 13cb 68bf 756a 033f 39aa b9bc e15e 4d3e
00000100: c6a5 c9be 782d 24bf 11db 173e 137b 10be
00000110: 1ef2 263e 8b2b abbe 9de7 993c 171d 32bf
00000120: f329 a83e 266c 813e 3121 51bf 4983 943e
00000130: 4d44 5a3e 8612 03bf 8c57 0e3d 1769 ff3e
00000140: e939 a0be 6897 b3be dbd9 b4bb 8b23 1ebf
00000150: 45fc c0bd 8068 05be 30d3 c33e fa40 943e
00000160: db26 dfbd ae02 623e 37f7 88be 3e2a 353e
00000170: 0bbe fe3e 687e 3cbf 0fc3 5b3f fbe6 f8bd
00000180: a9a9 c73e b2b7 5a3e b291 da3d 228f 9f3e
00000190: 12c1 673d 0f65 eb3d e144 67be f0b8 c93e
000001a0: d34d ad3e 373c 68bf b1c5 0cbe b76c babe
000001b0: 6137 16bf a628 403f b866 ddbe 29f3 863e
000001c0: c8d1 05bf 344e 2ebf a8b4 1cbf 3e4f 3e3c
000001d0: b71f acbe b8fb 253f e3a8 1abf 595c 74be
000001e0: c3fd 613b 3e82 3a3f a8b9 833e 73b4 b03e
000001f0: d06b e9be dd1d 013e e6d9 73be d2e8 d73d
00000200: 6863 b3be 9813 483d e709 3c3d c1d0 06bf
00000210: 4a7e b23e 048b 203d 9734 0bbe 4519 edbe
00000220: adcd 95bd d4fa 35bf 90c7 563f f4c2 c83e
00000230: faca 7d3f ac84 8c3f 9ef2 773e fd93 43bf
00000240: 5d7c 433f 5cbe df3d d209 4fbe c43e c9be
00000250: 140b 2abf f0f4 eabe 9805 2ebf 3ad3 a53c
00000260: a518 b13d d603 5d3d 297d f83d 2a03 833e
00000270: 122a e4be 0a75 09be 3b1b 803f 34d5 cfbe
00000280: b24c c03e 69e3 7abb a37a c53e 479d 693e
00000290: bef0 16be 1d39 cd3e 3c7d 58be 5085 a1bc
000002a0: 6d2e 363c 96b8 e3be a8e3 2f3f ea5b af3e
000002b0: d9bb c7be 51a9 173f b2b5 66be fa6d 993e
000002c0: 1c23 afbe 0c0c 603e 6556 07bf 3343 603e
000002d0: 28f5 e7be eff5 4abf 41f2 2f3d e21d 253c
000002e0: 1f0c 0c3f 918e a3be c5bb ed3e c488 3bbe
000002f0: 79ef f3be e191 fc3c 0bfd c33e 4a3f 3cbe
00000300: e0e0 99be 285a 433e a036 303e c278 a9be
00000310: a554 2ebf 43cb a3be d726 0d3f a01e 1a3f
00000320: 019f 9f3e 97cd b83e c9c4 adbe c131 503d
00000330: ddc7 97be 0862 17be eebe c2bd e40a 02bf
00000340: cf07 19be 4667 f2be 3942 dabe aacc c5bd
00000350: 7e7a 25be 1387 f8be 3c0d 663e 54c6 003f
00000360: 3629 2c3f 58d5 03be ff07 e83d 1f6d 0bbf
00000370: d27a 1e3e 1093 8f3e e61d 9cbe 7925 71bf
00000380: 5491 bd3c 9254 9e3e 75e5 e1be 9570 8abf
00000390: 431c 22bf a47a 01bf 0bde 413e de68 b83e
000003a0: 9b9d cfbd 2dca c73e 4532 98be 6357 25be
000003b0: 0c89 0e3f c16e 2f3e 1f3b 093f b44d 8c3e
000003c0: e4b3 413e 8d6a 1fbf 3045 a23e a6ff 303d
000003d0: d523 923d 60da 423f 0076 133f a332 b33e
000003e0: df54 c83e 8822 d6be 4042 a6be 023b bebd
000003f0: 4e25 043f 625c 4c3f 25ba aa3f ad20 273d
0.6934392 0.55088896 -0.46118772 -0.46235114 -0.41093174 -0.13786322 -0.10967777 -0.22523986
-0.474366 0.18935195 -0.7903411 0.4928162 0.2778947 -0.43145183 0.5277357 0.03241536
0.46782798 0.5047577 0.998951 -0.0012807163 0.0065470696 -0.19760604 -0.035876084 -0.2841337
0.2932942 -0.1401124 0.37578723 -0.3108488 -0.3815207 0.09129769 0.09587477 -0.22791167
-0.14599006 -0.2943762 -0.070320725 0.75776833 0.012149144 -0.27817377 -0.36329046 -0.10989507
0.8010722 0.04196914 -0.25959665 -0.84090024 0.4216804 0.08990459 -0.14157659 0.1799582
-0.18671083 0.015937977 -0.023637146 -0.501811 -0.028008813 -0.10535711 -0.5527155 -0.4328227
-0.57082385 -0.44908008 -0.18841426 0.06857637 -0.90934867 0.51334316 -0.022664176 0.20055725
-0.39384288 -0.6413188 0.14829661 -0.14109449 0.16303298 -0.33431658 0.0187872 -0.6957564
0.32844505 0.25277823 -0.8169127 0.29006413 0.21315117 -0.5120014 0.03475146 0.49884865
-0.31294182 -0.3507645 -0.0055191345 -0.61772984 -0.094231166 -0.13028145 0.3824706 0.28955823
-0.10896083 0.22071335 -0.2675111 0.17691895 0.49754366 -0.7363038 0.8584451 -0.12153431
0.38996628 0.21359137 0.106723204 0.3116389 0.05658061 0.11493885 -0.22584869 0.3939891
0.33848438 -0.9071688 -0.13747288 -0.36411068 -0.5867825 0.75062025 -0.4324243 0.2635739
-0.52273226 -0.6808808 -0.6121316 0.0116155725 -0.33617947 0.6483722 -0.6041395 -0.23863353
0.003448353 0.72854984 0.25727582 0.34512672 -0.45590067 0.12609048 -0.2381359 0.10542454
-0.35036778 0.04884681 0.04590788 -0.52662283 0.34861976 0.039195076 -0.1359428 -0.46308342
-0.0731462 -0.7108586 0.8389826 0.39211237 0.9913784 1.0977988 0.24213645 -0.7639769
0.7636164 0.1092498 -0.2021859 -0.393057 -0.66423154 -0.45889997 -0.67977285 0.020242322
0.08647279 0.053958736 0.121332474 0.2558835 -0.44563347 -0.13423553 1.000831 -0.4059235
0.37558514 -0.003828252 0.38570127 0.22813903 -0.14740273 0.40082636 -0.21141523 -0.019716889
0.011119467 -0.44476765 0.6870675 0.34249812 -0.39010504 0.5924273 -0.22530249 0.29966718
-0.34206474 0.21879596 -0.528662 0.21900634 -0.45304227 -0.79281515 0.04295564 0.010077925
0.54705995 -0.31944707 0.4643232 -0.1831389 -0.4764364 0.03083128 0.38278994 -0.18383518
-0.30054379 0.1907736 0.17208338 -0.33099943 -0.6809791 -0.31991014 0.5513739 0.6020298
0.31175998 0.36094353 -0.33939198 0.0508287 -0.2964467 -0.1478349 -0.09509073 -0.5079787
-0.14944385 -0.47344416 -0.4262865 -0.09658177 -0.16160008 -0.48540553 0.22465986 0.50302625
0.6725038 -0.12874353 0.1132965 -0.5446338 0.1547654 0.28041887 -0.3049156 -0.94197804
0.023140587 0.30923897 -0.44120374 -1.0815607 -0.63324374 -0.5057776 0.18932359 0.36017507
-0.10137483 0.39021435 -0.29725853 -0.16146617 0.55677867 0.17132093 0.53605837 0.27403033
0.18916279 -0.6227196 0.3169341 0.043212555 0.07135741 0.76114464 0.5760193 0.3499957
0.39127252 -0.4182322 -0.3247242 -0.092885986 0.5161942 0.79828465 1.3338057 0.040802646

network_body._body_endoder.seq_layers.2.bias f4 [128]
00000000: 32e6 0c3d 5c57 403d 25e6 f93c 7482 663d
00000010: 5549 b23c f292 283d 7a41 913d 15f5 753d
00000020: c27f 513d 192a 5e3d e4ef 463d acf8 433d
00000030: fa6d 883d fcef 6e3d cb05 1e3d 3cce 083d
00000040: 7125 433d 9d96 443d a76e 343d 8b18 833d
00000050: 46ff 073d c2ba 883d 83c9 f63c 12c0 203d
00000060: b9fe 3c3d 6ae7 343d e330 9d3c c3e0 633d
00000070: 721d c93c c45e 343d 91dd 153d 6b1f 283d
00000080: 2cfd 863c ca50 f53c cee7 ce3b e8f9 db3c
00000090: f914 813c 555e 0b3d a3ef 7a3c 2ce4 663d
000000a0: 07c2 5b3d e2a2 5d3d d661 e03c c9bb 503d
000000b0: 7b12 763c cd86 ee3c 71ac 4c3d 13ba 013d
000000c0: 2791 d73c 0cfc a33c 97de 07bb 7e6c 5a3c
000000d0: 7c85 823d 71d5 423d 6f56 4e3d aac1 2f3d
000000e0: ddba 0a3d 45db 583d c1e5 1f3d 4979 423d
000000f0: f5e7 4c3d 8b99 5a3d 425a 563d 1bd4 593d
00000100: e616 8a3c 348a 7f3d 28ee 273d 7044 6a3c
00000110: 3a2d fa3b fa89 653d cdc3 483d f63a ec3b
00000120: 9b25 893c 4d50 e73c 3fe4 843d d897 ab3c
00000130: 8df1 5e3d 09b6 a5bb 626b 623d ab15 2b3d
00000140: afbd 683d 5d84 1e3d 9b1d 193d 1712 cf3c
00000150: edd2 bf3c 4bfc 213d dc49 2f3d db1a 243d
00000160: 11d2 053d a9d2 603d e6b5 3a3d 910b d53c
00000170: fc0b 003d 2f12 273d d57d 04bc edd9 1f3d
00000180: 322d 313d 0c86 803d a8e9 e73c 49d3 b639
00000190: 78d9 203d caaa b03c 781b 443d 6818 da3c
000001a0: ac15 f33c d965 b43c 6d9b 333d 899b 523d
000001b0: 5fe7 613d 1df3 253d 62e5 593d d52d 523d
000001c0: f3d2 573b 24fc d63b 6c2e 5d3d b812 c63c
000001d0: 5291 193d 860e 313d 2253 dc3c 4715 493d
000001e0: abb7 613d 3835 503d 3205 663d 1a8b 773d
000001f0: 628b 5c3d 52bd 5e3d 701a cc3c 4237 dc3c
0.03439922 0.046958312 0.03050525 0.056276754 0.021763483 0.041155763 0.07092567 0.06004818
0.05114723 0.054239366 0.04856862 0.047844574 0.06661601 0.058334336 0.038579743 0.033399805
0.04764313 0.0479952 0.04405084 0.064011656 0.033202432 0.06676246 0.030125385 0.039245673
0.04614136 0.044166006 0.01918835 0.05563427 0.024550173 0.044035688 0.036588255 0.041045588
0.016478144 0.02994575 0.0063142544 0.026852563 0.01575707 0.03402551 0.015315923 0.056369945
0.053651836 0.054110415 0.027390402 0.050960336 0.0150190545 0.029117012 0.04996914 0.031671595
0.026314331 0.020017646 -0.002073204 0.013331531 0.063731164 0.047566835 0.0503754 0.0429093
0.033869613 0.052943487 0.03903747 0.047478948 0.0500259 0.053369086 0.05233217 0.053180795
0.016856622 0.06238766 0.040998608 0.014298543 0.007634786 0.056039788 0.049014855 0.007209177
0.016741564 0.028236533 0.06488847 0.020946428 0.05442958 -0.0050571007 0.05527819 0.04176871
0.05682152 0.03870045 0.03738175 0.02527718 0.023416007 0.039547246 0.042795047 0.040064674
0.032671038 0.0548884 0.045583628 0.026006492 0.03126143 0.040788826 -0.008086641 0.03902619
0.043255992 0.062755674 0.028309658 0.00034871165 0.039269894 0.021565814 0.04787776 0.026622966
0.02967342 0.022021221 0.043849397 0.05141786 0.055152293 0.040515054 0.053197272 0.05131324
0.0032932132 0.006560819 0.05399935 0.024178848 0.037492104 0.04322674 0.02689511 0.049092557
0.0551068 0.050832003 0.0561573 0.060435392 0.053843863 0.05437977 0.02491495 0.026881818

network_body._body_endoder.seq_layers.2.weight f4 [128, 128]
00000000: c470 c83c 6741 cebd b8e6 9cbb 3884 06be
00000010: 9eac b3bd 9fc6 42be 08f5 40bd bfd5 453e
00000020: e5e8 c5bd 3eb4 653d 880d ae3d 0b0e 33bd
00000030: 678e 8fbc 8e50 f53d ed81 d7bd eacd 373c
00000040: a900 c33d 5c6f 063b e97e 833e a637 d2bc
00000050: 87c7 0e3e b5b6 9a3d fd80 5d3e fe76 fcbd
00000060: b8ae 56bd 2ea8 a33d d501 e9bc 1ea4 66bd
00000070: 0458 473d bf61 f03d e1a0 38bd 43a2 603d
00000080: 7d1e 7e3d c966 07be 765e 6d3d 3e6b 12bd
00000090: 3f47 453d b8ce ecbc fcfc 563d 97e8 d93d
000000a0: 6e7a 9cbd ce0f 9a3d a571 c13c 06c1 d63d
000000b0: 11e8 763b ecfe 81bc b6cd 0bbd 7e83 2d3c
000000c0: 9c2a 91bc ba13 b63d c46e f8bd 36f6 0ebe
000000d0: b146 a83c 3866 17bd f123 b8bd 86ea 7fbc
000000e0: 18ca c33d 9219 343d 9c5e 37be 3a17 b03d
000000f0: f43c 0b3d 87b7 56bd 4f05 d4bd cba7 a1bd
00000100: f5bb bcba 8042 e93c 70e7 9b3c 3129 a63c
00000110: 9af8 c9bd d140 733e c449 0bbe e492 243e
00000120: 852a 9d3d 6100 66bd aba2 43bd 851d 8bbd
00000130: cd30 293e 54f8 fcbc 14d8 3a3e 5382 63bd
00000140: f41e f13d 746e e83d bdb5 2d3d 17d7 6a3c
00000150: 7994 a9bc e54a 2cbd 3391 0c3e 2288 b0bd
00000160: 1cd2 b33c 33cc 26be e38e 2c3e 35e5 27be
00000170: 645a a8bd 63ca c13c f01b a1bd cca9 d3bc
00000180: 7ed7 a0bd 766a cb3d 62f3 c4bd 485a 1f3d
00000190: 6ffa 87bd 105d 8ebd 8926 fcbd 5760 213e
000001a0: f317 923d 622c 093e 8ddc 17bb 3408 893d
000001b0: e025 babd a8e5 e1bc 7dc1 593c fac4 e83c
000001c0: 02d7 0abe 6c72 afbb 97da 4d3e bb41 a43d
000001d0: b3dc 2fbe 1ae1 2c3b 32bf b53d ba3c bc3d
000001e0: 2fc9 b7bd 9843 d73d 7c00 143c 75aa e13d
000001f0: 3240 833d 842a 2bbe 94c6 aabc 9ec4 18be
00000200: 0bd2 fc3d 3c75 623d 22e1 713d f3db 81bd
00000210: c9c0 01bc 774c df3d 0aa6 803d 05eb 003e
00000220: 6716 03be 79aa 923d 374c 7ebe 0bff 88bc
00000230: ef9b b63d ba71 abbd 8e86 15be ca6b 26bc
00000240: 2420 153c 7d23 773d f29f d2bd 64c2 b0bd
00000250: b312 8cbd 4e07 48be 7852 ae3d 41e7 4f3d
00000260: 12e0 083e 6914 47bd 76d0 a6bd b1c2 fabc
00000270: e6bc bebd 9024 22bd 56e5 79bd 43da 0b3e
00000280: 5128 693b 449b 9c3d 7d96 003e b9f5 503d
00000290: 6658 28bd 6fd3 0f3e c69d c43d 00fc 6dbb
000002a0: 53dc fdbc 70ce d5bc 495e bebc 6815 283e
000002b0: 0fd6 3b3d 56f3 543c 42c9 cf3d e38f b73d
000002c0: be38 903d aec6 48bd 659c 7fbd 59c8 10bd
000002d0: e6f7 afbc 31f9 e13d ceba 35bd 139a e7bd
000002e0: 6a22 223d 4cdc fa3b fe24 1cbc 6926 e43d
000002f0: 6f3f 043d f359 79bd 152d 8cbc 583a d43c
00000300: 3d8e 4c3d adb7 173c d4d2 30be 624b 05bc
00000310: 59b3 59bc 38f3 55bd d609 c83d 28bd edbd
00000320: ce17 ec3d b61e 05be a8b9 f93d 69db 243c
00000330: 2c7f b8bc 49e0 e6bc f789 83bd b148 253e
00000340: 5614 25bd 7c29 09b8 a293 bfbb c138 b43d
00000350: 9965 62bd 4ac1 423e 613b 7f3d 56a4 febc
00000360: e285 023d 48f8 833c 6e1a 833d b5c5 ad3b
00000370: 7bfc 83bd d30c 94b9 012d fbbb 606c 903d
00000380: f2d3 a33d 8219 073d ea66 6c3d 1866 b03b
00000390: a1c8 243d 06a3 013e 7ebd 47bd 1fed 7b3e
000003a0: 4981 2b3d b157 cdbc 7d5f f2bb 6a3a 843d
000003b0: 167f 0fbd 5d15 eebc ecfe 02bc 3777 003e
000003c0: cfae 1dbd 2361 57be 9b7e f8b8 04e5 c7bd
000003d0: c57e 953c dc10 f23b 5777 eebd 9a79 8f3d
000003e0: 88a6 3c3d 9d84 91bd 99e3 41bd a022 723d
000003f0: 3456 873d b44f b63d f652 93bd d0c4 aebd
0.024467833 -0.10071068 -0.004788246 -0.13136375 -0.087731585 -0.1902108 -0.04710868 0.19319819
-0.09663562 0.056080095 0.08498675 -0.043714564 -0.017523957 0.11978255 -0.10522828 0.011218527
0.0952161 0.0020513153 0.25682762 -0.0256613 0.13943301 0.0755438 0.21631236 -0.123273835
-0.05241272 0.07991062 -0.028443256 -0.056308858 0.048667923 0.117373936 -0.0450753 0.054842245
0.062040795 -0.13222803 0.057951413 -0.035746805 0.04816365 -0.028907165 0.05248736 0.10640066
-0.07640539 0.07522546 0.02361376 0.10486035 0.0037674943 -0.015868627 -0.034131728 0.010590432
-0.017720513 0.08890481 -0.12130502 -0.1396111 0.02054152 -0.036962718 -0.0899123 -0.01561988
0.09560031 0.0439697 -0.17907184 0.0859818 0.033993676 -0.05242112 -0.10352575 -0.07893332
-0.0014399277 0.028474092 0.019031256 0.020283313 -0.0986187 0.23755194 -0.13602358 0.1607166
0.076741256 -0.056152705 -0.047762554 -0.0679274 0.16522522 -0.03088013 0.1824649 -0.05554421
0.11773482 0.11349192 0.042409647 0.014333508 -0.02070068 -0.042063612 0.13727264 -0.08619715
0.021950774 -0.16288833 0.16851382 -0.1639603 -0.08220366 0.023656076 -0.07866657 -0.025837801
-0.07853602 0.09932415 -0.09616734 0.03890446 -0.06639563 -0.06951344 -0.123120375 0.15759407
0.07133474 0.13395837 -0.002317223 0.06691018 -0.09089255 -0.027575329 0.01329076 0.028414238
-0.13558581 -0.0053542163 0.20102917 0.080203496 -0.17174034 0.0026379288 0.08874358 0.0919127
-0.089739196 0.10510939 0.009033319 0.1101884 0.06408729 -0.16715437 -0.020846643 -0.14918754
0.1234475 0.055287585 0.059052594 -0.0634078 -0.007919499 0.109032564 0.062816694 0.12589653
-0.12801515 0.07161421 -0.24833761 -0.016723176 0.08916461 -0.08371301 -0.1460211 -0.010157535
0.009101901 0.06033658 -0.102844134 -0.08630827 -0.06839504 -0.19534037 0.085118234 0.05075765
0.13366726 -0.04860345 -0.081452295 -0.030610414 -0.09313373 -0.03958565 -0.061009727 0.13657479
0.003557701 0.07646802 0.12557407 0.05101559 -0.04109993 0.140455 0.096004054 -0.0036313534
-0.030988848 -0.026099414 -0.023238318 0.16414416 0.04585844 0.012997469 0.10145809 0.08962991
0.07042073 -0.0490176 -0.06240501 -0.035347316 -0.021480512 0.110338576 -0.044367604 -0.11308684
0.0395836 0.007655656 -0.009530304 0.11140139 0.032287057 -0.060876798 -0.01711134 0.025906727
0.049940336 0.0092601 -0.17267925 -0.008135648 -0.013287389 -0.052233905 0.09767501 -0.11608344
0.11527978 -0.12999997 0.12193614 0.010062077 -0.022521578 -0.02818312 -0.06422799 0.16141011
-0.040302597 -3.270198e-05 -0.0058464566 0.087998874 -0.055272672 0.19019046 0.062312488 -0.03108422
0.03186596 0.0161096 0.064015254 0.0053031095 -0.06444641 -0.00028238315 -0.007665277 0.07051921
0.0799941 0.03298331 0.057715334 0.0053832643 0.040230397 0.12659845 -0.0487647 0.24602173
0.041871343 -0.025066229 -0.007396637 0.06456454 -0.035033308 -0.029062921 -0.007995348 0.12545477
-0.03849679 -0.21033148 -0.000118491436 -0.09760478 0.018248925 0.0073872637 -0.11643856 0.070056155
0.046057254 -0.07105372 -0.047336195 0.059115052 0.06608239 0.08901921 -0.07193558 -0.08533633
