Assets/Models/model_2.onnx (onnx, 73826 bytes, 6 tensors)

action_model._discrete_distribution.branches.0.bias f4 [4]
000000 2e 14 a9 bb 1d d6 87 3c cd 15 dc bb 6e 32 cf bb
       -0.0051598763 0.01658159 -0.006716466 -0.0063231504

action_model._discrete_distribution.branches.0.weight f4 [4, 128]
000000 7c e2 21 bd b8 ec d5 bb 01 54 81 bc 09 1f 2f 3a
       -0.039522633 -0.006528463 -0.015787126 0.0006680345
000010 06 16 03 bd 13 ac 2a 3c 59 fb 02 3d 3c 1a f7 3c
       -0.032003425 0.010417002 0.031977985 0.030163877
000020 4a 86 e1 bb 67 4f 64 bd 79 59 32 3d 02 da 17 3d
       -0.0068824636 -0.055739786 0.04354236 0.037073143
000030 eb 60 15 3d bf 8d e5 3c a1 a9 21 3d 25 25 f8 bc
       0.03646938 0.028021691 0.03946841 -0.03029115
000040 44 ff a1 3d f2 ac 5a 3b 4c 72 0d bd 87 f5 26 3d
       0.07910016 0.0033367244 -0.03453283 0.040761497
000050 f3 1a a3 bc 6b 18 2a bd f7 8c 05 bd cb f1 47 3c
       -0.019910311 -0.041527193 -0.032605138 0.012203644
000060 d4 00 1c bd 23 b6 87 3d f2 78 bc 3c ad 5b 34 bd
       -0.038086727 0.06626537 0.02300689 -0.04403274
000070 fb 6f b5 bb b9 7c 3e 3d 7c 7c b8 3b 09 ea 72 3c
       -0.0055370308 0.046505664 0.005630074 0.014826306
000080 8f 7f 3d 3c 9f 56 eb 3c 5c 8f 41 3d 9c d6 0f 3d
       0.011566057 0.028727828 0.04725586 0.035116777
000090 70 dc 8e bc 4b 77 19 3a 41 1f 20 3d d6 f3 6b bd
       -0.017439097 0.0005854263 0.039092306 -0.057605587
0000a0 44 ca 8b 3c f1 e9 88 3c 83 f6 0a 3d e2 c5 36 bd
       0.017064221 0.016713114 0.0339265 -0.04462231
0000b0 27 ea 9a bb 86 ad 3f bb 78 f5 0f bd d0 6a e0 bc
       -0.00472762 -0.0029247715 -0.035146207 -0.027394682
0000c0 d0 99 45 3d 6c cb fd bc 73 58 9e 3c 53 3b 56 3d
       0.04824239 -0.030980788 0.019329285 0.05230267
0000d0 d9 54 a6 bc 21 f1 12 bc 10 7b 1a bd b8 10 1b bd
       -0.02030413 -0.008968622 -0.037715018 -0.03785774
0000e0 b5 4b c6 bc 59 48 37 bd a6 09 13 3d 42 1c f3 3c
       -0.024206022 -0.04474673 0.035897873 0.02967656
0000f0 76 d3 da bc e8 57 97 bc e5 1c f7 bc 04 02 43 3d
       -0.02671216 -0.018474534 -0.030165145 0.047609344
000100 b4 84 00 bb 09 0a 83 bd 00 f5 a4 3c 3d 29 1e bd
       -0.0019610347 -0.063983984 0.020136356 -0.038613547
000110 50 32 1b 3d cb 2a 49 bc 12 6b 15 bc 99 c9 b3 bc
       0.03788978 -0.012278269 -0.009119766 -0.021946715
000120 75 e3 0f 3c 06 0c bd bc 3a 7d 4d 3d 13 13 5c bd
       0.008782257 -0.023077022 0.050168253 -0.053729128
000130 46 10 10 bd 66 53 4b bd 73 6a 56 bd 21 19 08 bc
       -0.03517177 -0.04964008 -0.05234761 -0.008306772
000140 c9 ac 30 bd bf 7d 73 bb 8e d6 97 3c 97 b2 67 3b
       -0.04313353 -0.0037153808 0.018534925 0.003535425
000150 8f f4 58 3d 32 9b 24 3c 67 c9 e2 bc f9 5a 64 bd
       0.052967604 0.010046767 -0.027683927 -0.05575082
000160 1f b9 0c bc 85 42 2f bc 34 ee 22 bd 03 8c e9 bc
       -0.008589058 -0.010697012 -0.03977795 -0.028509146
000170 5e 76 0c 3d ac 38 26 3c c3 3a 20 3d 70 d5 d4 3c
       0.03429257 0.010145348 0.03911854 0.025980681
000180 39 42 33 bd 24 50 36 bd 26 d0 f1 bc 35 b4 0f bc
       -0.043764327 -0.04451002 -0.029518198 -0.008770992
000190 2e 00 81 bd 32 a8 08 3d b1 dd 5c bd 02 db ed 3c
       -0.062988624 0.03336353 -0.05392236 0.029035095
0001a0 7b da 74 ba 71 69 8a 3d a3 c2 16 bd 21 86 b2 bc
       -0.00093404175 0.067583926 -0.036806714 -0.021792473
0001b0 9f b5 86 bc 78 d6 4c bb 0f 97 24 bd 64 2f 2e bc
       -0.016444026 -0.0031255763 -0.040183123 -0.010631416
0001c0 f5 48 49 3d 2b 06 20 3c 04 2c 39 3d db ad 5a bb
       0.049141843 0.009767096 0.045207992 -0.0033367786
0001d0 03 7c 56 bc 78 a6 da 3b 5e f4 6a 3d aa e2 5f 3c
       -0.01309109 0.0066726767 0.057361953 0.013664881
0001e0 da 18 49 3a f0 87 f3 bc 20 ff 6f bd a4 54 81 3d
       0.00076712447 -0.029727906 -0.058592916 0.06314972
0001f0 0b f4 1e 3d 9a 4a d2 3c c6 c1 f7 3a 1a 0a 0d bd
       0.038806956 0.025670338 0.0018902353 -0.03443346
000200 45 62 96 3c 8d b0 b5 3c 94 28 02 3d 53 2e 99 bc
       0.018357405 0.022178913 0.03177698 -0.018698847
000210 32 f4 ea 3c 95 58 e5 bc e8 f6 8b bc 16 bf e4 bc
       0.028680895 -0.02799634 -0.017085508 -0.027923148
000220 16 1c 5d 3c 3a e5 87 3d b4 09 5f bd 30 02 65 bd
       0.013495466 0.06635518 -0.054452613 -0.05591029
000230 ad bb 98 bd df 43 9a bd e7 24 df bc d7 bd f4 3c
       -0.07457671 -0.07532477 -0.027239276 0.029875679
000240 d5 11 88 bd 4e 01 11 bd 7e a9 34 3d 63 02 38 bd
       -0.06644026 -0.035401635 0.044106953 -0.04492415
000250 8a 05 96 bb c4 f5 0b 3d f7 aa 83 3c 59 a4 6b bc
       -0.004578297 0.034169927 0.016072733 -0.014382445
000260 9b c9 40 3c d5 de 74 bd 89 63 ef bc b4 30 4f 3d
       0.0117668165 -0.05978282 -0.029222267 0.050583556
000270 b4 68 5b bb 89 28 78 bd f2 bb 3d 3b 5d 74 2e bd
       -0.0033479156 -0.060585532 0.0028951135 -0.04259144
000280 9a 1c 17 3c de 2d 39 bd 8b a9 71 bd 30 05 4d bd
       0.009223128 -0.045209758 -0.05899958 -0.050053775
000290 32 3d 25 3d 88 dd b1 bc a3 8c 98 bd bd 79 7b 3d
       0.040341564 -0.02171208 -0.07448699 0.061395396
0002a0 74 f6 cc bb 53 8b 06 bc 14 87 5e bd a6 f5 9b 3c
       -0.0062549654 -0.008211928 -0.05432804 0.019038033
0002b0 0c dc 99 bc 4f 1c 34 3b 30 ba 47 3d 68 22 1a 3d
       -0.018781684 0.0027482694 0.048761547 0.03763047
0002c0 a0 e4 4e bd 3a 1c 9d 3c ab d3 e6 bc 74 02 70 bd
       -0.050511003 0.019178499 -0.028177103 -0.05859609
0002d0 5d c7 1e bc 4b ab e4 bc 03 1a 10 3d bf cc 51 3d
       -0.009691087 -0.02791371 0.035181057 0.05122065
0002e0 6a ce cc 3b 6b 6d 67 3d a8 d5 b7 bc b9 f3 e2 bc
       0.0062501924 0.056500833 -0.022440746 -0.027704107
0002f0 37 35 c5 3c 40 b3 c3 3b e7 ce b4 3c 7f a7 82 bd
       0.024073226 0.005972296 0.022071315 -0.063796036
000300 8c 97 b2 3a 9d 35 31 3d 0f 46 dd bc 03 d0 49 3d
       0.0013625487 0.04326402 -0.027010946 0.04927064
000310 21 9f 4e bd 6b e6 a6 3b 5f c4 08 3c a4 4e 2a 3d
       -0.050444726 0.005093386 0.0083476 0.041578904
000320 d9 7f b7 bc 6e 00 58 3c b8 f4 61 bd 13 7a 2f 3d
       -0.02239983 0.013183696 -0.055165023 0.04284103
000330 c7 28 2f 3d 8a 8d 4a 3d 7e 35 50 3d 43 84 ff bb
       0.042763498 0.04945139 0.050832264 -0.0077977492
000340 3c 15 09 3d 6e 4e 90 bb 54 6d ba ba 81 20 db bc
       0.033467516 -0.004403881 -0.0014223256 -0.026748898
000350 df 49 69 bd ce 5d 1a bc f3 6a 96 3b 75 62 e8 3c
       -0.056955215 -0.009421779 0.004590386 0.02836726
000360 4f fa 61 3c 30 d8 78 3c d6 72 2a 3c 74 6c 22 3c
       0.013792588 0.015188262 0.010403356 0.009913553
000370 80 24 1a bd eb 4e 05 bd 9d 76 6a 3a c9 de 44 bd
       -0.037632465 -0.032545965 0.00089440664 -0.048064027
000380 01 9d 4b 3d d8 70 27 3d 36 ee 7a 3d fa 63 9e bc
       0.049710277 0.0408791 0.061262332 -0.019334782
000390 52 ad c6 3c d5 be b0 bb df be 53 3d 2a ea 18 bd
       0.024252567 -0.0053938427 0.0516957 -0.03733269
0003a0 05 87 16 3d 26 0c 99 bd 24 d6 32 3c ab fb c7 3b
       0.03674986 -0.0747302 0.010915313 0.006102999
0003b0 c4 ee 09 3b 96 79 14 3c 89 5a 09 3d fe c2 49 3c
       0.0021046856 0.0090621915 0.033533607 0.012314556
0003c0 25 7d 73 bd 39 21 18 bd b4 dc c6 bc 58 e4 94 bc
       -0.05944552 -0.03714106 -0.024275161 -0.018175289
0003d0 e2 cf 41 3c 69 4d 8f 3c 62 1e 39 bd 11 d8 5f 3c
       0.011829348 0.017492967 -0.04519499 0.013662354
0003e0 1e 5c c1 bc 5e cb 3f 3d a0 d1 a6 3c f3 d0 5c bd
       -0.023603495 0.046824805 0.020363629 -0.053910207
0003f0 65 f0 39 bd 7d ac 04 3b 39 ff c7 bb a9 a7 57 3c
       -0.045395274 0.0020244413 -0.006103423 0.013162532

network_body._body_endoder.seq_layers.0.bias f4 [128]
000000 f5 a7 96 3d ae 6d 2e 3c 59 30 45 3d e4 65 2b 3d
       0.07356254 0.010646267 0.04814181 0.041845217
000010 22 42 34 3d 33 72 76 3d ad bf 82 3d 16 1d e0 3a
       0.04400838 0.060167503 0.063842155 0.0017098512
000020 af 21 8d 3a a2 4d 3f 3d 0e d0 44 3c f6 f4 fc 3c
       0.0010767485 0.046704896 0.012012495 0.030878525
000030 a6 0b 82 3d d5 aa 3e 3d 86 18 e6 3c 4f 08 63 3d
       0.06349878 0.046549637 0.028087866 0.055427846
000040 75 a1 8b 3d 79 54 9b 3d a3 53 bb 3c f1 ad 2b bd
       0.06817905 0.07584471 0.02286703 -0.04191393
000050 46 87 5a 3c 01 a3 dc 3c 80 b3 19 3d 64 1c 54 3d
       0.013337916 0.026933195 0.0375247 0.051784888
000060 ea 93 22 3d 93 30 56 3d f5 75 87 bb c3 d7 f7 3a
       0.039691843 0.052292418 -0.0041339346 0.0018908906
000070 47 34 ee 3c e0 45 94 3d ed 20 43 3d f9 d5 2b 3c
       0.029077662 0.0723989 0.047638822 0.010488027
000080 16 67 17 3d d5 8d a1 bc f0 92 3c 3d e4 bd 4d bc
       0.036963545 -0.019720951 0.046038568 -0.0125574805
000090 22 51 7d 3d 51 e7 3a 3d a8 2c 16 3d c6 46 1e 3d
       0.061844952 0.045630757 0.03666368 0.038641714
0000a0 6b 4b 04 3d 64 74 88 3d 3b 5c 87 3d f9 08 44 3d
       0.032298487 0.06662825 0.066093884 0.04786012
0000b0 f0 69 5c 3d 09 ce fd 3c ea d1 6b 3d 11 1a d1 3c
       0.053811967 0.030982034 0.057573237 0.025525125
0000c0 c2 ed 45 3d e1 20 79 3d 63 8f 46 3d e3 a7 ca 3b
       0.048322447 0.06082237 0.048476588 0.0061845644
0000d0 56 68 96 3d 5c 42 14 3d 14 c9 5f 3d 17 8e 13 3c
       0.07344119 0.036196098 0.054635122 0.009006045
0000e0 8a 50 63 3d c5 1b 4a 3d f9 6f 8e 3a 69 1b 86 3d
       0.05549673 0.04934289 0.0010867111 0.06548197
0000f0 bc 06 26 3d 0f d2 00 bc 1d 12 c3 3c 99 fa 31 3d
       0.040533766 -0.007862582 0.023812348 0.04345188
000100 62 a0 b9 3c ad 85 2d 3d 1d 62 47 3d 85 31 51 3d
       0.022659484 0.04236381 0.048677552 0.051072616
000110 fb 34 27 3c 24 5c 89 3d 3a 47 69 3d 89 a7 83 3d
       0.010205503 0.067070276 0.056952693 0.06428439
000120 a7 4e 57 3d 50 a2 e0 3c 9c b8 87 3d 35 82 37 3d
       0.052565243 0.027421147 0.06627008 0.04480191
000130 f2 19 2d 3d d8 c7 61 3d ea 74 0d 3d ac d9 34 3d
       0.04226107 0.055122226 0.034535326 0.0441529
000140 cf 99 dd 3c 51 82 0a 3d ad 99 44 3d 77 ec 4f 3d
       0.02705088 0.033815686 0.04799812 0.05076262
000150 29 14 3b 3d 87 82 72 3d a3 3e 6b 3d be 2c 25 3d
       0.045673523 0.05920651 0.057432782 0.040325873
000160 41 0b 3c 3d f1 5d cb 3c 94 22 d8 3c 7b 0e 5f 3d
       0.04590917 0.024825068 0.026383676 0.05445717
000170 4d 9e 06 3d 12 91 6e 3d 8e 42 85 3d ee 2c 04 3c
       0.03286581 0.05824382 0.06506835 0.008067353
000180 df 53 74 3d 37 96 77 3b 58 89 9c 3d d7 3f ab 3c
       0.0596503 0.0037778744 0.07643384 0.020904465
000190 1e ed 50 3d 59 9a 7b 3d 11 b4 8e 3c 4c 64 95 3c
       0.051007383 0.061426494 0.017419847 0.018236302
0001a0 03 6d 5e 3d 2d b1 4f 3d 6c d1 19 3d f5 51 9c 3d
       0.05430318 0.050706077 0.037553236 0.076328196
0001b0 81 91 8b 3d 73 ae 6f 3d 8e 1d 17 3d c4 cf 9d 3c
       0.06814862 0.058515977 0.03689342 0.01926411
0001c0 08 88 23 3d 88 b0 a2 3d a7 90 56 3c da 2b 0c 3d
       0.03992465 0.07943827 0.013096011 0.034221508
0001d0 15 7e 4a 3d 73 a1 ff 3c b7 f2 89 3d a8 a3 8c 3d
       0.049436647 0.031204915 0.06735747 0.068671525
0001e0 4b 08 89 3d 15 e7 c6 3c ff 9d 2e 3d 81 3c 95 3d
       0.06691035 0.02428011 0.042631146 0.07286931
0001f0 c7 73 88 3d c5 87 72 3d 65 81 ea 3b 75 4e b2 3d
       0.06662708 0.05921151 0.0071565383 0.08706371

network_body._body_endoder.seq_layers.0.weight f4 [128, 6]
000000 50 6c c2 be ca 70 c1 3e f6 4c 27 3e fd 87 85 3e
       -0.3797326 0.37781364 0.16337952 0.26080313
000010 0f 1b 2d bf ed e6 08 3e 30 14 9d be ae 80 7a bd
       -0.67619413 0.13369341 -0.30679464 -0.061157875
000020 ce 9b c8 3e f0 d2 c5 be 04 fe 0e 3f 31 fe b7 3e
       0.3918137 -0.38637495 0.5585635 0.3593612
000030 93 2f ac be 39 44 29 bf 0d fb 28 be 62 ac b8 be
       -0.33630046 -0.66119725 -0.16502018 -0.36069018
000040 5e f7 38 3d 38 fc 98 3c 8c 0e bc be 4d 43 c2 be
       0.045157783 0.018674955 -0.36729848 -0.3794197
000050 d9 a7 04 3d cd 81 c1 bd d8 ff 29 bf dc 77 e6 bd
       0.032386634 -0.09448586 -0.6640601 -0.1125333
000060 45 f1 e1 3e e7 ec 1d be 69 3d 69 bd bb b6 48 be
       0.44129387 -0.15422402 -0.05694333 -0.19600956
000070 5a 32 dc 3e 75 e6 6f bc 74 e0 a5 be 25 72 58 3e
       0.43007165 -0.014642348 -0.32397807 0.21137293
000080 b3 61 01 3e 1c 22 a9 3e b7 df 4e 3f c8 c7 27 bf
       0.12634926 0.33033836 0.8081011 -0.65539217
000090 5e b6 9f 3e 67 52 11 3f b3 d3 e0 3e 39 a3 15 bf
       0.31193823 0.5676636 0.43911514 -0.58452183
0000a0 82 cd 91 3d cf 18 ef be 82 13 bb 3e 7b 41 aa 3e
       0.07119276 -0.46698615 0.3653832 0.33253083
0000b0 3b b5 d7 be 8b 7c bf 3e 10 6c e0 bd 08 b4 06 3e
       -0.42130455 0.37399706 -0.10958111 0.13154614
0000c0 16 7e 00 3d c6 eb d8 be aa 2e c2 3e b7 f8 d4 3e
       0.031370245 -0.4236738 0.37926227 0.41596004
0000d0 69 9e e5 3e 93 44 2d bf c8 e1 84 3f 1f d5 00 bd
       0.4484742 -0.6768276 1.0381403 -0.031453248
0000e0 1f 1d 04 3f 37 03 fa 3c cf 91 82 be 66 e7 5b 3f
       0.51606935 0.030519111 -0.25501868 0.8589996
0000f0 0b 8d cb 3e ca 40 07 3f 5b 64 0f 3f 62 37 df bd
       0.39756045 0.52833235 0.56012505 -0.10899235
000100 f9 86 22 3e e2 8d 63 3d 6c a0 5f be fb 53 00 3f
       0.158718 0.055555232 -0.2183854 0.50128144
000110 e7 36 a8 3e e0 88 24 bd f0 7c 80 3f c1 64 e9 bc
       0.32854387 -0.040169597 1.0038128 -0.028490426
000120 7e 17 f2 3e 75 de e4 be 7b 07 67 3e bd 6e c7 bc
       0.47283548 -0.4470097 0.22561447 -0.024344796
000130 d7 93 e5 3e ff 0b 1c bf 97 aa 49 3f 59 bb 63 3e
       0.44839355 -0.60955805 0.78775924 0.22239436
000140 c9 41 be 3e b8 bc 90 3d 01 91 b9 be 81 b8 d8 3d
       0.37159565 0.07067245 -0.36243442 0.10582066
000150 a7 da b3 be d1 d7 46 3e 2e d8 19 be fe 8f 8b bf
       -0.35127756 0.19418265 -0.15023872 -1.0903318
000160 15 63 11 3e 77 01 e9 3e 39 e8 ba 3d 1e 4e 6f be
       0.14197953 0.4550893 0.09126324 -0.23369643
000170 a1 82 e5 bd 05 69 1f bf da 1d 1d 3e eb 00 9a be
       -0.11206556 -0.6226962 0.15343419 -0.30078825
000180 1f 85 d0 3e 9a 55 10 be fa 6b 37 bd 59 d6 be 3e
       0.40726563 -0.14095154 -0.04478071 0.3727291
000190 c5 37 a7 3e 12 19 84 bc 88 03 54 be c7 08 58 bf
       0.32659736 -0.016125236 -0.20704472 -0.84388393
0001a0 8c 53 66 3f 07 11 a5 be 3a 24 7b 3f 11 29 88 3d
       0.8997123 -0.32239553 0.9810215 0.06648458
0001b0 ba d0 a9 bd 28 32 e0 3b 73 ee be 3e 18 10 1e 3e
       -0.082917646 0.0068419166 0.37291297 0.15435827
0001c0 17 f4 bc be 5b c2 35 3e 0c 2a 51 bd 2d 59 74 3e
       -0.36904976 0.17749922 -0.05106549 0.23862143
0001d0 58 42 2b 3f cd 66 f7 3c 06 8b 39 be dc 2b 9e bf
       0.6689811 0.030200386 -0.1811944 -1.2357135
0001e0 e8 e2 1d be ec 30 f2 bd 26 14 49 3e 84 af 31 3e
       -0.15418589 -0.11825737 0.19636592 0.1735211
0001f0 b2 00 30 bf 45 18 31 3e d8 4e 83 bd b8 c8 ab 3e
       -0.6875106 0.17294414 -0.064115226 0.33551574
000200 59 04 00 3e 8a 49 15 3e b3 99 bd be f3 37 2c be
       0.12501658 0.14578834 -0.37031326 -0.16818218
000210 d1 bb 67 3d be a0 65 3e 9e 12 88 bd c8 b0 ff 3e
       0.0565756 0.224246 -0.06644176 0.4993956
000220 84 22 e3 bc 9c 9b 1b 3e 5b b7 b1 be 80 3e 55 bf
       -0.02772642 0.15196079 -0.34710202 -0.8329849
000230 d9 ff 22 3d 17 4f 2f 3f 86 0d 59 3d 07 6a f3 bd
       0.039794777 0.68480057 0.052991413 -0.118854575
000240 fa d3 d8 3e de d9 a8 3d 87 ee 19 3f 22 36 4e 3f
       0.42349225 0.0824468 0.6012959 0.8055135
000250 39 fa 9b 3e 24 9d 3a 3e cb 02 f1 bd 97 8b b3 3e
       0.30464342 0.18224007 -0.11768111 0.35067436
000260 5c 95 7a bf e2 9e aa 3e ce 79 a0 be bd b2 76 bf
       -0.97884154 0.33324343 -0.3134293 -0.9636648
000270 b8 3d 98 3d fb ea 3a 3e 9c 9d b1 be c4 63 33 be
       0.07433647 0.182537 -0.3469056 -0.17518526
000280 1b d9 c5 3e 8d 75 44 3f 4f c6 24 3f 27 24 8d 3f
       0.386422 0.7674187 0.64365095 1.1026658
000290 41 d0 78 be d2 ec 07 3e 52 ca c7 3d 88 c1 09 3f
       -0.24298193 0.13273934 0.097553864 0.5381093
0002a0 59 d3 c2 bd 5e 3c 66 be a8 6d bb 3d c0 ba 89 be
       -0.095129676 -0.22483966 0.09151775 -0.2690029
0002b0 05 1b d2 be c2 30 75 3e 60 4d 19 be 51 d9 54 bf
       -0.4103624 0.23944381 -0.14970922 -0.831441
0002c0 27 ef 1c 3f 34 b9 7d 3d 9f 87 dc 3e e7 7f a5 3e
       0.6130242 0.0619442 0.4307222 0.32324144
0002d0 98 81 f9 bd 32 11 02 bf b9 80 50 3f 2b d3 e9 be
       -0.12182921 -0.5080749 0.81446415 -0.4566892
0002e0 db 21 e7 be e3 84 d5 bd d0 54 80 3e f0 4b fe 3d
       -0.45143017 -0.10425737 0.25064707 0.12416828
0002f0 fa cc 16 3f 6b df 95 3e f3 58 48 3f 95 f9 40 be
       0.5890652 0.29272017 0.78260726 -0.18845208
000300 85 d6 db 3d 8d f3 1d 3f 2f 01 e1 3c de b0 ea 3e
       0.10734276 0.61699754 0.027466385 0.45838064
000310 72 56 86 be e3 79 a3 be f6 72 41 3d b0 6d 62 be
       -0.26237828 -0.3192893 0.047228776 -0.22112155
000320 15 8b 13 3f eb 3e 04 bf 7c 47 e0 3e 68 b3 61 3e
       0.576341 -0.51658505 0.43804538 0.22041094
000330 b6 d7 73 bf e9 65 2c 3f 71 d8 11 be 14 ef b4 be
       -0.95251024 0.67343 -0.14242722 -0.35338652
000340 90 18 49 bd 85 90 ef be 68 e7 a7 3d 1c 43 e3 3d
       -0.04909569 -0.46789947 0.08198434 0.110967845
000350 99 03 07 3e db ec 93 be 7b f9 2d 3e e2 58 7b bd
       0.13184966 -0.28891644 0.169897 -0.061364062
000360 3c 03 1c 3f 63 3e a4 3d 2c 18 8f 3f 42 7e 4d 3e
       0.60942435 0.08019712 1.1179252 0.20067695
000370 82 2e b3 be 7f 53 4f 3e 2e 05 d6 bd 63 ec 32 3e
       -0.3499642 0.20246695 -0.10450207 0.17472987
000380 2f f0 3e 3f 3f 67 07 3f 8b 1c 9a 3e a4 cb bb 3d
       0.7458524 0.52891916 0.30099902 0.09169701
000390 11 b8 08 3f 96 e9 c7 be d1 77 0a 3f c9 d5 38 be
       0.53405863 -0.390454 0.54089075 -0.18050303
0003a0 e1 e4 14 3f 75 2c df 3c 92 be 3e 3f 3e b6 28 3f
       0.5816174 0.027242878 0.7450954 0.6590308
0003b0 44 84 1c 3e cf e8 9d be 55 0b ad be f0 6b 80 3e
       0.1528483 -0.3084168 -0.33797708 0.2508235
0003c0 f6 af 8e 3f db 81 3c 3e 9f 62 a8 be 86 e2 86 3e
       1.1147449 0.18408911 -0.32887742 0.263447
0003d0 98 5d 04 3f c2 10 68 be 59 26 8f 3d 34 fe c3 3e
       0.5170531 -0.22662643 0.06989736 0.3827988
0003e0 05 d5 41 bf bf 90 16 bd 8e b7 12 bf 4b 6a 56 3e
       -0.75715667 -0.036759134 -0.5731133 0.20938985
0003f0 67 da ab 3e 8e 38 95 be 82 29 8f be 67 1c 13 be
       0.33565065 -0.2914471 -0.27961355 -0.14366303

network_body._body_endoder.seq_layers.2.bias f4 [128]
000000 93 87 18 3d f8 fc 70 3c 40 b8 0d 3d ca 31 7c 3b
       0.03723867 0.01470875 0.034599543 0.0038481825
000010 ef a2 f4 3c dd 94 80 3d db 6b bf 3b c7 ae 36 3d
       0.029862849 0.062783934 0.005841715 0.044600274
000020 57 b8 15 3d ad c7 3f 3d 6f d8 2d 3d 3f 4d 73 3d
       0.036552753 0.046821285 0.042442735 0.05939984
000030 5e 30 0a 3d a7 a4 18 3d ef 48 cd 3c 10 6e 30 3d
       0.033737533 0.0372664 0.025059192 0.043073714
000040 21 71 34 3d c8 ff 19 3d 64 63 06 3d 18 6e 3f 3d
       0.0440532 0.037597448 0.03280963 0.046735853
000050 5a 4a 25 3c 51 aa 65 3d 96 9d 27 3d 8f 23 c4 3c
       0.010088528 0.05607063 0.04092177 0.023942737
000060 f1 8c cc 3c a7 8c 02 3d 49 f4 e0 3c c6 dd 1c 3d
       0.02496955 0.031872418 0.027460234 0.038297437
000070 76 0d f6 3c 66 7e 35 3d 19 4e 43 3c 84 4f f0 3c
       0.030035716 0.044309996 0.011920475 0.029334791
000080 e8 e1 1a 3d af 1b 3b 3d bb eb 73 3d c9 aa 88 3c
       0.037813097 0.045680698 0.059550982 0.016683
000090 42 25 27 3d 2d f4 b9 3b ba 16 6a 3d 9a 76 79 3d
       0.040807016 0.00567486 0.05715058 0.060904123
0000a0 3d 83 49 3d e7 df 00 3d 53 a6 4a 3d df 6f 1a 3d
       0.049197424 0.03146353 0.049475025 0.037704345
0000b0 50 09 03 3d 69 33 ce 3c e1 2c 35 3d 6a 2f 59 3d
       0.031991303 0.025170999 0.044232253 0.053023733
0000c0 9f 6c 30 3d ba 70 25 3d a7 94 81 3c 13 85 4e 3d
       0.04307234 0.040390708 0.015817953 0.05041988
0000d0 18 ed bf 3b 66 f2 51 3c 34 17 3c 3d a3 63 2e 3d
       0.005857121 0.01281414 0.045920566 0.04257549
0000e0 7a 73 5b 3d ed 4c 4a 3d 53 12 af 3c 5e 60 d5 3c
       0.053576924 0.04938977 0.021371042 0.026046928
0000f0 55 3f 1c 3d 80 f4 ab 3c dc 54 23 3d 9b e8 32 3d
       0.038146336 0.02099061 0.03987585 0.04367886
000100 f5 95 e5 3c 96 f5 91 3d be 66 6a 3d 11 5b 4b 3d
       0.028025607 0.0712692 0.05722689 0.049647395
000110 a7 42 f0 3c 34 1f 0f 3d ad d8 5b 3a ff 14 2b 3d
       0.029328657 0.034941867 0.0008386474 0.04176807
000120 85 66 80 3d 5e c8 13 3d 05 87 0e 3d aa a2 73 3d
       0.06269554 0.036079757 0.034796733 0.0594813
000130 f4 e3 0e 3d ef bb 52 3d 09 a7 7b 3d 77 77 08 3d
       0.03488536 0.05144876 0.061438594 0.033317056
000140 e7 7c 5c 3d 05 a0 29 3d 0d 1d f7 3c e0 4e 98 3c
       0.053830054 0.041412372 0.03016522 0.018592298
000150 6e 55 d1 3c f8 bb 96 3c a8 5f d8 3c 9d 73 23 3d
       0.025553431 0.018400177 0.0264128 0.03990518
000160 00 44 df 3c c6 a2 11 3d aa 8d 87 3d 91 b1 61 3c
       0.027254105 0.035555623 0.06618817 0.013775245
000170 dd da e0 3b 89 31 31 3d b2 eb a5 3c 25 26 5d 3d
       0.006862028 0.04326013 0.02025399 0.053991456
000180 c6 21 71 3d 42 0a 4c 3d 5d 91 6d 3d 2a 27 29 3d
       0.0588701 0.04981447 0.057999957 0.041297115
000190 cf cb 81 3d 3e 24 ff 3c 0b c7 3b 3d 52 e0 38 3d
       0.063377015 0.031145211 0.04584412 0.045135804
0001a0 af c3 e5 3c 4f fb 67 3d 79 43 6c 3d 7f bf fb 3b
       0.02804741 0.05663615 0.057681534 0.00768274
0001b0 14 2e a2 3c 0b 65 1a 3d 94 79 37 3d 54 49 db 3c
       0.019797362 0.03769402 0.04479368 0.026768364
0001c0 b6 24 25 3d 35 cd 29 3d 03 37 16 3d cf 8a ab 3c
       0.040318213 0.041455466 0.036673557 0.020940213
0001d0 8d 92 24 3d fb 78 f8 3b 11 9b db 3c 29 a9 1b 3d
       0.040178824 0.0075827814 0.02680734 0.03800312
0001e0 22 f6 4e 3d 0c f0 33 3d 4e fa ca 3c 5f 42 15 3d
       0.0505277 0.0439301 0.024777558 0.03644025
0001f0 64 8f 4a 3d 70 1b 4c 3c e6 80 19 3d 5e 45 f7 3c
       0.049453154 0.0124577135 0.037476443 0.030184444

network_body._body_endoder.seq_layers.2.weight f4 [128, 128]
000000 f4 51 a9 3d 89 8d 60 3b e4 fe 3e bd f5 df c8 3d
       0.082675844 0.003426405 -0.0466298 0.098083414
000010 f8 4b 02 3c 45 88 c9 3d 25 41 9c bc 5c 14 0a 3e
       0.007952683 0.098404445 -0.019074032 0.13484329
000020 c9 fe 90 3d 00 87 92 bd 72 1f c9 bd ad 7d ac 3d
       0.070798464 -0.071546555 -0.09820451 0.08422408
000030 84 5e e3 bd b4 3f 81 bd d8 f7 e0 3c bd 7a 55 bd
       -0.11102012 -0.063109785 0.027461931 -0.052119005
000040 31 a8 97 3b a8 e8 b6 3c d7 81 b9 3d 5c 1a 51 bd
       0.0046282043 0.022327736 0.09057968 -0.05105053
000050 13 e4 b0 3d f0 4a cf 3d c8 a2 b6 bc ba d2 cb bd
       0.08637252 0.10121715 -0.022294417 -0.09952302
000060 0d 7f a6 3d 2c 84 90 bc 50 e2 12 be 4e e5 93 bd
       0.08129702 -0.01764115 -0.14344144 -0.07221471
000070 c1 93 a7 3d b4 07 2a bd f8 c1 9c bc c2 87 b3 3d
       0.08182479 -0.041511253 -0.01913546 0.08766128
000080 94 4a 1d 3c eb 27 16 be 89 8e a0 3d 40 96 ae bd
       0.0096003 -0.14663665 0.078396864 -0.08524752
000090 52 ee f5 bd 36 38 02 3d e9 d8 9d 3d b6 71 0a bd
       -0.120083466 0.03179189 0.07707388 -0.03379985
0000a0 ed 37 81 bd ba 9b 51 bb 35 cd 25 be 9a 10 3d 3d
       -0.06309495 -0.003198369 -0.16191562 0.04615841
0000b0 62 55 b6 bd 5c cc 2a 3e 2a b7 42 bd 6f 0a a2 bc
       -0.08903004 0.1667952 -0.04753796 -0.019780366
0000c0 27 28 cd 3c e9 d2 b7 3d 34 22 c0 bd 5a ba 36 3d
       0.02504356 0.08975775 -0.09381524 0.044611312
0000d0 b4 fe fe 3c f7 1e 83 3d 48 ca 41 3a 96 f2 27 3c
       0.031127311 0.064023905 0.0007392508 0.010250708
0000e0 c0 de c3 bd 14 4f 8e bc 42 3d c9 bd 23 58 1e be
       -0.095639706 -0.017371692 -0.09826137 -0.15463309
0000f0 0f 83 4f bc cc 2b 9a 3d 7b 7c e7 3d 6e 28 48 3d
       -0.012665524 0.07527885 0.1130304 0.04886668
000100 d4 e7 9e 3d d5 c6 50 bd f7 30 67 3b 48 21 5d 3d
       0.077590615 -0.05097087 0.0035276988 0.053986818
000110 7a d6 34 be fb 45 9d 3c 4b 64 09 3d f7 17 17 be
       -0.17659941 0.019198408 0.033542912 -0.14755236
000120 68 e2 98 bd 74 a9 51 3d 99 b4 4c 3d e4 c3 10 be
       -0.074650586 0.051186994 0.04997692 -0.14137226
000130 5c 8f 65 3d f0 52 32 3e 56 81 52 bd 1a f2 ec 3d
       0.05604492 0.1741445 -0.051392876 0.11569615
000140 ec 8b 24 3e 90 8b ee bd de 23 2d 3e 5d 28 46 bd
       0.16069001 -0.11647713 0.16908213 -0.048378337
000150 a1 34 85 3d 92 43 41 3e b3 f4 2e 3e 03 3b 77 bc
       0.06504179 0.18873432 0.17085533 -0.015089753
000160 44 ad 29 3e 47 c6 ee 3d 64 b5 2f bb e2 82 b9 3d
       0.16570002 0.11658912 -0.0026810998 0.09058167
000170 72 18 93 bd cb 43 65 3d 59 67 e7 3d 4b 72 0f bd
       -0.07182397 0.055972856 0.11299009 -0.035021108
000180 dc 1b 9c bd 2a 23 83 3d 72 1c 88 3c 7d c6 25 bd
       -0.07622501 0.064031914 0.016615126 -0.040472496
000190 f3 47 1d 3d db eb 82 3c 54 a7 0f be 7c a1 93 3d
       0.038398694 0.015981605 -0.14028674 0.07208535
0001a0 ac 72 5b 3d 50 e2 6f be 89 74 5b 3c 2c 58 42 3e
       0.053576156 -0.23426175 0.013394483 0.18978947
0001b0 60 00 bb 3d 6c 85 70 3e 52 da 53 bc f1 b4 95 bc
       0.09130931 0.23488396 -0.01293047 -0.018274756
0001c0 11 2a 94 3d df 4a 23 3e f6 74 7d bd ab be e7 bd
       0.07234586 0.1594653 -0.06187912 -0.11315664
0001d0 9a 6c 2c 3e dd 82 f9 3c e4 76 6c 3e e5 2e ce 3c
       0.16838303 0.030457908 0.23092228 0.025168845
0001e0 68 cf 9d 3d 0a 7e c3 3d 04 c0 2b bd 74 8e 97 bd
       0.07705575 0.095455244 -0.041931167 -0.07400218
0001f0 ab 8a ec 3d fb a1 e6 bd 33 3e 25 bd 2b 37 2b bc
       0.11549886 -0.11261364 -0.04034252 -0.010450165
000200 1f 17 a6 bd 8d 63 ef 3c 02 43 ed 3c b5 d3 12 3d
       -0.08109879 0.029222274 0.028962616 0.03584643
000210 6d bd 6a 3e b3 f5 04 bd 6d e4 61 3e c8 69 a7 3d
       0.22923823 -0.03246088 0.22059794 0.08174473
000220 38 30 5a 3d e3 8a 11 be f6 5d 79 bd 7f ec 1c be
       0.05326864 -0.14213137 -0.060880624 -0.15324591
000230 7d 4b 34 3e fa 28 59 3b d1 e0 0a 3c f9 dc 53 bd
       0.17606921 0.0033135996 0.008476452 -0.051724408
000240 06 a3 d4 3d b4 fa e7 3b 41 73 a8 3d e5 7f f2 3d
       0.10382657 0.0070794467 0.08225108 0.118408
000250 19 7e 19 bd 7e d1 c5 bd 40 1b 25 3d 44 34 1d bd
       -0.03747377 -0.09659098 0.04030919 -0.038379923
000260 3a f8 0c 3e 42 0a 7d bd 71 bb fc bd 6a 4c 1a bd
       0.13766566 -0.06177736 -0.12340439 -0.03767053
000270 58 15 c8 bd 96 36 7b bd 97 ef 99 bc 80 34 4a be
       -0.09769696 -0.061331354 -0.018791003 -0.1974659
000280 3b df ac bd 9c d3 eb ba 50 ff a3 3c 2f fe c2 3c
       -0.08441015 -0.0017992142 0.020019203 0.023802845
000290 aa 7e d2 bc 74 63 b1 3b 10 5c 73 bd b0 0a e6 3d
       -0.025695164 0.005413467 -0.05941397 0.11232507
0002a0 9a c8 18 3e a8 0c 33 3d 0d 94 24 be f9 f9 12 3d
       0.14920273 0.04371324 -0.16072102 0.035882924
0002b0 f2 07 1a 3e a3 6e 51 bd 57 55 3a be 67 f1 07 bd
       0.15042093 -0.051130902 -0.18196617 -0.033189204
0002c0 c2 96 c2 3d ed f8 01 3e 6a 9d a5 bc 2c f5 54 3d
       0.09501411 0.12692614 -0.020216662 0.051991627
0002d0 92 ee 57 3d 10 df 29 3e b6 00 b0 3c 04 d2 3f 3c
       0.052717753 0.16588998 0.021484714 0.0117077865
0002e0 77 bc 09 3d e8 8b ee 3c 29 5f c2 bd 90 7b b0 bd
       0.033627 0.029119447 -0.094908066 -0.08617318
0002f0 51 45 07 3e 9e 9f d8 bd 77 fc 3b 3d 20 97 1e 3d
       0.13210036 -0.105773196 0.045895066 0.038718343
000300 a0 52 00 be d3 44 86 bd 7c 3a 65 3b f6 1d d4 3d
       -0.12531519 -0.06556096 0.0034977486 0.10357277
000310 20 b7 b5 bb 19 17 94 3d 92 b9 b1 3d 18 45 4c bd
       -0.005545512 0.07230968 0.08677973 -0.04987058
000320 28 84 4e bd 5f 61 c2 bd fa 6e 8e 3c 50 12 8c bc
       -0.050419003 -0.09491228 0.017386902 -0.017098576
000330 6e 6c 02 3d 13 b5 84 bb 5d 58 2e 3d 66 3c f0 3d
       0.031841688 -0.004049906 0.04256474 0.1173027
000340 fe 2c 62 3e 21 1e bf 3d e4 ce 3f bc 5a 9d 9f 3d
       0.22087476 0.093319185 -0.011707041 0.07793684
000350 ed 3c 9e bc a7 00 56 3b 5a c8 49 3e 70 21 18 be
       -0.019316161 0.0032654197 0.19705334 -0.14856505
000360 6d f3 9b bc a6 5d c8 bc c4 cc e8 38 31 77 ae 3d
       -0.019036973 -0.024458718 0.00011100763 0.08518828
000370 9b 77 25 3c d1 7e 13 bd d1 e5 12 3e 2b 71 c0 bd
       0.010099317 -0.036009613 0.1434548 -0.09396585
000380 1f f4 1a 3e 7e a2 d5 3c e0 48 a2 3c a8 c2 de 3c
       0.15132187 0.026078459 0.01981014 0.027192429
000390 4b 82 d0 bd ff c1 41 3d ed 36 bc bb 99 1c bd bc
       -0.101811014 0.04730415 -0.0057438524 -0.023084925
0003a0 03 32 19 3e 24 fa 75 bc ff cb 0c be 9f 40 ae bd
       0.14960484 -0.015013251 -0.13749693 -0.08508419
0003b0 92 5d 85 3c 04 01 e9 3d 10 af 1c bd a2 4a 27 3e
       0.01627997 0.11377147 -0.03825289 0.16337064
0003c0 72 31 90 3d 1d fd 46 bd 9c 45 b2 3d 88 43 d4 bd
       0.07040681 -0.04858123 0.08704683 -0.10364443
0003d0 5c 92 b0 3d 80 b9 8d 3a 78 67 54 3d 8c 2a 2f bd
       0.08621666 0.001081273 0.051856488 -0.042765185
0003e0 08 94 b0 3c 44 13 44 bd 81 54 83 bc b0 48 ca 3d
       0.021554962 -0.047869936 -0.016031506 0.09877145
0003f0 b8 8d 5c bd 61 80 36 bd 19 2e 46 bd a7 0a 7d 3e
       -0.05384609 -0.044556025 -0.048383806 0.24711095
