Assets/Models/test1.onnx (onnx, 73826 bytes, 6 tensors)

action_model._discrete_distribution.branches.0.bias f4 [4]
-0.015919885 -0.002495707 0.009020032 0.0117086675
00000000: 6b6a 82bc 048f 23bb c2c8 133c b6d5 3f3c

action_model._discrete_distribution.branches.0.weight f4 [4, 128]
-0.021790275 0.02779134 -0.061406482 -0.025118148 -0.014993723 -0.044092797 -0.02490949 -0.034246054
0.042179797 -0.035478584 -0.018020779 0.023695674 -0.07072561 -0.017842384 -0.0041761138 -0.028351825
0.0196181 0.055319455 -0.03842107 -0.0089128595 0.0036950924 0.0162402 -0.027061401 0.032923713
-0.044202182 0.059790526 -0.0042555174 -0.030804388 -0.06287658 0.038638003 0.0460365 -0.07028802
0.0068724696 -0.04069103 -0.01948617 -0.021038707 0.00938669 -0.043287117 0.015506405 -0.033114333
-0.01071874 0.044770624 0.021327972 0.05565856 0.030540083 0.00082902523 0.0028066842 0.010317958
0.008378058 -0.014884867 0.0058560586 -0.047025196 -0.058226954 -0.015775139 -0.04397716 0.05434332
0.050251793 0.06408881 0.030576099 -0.027219176 -0.057451595 0.042870425 -0.020918926 -0.051324215
-0.043688826 -0.066155605 -0.017000591 0.05469929 0.002671102 0.004767633 -0.054206986 -0.0059250006
-0.02767078 -0.039619002 -0.04022362 -0.047299422 -0.04938856 -0.04278482 0.016276691 -0.03928406
0.058974907 0.011604453 0.053413562 -0.032051265 -0.01669343 0.00046724192 -0.010125476 -0.036461912
-0.040054273 -0.019767493 0.039743956 0.016413486 0.02854903 -0.036890633 0.005525153 -0.017219082
0.057631668 -0.015719393 0.013041774 -0.046655584 0.0045448653 0.039022043 -0.05028386 0.005434314
-0.042230427 0.023649883 0.050424404 0.04530331 0.027054992 -0.060524207 -0.020153575 0.06036892
0.048387174 -0.04992599 -0.044275448 -0.026119031 -0.024800925 -0.008870852 -0.01698062 -0.028036864
-0.05094651 -0.05291183 -0.0015348943 0.0012208805 -0.06204282 0.07254128 0.046715457 0.035128422
0.042725172 0.013360894 0.039889887 0.049378615 0.0068191327 -0.01864994 0.02069362 0.039535627
-0.03868194 0.039622556 -0.016032947 -0.026213812 0.02806207 -0.015103068 -0.027052073 -0.0017922343
-0.02934021 -0.03935047 0.04297405 0.010653442 -0.017536072 -0.028035885 -0.013969823 -0.05046137
0.0069300737 -0.02713313 -0.020045498 0.021377947 0.049326204 -0.041610382 -0.031569056 0.043412946
-0.048945908 0.032959465 -0.018607927 0.03177127 -0.041271035 0.0012878248 -0.056973446 0.01676149
0.009325092 -0.04970472 -0.0073263487 -0.059584904 -0.05224538 0.03352482 -0.045653813 -0.025941549
-0.05178954 0.007190397 -0.04092907 0.03089417 0.024041114 0.0062936433 0.041960735 -0.039482966
-0.051942013 -0.04006333 -0.028747087 0.061523467 0.04958728 -0.042770967 -0.012068593 0.04386117
0.00071509567 0.021258572 -0.02344158 -0.053514674 -0.016963238 -0.014507895 0.06941034 -0.014216356
0.051255256 0.0170046 0.055752054 0.037065107 0.03658192 0.06501324 -0.023677755 0.019277794
-0.047523323 -0.04040403 0.005029314 0.0037453526 -0.014446091 -0.033089858 0.0046244734 -0.0041270507
0.047278065 -0.00560888 -0.0555634 -0.031359587 -0.04544653 0.046881463 -0.030367007 0.024436235
-0.02320989 -0.03359981 0.012721319 0.009553932 -0.026712423 -0.046668053 0.039686806 -0.036327887
0.0086721135 -0.024799414 -0.046460766 -0.030754393 -0.0387898 0.017753443 0.026604274 -0.040805038
-0.022425689 0.025474845 0.054643024 0.06141 0.022744138 -0.008300506 0.021451734 0.06293852
0.033695016 0.04568134 -0.026879668 0.014224202 0.043469474 -0.043450147 -0.046235986 -0.04070575
00000000: 8581 b2bc aaaa e33c 5d85 7bbd 93c4 cdbc
00000010: 3ba8 75bc a69a 34bd fd0e ccbc 9745 0cbd
00000020: b9c4 2c3d fe51 11bd 50a0 93bc 6e1d c23c
00000030: 97d8 90bd 312a 92bc c8d7 88bb 1642 e8bc
00000040: 23b6 a03c a796 623d 695f 1dbd 3e07 12bc
00000050: 5d29 723b 2b0a 853c dfaf ddbc 04db 063d
00000060: 590d 35bd e9e6 743d de71 8bbb 7c59 fcbc
00000070: 70c5 80bd e242 1e3d c590 3c3d 2af3 8fbd
00000080: 7432 e13b a3ab 26bd 76a1 9fbc 5e59 acbc
00000090: a2ca 193c d54d 31bd 940e 7e3c e5a2 07bd
000000a0: a79d 2fbc 6761 373d 00b8 ae3c 3bfa 633d
000000b0: 322f fa3c f152 593a 59f0 373b a70c 293c
000000c0: 1f44 093c a8df 73bc 2ee4 bf3b 7e9d 40bd
000000d0: 637f 6ebd dd3a 81bc 6521 34bd 1a97 5e3d
000000e0: d3d4 4d3d fe40 833d ba7a fa3c c0fa debc
000000f0: 5d52 6bbd e698 2f3d 2b5e abbc 5739 52bd
00000100: 0ef3 32bd 977c 87bd d344 8bbc 5d0c 603d
00000110: a80d 2f3b ce39 9c3b 2508 5ebd 8226 c2bb
00000120: d5ad e2bc 8947 22bd 86c1 24bd 0abd 41bd
00000130: a94b 4abd 233f 2fbd b256 853c 53e8 20bd
00000140: ac8f 713d 9b20 3e3c 2ec8 5a3d 3048 03bd
00000150: a9c0 88bc 26f8 f439 53e5 25bc 1659 15bd
00000160: f30f 24bd 70ef a1bc 8fca 223d 9375 863c
00000170: a8df e93c a21a 17bd 580c b53b 080f 8dbc
00000180: 2f0f 6c3d f5c5 80bc 2aad 553c ed19 3fbd
00000190: 18ed 943b 94d5 1f3d 73f6 4dbd 5412 b23b
000001a0: d0f9 2cbd 66bd c13c d289 4e3d f78f 393d
000001b0: 6ea2 dd3c 3be8 77bd 1c19 a5bc 6745 773d
000001c0: a131 463d 327f 4cbd 2c5a 35bd 94f7 d5bc
000001d0: 4f2b cbbc 0d57 11bc f11a 8bbc 91ad e5bc
000001e0: 4aad 50bd 13ba 58bd 822e c9ba f405 a03a
000001f0: 9d20 7ebd 8690 943d b558 3f3d d2e2 0f3d
00000200: 9700 2f3d a7e7 5a3c 9463 233d 3b41 4a3d
00000210: 0873 df3b c2c7 98bc ab85 a93c 1cf0 213d
00000220: f470 1ebd 434b 223d 8757 83bc 59be d6bc
00000230: 6de2 e53c dc72 77bc 4f9c ddbc 67e9 eaba
00000240: e15a f0bc f52d 21bd 8f05 303d c68b 2e3c
00000250: cfa7 8fbc 83ab e5bc afe1 64bc 95b0 4ebd
00000260: ac15 e33b 4c46 debc 7536 a4bc ce20 af3c
00000270: 460a 4a3d a66f 2abd 8e4e 01bd c6d1 313d
00000280: 817b 48bd 8100 073d a76f 98bc 9722 023d
00000290: d10b 29bd 3bcc a83a fd5c 69bd 644f 893c
000002a0: 45c8 183c 2d97 4bbd de11 f0bb 4d0f 74bd
000002b0: 40ff 55bd 5251 093d 7eff 3abd 5f83 d4bc
000002c0: 4521 54bd 6c9d eb3b 3ea5 27bd c515 fd3c
000002d0: dff1 c43c e83a ce3b 05df 2b3d e4b8 21bd
000002e0: 26c1 54bd 7219 24bd 037f ebbc 0800 7c3d
000002f0: 081c 4b3d 9c30 2fbd 59bb 45bc c5a7 333d
00000300: 4275 3b3a 7526 ae3c 8e08 c0bc 3432 5bbd
00000310: 7df6 8abc 86b2 6dbc 0227 8e3d b8eb 68bc
00000320: 08f1 513d 3b4d 8b3c 445c 643d 95d1 173d
00000330: ecd6 153d a925 853d daf7 c1bc 77ec 9d3c
00000340: d1a7 42bd b27e 25bd f2cc a43b 9774 753b
00000350: 4caf 6cbc 3b89 07bd e588 973b 363c 87bb
00000360: a5a6 413d b2ca b7bb 7396 63bd e972 00bd
00000370: 2426 3abd c706 403d 3bc4 f8bc 802e c83c
00000380: ab22 bebc f49f 09bd 146d 503c 1888 1c3c
00000390: 03d4 dabc 0027 3fbd a28e 223d 8dcc 14bd
000003a0: 7b15 0e3c 2428 cbbc a54d 3ebd a3f0 fbbc
000003b0: 0ee2 1ebd ab6f 913c 35f1 d93c 2f23 27bd
000003c0: 14b6 b7bc 9fb0 d03c 5dd1 5f3d 0d89 7b3d
000003d0: ea51 ba3c d8fe 07bc 8cbb af3c e9e5 803d
000003e0: c903 0a3d 5b1c 3b3d c032 dcbc a10c 693c
000003f0: 0c0d 323d c8f8 31bd f261 3dbd 13bb 26bd

network_body._body_endoder.seq_layers.0.bias f4 [128]
-0.022526858 0.0532872 0.050853807 0.039920565 0.026841253 0.0120171765 0.04627382 0.01573383
0.05857275 0.03744232 0.049767785 -0.013619725 0.037549783 0.041689888 0.03256561 0.03217003
0.05275153 -0.008612915 -0.020094499 0.04378472 0.04329181 -0.024666589 0.04852988 0.018201899
0.05729254 0.028854242 0.024197936 0.022751754 0.019891242 0.056360595 -0.0016168497 0.051300608
0.029426994 0.038306475 0.054384563 0.030696105 0.041032415 0.0019194407 0.026843308 0.039041653
0.010015404 -0.012298081 0.037409842 0.030224098 0.040686708 0.0563397 0.0516912 0.061073195
0.012679584 0.06514678 0.059879526 0.06126995 0.04378218 0.043757863 0.04659716 -0.037512634
0.045126047 0.044446897 0.04300832 0.04516281 0.06454412 0.027530054 0.072452866 0.036546886
0.05477169 0.03709705 0.005394305 0.055839267 0.03237151 -0.001393114 -0.0017633054 -0.0021214865
0.042531017 0.023090024 0.047383033 0.015910484 0.06175998 0.03998568 0.046789534 0.012380451
0.019351533 0.027561069 0.05677943 0.013996739 -0.020311702 0.008305943 0.0028319887 0.046889
0.037425935 0.045439523 0.016009957 0.06265503 -0.008065237 0.05302409 0.06843356 0.022042077
0.033570603 0.06132378 0.040233362 0.053859662 0.030293435 0.0122928955 0.047942117 0.050350465
0.05536812 0.05496638 0.060079318 0.058331724 0.05798647 0.06081777 0.0632617 -0.011115189
0.03823617 0.048593562 0.049028043 -0.002510029 0.041545525 0.05580445 0.0046213646 0.07899583
0.05871949 0.019526845 0.06473419 0.028288295 0.02215277 0.007110179 0.041569546 0.02106507
00000000: 3f8a b8bc ae43 5a3d 154c 503d bf83 233d
00000010: 30e2 db3c b1e3 443c 9e89 3d3d 3ce4 803c
00000020: fbe9 6f3d 1e5d 193d 4ed9 4b3d 4425 5fbc
00000030: cdcd 193d 04c3 2a3d 8463 053d b9c4 033d
00000040: fd11 583d 2f1d 0dbc 389d a4bc 9b57 333d
00000050: c152 313d 9611 cabc 44c7 463d 261c 953c
00000060: 95ab 6a3d bb5f ec3c c03a c63c e361 ba3c
00000070: f5f2 a23c 5eda 663d 79ec d3ba 9620 523d
00000080: e110 f13c 40e7 1c3d 59c2 5e3d 6676 fb3c
00000090: 9b11 283d be95 fb3a 7fe6 db3c 24ea 1f3d
000000a0: a617 243c e47d 49bc 103b 193d 8798 f73c
000000b0: 1ba7 263d 75c4 663d 27ba 533d e327 7a3d
000000c0: 08be 4f3c ad6b 853d 3c44 753d 33f6 7a3d
000000d0: f154 333d 723b 333d aadc 3e3d d9a6 19bd
000000e0: 17d6 383d f30d 363d 7e29 303d a3fc 383d
000000f0: b52f 843d b586 e13c 2b62 943d 30b2 153d
00000100: 4858 603d 14f3 173d b6c2 b03b b7b7 643d
00000110: fd97 043d 2699 b6ba b61e e7ba a308 0bbb
00000120: 0135 2e3d 4a27 bd3c b614 423d b456 823c
00000130: 08f8 7c3d 06c8 233d 62a6 3f3d 60d7 4a3c
00000140: 1b87 9e3c c0c7 e13c 8c91 683d 9452 653c
00000150: ba64 a6bc a615 083c e398 393b ae0e 403d
00000160: f04b 193d cb1e 3a3d 5027 833c 4851 803d
00000170: 0e24 04bc ca2f 593d e526 8c3d 9691 b43c
00000180: 5481 093d a52e 7b3d bdcb 243d f39b 5c3d
00000190: f029 f83c 2468 493c f45e 443d 4a3c 4e3d
000001a0: afc9 623d 6d24 613d bb15 763d 3fed 6e3d
000001b0: 3983 6d3d 0e1c 793d 5a8f 813d 7b1c 36bc
000001c0: 889d 1c3d 0b0a 473d a1d1 483d 4c7f 24bb
000001d0: a42b 2a3d 3593 643d d16e 973b 91c8 a13d
000001e0: d983 703d c3f6 9f3c 5c93 843d dbbc e73c
000001f0: ba79 b53c 81fc e83b d444 2a3d a790 ac3c

network_body._body_endoder.seq_layers.0.weight f4 [128, 6]
-0.13919209 0.21756814 0.089208506 0.17304385 0.063074976 0.30453768 0.043100376 -0.5489877
0.13439836 -0.23095636 -0.09299706 0.02818315 0.3223386 0.4324699 0.12742905 -0.027956964
-0.8247886 0.87520397 0.09392984 -0.28722543 -0.48806602 -0.5029288 -0.0860522 0.2276106
0.70792454 -0.23977281 -0.3196384 -0.40789858 0.6252279 -0.1937932 -0.8939972 -0.14348887
0.8328128 0.35345873 0.15520768 -0.19901301 0.25177628 0.03387165 -0.47058916 0.69026214
-0.3751703 0.0059370655 -0.008265085 0.046406493 -0.13941567 0.21159452 0.13304941 0.47719648
-0.16135456 0.06585148 0.2909307 -0.1905918 -0.13277912 0.042272158 0.3956397 -0.36547077
-0.49849895 -0.07186701 -0.14261535 -0.015479882 0.039589636 -0.72502226 0.8739187 0.1331289
-0.14028947 0.032681357 0.07873771 -0.18012354 -0.9577952 0.10592579 -0.25421903 0.47270098
0.88020957 0.48986557 0.47263172 -0.35076478 0.16421904 -0.41172162 0.036001164 0.2409241
0.38558018 0.011047194 0.22903728 -0.70219547 0.2833566 0.73479825 0.09799483 0.8049882
-0.07110888 -0.060080975 0.7436236 -0.021293962 0.24777123 -0.19698936 0.6184169 -0.4742146
0.39969042 0.3081635 -0.030852128 0.24123725 0.15752636 -0.33347857 -0.29896307 -0.03870056
0.16201553 -0.115621455 -0.1661149 -0.07085611 0.15155683 -0.050562784 -0.3073256 -0.42836788
0.8703861 0.10441926 0.048688766 0.15031244 0.40189102 -0.27114382 0.35277066 0.48685026
-0.2227305 -0.21952127 0.018254662 -0.5871903 0.116403945 0.56266713 -0.32177258 -0.28035063
0.47359547 0.35649368 -0.30478388 0.81974435 -0.6475843 -0.45461854 0.38921502 0.11629059
-0.16234365 0.57248235 -0.30549923 -0.5619075 -0.29046166 -0.051320996 -0.4133393 0.024240086
-0.084801376 -0.47776327 -0.10933322 0.14672329 0.049738266 -0.13048266 -0.10666714 0.4147069
0.107575536 -0.13715017 -0.5819194 0.86453396 -0.28049955 -0.65031457 -0.30556074 -0.19250436
-0.03677808 -0.50944406 0.35606888 0.11572569 -0.31127083 0.38405117 -0.5142643 -0.41618016
0.025821459 -0.3586526 0.31503898 0.2504709 -0.31473753 0.1658261 -0.8021159 -0.26366144
0.52186453 -0.044907726 0.66386044 -0.24264757 -0.22914927 0.52454114 0.46498808 -0.7028336
0.17517462 -0.24439818 -0.018182904 0.9121864 0.1366589 -0.08995453 0.23441656 0.13854086
0.1610432 -0.35291615 0.6865284 -0.5403962 -0.25452197 -0.17676993 -0.17406468 0.071638055
0.41515747 -0.038967986 0.5063619 -0.26893163 0.77471983 -0.54256296 -0.66292787 -0.12911928
-0.48571214 0.35968813 0.18801844 -0.98737967 0.41264307 -0.8683676 -0.25643092 -0.2872693
0.471946 0.51955456 -0.12078955 -0.6309101 -0.18519382 -0.30105397 0.12715924 -0.10845118
0.01330401 -0.33385804 -0.3383018 0.22702695 -0.15881744 0.10078306 -0.3169869 0.5290519
-1.0245785 -0.24300188 -0.13620597 -0.33548778 0.1428042 0.3903627 0.078818634 0.31373343
0.11855934 -0.14498915 0.13680789 -0.10467347 0.55474555 -0.090245 -0.09871925 -0.052793205
0.7004633 -0.19125567 0.0029899743 -0.17679046 -0.27678877 -0.10434151 0.38555735 -0.09163403
00000000: 5f88 0ebe 2fca 5e3e f3b2 b63d 6832 313e
00000010: 742d 813d 5dec 9b3e 058a 303d 758a 0cbf
00000020: b99f 093e d37f 6cbe 3e75 bebd 59e0 e63c
00000030: 9109 a53e b26c dd3e c37c 023e 0106 e5bc
00000040: 5825 53bf 5e0d 603f 4a5e c03d 360f 93be
00000050: cae3 f9be f1bf 00bf 233c b0bd c112 693e
00000060: 8b3a 353f 0187 75be a5a7 a3be 15d8 d0be
00000070: f00e 203f ba71 46be 00dd 64bf bfee 12be
00000080: 3833 553f 8bf8 b43e c3ee 1e3e 11ca 4bbe
00000090: d2e8 803e 00bd 0a3d 10f1 f0be 05b5 303f
000000a0: 5216 c0be b78b c23b 476a 07bc bc14 3e3d
000000b0: fbc2 0ebe 3cac 583e 1b3e 083e 1953 f43e
000000c0: 213a 25be 24dd 863d def4 943e 7f2a 43be
000000d0: 40f7 07be 9225 2d3d 4991 ca3e fc1e bbbe
000000e0: 413b ffbe 032f 93bd c209 12be 559f 7dbc
000000f0: be28 223d 0f9b 39bf 23b9 5f3f f152 083e
00000100: 0ba8 0fbe e3dc 053d 3d41 a13d 4e72 38be
00000110: 1132 75bf 9fef d83d ff28 82be dd05 f23e
00000120: 6a55 613f a9cf fa3e c9fc f13e 7197 b3be
00000130: 0929 283e 2dcd d2be f575 133d cfb4 763e
00000140: c46a c53e 4aff 343c c088 6a3e 15c3 33bf
00000150: 1e14 913e bd1b 3c3f 83b1 c83d b513 4e3f
00000160: 88a1 91bd 7817 76bd 1e5e 3e3f ad70 aebc
00000170: beb7 7d3e 94b7 49be 9250 1e3f 42cc f2be
00000180: 39a4 cc3e 9bc7 9d3e 9abd fcbc e606 773e
00000190: 974e 213e b4bd aabe b011 99be 7a84 1ebd
000001a0: 66e7 253e f1ca ecbd 061a 2abe 021d 91bd
000001b0: b731 1b3e ec1a 4fbd c859 9dbe 0953 dbbe
000001c0: a0d1 5e3f c4d9 d53d df6d 473d 81eb 193e
000001d0: a9c4 cd3e 5dd3 8abe 5b9e b43e 7044 f93e
000001e0: 7713 64be 2fca 60be cd8a 953c 1a52 16bf
000001f0: 3165 ee3d f40a 103f 60bf a4be 1e8a 8fbe
00000200: 1b7b f23e 5786 b63e a20c 9cbe c4da 513f
00000210: 16c8 25bf c3c3 e8be 3147 c73e c329 ee3d
00000220: 6a3d 26be 348e 123f 656a 9cbe 2bd9 0fbf
00000230: 64b7 94be f735 52bd 35a1 d3be 2593 c63c
00000240: 58ac adbd 639d f4be 18ea dfbd a13e 163e
00000250: 5aba 4b3d 3f9d 05be 4d74 dabd 7654 d43e
00000260: 9050 dc3d 1871 0cbe abf8 14bf 1952 5d3f
00000270: a39d 8fbe 047b 26bf 7572 9cbe dd1f 45be
00000280: 9da4 16bd ed6a 02bf a94e b63e 9701 ed3d
00000290: e45e 9fbe 5ba2 c43e d3a6 03bf 9115 d5be
000002a0: 8687 d33c 50a1 b7be ca4c a13e b93d 803e
000002b0: 4725 a1be 51ce 293e 7857 4dbf a2fe 86be
000002c0: ea98 053f 2af1 37bd c2f2 293f 9b78 78be
000002d0: 1ba6 6abe 5448 063f eb12 ee3e e7ec 33bf
000002e0: fa60 333e 8443 7abe 50f4 94bc 0c85 693f
000002f0: 50f0 0b3e 153a b8bd e50a 703e a8dd 0d3e
00000300: 82e8 243e 6db1 b4be 53c0 2f3f 6857 0abf
00000310: b450 82be 2d03 35be 033e 32be f9b6 923d
00000320: 858f d43e e59c 1fbd efa0 013f 68b1 89be
00000330: 0a54 463f 68e5 0abf a4b5 29bf d837 04be
00000340: 43af f8be 0b29 b83e e887 403e eac4 7cbf
00000350: f445 d33e 574d 5ebf ea4a 83be f614 93be
00000360: e8a2 f13e 8701 053f 8360 f7bd 5383 21bf
00000370: 73a3 3dbe bf23 9abe 0836 023e a71b debd
00000380: 10f9 593c 71ef aabe e535 adbe c179 683e
00000390: 0aa1 22be 5967 ce3d 1b4c a2be f26f 073f
000003a0: 6325 83bf 7cd5 78be 9479 0bbe 0ec5 abbe
000003b0: 443b 123e 9fdd c73e aa6b a13d aba1 a03e
000003c0: 3dcf f23d 0978 14be 5e17 0c3e 0b5f d6bd
000003d0: ce03 0e3f 5fd2 b8bd 512d cabd b03d 58bd
000003e0: 9051 333f 87d8 43be 72f3 433b 8f08 35be
000003f0: 42b7 8dbe 00b1 d5bd c667 c53e 9faa bbbd

network_body._body_endoder.seq_layers.2.bias f4 [128]
0.023120245 -0.030765355 0.05120141 0.02394901 0.0051924726 0.05310131 0.0070050503 0.027454266
0.029142456 0.032619137 0.00793393 0.01053519 0.052662965 0.040052474 0.025709521 0.023432598
0.03519507 0.034649763 0.029518643 0.031745974 0.033437554 0.027433338 0.031031923 0.0414539
0.039742682 0.022430135 0.040237673 0.034907456 0.059684396 0.048110463 0.021994088 0.040846355
0.051039908 0.03435941 0.03941077 0.026634242 0.032788616 0.05193411 0.038894355 0.03037684
0.03222564 0.048296493 0.029882226 0.04315217 0.047878116 0.00024807485 0.034834363 0.032737166
0.053548165 0.030024946 0.03359168 0.0448489 0.06261622 0.012109742 0.053060055 0.04361581
0.047821883 0.04433345 0.0071940552 0.04071738 0.036155026 0.03930192 0.031632897 0.028176032
0.035372615 0.045097202 0.031847157 0.04286988 0.039741617 0.01918487 0.03579955 0.01942306
0.035893653 0.04516168 0.049320817 0.037554044 0.044022184 0.03715202 0.004723892 0.045011114
0.034064353 0.028114831 0.018710496 0.037119366 0.030011725 0.021524746 0.032108583 0.03604899
0.019549372 0.030470353 0.04785881 0.016406052 0.057652522 0.031792488 0.03734404 0.019528693
0.03765361 0.02901064 0.01918792 0.033695545 0.030039426 0.05017716 0.036732316 0.03994273
0.036158923 0.032254968 0.049838472 0.019270277 0.013352317 0.04684248 0.01053262 0.03899802
0.033344027 0.034263767 0.04192519 0.03660007 0.0353549 0.03672023 0.008804847 0.03425119
0.051943716 0.04096626 0.040521204 0.016405951 0.05681255 0.04942743 0.03172198 0.047605675
00000000: ab66 bd3c a007 fcbc 92b8 513d b730 c43c
00000010: 9e25 aa3b c280 593d 9f8a e53b c5e7 e03c
00000020: 29bc ee3c a59b 053d 50fd 013c ca9b 2c3c
00000030: 1fb5 573d 100e 243d c69c d23c b8f5 bf3c
00000040: b528 103d e9ec 0d3d 15d1 f13c 1108 023d
00000050: d1f5 083d e1bb e03c a936 fe3c 91cb 293d
00000060: 39c9 223d 67bf b73c 42d0 243d 1ffb 0e3d
00000070: a077 743d 7a0f 453d f22c b43c 824e 273d
00000080: 390f 513d 74bc 0c3d 306d 213d 0e30 da3c
00000090: 5b4d 063d dcb8 543d b04f 1f3d dad8 f83c
000000a0: 08ff 033d 8bd2 453d 92cb f43c 54c0 303d
000000b0: d81b 443d 0b10 8239 7aae 0e3d 6817 063d
000000c0: 5255 5b3d e0f6 f53c 6e97 093d 7bb3 373d
000000d0: ef3c 803d f067 463c 8055 593d 7ea6 323d
000000e0: e1e0 433d fe96 353d 1cbc eb3b 44c7 263d
000000f0: 4b17 143d 0dfb 203d 7f91 013d 6cd1 e63c
00000100: e0e2 103d d8b7 383d 2a72 023d 5498 2f3d
00000110: 1bc8 223d 9729 9d3c 8da2 123d 1c1d 9f3c
00000120: 3905 133d 74fb 383d a004 4a3d 45d2 193d
00000130: 9b50 343d b72c 183d e1ca 9a3b 935d 383d
00000140: 1087 0b3d 1351 e63c c146 993c 7a0a 183d
00000150: 26db f53c aa54 b03c 4a84 033d 1ba8 133d
00000160: 0126 a03c f69c f93c 9907 443d fc65 863c
00000170: 0d25 6c3d d738 023d 10f6 183d a3fa 9f3c
00000180: ac3a 1a3d b9a7 ed3c fc2f 9d3c 5704 0a3d
00000190: 3e15 f63c 9186 4d3d a074 163d fd9a 233d
000001a0: 611b 143d c91d 043d 6d23 4c3d b3dc 9d3c
000001b0: adc3 5a3c e6dd 3f3d 0391 2c3c 63bc 1f3d
000001c0: bf93 083d 2a58 0c3d bfb9 2b3d f4e9 153d
000001d0: 4dd0 103d f467 163d 3442 103c fa4a 0c3d
000001e0: efc2 543d 3dcc 273d 90f9 253d c665 863c
000001f0: 47b4 683d 6b74 4a3d e8ee 013d 2bfe 423d

network_body._body_endoder.seq_layers.2.weight f4 [128, 128]
0.09035049 -0.04728559 0.1503406 -0.12960313 -0.05764837 0.03153516 -0.082287356 -0.026535241
-0.03158235 0.23396155 -0.008947503 -0.10163361 0.020209273 0.19584204 -0.11648498 -0.022940604
-0.13035905 -0.014841019 -0.034062807 0.059909355 -0.035512 0.03171178 0.105306625 -0.10935542
0.038626034 0.04457716 0.031631228 -0.10459109 0.019295193 -0.027280016 -0.011906819 0.17767754
-0.108684406 -0.045439195 -0.03829372 -0.115257084 0.0012051889 0.1091746 0.04699917 0.08879819
-0.09528122 -0.01021769 0.12761003 0.080252334 -0.065860234 -0.029016383 0.044883594 0.01912177
-0.0351687 0.0149797965 -0.060701765 -0.10453011 -0.20918852 0.030998353 -0.061594993 -0.14411984
0.006191896 0.11372931 -0.046829168 -0.13952257 -0.044001617 0.001379047 -0.10447259 0.09332546
0.10809504 -0.022589797 -0.062735654 -0.098246045 -0.08710486 0.015132815 -0.0052251 -0.043442253
-0.08122152 0.12153903 -0.1296729 0.07541802 -0.03708726 0.007986641 0.022926915 -0.01326199
-0.07065442 0.011952177 0.13708284 -0.085998036 0.08959495 -0.005821418 -0.08571144 -0.119694
-0.14426756 0.11112165 0.05406977 -0.028320905 0.09578625 0.14257804 -0.15538132 0.0025099018
0.081535 0.07838301 0.06856534 -0.17412308 -0.03297202 0.05316543 0.045671485 -0.033464428
-0.013407553 -0.0031826324 -0.012046139 0.11177329 0.08477098 0.2895174 0.16458261 -0.101438195
0.12857883 -0.005043473 -0.029701328 0.18702091 0.0405992 0.00029307723 -0.015266137 -0.057212327
-0.06118601 0.0027378157 0.10024326 0.13725731 0.059619162 0.10945285 0.013542484 0.063871086
0.18941137 -0.04715862 -0.12662598 -0.17686619 -0.02679308 -0.053521503 0.14595836 0.08997159
0.009720631 -0.03867749 -0.085402444 -0.023201728 -0.0032316905 -0.07005947 0.16755241 -0.12005453
0.09073215 -0.032954436 0.13917425 -0.027073132 0.048712045 -0.14892761 -0.02137395 0.12634534
-0.19963035 -0.037667226 -0.13034098 0.049955864 -0.033026904 -0.10417542 -0.021511625 -0.04511003
-0.060988333 -0.024706462 -0.0657806 -0.12995827 -0.11562851 -0.13879164 -0.09748615 0.104434624
-0.106824 -0.086820565 -0.07115671 -0.03905084 -0.0861505 -0.018502867 -0.043723375 -0.09273246
0.018672025 -0.20652914 0.021674145 -0.014818566 -0.015957277 -0.1878141 -0.034921203 0.015088689
-0.13605142 -0.0043370547 -0.031675804 -0.01868437 0.07630749 0.10958985 -0.019670492 -0.006044586
-0.061174907 0.0069535663 -0.12577762 -0.1284693 -0.009710275 -0.07772635 -0.23946597 0.08880872
-0.014592877 0.18429491 -0.1790293 -0.09024266 0.024433587 -0.093565084 0.04765328 -0.084317274
0.07786222 0.08543655 -0.036720533 -0.08437717 -0.094751425 -0.11309132 -0.15117407 0.062140997
-0.023188345 -0.064513646 0.0072986395 0.16432558 -0.16068278 -0.047674756 -0.22031584 -0.037884794
0.021029372 -0.04362272 0.14342424 -0.12627731 -0.059512857 0.06105237 -0.04455033 -0.19290319
-0.07644054 -0.05822616 0.022046948 -0.10759161 -0.06728266 0.023945812 0.0024388956 0.17048799
-0.12225298 0.1274188 0.002498265 0.025173917 -0.14305878 -0.052283924 0.107200295 0.076378204
-0.019423429 -0.031316176 -0.021328315 -0.12043424 -0.22189972 0.09962361 0.10637701 0.029415302
00000000: ad09 b93d 89ae 41bd e3f2 193e afb6 04be
00000010: b220 6cbd 032b 013d 4686 a8bd 6f60 d9bc
00000020: 7f5c 01bd 9e93 6f3e 8c98 12bc 4825 d0bd
00000030: eb8d a53c d18a 483e ad8f eebd efed bbbc
00000040: d87c 05be bf27 73bc 7185 0bbd 8363 753d
00000050: 0875 11bd 36e4 013d 00ab d73d bcf5 dfbd
00000060: 5536 1e3d 8a96 363d bf8f 013d da33 d6bd
00000070: f410 9e3c 577a dfbc d214 43bc 1af1 353e
00000080: ee95 debd 731e 3abd e0d9 1cbd e80b ecbd
00000090: 6ef7 9d3a ef96 df3d 3482 403d d3db b53d
000000a0: cd22 c3bd 1968 27bc 34ac 023e 565b a43d
000000b0: bbe1 86bd c4b3 edbc dcd7 373d 42a5 9c3c
000000c0: 0e0d 10bd d26d 753c 6aa2 78bd e213 d6bd
000000d0: 8435 56be 42f0 fd3c 084b 7cbd 2794 13be
000000e0: 63e5 ca3b eaea e83d f1cf 3fbd 01df 0ebe
000000f0: 0a3b 34bd 24c1 b43a baf5 d5bd 6b21 bf3d
00000100: ef60 dd3d 3d0e b9bc 8d7b 80bd 3935 c9bd
00000110: 0864 b2bd a0ef 773c 5137 abbb 81f0 31bd
00000120: 7857 a6bd 74e9 f83d f9c8 04be c374 9a3d
00000130: d0e8 17bd 66da 023c 3ad1 bb3c d148 59bc
00000140: 44b3 90bd 10d3 433c 725f 0c3e bd1f b0bd
00000150: 8f7d b73d 98c1 bebb 7b89 afbd 2122 f5bd
00000160: e0ba 13be bf93 e33d 4378 5d3d 3e01 e8bc
00000170: 952b c43d faff 113e 481c 1fbe 2a7d 243b
00000180: d2fb a63d 4687 a03d fc6b 8c3d 524d 32be
00000190: ab0d 07bd fec3 593d 0612 3b3d ff11 09bd
000001a0: 5aab 5bbc b693 50bb 2b5d 45bc 65e9 e43d
000001b0: 689c ad3d a03b 943e 5888 283e d4be cfbd
000001c0: 2baa 033e b843 a5bb 3350 f3bc 6982 3f3e
000001d0: 594b 263d 29a8 9939 d21e 7abc 7957 6abd
000001e0: 2e9e 7abd ed6c 333b 574c cd3d 2e8d 0c3e
000001f0: 3933 743d d128 e03d 4be1 5d3c d8ce 823d
00000200: 0ef5 413e 6629 41bd 3eaa 01be 691c 35be
00000210: 297d dbbc 5d39 5bbd 1c76 153e 0643 b83d
00000220: 4843 1f3c 4a6c 1ebd 7ae7 aebd 8d11 bebc
00000230: c5ca 53bb 577b 8fbd dc92 2b3e 26df f5bd
00000240: c7d1 b93d 3bfb 06bd b283 0e3e 79c8 ddbc
00000250: 4886 473d 7b80 18be 6c18 afbc ac60 013e
00000260: e66b 4cbe f348 1abd 1b78 05be 859e 4c3d
00000270: 3847 07bd ec59 d5bd 2639 b0bc 4bc5 38bd
00000280: e7ce 79bd 3565 cabc fbb7 86bd c813 05be
00000290: a4ce ecbd 651f 0ebe d2a6 c7bd d2e1 d53d
000002a0: 8bc6 dabd fbce b1bd 9cba 91bd c6f3 1fbd
000002b0: ac6f b0bd 5393 97bc 4817 33bd 84ea bdbd
000002c0: 13f6 983c 607c 53be fa8d b13c 92c9 72bc
000002d0: d6b8 82bc 5752 40be 8909 0fbd 8c36 773c
000002e0: 1051 0bbe da1d 8ebb 7dbe 01bd f70f 99bc
000002f0: 1a47 9c3d a570 e03d 0324 a1bc aa11 c6bb
00000300: 8a92 7abd beda e33b d9cb 00be 758d 03be
00000310: d817 1fbc fe2e 9fbd 9136 75be 59e1 b53d
00000320: f616 6fbc ceb7 3c3e 7553 37be 25d1 b8bd
00000330: f228 c83c 0d9f bfbd 1630 433d 89ae acbd
00000340: 3a76 9f3d 5cf9 ae3d 4568 16bd f0cd acbd
00000350: 090d c2bd 6c9c e7bd 60cd 1abe 8f87 7e3d
00000360: 7cf5 bdbc bb1f 84bd 6d29 ef3b f744 283e
00000370: 078a 24be 9b46 43bd 7a9a 61be 162d 1bbd
00000380: ca45 ac3c bdad 32bd cedd 123e d74e 01be
00000390: c1c3 73bd 0d12 7a3d 687a 36bd 6a88 45be
000003a0: dc8c 9cbd 8e7e 6ebd cd9b b43c fd58 dcbd
000003b0: 7ecb 89bd 022a c43c e1d5 1f3b 6794 2e3e
000003c0: c55f fabd 137a 023e eeb9 233b 8839 ce3c
000003d0: 007e 12be ab27 56bd d48b db3d 2d6c 9c3d
000003e0: e21d 9fbc 6445 00bd b8b8 aebc 3aa6 f6bd
000003f0: ae39 63be 7707 cc3d 31dc d93d 5cf8 f03c
