Assets/ML-Agents/results/Test1/PushButton/PushButton-152442.pt (torch, 457839 bytes, 46 tensors)

discrete_act_size_vector f4 [1, 3]
0	0x40400000	3.0
1	0x40400000	3.0
2	0x40000000	2.0

network_body._body_endoder.seq_layers.0.weight f4 [128, 7]
0	0x3ec094bb	0.37613472
1	0x3f6b1f0a	0.91844237
2	0xbeb4e0e3	-0.35327825
3	0xbe77bbd0	-0.24192739
4	0x3dba2178	0.09088415
5	0xbd6bba86	-0.05755093
6	0x3ede796e	0.43452018
7	0xbee2eb32	-0.44320065
8	0x3dfd5f2e	0.1237167
9	0xbd849c3b	-0.06475111
10	0xbef82bbe	-0.48470873
11	0x3e24eae6	0.16105232
12	0xbc7228b2	-0.01478021
13	0xbe233f6f	-0.15942167
14	0xbf2a2933	-0.66469115
15	0x3dafa2c5	0.08575968
16	0x3e79f5a9	0.24410118
17	0x3df9a301	0.12189294
18	0x3e4a5c8f	0.19761871
19	0x3ef823ed	0.4846491
20	0xbe24089e	-0.16018912
21	0xbd27f922	-0.041009076
22	0xbe029d94	-0.12755424
23	0x3eef2aa3	0.46712217
24	0xbf0a793c	-0.5409124
25	0xbe0b8773	-0.13625889
26	0x3f7cf463	0.98810405
27	0x3da3e4e1	0.080026396
28	0xbedcc572	-0.4311939
29	0xbeae55a8	-0.34049726
30	0xbe9c42ec	-0.30519807
31	0xbf0b857e	-0.5450057
32	0x3e3bdcb4	0.1834591
33	0xbee6fc47	-0.45114347
34	0x3e73111f	0.23737
35	0xbe3cb69a	-0.18429032
36	0xbe6ee80c	-0.23330706
37	0x3e14799f	0.1449952
38	0x3f0c19d6	0.5472692
39	0xbe57aefb	-0.21062844
40	0x3cf5fce5	0.030027816
41	0x3d55d17d	0.052201737
42	0x3e8ae4da	0.27127725
43	0xbcd85d41	-0.026411654
44	0x3ea39529	0.31949738
45	0x3f308e13	0.6896679
46	0xbf1d2b50	-0.61394215
47	0xbdcfae60	-0.10140681
48	0xbe2ce94b	-0.16885869
49	0x3d9c23ee	0.076240405
50	0x3d0321cd	0.032014657
51	0x3f0bfb51	0.54680353
52	0x3f2d37d8	0.67663336
53	0xbec61ccd	-0.38693848
54	0x3e721ebf	0.23644541
55	0xbe8f9e20	-0.28050327
56	0x3e9d70ee	0.3075022
57	0xbd3e10b5	-0.04640265
58	0x3dccc363	0.099982046
59	0x3d999c14	0.07500473
60	0xbf89facd	-1.0779663
61	0xbeda5e0b	-0.42649874
62	0xbeab347e	-0.33438486
63	0x3e58c26f	0.2116792
64	0xbe8a0b84	-0.2696191
65	0x3cf003aa	0.029298622
66	0x3ef5f94f	0.4804177
67	0x3d6598c5	0.056053896
68	0x3f4b7229	0.7947107
69	0xbf972673	-1.1808609
70	0x3d567975	0.052361924
71	0x3f18abf0	0.59637356
72	0x3d81e25e	0.06342004
73	0xbe139997	-0.14414059
74	0x3f5307b5	0.82433635
75	0xbe38f225	-0.18061121
76	0xbe0957bb	-0.13412373
77	0xbf191497	-0.5979704
78	0xbf33fa6a	-0.70303977
79	0xbe7b20e3	-0.24524264
80	0x3f4da888	0.80335283
81	0xbe3f9cb7	-0.18712126
82	0xbdfce8bc	-0.12349078
83	0xbe8f4213	-0.27980098
84	0x3ebb3bf6	0.36569184
85	0xbf21da7a	-0.63223994
86	0xbead5b67	-0.33858797
87	0x3f0df9e3	0.5545942
88	0xbf20c32f	-0.62797827
89	0x3eec4b43	0.4615117
90	0xbe8665b7	-0.26249477
91	0xbe689b13	-0.22715406
92	0xbdcded28	-0.100549996
93	0x3e84b35e	0.25918096
94	0x3dc29a05	0.09502033
95	0xbeb4fe07	-0.35350057
96	0xbe8bb7a3	-0.2728854
97	0xbd8f7ef9	-0.0700664
98	0xbe29c292	-0.16578129
99	0xbecc1142	-0.39856917
100	0xbe977d2d	-0.2958769
101	0x3de38ed8	0.1111123
102	0x3f49a847	0.78772396
103	0x3f07b45e	0.53009593
104	0x3e04f6e5	0.12984808
105	0x3e37dd36	0.17955479
106	0xbe20915a	-0.15680447
107	0x3d855c09	0.06511695
108	0xbef64d2e	-0.48105758
109	0x3e8aa201	0.27076724
110	0xbe01fb44	-0.12693506
111	0x3f2cce78	0.67502546
112	0xbcded733	-0.027202224
113	0xbf23477d	-0.6378096
114	0xbe309d40	-0.17247486
115	0x3d9e7c2c	0.07738528
116	0x3de80fec	0.11331162
117	0xbd8115ef	-0.063030116
118	0x3db8d1a0	0.09024358
119	0xbeec097d	-0.4610099
120	0xbe9ca391	-0.3059354
121	0xbeee29cc	-0.46516263
122	0x3eae93f6	0.3409726
123	0xbdcf3024	-0.10116604
124	0x3f2a48e8	0.66517496
125	0xbf0ea9c1	-0.55727774
126	0xbeb9cca8	-0.36288953
127	0x3eae0ad2	0.3399263
128	0x3f248487	0.6426472
129	0x3d1806d7	0.037115898
130	0xbeae526f	-0.34047267
131	0x3e211833	0.15731888
132	0x3eb4da73	0.35322914
133	0xbe165cc8	-0.1468383
134	0x3f77a01d	0.9672869
135	0xbf4d2867	-0.80139774
136	0xbe8b581f	-0.2721567
137	0x3d2b2cf7	0.04179093
138	0xbf0b4cda	-0.5441414
139	0x3d5e5077	0.054275956
140	0xbca0a900	-0.019611835
141	0x3dd07d3f	0.10180139
142	0xbdf25f98	-0.11834639
143	0x3edaaae1	0.42708495
144	0x3f476500	0.7788849
145	0xbe6c8710	-0.23098397
146	0x3e7bb2f7	0.24579988
147	0x3dfa4a25	0.12221173
148	0xbebfbef2	-0.37450367
149	0xbde83984	-0.11339095
150	0xbf5af4fb	-0.8553006
151	0xbdc4f1b7	-0.09616416
152	0xbebfe80d	-0.37481728
153	0xbec3e772	-0.38262516
154	0xbf149d63	-0.58052653
155	0xbe81197d	-0.2521476
156	0x3ea613a3	0.32436857
157	0xbf0a2858	-0.5396781
158	0xbe21b8d1	-0.15793158
159	0xbf19b2a5	-0.60038215
160	0xbf2e92bc	-0.6819265
161	0xbe198ba2	-0.14994672
162	0xbeed6124	-0.46363175
163	0xbf024192	-0.508813
164	0x3d4bc526	0.049748562
165	0x3e9de69b	0.3084
166	0x3ea78ae5	0.32723156
167	0x3d3723a2	0.044711716
168	0x3f4380d1	0.76368433
169	0x3e785b4a	0.24253574
170	0xbedaa63e	-0.42704958
171	0x3d9d10bc	0.076692075
172	0xbf27b269	-0.6550661
173	0xbe2adc64	-0.16685635
174	0x3e35df84	0.17761046
175	0x3e6f1f6a	0.23351827
176	0x3eadb957	0.33930466
177	0xbe1dbb47	-0.15403472
178	0xbe9f3c47	-0.31100675
179	0x3e94fcf8	0.2909925
180	0x3e965b4e	0.29366535
181	0x3e89d937	0.26923534
182	0xbeb4b116	-0.35291356
183	0xbe0a6741	-0.1351595
184	0xbed42897	-0.41437218
185	0x3dc9d3f3	0.09854879
186	0x3f188e36	0.59591997
187	0x3ec21120	0.3790369
188	0xbe0c2828	-0.13687193
189	0x3ecfc9f7	0.40583774
190	0xbe75f343	-0.24018578
191	0x3daaa367	0.08331948
192	0xbebf649a	-0.3738144
193	0x3e86c706	0.26323718
194	0x3d60f7d6	0.054923855
195	0xbe816d45	-0.2527868
196	0xbefd615f	-0.4948835
197	0xbe682bd1	-0.22672965
198	0x3e8c79e7	0.27436754
199	0x3ead41c8	0.3383925
200	0xbebb2fad	-0.3655981
201	0x3cb18d33	0.021673774
202	0xbd7a30f7	-0.061081853
203	0xbe78c016	-0.24292025
204	0xbe1fc8d5	-0.15603955
205	0x3e26e2e1	0.16297485
206	0x3e1f554c	0.15559882
207	0xbe9ca956	-0.30597943
208	0xbe812281	-0.25221637
209	0x3eb68a94	0.35652602
210	0x3db3ae49	0.08773477
211	0xbe86ab68	-0.26302648
212	0xbde7a168	-0.11310083
213	0x3f046fb1	0.5173293
214	0x3da7a229	0.081852265
215	0x3db2b208	0.08725363
216	0x3e82534f	0.25454184
217	0x3d9c4439	0.076302
218	0x3f007240	0.5017433
219	0xbbc638ae	-0.006049237
220	0xbee515ea	-0.44743282
221	0x3c4bc448	0.012436934
222	0xbe2dedbd	-0.16985221
223	0x3f0245a9	0.5088754
224	0x3d84122e	0.0644878
225	0x3e30bbc1	0.17259122
226	0xbf275236	-0.6535982
227	0x3ddcdb62	0.107840315
228	0x3f742dec	0.9538257
229	0xbe4f61a3	-0.20252089
230	0x3e8ba28e	0.27272457
231	0xbe997d0b	-0.29978213
232	0x3edcf889	0.43158367
233	0x3e167f40	0.1469698
234	0xbe11082b	-0.14163272
235	0x3e37c8a8	0.17947638
236	0xbe1b73bd	-0.1518087
237	0xbe1afe97	-0.15136181
238	0xbf500401	-0.8125611
239	0x3ee8e404	0.45486462
240	0x3ecc9df1	0.3996425
241	0x3e2f6ef2	0.17132166
242	0x3fb1b7e7	1.3884248
243	0x3d308bba	0.043102004
244	0xbe7269a0	-0.23673105
245	0xbf10130a	-0.5627905
246	0xbf112fa7	-0.56713337
247	0x3c3df301	0.011593581
248	0x3f2c01d6	0.671903
249	0x3e390760	0.1806922
250	0x3ed49dd4	0.41526663
251	0xbebe86df	-0.37212273
252	0xbea7314e	-0.32654804
253	0xbee819e9	-0.45332268
254	0x3e7e1431	0.2481239
255	0xbd209796	-0.039207064

network_body._body_endoder.seq_layers.0.bias f4 [128]
0	0x3cb1085e	0.021610435
1	0xbc33cbf0	-0.010973915
2	0xbb996278	-0.004680928
3	0x3a954264	0.0011387584
4	0xb9e5a91e	-0.00043804286
5	0x3c327931	0.010893152
6	0xbbe003de	-0.0068363985
7	0x3c883885	0.016628513
8	0xbc7602bc	-0.0150153
9	0x3c9d6e61	0.019217672
10	0xbbc6a651	-0.006062307
11	0xbb381074	-0.0028085979
12	0x3c715457	0.014729581
13	0xbc8895f1	-0.01667306
14	0xbb936c94	-0.0044990275
15	0x3beb20bc	0.007175533
16	0x3c5c17e6	0.013433432
17	0x3c2eed85	0.010676746
18	0xb9e3ac56	-0.00043425214
19	0x3bba123d	0.0056784437
20	0xbb255387	-0.0025226788
21	0x3c891ddd	0.016737873
22	0x36f2e4d0	7.2387993e-06
23	0x3b976a06	0.0046207933
24	0x3c6b17d9	0.014348947
25	0x3b631840	0.0034651905
26	0x3c6d1380	0.014469981
27	0xbc10de02	-0.008841993
28	0xbc1c1b36	-0.009527972
29	0x396875c7	0.0002216912
30	0x3c9ff58b	0.019526264
31	0x3cbb56c6	0.022868525
32	0xbc040f21	-0.008060248
33	0x3c91efb1	0.01781449
34	0x3b83a394	0.0040173028
35	0x3c786861	0.015161605
36	0xb9807fd7	-0.0002450931
37	0xba6df90e	-0.00090779446
38	0xba240a92	-0.00062576786
39	0x3b048002	0.00202179
40	0x3c925fce	0.017867949
41	0x36e39f20	6.7836518e-06
42	0xbc0d23b4	-0.008614469
43	0xbba931f5	-0.005163426
44	0x3c13184b	0.00897796
45	0xbc87560e	-0.016520526
46	0x3bbd7d33	0.005782747
47	0xbb614bb0	-0.0034377389
48	0x3b844644	0.0040366966
49	0x3cb53c42	0.02212346
50	0x3cd57cfc	0.026060574
51	0x3afd877f	0.0019342749
52	0xbca3d4b2	-0.019998882
53	0xb9b0da39	-0.00033731924
54	0x3c4b3b87	0.012404329
55	0x380cd02a	3.357247e-05
56	0x3cae4aa3	0.021275824
57	0xbc33307b	-0.010936852
58	0xbb865cd9	-0.004100424
59	0x3d04bdb0	0.032407463
60	0xbaa41445	-0.0012518248
61	0x3c819fbc	0.015823238
62	0xbc3584f0	-0.011079058
63	0xbccfb174	-0.025353171
64	0xbc3b8fd8	-0.011447869
65	0x3a84796e	0.001010699
66	0x3c90cbd6	0.017675322
67	0x3bc07c04	0.005874159
68	0x3b9eb4ad	0.0048433156
69	0x3baaac31	0.005208515
70	0x3c25af3b	0.010112579
71	0x3bbb942e	0.0057244515
72	0x3c500e52	0.012698727
73	0x3be15268	0.0068762787
74	0x3c8243c4	0.015901454
75	0x3c497dc0	0.012298048
76	0x3c10e81b	0.008844401
77	0xbc4fae06	-0.012675768
78	0x3ca7d4d8	0.020487234
79	0x3ca32f29	0.019919949
80	0xbb83a254	-0.0040171538
81	0xbb3c61fd	-0.002874493
82	0xbc47f91a	-0.0122053865
83	0x3cd5632d	0.026048267
84	0x3c43cc99	0.011950635
85	0x3afd9d95	0.0019349331
86	0xbaf29c72	-0.0018509759
87	0x3b899c6d	0.0041995556
88	0x3c9a15cb	0.01880922
89	0x3bc73073	0.0060787736
90	0xbaaa390a	-0.001298697
91	0xbc89f875	-0.016842106
92	0x3b86103f	0.004091292
93	0xbb1e547f	-0.002415925
94	0x3cc4fbec	0.024045907
95	0x3c24eb72	0.0100659
96	0xbbdf489c	-0.0068140756
97	0x3c0f2160	0.008735985
98	0xbcb29bcd	-0.021802807
99	0xbac8e735	-0.0015327694
100	0xbcc9db1e	-0.024640616
101	0x3c55f1cc	0.013058137
102	0x3b88cd27	0.0041748467
103	0x3b66f844	0.0035243193
104	0x3cffb5ac	0.031214558
105	0xbb35ea07	-0.00277579
106	0x3cde39b5	0.027127126
107	0xbaaab6bb	-0.0013024429
108	0x3bf326f2	0.007420414
109	0x3c8420e6	0.016128968
110	0x3a25cfee	0.00063252344
111	0xbbbf4eab	-0.0058382354
112	0xbc4ff07a	-0.012691611
113	0xbc3f0739	-0.011659437
114	0x3cc7eb98	0.024404332
115	0xbb6177b9	-0.0034403636
116	0x3c361c36	0.011115124
117	0xbb73f866	-0.0037226914
118	0x3bb7f7ce	0.0056142574
119	0x3b3b2c46	0.0028560325
120	0x3c31b35d	0.010845986
121	0x3afda783	0.001935229
122	0x3c728a73	0.014803517
123	0x3c2762ae	0.010216398
124	0xbc074515	-0.0082562165
125	0x3bc71bdd	0.0060763196
126	0x3ca92b5d	0.02065056
127	0xbc0bb4f9	-0.008527034

network_body._body_endoder.seq_layers.2.weight f4 [128, 128]
0	0x394d522c	0.00019580935
1	0x3cfb7552	0.030695591
2	0x3e385f59	0.18005122
3	0x3d8af513	0.067850254
4	0x3c4822c4	0.01221532
5	0x3cd762fe	0.02629232
6	0x3de7310f	0.11288654
7	0x3d02b6db	0.031912666
8	0x3c6176f8	0.0137612745
9	0xbd81dccc	-0.06340942
10	0xbc839d9b	-0.016066363
11	0x3e144ea3	0.14483123
12	0x3e39205d	0.18078752
13	0xbd592aca	-0.053019322
14	0x3cf16ca7	0.029470755
15	0x3e1ca706	0.1529809
16	0x3bc511d8	0.00601409
17	0xbd157d7f	-0.036496636
18	0xbcfbdaf3	-0.030744052
19	0xbbcdefe4	-0.0062847007
20	0x3df36c2a	0.11885865
21	0x3cfa6f82	0.03057075
22	0xbe1543a8	-0.1457659
23	0xbe1a43a0	-0.1506486
24	0xbe419976	-0.18906197
25	0x3cae478a	0.021274347
26	0x3b8148ab	0.0039454303
27	0x3daa4613	0.08314147
28	0x3df65925	0.12028722
29	0x3d4a9408	0.04945758
30	0x3dea36aa	0.114362076
31	0xbd743ef1	-0.059630338
32	0xbdf1e4d7	-0.11811226
33	0x3d8f2557	0.06989544
34	0xbc00feae	-0.00787322
35	0xbd1d201a	-0.038360693
36	0x3e6c123c	0.23053831
37	0x3db21e07	0.086971335
38	0xbd46ade1	-0.048505668
39	0x3cb02014	0.021499671
40	0x3e245e6a	0.16051641
41	0xbe5ac41a	-0.2136387
42	0x3c30a049	0.010780402
43	0xbd7e2ad4	-0.062052563
44	0x3bec19d3	0.007205227
45	0xbdd53b6b	-0.10411724
46	0xbdab6d77	-0.08370488
47	0xbd48c47a	-0.0490155
48	0x3d99aac2	0.075032726
49	0x3d42547a	0.047443844
50	0xbc9028dc	-0.017597608
51	0x3c77fb74	0.015135635
52	0xbc23ad43	-0.009990039
53	0x3e193e4b	0.14965169
54	0xbe60eec0	-0.21966076
55	0xbd9582cf	-0.073003404
56	0xbbd39479	-0.0064569083
57	0x3db06297	0.086125545
58	0xbd09f068	-0.033676535
59	0xbd12d0de	-0.035843723
60	0x3def5b31	0.11687315
61	0x37c8bd82	2.3930104e-05
62	0x3bd57d83	0.0065152063
63	0xbdebecad	-0.11519752
64	0x3cefb84f	0.02926269
65	0x3d1b9546	0.037984155
66	0x3e682cd5	0.22673352
67	0x3e058295	0.13038094
68	0xbdf24642	-0.11829807
69	0x39287942	0.000160669
70	0x3e49f014	0.19720489
71	0x3d5c256a	0.05374662
72	0xbc43d2cc	-0.011952113
73	0xbddd48bf	-0.10804891
74	0xbd0281fa	-0.031862237
75	0x3d28b7d0	0.041190922
76	0xbcebdc61	-0.028791608
77	0x3e0dbec9	0.1384231
78	0xbe0ba656	-0.13637671
79	0x3da571c3	0.08078339
80	0xbc677698	-0.014127396
81	0xbdc8138a	-0.09769352
82	0xbc928782	-0.01788688
83	0xbdd4fe63	-0.10400083
84	0x3dfb50e8	0.12271291
85	0x3d5d6aa4	0.05405678
86	0xbd56c1c7	-0.052430894
87	0xbcacf771	-0.021114083
88	0x3d64a69b	0.05582295
89	0xbe7a3fc3	-0.24438386
90	0x3e217986	0.15769014
91	0x3cd42d66	0.025900554
92	0xbce14aa6	-0.027501415
93	0xbcf0800c	-0.029357933
94	0xbccd70be	-0.025078174
95	0xbdc78c20	-0.097435236
96	0x3db0abb6	0.08626501
97	0x3e2d15e5	0.16902883
98	0xbd1fc37b	-0.039004784
99	0xbdbba2f9	-0.09161944
100	0x3c948308	0.018128887
101	0x3dec9385	0.115515746
102	0xbd887dd4	-0.06664625
103	0xbd5b14fd	-0.053486813
104	0x3d84e312	0.06488623
105	0x3d6735aa	0.056447662
106	0x3c48ca73	0.012255299
107	0x3ceb62bf	0.02873361
108	0x3de35748	0.11100632
109	0x3d869f43	0.065733455
110	0xbd668fab	-0.056289356
111	0xbc501cfe	-0.012702225
112	0xbd84d74f	-0.06486379
113	0x3d6f9490	0.05849129
114	0x3d5b5f73	0.053557824
115	0x3d39cdac	0.04536216
116	0xbd3b7da6	-0.045774125
117	0xbe2423c8	-0.16029274
118	0x3d82f7a5	0.06394891
119	0xbe293be0	-0.16526747
120	0xbe17ac72	-0.14811876
121	0x3c36caf3	0.011156785
122	0xbda0a593	-0.07844081
123	0xbde080b2	-0.10962047
124	0xbe023357	-0.12714897
125	0xbcc74480	-0.024324656
126	0xbcec5857	-0.028850717
127	0xbd7f2c08	-0.06229785
128	0x3db0c1e7	0.08630734
129	0xbc39792f	-0.011320396
130	0xbda2d45e	-0.07950662
131	0xbcabaae9	-0.02095552
132	0xbc8e7bb1	-0.017392965
133	0x3e23403f	0.15942477
134	0x3daca846	0.08430533
135	0x3e09213f	0.13391589
136	0x3d3fd767	0.046836283
137	0xbd0ee1e8	-0.03488341
138	0x3d604a02	0.05475808
139	0xbe0d47f8	-0.13796985
140	0xbdf562c3	-0.11981728
141	0xbba2778f	-0.0049581
142	0x3a372aac	0.00069872546
143	0xbc356d1a	-0.011073375
144	0x3df27981	0.11839581
145	0xbcdad915	-0.02671484
146	0xbdc8ef8f	-0.09811317
147	0x3e0b5a3a	0.13608637
148	0xbe8aea83	-0.27132043
149	0xbc56e364	-0.013115738
150	0x3c37313f	0.011181175
151	0x3de6349f	0.112405054
152	0xbcc209ae	-0.023686256
153	0xbe112d66	-0.14177474
154	0x3d26cee7	0.04072466
155	0xbe02204e	-0.12707636
156	0xbe317d8d	-0.1733305
157	0x3ced9dc6	0.029005896
158	0xbc82c952	-0.015965138
159	0x3cc539e3	0.024075454
160	0x3e4d38d4	0.2004121
161	0xbc6471a5	-0.013943111
162	0xbda042f3	-0.078252696
163	0x3e3cbc24	0.18431145
164	0x3d7c1067	0.06153908
165	0xbd0a08b7	-0.033699717
166	0xbda4cf4d	-0.08047352
167	0x3c02661d	0.007958916
168	0xbd8a9c64	-0.067681104
169	0xbc2ca5a1	-0.010537536
170	0x3d246344	0.04013373
171	0xbdaf39c8	-0.08555943
172	0xbbdac675	-0.00667649
173	0xbcfd033c	-0.030885331
174	0x3c74ba1c	0.01493695
175	0xbd93bcdb	-0.07213756
176	0xbd9b4b16	-0.07582681
177	0x3dc97f7f	0.09838771
178	0x3d7186ef	0.058966573
179	0x3e052517	0.1300243
180	0x3d4b5fe1	0.049651984
181	0xbe27319b	-0.16327517
182	0x3c01cd6f	0.007922514
183	0xbd047290	-0.032335818
184	0xbd22de74	-0.03976293
185	0x3deff616	0.11716859
186	0xbd998237	-0.0749554
187	0x3e2a169b	0.16610186
188	0x3d760dd4	0.06007178
189	0x3d53996e	0.051659994
190	0x3d4913d2	0.049091168
191	0xbe05d4f9	-0.13069524
192	0xbce049f0	-0.027379006
193	0xbd85e957	-0.06538647
194	0xbdf80b96	-0.12111585
195	0x3d3eb5a9	0.046559963
196	0xbd9edcd3	-0.077569626
197	0xbd3ad324	-0.045611516
198	0xbbde6983	-0.0067874803
199	0xbc0c900c	-0.008579265
200	0x3d812575	0.063059725
201	0xbe1caede	-0.15301082
202	0xbca791fc	-0.020455353
203	0xbb131cd2	-0.0022447598
204	0xbc0b3a5c	-0.008497801
205	0xbda8ccce	-0.082421884
206	0x3dac803c	0.08422896
207	0x3d8cba20	0.06871438
208	0x3dd75cdc	0.105157584
209	0xbb44c25b	-0.0030023071
210	0x3d14de80	0.036345005
211	0x3d9bb50d	0.07602892
212	0x3e445eca	0.19176784
213	0x3d62589b	0.055260282
214	0x3dc0cd26	0.09414129
215	0xbd18b60c	-0.03728299
216	0x3cc4a09a	0.024002362
217	0xbc9693d1	-0.018381031
218	0x3d8e47ae	0.069472656
219	0xbdd33ff7	-0.10314935
220	0x3d79839e	0.060916536
221	0x3d31e700	0.04343319
222	0x3c8f2acf	0.017476467
223	0xbd148827	-0.036262657
224	0xbd83bbde	-0.06432317
225	0x3cca77dd	0.024715358
226	0x3d44ecd9	0.048077438
227	0x3d09045e	0.03345143
228	0x3c8d9e18	0.017287299
229	0x3d5e2fe5	0.054244895
230	0xbd7df898	-0.062004656
231	0x3cdd5dce	0.027022269
232	0xbbca6a23	-0.0061772033
233	0x3da721a6	0.08160715
234	0xbdc176fb	-0.09446522
235	0xba88278a	-0.001038776
236	0xbe20b754	-0.15694934
237	0x3e0ef2fa	0.13959876
238	0xbd127977	-0.03576037
239	0xbe26e48e	-0.16298124
240	0x3cab48f0	0.020908803
241	0xbdf7a7ad	-0.120925285
242	0xbd761aff	-0.06008434
243	0xbe1f5542	-0.15559867
244	0xbd2006a4	-0.039068833
245	0x3d58a3bb	0.05289052
246	0x3c6715fe	0.014104364
247	0xbe006ce4	-0.12541538
248	0xbd1348aa	-0.03595797
249	0xbdada743	-0.08479168
250	0xbd4d9c40	-0.05019784
251	0x3b0db999	0.0021625517
252	0x3d2edc13	0.042690348
253	0xbb47421e	-0.00304044
254	0xbd085a12	-0.033289023
255	0xbd468a1d	-0.04847156

network_body._body_endoder.seq_layers.2.bias f4 [128]
0	0xbba32639	-0.0049789217
1	0xbacc7c62	-0.0015601034
2	0xbc11c966	-0.008898115
3	0x39d50023	0.00040626628
4	0x3b450928	0.0030065272
5	0xbaceaf65	-0.0015768824
6	0x3b89d5ef	0.004206411
7	0x3b2ccb3a	0.002636625
8	0x3abb85d0	0.0014306847
9	0xbb32c4db	-0.002727798
10	0x3bcc71bd	0.0062391446
11	0x3ae13e85	0.001718477
12	0x3ba87bf0	0.0051417276
13	0x3babf956	0.005248229
14	0x3a23f759	0.0006254814
15	0x3c13b2fe	0.009014843
16	0x3bb0976b	0.005389144
17	0x3b0ad5a1	0.0021184462
18	0x3c0ad3c4	0.00847334
19	0xbaab9402	-0.0013090374
20	0x3c87cd4a	0.016577382
21	0x3cad730f	0.021173028
22	0xbc17e4d0	-0.009270862
23	0x3c90645f	0.017625986
24	0x3c28605f	0.010276883
25	0x3af4b1bc	0.0018668692
26	0x3c84be02	0.016203884
27	0xbb547573	-0.0032418638
28	0xbc425b1e	-0.011862544
29	0x3afb2bb4	0.0019162805
30	0xbc099710	-0.0083978325
31	0x3a3fb55e	0.00073130976
32	0x3a77d358	0.0009453795
33	0xbc38e192	-0.011284249
34	0x3c573efb	0.013137574
35	0xbba1f457	-0.0049424577
36	0x3c008dcc	0.007846307
37	0xbbab81ab	-0.0052339635
38	0x3bc14578	0.005898174
39	0xba215152	-0.000615378
40	0x3cb471b4	0.022026874
41	0xbbc120f6	-0.005893822
42	0x3c057547	0.008145637
43	0x3c1f6108	0.009727724
44	0x3c275e38	0.010215335
45	0xbc0c4526	-0.008561408
46	0xbb5d76b4	-0.0033792676
47	0x3caf7860	0.021419704
48	0x3be87158	0.0070935898
49	0xbafe78c6	-0.0019414655
50	0x3c84e31a	0.016221572
51	0x3bd41b07	0.0064729485
52	0xbbc530bc	-0.0060177725
53	0xbab3550b	-0.0013681961
54	0x3c5e01df	0.013550251
55	0x3ae3606e	0.0017347464
56	0xbb93184c	-0.0044889804
57	0x3bcbdd14	0.006221423
58	0x3c4ea59e	0.012612728
59	0xbc11a2d3	-0.008888918
60	0x3ba923c5	0.0051617348
61	0x3c5e8996	0.013582608
62	0x3afa846d	0.0019112952
63	0x3c0351ce	0.008015109
64	0x3c86cdf0	0.01645562
65	0x3a9bcf55	0.0011887351
66	0x3af5d167	0.0018754423
67	0xbc65df23	-0.014030251
68	0x3b5ba611	0.0033515731
69	0x3b30dc5b	0.002698681
70	0x3d0cc86a	0.034370817
71	0xba387988	-0.00070371525
72	0x3c2f38af	0.010694667
73	0xbba4960c	-0.00502277
74	0xb9b4480b	-0.00034385952
75	0x3c53e3bd	0.012932715
76	0xbba42092	-0.0050087655
77	0x3c0074c7	0.007840342
78	0xbb7d1f3f	-0.003862336
79	0x3c37a8aa	0.011209646
80	0x3c2e7647	0.010648317
81	0xba12ad66	-0.00055952964
82	0x3cfca6ff	0.030841349
83	0x3c4aa393	0.012368101
84	0x3ab6a1b0	0.0013933685
85	0x3bfee3de	0.0077786287
86	0x3c3a681f	0.0113773635
87	0x3c4563e6	0.012047743
88	0x3c68f362	0.014218183
89	0x3a0cbf32	0.00053690665
90	0x3bbac47c	0.0056996923
91	0xbbbee735	-0.005825902
92	0x3c864ab7	0.016393049
93	0xbaca86aa	-0.001545151
94	0x3c1dbdb6	0.00962775
95	0x3b5fd244	0.0034152428
96	0x3717fea5	9.05959e-06
97	0x3b9b8861	0.0047464822
98	0x3c8a0f98	0.016853139
99	0x3ba2c98a	0.004967873
100	0x3bbd2083	0.005771698
101	0x3a0acdad	0.00052949303
102	0xbb140a5d	-0.0022589185
103	0xbb2221f1	-0.002473947
104	0x3adb7f35	0.0016746285
105	0x3be1302b	0.006872197
106	0x3b7b42dc	0.0038339412
107	0x3a55c6f0	0.0008154949
108	0xbcad77e1	-0.021175327
109	0xbb9b9dfe	-0.0047490587
110	0xbc198e44	-0.009372298
111	0x3b8cc1ad	0.004295549
112	0x3bf4ad54	0.0074669514
113	0x399f7bd8	0.00030419114
114	0xbb8114fd	-0.0039392696
115	0xbb863773	-0.0040959655
116	0x3cb5e37a	0.022203196
117	0xb89c41be	-7.450905e-05
118	0xbba59620	-0.0050532967
119	0x3c784217	0.015152476
120	0x3c12bc72	0.008956062
121	0x3a5488e7	0.0008107558
122	0x3be747fc	0.0070581418
123	0x3c9a5da9	0.018843489
124	0x3c5c7ccc	0.013457488
125	0x3bd5c2b2	0.0065234536
126	0x3c39ef9e	0.011348633
127	0xbb85bd3c	-0.0040813964

action_model._discrete_distribution.branches.0.weight f4 [3, 128]
0	0xbc4e477f	-0.012590288
1	0xbcf00ce7	-0.029303027
2	0xbc10a43b	-0.008828218
3	0x3a79d6d9	0.0009530611
4	0xbc5b82b9	-0.013397866
5	0x3beb8ba3	0.007188277
6	0x3ca3259d	0.019915396
7	0x3c9bfeeb	0.019042453
8	0x3c88d0f3	0.016701197
9	0x3c1d1360	0.009587139
10	0x3b693cd9	0.0035589247
11	0x3ac1b2ea	0.0014778052
12	0x3cad1061	0.021125974
13	0x3c8dd003	0.017311102
14	0x3c91e89a	0.017811108
15	0xbd0aaf09	-0.033858333
16	0x3c29be0f	0.010360255
17	0x3b145ec4	0.0022639493
18	0xbcc97e98	-0.024596497
19	0x3a60ea52	0.00085798383
20	0x3cd4583f	0.025920985
21	0x3d07f809	0.03319553
22	0x3b99b5ff	0.004690885
23	0xbae303cb	-0.0017319856
24	0x3c26636d	0.010155541
25	0x3bb7b6db	0.005606515
26	0xbd407e97	-0.046995725
27	0xba886cf4	-0.0010408447
28	0x3c3606d1	0.011110024
29	0xbcd300ae	-0.02575716
30	0x3bca2ebf	0.0061701233
31	0x3c186f9b	0.009303953
32	0xbb7b3e52	-0.0038336706
33	0x3bc4962c	0.005999347
34	0x3c76ba72	0.0150591
35	0xbb8045dd	-0.0039145784
36	0xbcd587b6	-0.026065689
37	0xba30bffe	-0.0006742476
38	0x3bfca8f3	0.00771057
39	0x3bb86715	0.0056275227
40	0x3cc100d8	0.023559973
41	0xbb77e465	-0.0037825343
42	0x3c6287d9	0.013826334
43	0x3bcafb5a	0.006194514
44	0x3c7ba646	0.015359467
45	0xbc0cab09	-0.0085857
46	0xbca36af2	-0.019948456
47	0xbac3448c	-0.0014897748
48	0xbb228c47	-0.002480285
49	0x3bdf61ca	0.0068170773
50	0x3c9d2303	0.019181734
51	0xbcb40351	-0.021974238
52	0xbc453b9c	-0.012038138
53	0xbc563afc	-0.013075586
54	0xbc884474	-0.016634203
55	0xbaa51d8a	-0.0012597304
56	0xbb8eb576	-0.004355128
57	0x3c87c78f	0.01657465
58	0xbbfd22fa	-0.007725117
59	0x3c3d96c3	0.011571589
60	0xbc801a3a	-0.015637506
61	0x3ca0375d	0.01955765
62	0x3cafb75a	0.021449734
63	0xbb45b67d	-0.0030168586
64	0x3cbfda4d	0.023419524
65	0x3b4cc439	0.0031244888
66	0xbd0c5de6	-0.034269236
67	0x3b095fb0	0.0020961575
68	0xbc1d4464	-0.009598825
69	0x3bd87e2d	0.006606838
70	0xbca079c1	-0.019589307
71	0x3be0216f	0.006839923
72	0xbcf24caa	-0.029577572
73	0x3ad66104	0.0016355817
74	0xbba36e38	-0.0049875043
75	0xbc0b2ba1	-0.008494289
76	0xbae03167	-0.0017104567
77	0x39d4946f	0.00040546383
78	0x39c215da	0.00037018844
79	0x3b596631	0.0033172483
80	0xbb85b968	-0.00408094
81	0xbcbd8f0d	-0.023139501
82	0x3cd80ea6	0.026374172
83	0x3c0c5ed1	0.008567528
84	0x3cc0efaf	0.02355179
85	0x3c190cd5	0.009341438
86	0x3c6a4305	0.014298205
87	0xbc5d0aee	-0.013491375
88	0x3ca3d27e	0.019997831
89	0xbc62af5e	-0.013835756
90	0x3c767225	0.015041863
91	0xb9e10f10	-0.00042926567
92	0xbd13884e	-0.036018662
93	0x3a1b345b	0.00059205823
94	0x3d09936c	0.033587858
95	0x3c733b15	0.014845629
96	0xbb32d46c	-0.0027287258
97	0x3c52143a	0.012822205
98	0xbd00bd2f	-0.03143042
99	0x3c0fdb40	0.008780301
100	0x3c334c7a	0.010943526
101	0xbc014d0b	-0.007891904
102	0x39a2e115	0.00031066747
103	0xbb39e0ef	-0.002836283
104	0x3c0fa62c	0.008767646
105	0x3c34650d	0.0110104205
106	0xbc8f7f66	-0.017516803
107	0x3b091cdc	0.0020921743
108	0xbc546881	-0.012964369
109	0x3caf9a3c	0.02143585
110	0xbc448e0c	-0.011996757
111	0xbbc21777	-0.0059232074
112	0x3b1488f0	0.002266463
113	0xbb739d7f	-0.0037172732
114	0xbc185110	-0.009296671
115	0x3b287721	0.0025705772
116	0x3ca41f0d	0.020034337
117	0x3b971ad1	0.004611351
118	0x3a618432	0.00086027675
119	0xbcfddf67	-0.030990316
120	0xbb8b5f9e	-0.004253342
121	0x3c66059e	0.014039425
122	0x3cbb1cfb	0.022840967
123	0x3c2a5ddb	0.010398353
124	0x3cf75f45	0.030196795
125	0x3bd2d818	0.006434452
126	0xbbfda4f5	-0.0077406117
127	0xbade4ea8	-0.0016960697
128	0xbc78dfb4	-0.015190054
129	0xbbb58fd5	-0.0055408278
130	0xbc0f661b	-0.008752371
131	0xbc490cb5	-0.012271096
132	0x3b54ea32	0.0032488224
133	0x3a5735e3	0.0008209629
134	0xbbdbf18a	-0.0067121433
135	0xbb58a627	-0.003305802
136	0x3c0117ec	0.007879239
137	0x3ac22f76	0.001481517
138	0x3c701db4	0.014655519
139	0xb9f2630c	-0.00046231633
140	0xbc2cac99	-0.010539197
141	0xbc437dd0	-0.0119318515
142	0xbc95da30	-0.018292516
143	0x3b67053b	0.003525092
144	0xbca3e034	-0.02000437
145	0x3be78c21	0.007066265
146	0x3cb075c5	0.021540532
147	0xbbb9e3ac	-0.0056728926
148	0x3bfac660	0.0076530427
149	0xbbe2bd0c	-0.006919509
150	0xbb82f43c	-0.0039964
151	0x3c753044	0.014965121
152	0x3b0393bc	0.002007707
153	0x3b4977c5	0.0030741554
154	0xbbc5bd1e	-0.0060345074
155	0x3c04c142	0.008102717
156	0x3b32ef9a	0.0027303458
157	0x3a73a2b7	0.0009293961
158	0xbb333d19	-0.002734965
159	0xbc163637	-0.009168199
160	0x3b824c8e	0.003976411
161	0x3b0d6dc7	0.0021580325
162	0x3bc7498d	0.006081766
163	0xbbd08c12	-0.006364354
164	0xbc80be4d	-0.015715742
165	0xbbfb6ae5	-0.007672655
166	0xbc29b857	-0.010358891
167	0xbcb6fed5	-0.02233831
168	0x3cc6aff0	0.024253815
169	0x3bcab33c	0.006185917
170	0xbcfbb56a	-0.030726153
171	0xbb8f34de	-0.004370316
172	0xbc91dc4b	-0.01780524
173	0xb8856b8e	-6.361968e-05
174	0x3b8d973f	0.0043210085
175	0xbcbc8058	-0.023010418
176	0xba92db41	-0.0011204259
177	0x3bce8c17	0.006303321
178	0xbb440218	-0.0029908475
179	0xbbb84a52	-0.005624094
180	0xba7a3842	-0.0009545126
181	0xbb261467	-0.002534175
182	0x3ca3c9ee	0.019993749
183	0xbc0dce1a	-0.0086550955
184	0x3c361a92	0.011114733
185	0xbc2c7160	-0.010525078
186	0xbc6a5c97	-0.014304302
187	0x3cabb8c9	0.020962136
188	0xbc5f5364	-0.013630722
189	0xbbcbd148	-0.0062200166
190	0x3bad9a72	0.0052979523
191	0xbc29b390	-0.010357752
192	0xbbab454c	-0.0052267667
193	0xba89e05d	-0.0010519136
194	0xbc42bed8	-0.011886321
195	0x3bc9ae79	0.006154832
196	0xbb391cb7	-0.0028245875
197	0x3b60af12	0.0034284038
198	0x3b6002ac	0.003418128
199	0x3bf74764	0.007546352
200	0x3b3fbbf1	0.002925631
201	0x3c17b564	0.0092595555
202	0xbc3399d7	-0.010961971
203	0x3beca8ef	0.007222287
204	0x3afa26ca	0.0019085046
205	0x37a5a804	1.9747771e-05
206	0xbc1b1c1c	-0.009467151
207	0xbbeffcb2	-0.007323825
208	0xbbb9dacd	-0.005671835
209	0xbbe94aea	-0.007119526
210	0x3ca673c5	0.020318875
211	0xbbb66d77	-0.0055672484
212	0xba614df0	-0.00085946824
213	0x3a60a05a	0.0008568816
214	0xbc9c7e3a	-0.019103158
215	0x3d06a060	0.03286779
216	0xbb746ad5	-0.0037295122
217	0xbb28d8e0	-0.0025764033
218	0xbc3731e5	-0.011181329
219	0xbc23b632	-0.009992169
220	0xb9d19b66	-0.00039979367
221	0x3b73c9e3	0.0037199191
222	0xbb80d408	-0.003931526
223	0xbb86c7a6	-0.0041131554
224	0x3bfcde50	0.0077169314
225	0x3b82c530	0.0039907917
226	0xbb8ecc5c	-0.0043578576
227	0x3b1ebea0	0.0024222508
228	0xbc2be7f3	-0.010492313
229	0xbc4d6224	-0.012535606
230	0xbbe4b785	-0.006979885
231	0xbc345da0	-0.01100865
232	0xbc07736b	-0.008267264
233	0xbc5b9748	-0.0134027675
234	0xbb85f509	-0.0040880484
235	0xbbbeb03f	-0.00581935
236	0xbc0b0c0f	-0.008486762
237	0xbb824fe3	-0.0039768084
238	0xbb755ec8	-0.0037440527
239	0xbc7aee4a	-0.015315602
240	0xbbaf42e4	-0.00534855
241	0x3ad8125b	0.0016484963
242	0xbae5d90d	-0.0017536
243	0x3c1d69a9	0.009607711
244	0xbc1b1323	-0.009465012
245	0xbac4c516	-0.001501235
246	0xb99bd1ca	-0.0002972021
247	0x3b19deba	0.0023478703
248	0x3b37b9c3	0.0028034307
249	0xbc086bab	-0.008326451
250	0x3c6e5761	0.0145472
251	0xbc9ca738	-0.019122705
252	0xbafb70a7	-0.0019183353
253	0x3a9f63aa	0.001216044
254	0x3aeff9d3	0.0018308706
255	0xbc74f809	-0.014951714

action_model._discrete_distribution.branches.0.bias f4 [3]
0	0x3bd18d88	0.0063950457
1	0xbb8c76de	-0.004286631
2	0xbb55cda8	-0.0032623801

action_model._discrete_distribution.branches.1.weight f4 [3, 128]
0	0x3cbbdbd3	0.022931969
1	0xbaf1b635	-0.0018441143
2	0xbc3cbd7e	-0.011519788
3	0xbc184854	-0.009294588
4	0x3c340d9a	0.010989571
5	0x3c49c86a	0.012315849
6	0xbbda59fb	-0.0066635585
7	0x3c7f0576	0.015565267
8	0x3c9c9b28	0.019116953
9	0xbc492334	-0.0122764595
10	0x3cd98c63	0.0265562
11	0x3c28f9d9	0.010313475
12	0x3c4e1ce1	0.012580127
13	0x3c62ce0c	0.013843071
14	0xbbba2f59	-0.005681914
15	0xbcf8b098	-0.030357644
16	0x3b1540c0	0.002277419
17	0x3cb3ee21	0.021964135
18	0xbcd15178	-0.025551543
19	0x3c8c81b2	0.017151687
20	0x3c2ff74e	0.010740114
21	0xbc8389b3	-0.016056871
22	0x3b8e8e41	0.004350454
23	0xbcc595a0	-0.024119198
24	0x3bf2dfa0	0.007411912
25	0xbaa3c5b3	-0.0012494832
26	0xba28cd0a	-0.00064392446
27	0x3c825218	0.015908286
28	0x3c272503	0.010201695
29	0x3d0a2574	0.033727124
30	0xbc526a21	-0.012842686
31	0x3aeab4fc	0.0017906721
32	0xbb776080	-0.0037746727
33	0x3a2e6614	0.0006652784
34	0xbd11c7bc	-0.035590872
35	0x3b536c4f	0.0032260602
36	0x3cb3e2ac	0.021958672
37	0x3c174bec	0.00923441
38	0x3ba08413	0.004898557
39	0x3beeda23	0.0072891875
40	0xbd02b883	-0.031914245
41	0xbb9c1446	-0.004763159
42	0x3c04beef	0.008102163
43	0xbc9e78f2	-0.01934478
44	0xbd12b683	-0.035818588
45	0x3a557919	0.000814335
46	0xbb322138	-0.0027180444
47	0x3d51a865	0.051185984
48	0x3be6fa08	0.007048849
49	0x3c673e3b	0.014113958
50	0x3cdca4c8	0.026934043
51	0x39ee6228	0.0004546803
52	0x3c33078d	0.010927093
53	0x3b466612	0.003027324
54	0xbcc6b8b0	-0.024257988
55	0xb7d95c44	-2.591138e-05
56	0x3c90ca8f	0.017674712
57	0x3bb771d2	0.0055982852
58	0xbcd04fe1	-0.025428714
59	0xbbd81653	-0.006594458
60	0x3b680e5f	0.0035408956
61	0x3c04ff6e	0.00811754
62	0xbb8fc23c	-0.004387168
63	0xbc4a9c66	-0.01236639
64	0xbb36600b	-0.0027828242
65	0x3ccf62d0	0.025315672
66	0x3cb12658	0.021624729
67	0xbc10cb4d	-0.008837533
68	0xbb1ee80d	-0.00242472
69	0x3c1552a3	0.00911394
70	0xbd183123	-0.037156235
71	0xbc81cd9c	-0.015845113
72	0xbc57be21	-0.013167889
73	0x3b4c3223	0.0031157814
74	0x38c5e41d	9.4361814e-05
75	0xbd0a3457	-0.03374132
76	0x3bb39d65	0.0054814094
77	0xbccadea6	-0.02476437
78	0x3cc87552	0.024470005
79	0x3c4f3bf7	0.012648574
80	0x3c590607	0.013246066
81	0x3c39a7ae	0.011331482
82	0x3bfb0966	0.0076610325
83	0xbbf96af2	-0.007611626
84	0x3c028224	0.007965598
85	0xbaadc87b	-0.00132586
86	0xbc26c536	-0.010178855
87	0xbd0d5d93	-0.034513067
88	0xbc8ac2c4	-0.016938575
89	0xbb700602	-0.0036624675
90	0xbc64c9bd	-0.013964114
91	0x3b40961a	0.0029386343
92	0x3c2f9534	0.010716725
93	0x3bc7d827	0.0060987654
94	0xbbfab57f	-0.0076510306
95	0xbb6a6c78	-0.0035770219
96	0x3ce7ba94	0.02828721
97	0x3c506bc4	0.012721006
98	0xbd006cf6	-0.031353913
99	0xbc5811b3	-0.013187814
100	0xbccfb4ea	-0.025354821
101	0x3b1cbfa8	0.0023917947
102	0xbc7f5121	-0.0155833075
103	0x3b03a2a3	0.0020085953
104	0xbb657e45	-0.003501789
105	0xbc599ab2	-0.013281511
106	0xbc4dd2ee	-0.012562497
107	0xbc7089f9	-0.014681333
108	0xbb8ca599	-0.0042922017
109	0xba4df774	-0.0007857003
110	0x3ba3d1af	0.0049993615
111	0xba4ac404	-0.0007734897
112	0xbd0207ce	-0.031745724
113	0x3b2e09cf	0.002655614
114	0x3b6f25bc	0.0036490997
115	0x3c56f968	0.0131209865
116	0x3c6be677	0.014398209
117	0x3c857f29	0.016295986
118	0xbb916999	-0.004437637
119	0xbc48e4c5	-0.012261574
120	0xbb5e149d	-0.0033886798
121	0x3c80e5c6	0.015734565
122	0x3a982492	0.0011607578
123	0xbd22aa7d	-0.03971337
124	0x3c79ec00	0.015254021
125	0x3c420415	0.011841794
126	0xbbb53d54	-0.0055309925
127	0x3c466e2e	0.01211123
128	0xbab9d8ce	-0.0014178993
129	0x3c8caa39	0.017171012
130	0x3bcbad1c	0.0062157046
131	0xbb0626e8	-0.0020469967
132	0x3aac19fd	0.0013130304
133	0xbc53bfc4	-0.012924138
134	0x3b069fd5	0.0020542045
135	0xbcb7e817	-0.022449536
136	0xbb58b3d4	-0.003306617
137	0xbc80159c	-0.015635304
138	0x3bf67004	0.0075206775
139	0xbcd132c5	-0.025536904
140	0xbcb5dc56	-0.02219979
141	0x3c9c8401	0.019105913
142	0xbbaf7859	-0.0053549227
143	0x3bf3647d	0.0074277506
144	0x3c29f260	0.010372728
145	0xbc5a4a33	-0.013323355
146	0xbc945072	-0.018104766
147	0x3bebe197	0.0071985233
148	0x3bdc7b15	0.0067285397
149	0x3bc0b1d9	0.005880576
150	0xbb3b2cf8	-0.002856074
151	0xbb9dbb83	-0.004813613
152	0xbcb218bd	-0.021740312
153	0xbd04bfbd	-0.03240942
154	0x3af7b137	0.0018897419
155	0x3ae14242	0.0017185884
156	0x3c1037a6	0.00880233
157	0x3c188446	0.00930888
158	0x3c028d24	0.007968221
159	0xbc87a5e7	-0.0165586
160	0xbb82a718	-0.0039872043
161	0xbbfbe3d1	-0.00768707
162	0x3bf2d39b	0.0074104792
163	0x3bdfbd3a	0.0068279775
164	0x3bdca857	0.006733935
165	0xbbf9a613	-0.0076186745
166	0xbb9ddaa7	-0.004817325
167	0x3ca6a0e1	0.020340385
168	0xba2050f3	-0.0006115578
169	0x3bb9b92f	0.0056678276
170	0xbb7e553a	-0.0038808123
171	0x3af20c24	0.0018466753
172	0x3bc97211	0.006147631
173	0xbc245af3	-0.01003145
174	0xbba7b711	-0.0051182588
175	0xb9b6762c	-0.0003480179
176	0xbc3b5176	-0.011432996
177	0x3c5094fb	0.012730832
178	0xbce35453	-0.02775017
179	0x3c5cbe37	0.013473085
180	0x393984cc	0.00017692446
181	0xbc678e30	-0.014133021
182	0xbce9dca4	-0.028547592
183	0xbb441dd2	-0.0029925
184	0x3cbfe14b	0.023422858
185	0xbc4844cd	-0.012223435
186	0xbae82036	-0.0017709795
187	0xbc11c2a6	-0.008896505
188	0x3b8e8da3	0.0043503805
189	0x3a6528d6	0.0008741742
190	0xbc38a8d5	-0.011270721
191	0xbba203c9	-0.004944299
192	0xbc6b8338	-0.014374547
193	0xbc0a8b8f	-0.008456125
194	0xbc836e52	-0.016043816
195	0x3bc69a5f	0.006060883
196	0x3c138c40	0.009005606
197	0xbc444664	-0.011979673
198	0x39bb7049	0.00035751078
199	0x3c6caa24	0.014444862
200	0x3bc450e6	0.005991089
201	0xbb199c51	-0.002343912
202	0x3c28f2c7	0.010311789
203	0xbc2ce474	-0.010552514
204	0xbadc02c7	-0.0016785496
205	0x3c0618f5	0.008184661
206	0xbc2e593a	-0.01064139
207	0xbc90b089	-0.017662304
208	0xbc0594e0	-0.00815317
209	0x3c091276	0.008366218
210	0xbca534ee	-0.02016684
211	0xbcc25ac3	-0.02372492
212	0xbc0d7466	-0.008633709
213	0x3a9b4ac4	0.0011847843
214	0x3c0fa0d6	0.008766374
215	0xbc2bec09	-0.010493287
216	0xbc982987	-0.01857449
217	0x3c1e59ff	0.009665011
218	0xbca824e0	-0.020525396
219	0xbb911f83	-0.0044288053
220	0xbb36d33f	-0.0027896909
221	0x3c3351ba	0.010944778
222	0xbc2bfad9	-0.010496818
223	0x3c6f0990	0.014589682
224	0x3ce49b2e	0.027906027
225	0xbc85d7ea	-0.016338307
226	0xbc85da0f	-0.01633933
227	0xbb852ece	-0.0040644174
228	0x3c9dac4a	0.019247193
229	0xbc8171dc	-0.015801363
230	0x3b0fe6ad	0.0021957562
231	0x3b0b449b	0.002125061
232	0xbc536a0f	-0.012903704
233	0xbbccc433	-0.0062489747
234	0x3c4bd253	0.012440282
235	0x3cc88e99	0.024482058
236	0xbc5d2c7b	-0.0134993745
237	0x3b439ad1	0.0029846916
238	0x3bfa5b94	0.0076403115
239	0xbbe47975	-0.0069724866
240	0x3c90ac1b	0.017660191
241	0x3ac7fb46	0.001525738
242	0x3bc4176a	0.0059842365
243	0xbc4d2e49	-0.012523242
244	0x3c039c99	0.008032941
245	0xbbe5f6e0	-0.007017955
246	0x3c8fa2bc	0.017533652
247	0xbc1cc3a4	-0.009568129
248	0x3bfec274	0.0077746455
249	0xbcad3a7e	-0.021146055
250	0xbb57dc23	-0.0032937608
251	0x3ac888f6	0.0015299607
252	0xbc9a2da6	-0.018820595
253	0x3c474b30	0.012163922
254	0x3b96417b	0.0045854426
255	0xbc43c89f	-0.011949687

action_model._discrete_distribution.branches.1.bias f4 [3]
0	0xba17b4ab	-0.00057871145
1	0xbaf70058	-0.0018844707
2	0x3b649bea	0.003488297

action_model._discrete_distribution.branches.2.weight f4 [2, 128]
0	0xbc165bab	-0.009177129
1	0x3b09688b	0.0020966853
2	0xbbacc52b	-0.0052725277
3	0x3b78c67d	0.0037960105
4	0x37c74740	2.3755827e-05
5	0xbc08bba1	-0.0083455155
6	0xbc2fa744	-0.010721032
7	0xbc3b62b0	-0.011437103
8	0xbbec52b3	-0.007212007
9	0x39664510	0.00021960237
10	0x3bc6cad2	0.0060666585
11	0xbc8097b9	-0.015697347
12	0x3ba6b995	0.005088041
13	0xbaa73646	-0.0012757264
14	0x3b4350b9	0.0029802753
15	0x3c9977c2	0.018733863
16	0x3a860289	0.0010224144
17	0x3cb03f17	0.021514459
18	0x3bb0cc98	0.005395483
19	0xbc7e8658	-0.01553496
20	0xbc027776	-0.007963052
21	0xbc1f10d4	-0.009708602
22	0xba315f58	-0.00067662215
23	0xbb96d23d	-0.004602699
24	0xbb6ae656	-0.0035842857
25	0x3b8d0e9f	0.0043047215
26	0xbc549058	-0.012973867
27	0x3c758f1d	0.014987734
28	0x3b808df3	0.0039231717
29	0xbb0210fd	-0.0019846552
30	0x3b98474d	0.0046471716
31	0xbbf5fd74	-0.0075070206
32	0x3bffe85d	0.0078096823
33	0xbc504236	-0.012711098
34	0x3c7c0675	0.015382399
35	0x3ba15aec	0.004924169
36	0xbc40e227	-0.011772669
37	0xbb25aac6	-0.002527879
38	0xbcc0fcf5	-0.02355812
39	0x3cad38ed	0.021145308
40	0xbc564132	-0.013077067
41	0x3bb7efb2	0.0056132907
42	0xbaf4f6d7	-0.0018689287
43	0x3be8eb69	0.007108141
44	0x3c81ae3d	0.015830154
45	0x3c0c8ef0	0.008579001
46	0xb9a23576	-0.0003093888
47	0x3ba0767e	0.004896938
48	0x3b075e70	0.0020655654
49	0xbb079d62	-0.0020693173
50	0xbbcf85f2	-0.006333106
51	0xbc07e866	-0.008295154
52	0xbb2e3075	-0.0026579176
53	0x39c80dd7	0.00038157284
54	0x3bca9e0b	0.006183391
55	0x3c169d13	0.009192723
56	0xbac87274	-0.0015292899
57	0xbaceec45	-0.0015786967
58	0x3b96f39c	0.004606677
59	0xbbf59d83	-0.0074955835
60	0xbcf108b3	-0.029423093
61	0xbbdf2d8a	-0.0068108486
62	0xbb63fdbf	-0.0034788696
63	0xbc63a3f7	-0.013894073
64	0xb9a13954	-0.00030751026
65	0x3c585f2a	0.013206283
66	0xbbf6afee	-0.0075282967
67	0x3b8b3f29	0.0042494726
68	0x3b990aa0	0.004670456
69	0x3cabf52a	0.020990927
70	0xbc52e648	-0.012872286
71	0x3c213e1d	0.009841469
72	0xbc58f971	-0.013243065
73	0x3c9ed95c	0.019390754
74	0xbc45aef4	-0.012065638
75	0xbc004149	-0.007828065
76	0x3b315b7c	0.0027062586
77	0xbc33af89	-0.010967144
78	0xbba5975d	-0.0050534443
79	0xbbcf2621	-0.006321684
80	0xbc0c8de0	-0.0085787475
81	0x3c65eedf	0.014034002
82	0x3ccfb81f	0.02535635
83	0xbc45adbe	-0.012065349
84	0x3ca38ac7	0.019963635
85	0xbcd2ec77	-0.02574752
86	0x3bb028fc	0.0053759795
87	0x3affe927	0.0019524441
88	0x3bfc4c96	0.0076995594
89	0x3c3d64b5	0.011559655
90	0x3c1df6a5	0.009641324
91	0x3bfdbc51	0.0077433963
92	0xbcb5bde8	-0.02218528
93	0x3abece55	0.0014557341
94	0x3b799573	0.0038083463
95	0xbbe30425	-0.0069279843
96	0x3b23f236	0.0025016195
97	0x3c41b78f	0.011823549
98	0x3c086498	0.008324765
99	0x3bdd874a	0.0067605125
100	0xbc0eb43c	-0.008709963
101	0x3c54af00	0.012981176
102	0xbc723105	-0.014782195
103	0xba579b50	-0.00082247425
104	0xbcad4adf	-0.021153865
105	0xbbc125fe	-0.0058944216
106	0x3c49cceb	0.012316923
107	0x3bf34a39	0.0074246195
108	0xbbea8b77	-0.007157739
109	0xbc37d90a	-0.01122118
110	0x3c092c7b	0.008372421
111	0xbb61de40	-0.0034464747
112	0x3c260829	0.0101337815
113	0x3b1d60b8	0.0024013948
114	0xbc18abc1	-0.009318293
115	0x3bab7ea1	0.005233601
116	0xbb6e4f4a	-0.0036363178
117	0x3b9b0314	0.0047305916
118	0x3b5a3119	0.0033293425
119	0xbc64a2f9	-0.013954871
120	0xbb014229	-0.0019723272
121	0x3c78d74e	0.015188051
122	0x3c4d1ac8	0.012518592
123	0xbaf56502	-0.0018722119
124	0x3aabc463	0.0013104792
125	0xbb295c1f	-0.0025842262
126	0xbcc2badb	-0.02377074
127	0xba1d0b6e	-0.0005990778
128	0xb957f902	-0.0002059676
129	0xbb8428e8	-0.0040331967
130	0xbc2f2ced	-0.0106918635
131	0xbb0a701a	-0.0021123947
132	0xbba8c1ff	-0.0051500793
133	0xba0a223a	-0.00052693824
134	0xbc81b51e	-0.015833434
135	0xbb84a118	-0.004047524
136	0xbb996a22	-0.0046818415
137	0xbc03b980	-0.008039832
138	0x3c0d7ddc	0.008635964
139	0xbb16b5a6	-0.0022996454
140	0xbbb197be	-0.0054197004
141	0x3b757e7d	0.0037459426
142	0x3ba525bb	0.005039898
143	0xbc99fee5	-0.018798301
144	0x3bcacc3d	0.006188898
145	0xbc30d258	-0.010792337
146	0x3c44888c	0.011995446
147	0xbba0b8eb	-0.0049048564
148	0xbab16c05	-0.0013536221
149	0x3c0ae073	0.008476364
150	0xbb29adbc	-0.0025890907
151	0x3c2fe26e	0.010735137
152	0x3c51ff24	0.012817178
153	0xbc829fc2	-0.01594532
154	0x3c4ced9c	0.012507822
155	0xbcb05d87	-0.021528972
156	0xba5504c5	-0.0008126016
157	0xbc410d05	-0.011782889
158	0xbc4c5b0f	-0.012472882
159	0xbc2d2075	-0.01056682
160	0x3b6c479c	0.0036053425
161	0xbae27a68	-0.0017278912
162	0xbc0af876	-0.008482089
163	0x3c45355b	0.012036647
164	0x3c116dca	0.008876273
165	0xbc7d41e1	-0.015457601
166	0xbbd487dd	-0.0064859227
167	0xbc4fa0a4	-0.012672577
168	0x3d0291c2	0.031877287
169	0x3ba06489	0.004894797
170	0x3b430f6f	0.0029763838
171	0x3c30a72f	0.010782047
172	0x3c300712	0.010743873
173	0xbbe98aa7	-0.0071271244
174	0xbc543993	-0.01295318
175	0xbbf8fb56	-0.007598321
176	0x3c8ecf18	0.017432734
177	0x3c151f4b	0.009101699
178	0xbc460b79	-0.012087696
179	0xbbd0369c	-0.006354166
180	0xbb8665ef	-0.004101507
181	0x3c002ef2	0.007823693
182	0x3c6695e2	0.014073821
183	0xba8db113	-0.0010810219
184	0xbbc7ced4	-0.006097654
185	0xbc578fe6	-0.013156867
186	0xbbc568fd	-0.0060244785
187	0x3b1f243e	0.0024283077
188	0x3c8f9906	0.017529022
189	0xb8dc09d8	-0.00010492251
190	0xbc234046	-0.009964054
191	0x3c96e223	0.018418377
192	0x3c1ba27a	0.009499187
193	0x3c301ffc	0.010749813
194	0xbbba47b2	-0.0056848163
195	0xbb608f2c	-0.0034265025
196	0x3c57c2ee	0.013169033
197	0x3b99d634	0.0046947245
198	0xbc4c148f	-0.012456073
199	0xbb1cf659	-0.0023950546
200	0x3c929724	0.017894335
201	0xbbe29061	-0.006914184
202	0xbc5e564c	-0.0135703795
203	0x3b999dfa	0.0046880217
204	0x393d5fd5	0.00018060145
205	0x3b8e5c29	0.0043444824
206	0x3b312584	0.0027030418
207	0x3c03496e	0.0080131125
208	0x3c8450f7	0.016151888
209	0xbca5c564	-0.020235725
210	0xbc9c47d5	-0.019077221
211	0x3c1dd5df	0.00963351
212	0xba997ae7	-0.0011709601
213	0x3a6cc7d4	0.0009032462
214	0x3c331113	0.010929364
215	0x3c5d80b1	0.013519452
216	0xbc9448bc	-0.018101089
217	0xbc473d65	-0.012160634
218	0x3b0cb487	0.0021469907
219	0x3aee5ea0	0.001818616
220	0x3c88881a	0.01666646
221	0xbc8f128f	-0.017464904
222	0xbca794d6	-0.020456713
223	0xbc35edc8	-0.011104055
224	0xbca2ab7b	-0.019857159
225	0x3b987e68	0.0046537407
226	0x3b4e6412	0.0031492752
227	0xbc1ee04b	-0.00969703
228	0xbc9f98f6	-0.019482117
229	0x3b14d145	0.0022707742
230	0x3bb7cc30	0.005609058
231	0x3c0e3066	0.008678531
232	0x3c88dbb2	0.016706321
233	0x3b9a5718	0.0047100894
234	0xbb52321c	-0.0032073325
235	0x3b4791f0	0.0030451976
236	0xbbe9464a	-0.007118975
237	0x3c469b84	0.012122039
238	0xbc1c1cea	-0.009528378
239	0x3c8dcaf9	0.017308699
240	0x3b695e73	0.0035609275
241	0x3c0674ee	0.008206589
242	0x3b9b4ec7	0.0047396156
243	0x3b64247c	0.0034811785
244	0x3a05ffb4	0.000511165
245	0xbb3c0d91	-0.002869461
246	0xbb57def6	-0.0032939292
247	0x3c69b2df	0.014263838
248	0xbc51c210	-0.012802616
249	0x3b9f1542	0.004854829
250	0xbc1e2529	-0.009652414
251	0xba5f6071	-0.0008521146
252	0xbad834a5	-0.0016495181
253	0xbc949d84	-0.018141516
254	0x3bc5abe5	0.0060324543
255	0xbae1bfe6	-0.0017223328

action_model._discrete_distribution.branches.2.bias f4 [2]
0	0xbbd3b346	-0.00646058
1	0x3bd3b344	0.006460579

exp_avg f4 [128, 7]
0	0xb831cdf3	-4.2391894e-05
1	0x38f9c2c2	0.00011909522
2	0x390b81ec	0.00013304473
3	0x38aea210	8.327153e-05
4	0xb83b0778	-4.459123e-05
5	0x3946f1c9	0.00018972823
6	0x00000000	0.0
7	0xb7515b9c	-1.24787e-05
8	0xb7365520	-1.0867865e-05
9	0x36e0875a	6.691477e-06
10	0xb7bb6bfb	-2.234242e-05
11	0xb81f8ff3	-3.8042617e-05
12	0x379e6ef4	1.8886734e-05
13	0x00000000	0.0
14	0x37e223ed	2.6958029e-05
15	0xb89cce06	-7.4770345e-05
16	0xb870e401	-5.7432804e-05
17	0x37d70e73	2.5636726e-05
18	0x36921248	4.3532673e-06
19	0xb9084b5b	-0.00012998043
20	0x00000000	0.0
21	0x384da068	4.90252e-05
22	0xb800f000	-3.0741096e-05
23	0x37a93e5b	2.0175406e-05
24	0xb825935e	-3.9476312e-05
25	0x3887a59b	6.468148e-05
26	0xb7ba01e2	-2.2173805e-05
27	0x00000000	0.0
28	0x383e32b2	4.5346744e-05
29	0x34542640	1.9757954e-07
30	0x386994e8	5.569021e-05
31	0xb72b3052	-1.0203645e-05
32	0x36bafbf0	5.5725613e-06
33	0x371b48e0	9.2556875e-06
34	0x00000000	0.0
35	0x389879b9	7.2705974e-05
36	0xb8846243	-6.312553e-05
37	0xb883cbc5	-6.284522e-05
38	0xb8a24113	-7.736883e-05
39	0x38d60d4e	0.000102067934
40	0xb910f950	-0.00013825786
41	0x00000000	0.0
42	0x3841f115	4.623931e-05
43	0xb9029882	-0.0001245458
44	0xb8d4b137	-0.000101419566
45	0xb8270ef0	-3.9829814e-05
46	0x38c4078e	9.3474155e-05
47	0xb93b6eaa	-0.00017874935
48	0x00000000	0.0
49	0x38ba4d30	8.8835484e-05
50	0x38d6d186	0.00010243342
51	0x391f294c	0.00015178806
52	0x3320f000	3.747118e-08
53	0x396a8a99	0.0002236761
54	0x39120a4e	0.00013927484
55	0x00000000	0.0
56	0x383de75d	4.5276585e-05
57	0x34bc5c40	3.508485e-07
58	0x37f4db19	2.9189092e-05
59	0xb820d716	-3.8347287e-05
60	0x38ea3c24	0.000111691916
61	0xb7dead51	-2.6545169e-05
62	0x00000000	0.0
63	0xb88fc1e3	-6.8548856e-05
64	0x398025e9	0.00024442308
65	0x39aa04d9	0.00032428539
66	0xb7c564e8	-2.3531218e-05
67	0xb76601fd	-1.3709531e-05
68	0x3a064ba5	0.0005122966
69	0x00000000	0.0
70	0xb6f700b4	-7.3612555e-06
71	0x3860beb6	5.3583375e-05
72	0x38871645	6.44145e-05
73	0x37c461fe	2.3410652e-05
74	0x37da230b	2.6003943e-05
75	0x38fab2d5	0.00011954239
76	0x00000000	0.0
77	0xb860da00	-5.360879e-05
78	0x383b4afe	4.4654116e-05
79	0xb830eca7	-4.218207e-05
80	0xb8109967	-3.4475142e-05
81	0xb93bfdda	-0.00017928277
82	0x37567568	1.278273e-05
83	0x00000000	0.0
84	0xb7ad2158	-2.0638734e-05
85	0x38be3351	9.0694644e-05
86	0x391060a4	0.00013768912
87	0x37c844f0	2.387396e-05
88	0x3865de44	5.4804856e-05
89	0x3913702a	0.00014060797
90	0x00000000	0.0
91	0x3725b932	9.8778855e-06
92	0xb5e77b60	-1.7246748e-06
93	0x381da2a8	3.7583202e-05
94	0x36b57000	5.407259e-06
95	0x37477c90	1.1890326e-05
96	0x37942b08	1.7663013e-05
97	0x00000000	0.0
98	0x38be0936	9.061622e-05
99	0x38bfc002	9.143354e-05
100	0x3955bad0	0.00020382856
101	0x37eef75b	2.8486995e-05
102	0x3908e2e0	0.00013054488
103	0x38de696c	0.00010605421
104	0x00000000	0.0
105	0xb89f33a9	-7.591333e-05
106	0xb7d1c808	-2.5007888e-05
107	0xb8c0a970	-9.1868336e-05
108	0xb86d20fb	-5.653592e-05
109	0xb88fc100	-6.8547204e-05
110	0xb88ef35e	-6.816418e-05
111	0x00000000	0.0
112	0x380eb016	3.401943e-05
113	0xb8890337	-6.533268e-05
114	0x386842a9	5.5375192e-05
115	0xb8b2f5c6	-8.53348e-05
116	0xb8753a99	-5.8467125e-05
117	0xb883dea4	-6.288037e-05
118	0x00000000	0.0
119	0x38c5846c	9.4183575e-05
120	0x3912821c	0.00013972115
121	0x396630a3	0.00021952628
122	0x38fed53a	0.0001215138
123	0x3897f4ee	7.245863e-05
124	0x392ea4c9	0.0001665532
125	0x00000000	0.0
126	0x385c1e48	5.248029e-05
127	0xb94891ab	-0.00019127752
128	0xb9570ff2	-0.00020509938
129	0xb8670602	-5.5080287e-05
130	0xb716efbc	-8.996514e-06
131	0xb9d3b494	-0.00040379597
132	0x00000000	0.0
133	0xb893bbce	-7.0444876e-05
134	0x38989a7b	7.276699e-05
135	0xb76a4b9e	-1.3965093e-05
136	0x383321a8	4.270827e-05
137	0x3804cd5a	3.16625e-05
138	0x38891a9b	6.537625e-05
139	0x00000000	0.0
140	0xb853d8bd	-5.0508173e-05
141	0xb845de26	-4.7175352e-05
142	0xb8f7aecd	-0.00011810437
143	0x372902a3	1.0073799e-05
144	0xb8db3aeb	-0.00010453708
145	0xb8eb8ca8	-0.000112318725
146	0x00000000	0.0
147	0xb8bd087a	-9.013801e-05
148	0xb7a9bdc4	-2.0234736e-05
149	0xb90395e2	-0.00012548969
150	0xb83d0c14	-4.507236e-05
151	0xb88f4615	-6.831825e-05
152	0xb779cf70	-1.4889854e-05
153	0x00000000	0.0
154	0xb8fdd254	-0.00012103157
155	0x360ba770	2.0810076e-06
156	0xb933f2c3	-0.00017161206
157	0x389a60bc	7.3613104e-05
158	0xb9047adc	-0.0001263427
159	0xb7e176c2	-2.6877391e-05
160	0x00000000	0.0
161	0xb7ace3e5	-2.061012e-05
162	0x37ca08b2	2.4084326e-05
163	0x373dc5ab	1.1311301e-05
164	0x37f0a4cd	2.868697e-05
165	0x38c0fb78	9.202113e-05
166	0x38a4d14a	7.8591125e-05
167	0x00000000	0.0
168	0xb88a45ba	-6.5933404e-05
169	0x384ca0d0	4.878716e-05
170	0x37a52d42	1.9690608e-05
171	0x38db6334	0.00010461212
172	0xb8a11489	-7.680903e-05
173	0x3830184d	4.19843e-05
174	0x00000000	0.0
175	0x37b72f62	2.1837364e-05
176	0x38c4dd8b	9.387274e-05
177	0x396e3d64	0.00022720319
178	0x3709a190	8.203453e-06
179	0x38b887ce	8.799099e-05
180	0x397c5dc0	0.00024067517
181	0x00000000	0.0
182	0x389535d5	7.114901e-05
183	0x38d386a4	0.00010086343
184	0x39799c36	0.00023804684
185	0xb8160a8e	-3.5772617e-05
186	0x38ca3b43	9.643149e-05
187	0x39040ff0	0.00012594438
188	0x00000000	0.0
189	0xb7964c64	-1.7916966e-05
190	0xb894f21a	-7.102285e-05
191	0xb801c79f	-3.094191e-05
192	0x373c2e70	1.1216485e-05
193	0xb91f9948	-0.00015220523
194	0xb91e5c89	-0.00015102526
195	0x00000000	0.0
196	0xb72ac01e	-1.017752e-05
197	0xb71ee47e	-9.470734e-06
198	0xb7a62efd	-1.9810623e-05
199	0x351ef3c0	5.921429e-07
200	0xb885f967	-6.388389e-05
201	0xb803458b	-3.12976e-05
202	0x00000000	0.0
203	0xb8728374	-5.781972e-05
204	0x3839b7a1	4.4278455e-05
205	0xb8959f62	-7.134561e-05
206	0x38851b14	6.346978e-05
207	0xb8cde3d0	-9.817595e-05
208	0x386fce22	5.7174017e-05
209	0x00000000	0.0
210	0x38f8b6c9	0.00011859608
211	0x38098d60	3.279501e-05
212	0x393b9bfa	0.00017891816
213	0xb8e8e83f	-0.00011105881
214	0x394e5989	0.00019679045
215	0x389eec8c	7.5780874e-05
216	0x00000000	0.0
217	0x37974c43	1.8036115e-05
218	0x38975d26	7.217591e-05
219	0x39109de7	0.00013791733
220	0x38a8922f	8.038093e-05
221	0xb7bd340c	-2.2554792e-05
222	0x38e720c0	0.000110210385
223	0x00000000	0.0
224	0x381e6f5f	3.7773858e-05
225	0x38800a3d	6.105423e-05
226	0x38d9cce9	0.00010385534
227	0xb901b935	-0.00012371394
228	0x3913b308	0.00014085707
229	0x39588c80	0.00020651706
230	0x00000000	0.0
231	0xb8a383da	-7.797005e-05
232	0xb83d8490	-4.518457e-05
233	0xb91464da	-0.0001415195
234	0xb833b481	-4.2845033e-05
235	0xb8fab0a0	-0.00011953828
236	0xb8ffd7ca	-0.000121995414
237	0x00000000	0.0
238	0xb92cb53e	-0.00016470716
239	0xb8ab4ec3	-8.168586e-05
240	0xb9a2977f	-0.0003101192
241	0xb6d38560	-6.303817e-06
242	0xb9972bca	-0.0002883359
243	0xb8cc76d7	-9.749614e-05
244	0x00000000	0.0
245	0x394d3c7c	0.00019572856
246	0x38a917f2	8.063008e-05
247	0x396be957	0.00022498272
248	0xb9024cff	-0.0001242645
249	0x393b6ba9	0.00017873816
250	0x3855af72	5.0946554e-05
251	0x00000000	0.0
252	0xb8c0e500	-9.197928e-05
253	0xb82e4a61	-4.1554104e-05
254	0xb9252383	-0.00015748855
255	0xb7892909	-1.6350781e-05
