Assets/ML-Agents/results/test5/CatchTheMouse/CatchTheMouse-3338.pt (torch, 151930 bytes, 16 tensors)

discrete_act_size_vector f4 [1, 3]
000000 00 00 40 40 00 00 40 40 00 00 00 40
       3.0 3.0 2.0

network_body._body_endoder.seq_layers.0.weight f4 [128, 4]
000000 e7 eb 62 be c7 22 c0 bd 32 d4 24 3f a1 90 01 3f
       -0.22160302 -0.09381633 0.64386284 0.5061131
000010 04 7a 2c 3e 46 ee d1 bd 4d 1e f4 3e eb a2 2a 3d
       0.1684342 -0.10250525 0.47679368 0.041659277
000020 5d e0 94 be 4d c4 9b 3e e6 a3 b0 be c4 7c 08 bb
       -0.29077426 0.30423203 -0.34500045 -0.002082632
000030 2e f5 ad bd 66 75 5b be 16 98 97 bf ec ef 9c be
       -0.0849403 -0.21431503 -1.1843288 -0.30651796
000040 f5 ba a1 3e 77 53 44 3e 09 ab c9 be 13 71 cf be
       0.3158795 0.19172464 -0.39388302 -0.40515956
000050 d2 81 43 3e 20 b7 66 be 8f 67 9a 3e 4b 72 2c 3f
       0.19092491 -0.22530794 0.30157134 0.673619
000060 50 b0 42 bf e0 f6 bd bd e0 da 17 be cc 75 5c 3e
       -0.7605028 -0.09275603 -0.14829588 0.21529311
000070 c6 6b b9 be b3 cc bf bc 47 cc 8e bf eb 5e 28 bf
       -0.36215037 -0.023413038 -1.115609 -0.65769833
000080 8b 84 12 3f 5a 8d b5 be b6 15 a9 3f bf 9a 6f 3e
       0.57233495 -0.35459405 1.3209751 0.23398875
000090 2a fa d2 be 80 c0 59 be 39 b8 c9 3e 0f 41 b3 bc
       -0.41206485 -0.21264839 0.39398363 -0.021881608
0000a0 05 55 0c 3f 0e 46 5b bd be aa 6c be d1 c1 34 bf
       0.5481723 -0.053533606 -0.23112008 -0.7060824
0000b0 32 b9 71 bf 70 db 7a bf 74 a0 dd be 52 fd a6 3e
       -0.9442321 -0.97991085 -0.4328648 0.32615143
0000c0 34 00 2f bf 13 4f 51 be 59 68 02 3f 09 11 56 be
       -0.68359685 -0.2044032 0.5094047 -0.20904936
0000d0 86 b3 01 bf 2f 16 26 bf ea e9 a8 3e 9c 1b 59 3f
       -0.50664556 -0.648776 0.32990962 0.84807754
0000e0 80 8a 54 be 64 65 67 be 10 b6 7d 3e f5 41 81 be
       -0.20755959 -0.22597271 0.24776483 -0.25245634
0000f0 a8 b2 2e 3f dc 2f 79 3e fe 05 b2 3e 49 9c dd be
       0.6824136 0.24334663 0.34770197 -0.432833
000100 07 67 00 bf bc f8 cd 3e 7f b7 06 3f d6 74 01 3e
       -0.5015721 0.40228832 0.5262374 0.12642226
000110 5a e6 2d 3e 67 0c ab bc a3 4e 01 3f e8 e4 9a 3e
       0.16982403 -0.020879937 0.50510615 0.30252767
000120 76 ab d5 bd 88 3c b0 3e 4d 17 62 bd 39 9d f0 3e
       -0.10433094 0.34421182 -0.055198003 0.4699495
000130 a0 11 4f 3e 4c 0f 27 3f 0c 4f d5 be b4 02 75 be
       0.20221567 0.65257716 -0.4166187 -0.23926812
000140 68 1d bd 3e 28 7c d8 be cb d6 eb be 2b 4d 10 be
       0.36936498 -0.42282224 -0.46062312 -0.14091937
000150 f8 f7 1c 3f 28 82 3e bf 72 86 6a bf ef d1 20 bf
       0.6131587 -0.7441735 -0.916114 -0.62820333
000160 ba 79 f3 be 74 d2 fe 3e 82 bd e6 3d e6 37 92 3e
       -0.47553807 0.49769938 0.112666145 0.28558272
000170 ee f5 f1 3d ae 0c 95 3b f5 be be 3e 65 db 34 3e
       0.118144855 0.0045486307 0.37255064 0.17661817
000180 24 90 39 3f 2a 25 27 bf 13 54 24 3e 2b 62 05 bf
       0.72485566 -0.6529108 0.16047697 -0.5210292
000190 16 54 4e 3e 15 7a 24 be 1a 6f 9a 3e b1 45 2f bf
       0.20149264 -0.16062196 0.3016289 -0.68465716
0001a0 89 58 23 be 41 ea 54 bf 0f 56 0a bd a3 3d 46 bf
       -0.15951742 -0.83169943 -0.033773478 -0.774378
0001b0 3a c3 40 be c7 51 84 3f db 2d b2 be e1 dd 05 3f
       -0.18824473 1.0337456 -0.3480061 0.52291685
0001c0 66 03 9d bc 81 2f c8 3c e9 73 a0 3e ba c7 b6 be
       -0.01916666 0.024436714 0.31338432 -0.35699254
0001d0 4e c5 81 be 55 e7 de 3e 7c 27 fd be 03 f0 bb 3c
       -0.25345844 0.43535867 -0.49444187 0.022941595
0001e0 74 aa ae 3c 25 0f 30 be 13 5e e5 be ae 78 48 bf
       0.021321513 -0.17193277 -0.44798335 -0.7830914
0001f0 e8 72 86 3d 87 7e 8f 3c c1 68 dd 3e f4 04 de be
       0.065648854 0.017516388 0.43243983 -0.43363154
000200 99 c3 3c 3d 33 89 2f 3d bd b0 3c be 2f 79 2c 3e
       0.046084974 0.042855453 -0.18426795 0.16843103
000210 df f5 88 3e a0 71 79 bd fe 78 2a bf 29 51 bc 3e
       0.26750085 -0.060899377 -0.6659087 0.3678067
000220 d4 f7 83 3e 46 4b 40 3e 93 0e fb bd f9 48 64 3f
       0.25775015 0.18778715 -0.12258639 0.8917385
000230 db 68 39 3e 2d f4 10 3f c8 62 3e bf a2 65 b4 3e
       0.18106405 0.5662258 -0.7436948 0.3523379
000240 17 1f 82 3e d6 61 6a be a5 65 97 3e a9 2a 86 be
       0.25414345 -0.22888884 0.29569736 -0.26204422
000250 a5 33 0c bc 89 01 6e 3f 91 92 36 3e 27 97 2a bf
       -0.008557235 0.9297109 0.17829348 -0.6663689
000260 93 00 1f be 80 98 2a 3f c4 d0 7e bf 34 39 a8 3e
       -0.15527563 0.66638947 -0.995373 0.32856143
000270 15 12 28 bf c7 01 03 3f 10 a9 82 3f e5 a7 dc 3e
       -0.6565259 0.51174587 1.0207844 0.43096843
000280 9a 10 dc be 8b 42 51 bf 28 48 a9 be 60 0e 6a 3e
       -0.42981416 -0.8174216 -0.33062863 0.22857046
000290 e8 de bb be 9f 1d fd bc f6 20 20 3f 0e 12 47 bf
       -0.366935 -0.030897914 0.62550294 -0.77761924
0002a0 0c af 64 3e 83 5d 82 3e 6e 5f 38 3f 24 81 ef 3e
       0.223324 0.2546197 0.72020614 0.46778214
0002b0 cf f6 61 3f bd 98 07 3f 04 6e a6 bd 42 28 98 3e
       0.88267225 0.52967435 -0.081264526 0.29718214
0002c0 a8 f7 ba 3e 2d be 4e 3e d3 89 85 3e 8b f2 93 bf
       0.36517072 0.20189734 0.26081714 -1.1558393
0002d0 26 bc 08 be 49 a0 ce 3e 34 a4 be be 31 29 81 be
       -0.13353023 0.40356663 -0.37234652 -0.2522674
0002e0 3b 8c 9b 3f 13 4d 12 bf 8d 27 a9 be dc eb 0e be
       1.215217 -0.57148856 -0.33037987 -0.1395716
0002f0 20 e6 35 3e af 21 2d 3f 2f 8d c7 be ac 1e 82 be
       0.17763567 0.6762952 -0.38974902 -0.25414026
000300 b7 33 0d 3e 2b 50 d0 3e af cc d2 3e 95 6a 41 bf
       0.13789259 0.40686163 0.41171786 -0.75553256
000310 ed e3 c1 be c6 88 18 bf db 33 e3 be 98 02 9f 3d
       -0.37869206 -0.595837 -0.443755 0.077641666
000320 f9 92 12 be 04 5d c9 3e 0f f9 10 3e ca 63 ef be
       -0.14313878 0.39328778 0.14157508 -0.4675582
000330 89 b3 52 3d 2f eb 45 3e eb 7b ff bd 0b c0 ab be
       0.05144075 0.19327997 -0.12474807 -0.33544955
000340 54 a0 b0 be f1 dc 2f 3f 3a 99 01 bf b4 52 a4 be
       -0.3449732 0.68696505 -0.5062443 -0.32094347
000350 97 f7 98 be f1 16 79 3f 68 38 c4 bb 20 67 a0 3e
       -0.29876396 0.9730063 -0.0059881695 0.31328678
000360 83 13 a0 be 8c 67 34 be 21 94 8f be 6c 74 21 bf
       -0.31264886 -0.17617625 -0.280427 -0.6306827
000370 b2 9f 15 3e 27 0a ea 3b 88 8d df 3e 01 2e 89 3f
       0.146117 0.0071423235 0.43662667 1.0717164
000380 60 c6 35 3e 1b a8 5f be 15 32 8e bd 4e d1 26 bf
       0.17751455 -0.21841471 -0.06943146 -0.65163124
000390 91 4b 22 3e c9 ce 02 bd 6f 9a 76 be fb f7 47 3e
       0.15849139 -0.031935487 -0.24082349 0.19528191
0003a0 ef 95 70 3e 2c ac 1a 3f 03 d5 d5 3d 4a e7 34 bf
       0.23494695 0.60418963 0.104410194 -0.7066542
0003b0 e8 1e cf 3e 99 56 f0 3e 03 67 f0 be 80 b0 27 bf
       0.40453267 0.4694107 -0.46953592 -0.6550369
0003c0 38 5b dc be 87 9f 0c 3d 53 3f 2c 3f 7e 36 2e 3e
       -0.43038344 0.034331825 0.67284125 0.17012975
0003d0 8a 70 6c be 33 cf ad 3e 36 e0 91 3e 9b 31 1c be
       -0.23089805 0.33947143 0.28491372 -0.15253298
0003e0 42 0a 24 3e 5a d9 c3 3e a9 92 e8 3e 64 37 8e bc
       0.16019538 0.38251764 0.45424393 -0.017360397
0003f0 65 71 b1 be a7 4f 04 3f bb 62 df be 7b dd ed 3d
       -0.34656826 0.5168404 -0.43630013 0.1161451

network_body._body_endoder.seq_layers.0.bias f4 [128]
000000 00 00 00 00 00 00 00 00 00 00 00 00 00 00 00 00
       0.0 0.0 0.0 0.0
000010 00 00 00 00 00 00 00 00 00 00 00 00 00 00 00 00
       0.0 0.0 0.0 0.0
000020 00 00 00 00 00 00 00 00 00 00 00 00 00 00 00 00
       0.0 0.0 0.0 0.0
000030 00 00 00 00 00 00 00 00 00 00 00 00 00 00 00 00
       0.0 0.0 0.0 0.0
000040 00 00 00 00 00 00 00 00 00 00 00 00 00 00 00 00
       0.0 0.0 0.0 0.0
000050 00 00 00 00 00 00 00 00 00 00 00 00 00 00 00 00
       0.0 0.0 0.0 0.0
000060 00 00 00 00 00 00 00 00 00 00 00 00 00 00 00 00
       0.0 0.0 0.0 0.0
000070 00 00 00 00 00 00 00 00 00 00 00 00 00 00 00 00
       0.0 0.0 0.0 0.0
000080 00 00 00 00 00 00 00 00 00 00 00 00 00 00 00 00
       0.0 0.0 0.0 0.0
000090 00 00 00 00 00 00 00 00 00 00 00 00 00 00 00 00
       0.0 0.0 0.0 0.0
0000a0 00 00 00 00 00 00 00 00 00 00 00 00 00 00 00 00
       0.0 0.0 0.0 0.0
0000b0 00 00 00 00 00 00 00 00 00 00 00 00 00 00 00 00
       0.0 0.0 0.0 0.0
0000c0 00 00 00 00 00 00 00 00 00 00 00 00 00 00 00 00
       0.0 0.0 0.0 0.0
0000d0 00 00 00 00 00 00 00 00 00 00 00 00 00 00 00 00
       0.0 0.0 0.0 0.0
0000e0 00 00 00 00 00 00 00 00 00 00 00 00 00 00 00 00
       0.0 0.0 0.0 0.0
0000f0 00 00 00 00 00 00 00 00 00 00 00 00 00 00 00 00
       0.0 0.0 0.0 0.0
000100 00 00 00 00 00 00 00 00 00 00 00 00 00 00 00 00
       0.0 0.0 0.0 0.0
000110 00 00 00 00 00 00 00 00 00 00 00 00 00 00 00 00
       0.0 0.0 0.0 0.0
000120 00 00 00 00 00 00 00 00 00 00 00 00 00 00 00 00
       0.0 0.0 0.0 0.0
000130 00 00 00 00 00 00 00 00 00 00 00 00 00 00 00 00
       0.0 0.0 0.0 0.0
000140 00 00 00 00 00 00 00 00 00 00 00 00 00 00 00 00
       0.0 0.0 0.0 0.0
000150 00 00 00 00 00 00 00 00 00 00 00 00 00 00 00 00
       0.0 0.0 0.0 0.0
000160 00 00 00 00 00 00 00 00 00 00 00 00 00 00 00 00
       0.0 0.0 0.0 0.0
000170 00 00 00 00 00 00 00 00 00 00 00 00 00 00 00 00
       0.0 0.0 0.0 0.0
000180 00 00 00 00 00 00 00 00 00 00 00 00 00 00 00 00
       0.0 0.0 0.0 0.0
000190 00 00 00 00 00 00 00 00 00 00 00 00 00 00 00 00
       0.0 0.0 0.0 0.0
0001a0 00 00 00 00 00 00 00 00 00 00 00 00 00 00 00 00
       0.0 0.0 0.0 0.0
0001b0 00 00 00 00 00 00 00 00 00 00 00 00 00 00 00 00
       0.0 0.0 0.0 0.0
0001c0 00 00 00 00 00 00 00 00 00 00 00 00 00 00 00 00
       0.0 0.0 0.0 0.0
0001d0 00 00 00 00 00 00 00 00 00 00 00 00 00 00 00 00
       0.0 0.0 0.0 0.0
0001e0 00 00 00 00 00 00 00 00 00 00 00 00 00 00 00 00
       0.0 0.0 0.0 0.0
0001f0 00 00 00 00 00 00 00 00 00 00 00 00 00 00 00 00
       0.0 0.0 0.0 0.0

network_body._body_endoder.seq_layers.2.weight f4 [128, 128]
000000 11 ae 22 3d 1d 25 4f bd 11 37 9e bd 83 65 89 3d
       0.039716784 -0.050572503 -0.07725347 0.06708815
000010 0e bc ac bd 21 fd fe bc 53 9a c9 3d 40 6f 58 bc
       -0.08434306 -0.03112656 0.09843888 -0.013210118
000020 64 0f e0 3d 28 60 b8 bd 8a 16 a9 bd e1 7a ec 3d
       0.109404355 -0.09002715 -0.08256252 0.11546875
000030 d6 65 7d bd 11 e6 f7 3d ed 55 42 bd c6 95 e0 bd
       -0.061864696 0.121044286 -0.047445226 -0.10966067
000040 4d f0 08 3d 8f 87 58 be c6 90 69 be e9 bb fa bd
       0.033432294 -0.21145461 -0.22809133 -0.12242872
000050 11 9c 36 bd 88 89 05 3e 0b ee a1 bd e9 c9 7a bd
       -0.04458243 0.13040745 -0.07906731 -0.061227713
000060 f5 11 79 bc 5d e3 9f bd cb 3d 04 ba 47 4e 91 bd
       -0.015202035 -0.07807038 -0.0005044608 -0.07095008
000070 6b 1d fb 3d 0c de d8 3d e2 c4 9c bd 54 e1 de 3d
       0.122614704 0.10589227 -0.0765474 0.10882822
000080 21 50 2a be c3 7d 05 bd f7 b7 d6 3c 28 df 7e 3d
       -0.16632129 -0.03259064 0.026210768 0.062224537
000090 d7 b7 21 be 89 3e b3 bd a4 f0 97 bc 3d cc fb 3c
       -0.15792786 -0.08752162 -0.018547364 0.030737037
0000a0 b2 fc 35 3e 3a 84 85 3d 74 70 67 bc 82 ed 88 bd
       0.17772177 0.06519361 -0.014125932 -0.06685926
0000b0 d1 64 6d 3d 82 43 cb 3d 48 5b 3f 3e 0c ab 69 bd
       0.057957474 0.099249855 0.18687165 -0.05704789
0000c0 7d 69 27 bd 12 52 1d 3d 95 4f 16 be 32 96 83 3d
       -0.040872086 0.038408346 -0.14678796 0.06425132
0000d0 b4 4a 49 bc f2 08 f6 3d fd 16 32 3d 61 fc 12 3e
       -0.012285877 0.12013425 0.043478955 0.14354087
0000e0 b4 46 9e bc da 1d 43 bc 70 58 21 3e 74 06 31 3e
       -0.019320823 -0.011908973 0.15756392 0.17287618
0000f0 42 bf ec bb 24 7f f9 bb b9 89 28 bb b4 34 1f bd
       -0.007224948 -0.0076140333 -0.0025716855 -0.03886862
000100 22 9b 29 3c e3 39 1f 3e 4c 73 cd bd 52 b1 b9 bd
       0.010351928 0.15549426 -0.10031757 -0.09067024
000110 4c 9b 8e bd 64 1a 83 bd 48 b6 c2 3d b2 e5 44 bd
       -0.06963214 -0.06401518 0.09507424 -0.048070617
000120 25 cb 7c 3c 9f 81 0f 3e 0a a8 03 3e 6c 11 1a bd
       0.015429293 0.1401429 0.1285707 -0.03761427
000130 7a ea e1 bd cd e5 18 bd 6a a6 7b bd d8 ec bd 3c
       -0.11031051 -0.03732853 -0.061438 0.023184225
000140 e7 51 4f 3c 13 a2 21 3d 3e f5 0b 39 cc ce 84 3c
       0.012653804 0.039461207 0.00013347433 0.01621189
000150 8f 23 12 bb 7b 57 f3 3c a3 b7 03 bd c4 f9 a4 bc
       -0.0022299027 0.0297048 -0.03215755 -0.020138629
000160 fc 2c e0 bd c8 1e 39 bb 21 ff b0 3a 49 6f 92 bd
       -0.1094608 -0.0028247107 0.0013503769 -0.07150132
000170 6b 4f 36 3d c1 ec d2 3c 23 70 96 3b 60 a9 4d 3e
       0.044509333 0.025747659 0.0045910045 0.20084143
000180 e1 7c 52 3d b6 76 24 bd b3 fe fe bd cf cd 06 3d
       0.051388625 -0.040152274 -0.12450924 0.032911118
000190 af 40 a2 bc bc d4 3d 3c 4e 9c a0 bd db da 5a 3b
       -0.019806234 0.011586364 -0.07842313 0.0033394608
0001a0 b9 01 d8 bc ec df 18 bd e0 49 c8 3d 88 ae 29 3c
       -0.026368009 -0.037322924 0.097797155 0.010356553
0001b0 4e 35 a4 bd d2 d6 ea bc b4 b8 10 3e ff 76 d3 3d
       -0.080179796 -0.028666887 0.14132959 0.10325431
0001c0 d3 0a 5a bd 91 6c 44 3e 29 55 91 3d 59 3e d2 bd
       -0.05323298 0.1918204 0.07096321 -0.10265798
0001d0 76 88 d1 bd 48 44 8a 3b 44 22 b3 3d f1 9c bb bd
       -0.10231106 0.0042195655 0.0874677 -0.091607936
0001e0 8e ab 2c 3d f6 d2 a8 3b 79 f8 b7 3b 88 5e 9c 3d
       0.042155795 0.0051521016 0.005614337 0.07635218
0001f0 9e b2 3c be ae bb 03 bd 35 d4 a9 3d 1c ce 31 bd
       -0.18427512 -0.032161407 0.082924284 -0.04340945
000200 9d ff f8 bd 4e 93 b4 3c bd 37 18 be 7b d1 35 3e
       -0.12158129 0.022042897 -0.14865012 0.17755692
000210 46 d9 89 bd 76 40 2c be 2a 31 eb bc 01 5e da bc
       -0.06730895 -0.16821465 -0.028709967 -0.026656153
000220 27 5a f8 3b 13 4a 91 bd 77 4e 72 bd c1 bb 4a 3d
       0.0075791064 -0.07094207 -0.05915686 0.049495462
000230 63 3d ca 3b 13 8c 23 3d 7a 80 ca bd 78 6d de 3c
       0.0061718686 0.039928507 -0.09887786 0.027151808
000240 99 41 40 3e c1 20 9f 3d 37 29 a9 3d 79 65 7b 3b
       0.18775024 0.07769919 0.08259814 0.0038360043
000250 34 e0 b9 bd b7 a4 ea bd b6 ed 0e 3e 07 ea 63 bd
       -0.090759665 -0.11457198 0.13957867 -0.055643108
000260 ae 40 18 bc ce 1e d0 3c c8 1e 00 3e f3 15 cd bc
       -0.009292765 0.025405314 0.12511742 -0.02503488
000270 50 b7 00 3e 95 b4 23 3e a7 99 1c bd 1a 65 4c bc
       0.12569928 0.15986855 -0.03823247 -0.012475276
000280 c7 d8 a6 bc 9e 78 a8 3b af 85 aa 3d 87 60 3a 3e
       -0.02036704 0.005141332 0.08326279 0.18200885
000290 a7 3c 94 bc 54 4b 42 3d 7a b3 55 be 2c 25 4d bc
       -0.018095328 0.04743512 -0.20869246 -0.0125210695
0002a0 ee 15 f3 bd 24 46 df bd de fc db 3d f2 aa 57 bb
       -0.11869417 -0.1090205 0.1074159 -0.0032908288
0002b0 f4 02 a8 bd dd 79 29 3d 2c f1 83 bd 29 e4 7e bd
       -0.08203688 0.041375984 -0.06442484 -0.06222931
0002c0 ac 3f 39 bc 85 08 20 3d 8c 76 8c 3d a9 ce 08 3d
       -0.011306684 0.039070625 0.068585485 0.03340021
0002d0 cf 4a a0 bc e2 51 98 3d 31 a4 d8 bd 21 2d 10 3e
       -0.019566922 0.07437493 -0.10578192 0.14079715
0002e0 ff a3 56 3e 7c 1d 3b bd 97 e4 2d bc 21 80 0d 3d
       0.20960997 -0.045682415 -0.010613582 0.03454602
0002f0 47 28 f5 bc 5c 23 10 3c 87 e8 ad 3d 67 28 85 bd
       -0.029926432 0.008797493 0.08491617 -0.06501847
000300 18 5f 9e bd 77 02 9e 3d 97 ae 4b 3d 5d 2f 41 3d
       -0.077329814 0.07715314 0.04972705 0.04716431
000310 bd b8 af bd 23 24 27 3e 17 09 44 3d da 67 70 3c
       -0.08580158 0.16322379 0.04786023 0.014673198
000320 a5 95 c2 bd 7e a9 ed bd 86 78 96 bd 27 5c 12 bc
       -0.09501199 -0.11604594 -0.07347207 -0.008933104
000330 f2 64 dd bd 3f 57 4f 3c 9f b3 ae bd 1a d2 84 3c
       -0.108102694 0.012655078 -0.08530354 0.016213465
000340 1c bd 80 3d 45 df d3 bd 27 b9 3f bd 78 6a 2f 3e
       0.0628607 -0.1034532 -0.046807434 0.17130458
000350 0b c9 f4 3d 5b 89 79 3c 57 e5 dc 3c 66 f8 a8 bd
       0.119524084 0.015230502 0.026964827 -0.08250503
000360 81 99 0d be e2 ab 19 3c ac c5 23 bd 20 8f 22 be
       -0.13828088 0.009379359 -0.039983436 -0.1587491
000370 9f fb 11 3e 70 d3 bb 3c 98 21 03 3e 43 76 29 3c
       0.14256142 0.02292797 0.12805784 0.010343137
000380 09 60 69 3e 1e 2d 38 bd 11 f3 87 3d 08 dc 19 3d
       0.22790541 -0.044964902 0.06638158 0.037563354
000390 5a af 2f 3d c7 0f e6 3d e5 af 2b 3d 70 db fc 3c
       0.042891838 0.11233478 0.041915793 0.030866355
0003a0 64 eb a2 3c cd f8 48 bd 8d 17 1d 3b 80 bf 34 3d
       0.019887634 -0.0490654 0.0023970336 0.04412794
0003b0 dd 75 e5 bd 30 19 52 3e ec 49 53 3e 4b a8 e8 bd
       -0.11204121 0.20517421 0.20633668 -0.11360224
0003c0 70 95 73 3c 9d 69 37 bd 65 5e 36 bd 2c 66 66 bb
       0.014867172 -0.044778455 -0.044523615 -0.0035156114
0003d0 f2 b1 bf bd 12 95 97 bb 50 d0 95 3c f9 73 52 bb
       -0.09360112 -0.004625925 0.018287808 -0.0032112582
0003e0 52 18 02 3e 2b cf 12 ba 35 c1 75 3d 4f 5c 0d be
       0.1270459 -0.00056003284 0.05999871 -0.13804744
0003f0 68 51 18 bc 76 7a 83 3d 7a 86 19 be 72 cc 86 3c
       -0.0092967525 0.06419842 -0.14992705 0.016454909

network_body._body_endoder.seq_layers.2.bias f4 [128]
000000 00 00 00 00 00 00 00 00 00 00 00 00 00 00 00 00
       0.0 0.0 0.0 0.0
000010 00 00 00 00 00 00 00 00 00 00 00 00 00 00 00 00
       0.0 0.0 0.0 0.0
000020 00 00 00 00 00 00 00 00 00 00 00 00 00 00 00 00
       0.0 0.0 0.0 0.0
000030 00 00 00 00 00 00 00 00 00 00 00 00 00 00 00 00
       0.0 0.0 0.0 0.0
000040 00 00 00 00 00 00 00 00 00 00 00 00 00 00 00 00
       0.0 0.0 0.0 0.0
000050 00 00 00 00 00 00 00 00 00 00 00 00 00 00 00 00
       0.0 0.0 0.0 0.0
000060 00 00 00 00 00 00 00 00 00 00 00 00 00 00 00 00
       0.0 0.0 0.0 0.0
000070 00 00 00 00 00 00 00 00 00 00 00 00 00 00 00 00
       0.0 0.0 0.0 0.0
000080 00 00 00 00 00 00 00 00 00 00 00 00 00 00 00 00
       0.0 0.0 0.0 0.0
000090 00 00 00 00 00 00 00 00 00 00 00 00 00 00 00 00
       0.0 0.0 0.0 0.0
0000a0 00 00 00 00 00 00 00 00 00 00 00 00 00 00 00 00
       0.0 0.0 0.0 0.0
0000b0 00 00 00 00 00 00 00 00 00 00 00 00 00 00 00 00
       0.0 0.0 0.0 0.0
0000c0 00 00 00 00 00 00 00 00 00 00 00 00 00 00 00 00
       0.0 0.0 0.0 0.0
0000d0 00 00 00 00 00 00 00 00 00 00 00 00 00 00 00 00
       0.0 0.0 0.0 0.0
0000e0 00 00 00 00 00 00 00 00 00 00 00 00 00 00 00 00
       0.0 0.0 0.0 0.0
0000f0 00 00 00 00 00 00 00 00 00 00 00 00 00 00 00 00
       0.0 0.0 0.0 0.0
000100 00 00 00 00 00 00 00 00 00 00 00 00 00 00 00 00
       0.0 0.0 0.0 0.0
000110 00 00 00 00 00 00 00 00 00 00 00 00 00 00 00 00
       0.0 0.0 0.0 0.0
000120 00 00 00 00 00 00 00 00 00 00 00 00 00 00 00 00
       0.0 0.0 0.0 0.0
000130 00 00 00 00 00 00 00 00 00 00 00 00 00 00 00 00
       0.0 0.0 0.0 0.0
000140 00 00 00 00 00 00 00 00 00 00 00 00 00 00 00 00
       0.0 0.0 0.0 0.0
000150 00 00 00 00 00 00 00 00 00 00 00 00 00 00 00 00
       0.0 0.0 0.0 0.0
000160 00 00 00 00 00 00 00 00 00 00 00 00 00 00 00 00
       0.0 0.0 0.0 0.0
000170 00 00 00 00 00 00 00 00 00 00 00 00 00 00 00 00
       0.0 0.0 0.0 0.0
000180 00 00 00 00 00 00 00 00 00 00 00 00 00 00 00 00
       0.0 0.0 0.0 0.0
000190 00 00 00 00 00 00 00 00 00 00 00 00 00 00 00 00
       0.0 0.0 0.0 0.0
0001a0 00 00 00 00 00 00 00 00 00 00 00 00 00 00 00 00
       0.0 0.0 0.0 0.0
0001b0 00 00 00 00 00 00 00 00 00 00 00 00 00 00 00 00
       0.0 0.0 0.0 0.0
0001c0 00 00 00 00 00 00 00 00 00 00 00 00 00 00 00 00
       0.0 0.0 0.0 0.0
0001d0 00 00 00 00 00 00 00 00 00 00 00 00 00 00 00 00
       0.0 0.0 0.0 0.0
0001e0 00 00 00 00 00 00 00 00 00 00 00 00 00 00 00 00
       0.0 0.0 0.0 0.0
0001f0 00 00 00 00 00 00 00 00 00 00 00 00 00 00 00 00
       0.0 0.0 0.0 0.0

action_model._discrete_distribution.branches.0.weight f4 [3, 128]
000000 af dc c3 bb f7 b2 57 3b 41 96 03 bc cb f7 d0 3a
       -0.0059772353 0.0032913068 -0.008031429 0.0015942989
000010 4a 84 62 bb ef 0a 1b bb 65 4f 85 3b ea 7d e8 bb
       -0.0034563714 -0.002365764 0.0040683025 -0.0070950883
000020 e9 92 40 3b d3 8d 28 bc df c5 42 bb 6b c2 49 bc
       0.002938444 -0.01028772 -0.002971999 -0.012314419
000030 d0 a0 1c bc 38 39 09 bc a5 f8 73 3b bf d1 43 3b
       -0.009559825 -0.008375458 0.003722706 0.0029879657
000040 b7 3b e5 3b 48 a2 34 3c 7b 9c 06 3c a3 1d fc 3a
       0.006995644 0.011025019 0.008216019 0.0019234907
000050 e2 53 08 bb 7b 16 9e bb 42 14 d9 ba 25 f6 58 bc
       -0.0020801951 -0.004824457 -0.0016561823 -0.013242279
000060 b3 9e 23 3c 2e 42 02 bc 71 df c4 b9 f7 60 b9 bb
       0.009986567 -0.007950349 -0.0003755051 -0.005657311
000070 c9 ab 19 3b 9f eb 49 3c bf 37 c8 bb 6a 61 a6 bc
       0.002344834 0.012324243 -0.006110161 -0.020310123
000080 40 73 1d 3c bd 54 ed bb bd b2 4a 3c f7 f2 6d 3b
       0.009609997 -0.0072427676 0.012371716 0.0036308148
000090 10 d6 9f 3b e3 46 ab 3b ef 38 cf 3b 78 96 7b 39
       0.004877813 0.005226956 0.0063239257 0.0002399328
0000a0 d7 60 58 ba 23 42 50 bc 6e 96 b4 3b 08 37 f7 bb
       -0.00082541764 -0.012711081 0.0055110967 -0.007544402
0000b0 f0 3c 2c 3c ed 76 fb bb b3 5a ba bc 2f f6 d8 bb
       0.0105125755 -0.007674089 -0.022748327 -0.0066211442
0000c0 70 65 e3 bb c8 92 6f bc 7d 2f 1f bc 6a 1f 78 bc
       -0.0069395825 -0.014622398 -0.009715912 -0.015144208
0000d0 d5 67 e5 3a 45 91 16 3c cf 5a 15 3b 61 72 86 bc
       0.0017502258 0.009189908 0.0022789722 -0.016411962
0000e0 bf c4 82 bb e5 f1 58 bb 9a f1 41 bc fb 54 77 bc
       -0.003990739 -0.0033103165 -0.011837387 -0.0150959445
0000f0 bd 15 25 3c 58 69 83 bc 9b 06 5f 3a e6 75 9b 3b
       0.010075984 -0.016041443 0.0008507759 0.004744279
000100 fa 6b 36 3c 28 55 5f bc 47 29 f3 bb 15 d1 ed b8
       0.011134142 -0.013631143 -0.007420692 -0.00011339985
000110 54 c2 24 3b 5f a4 59 3c d3 ad 0d bb 37 36 68 3c
       0.0025140243 0.013283818 -0.00216185 0.014173082
000120 1f d3 1b 3b c9 ce 13 ba 02 39 5d bc 1a b3 63 3c
       0.002377696 -0.00056384184 -0.013502361 0.013897682
000130 4b c6 9c bb dd 37 79 3c 94 f7 0d bc cb d4 0f 3c
       -0.0047843806 0.015211073 -0.008664984 0.008778761
000140 e7 6c ef 3a 0f 78 ea 3b 88 88 fa bb 76 59 99 3c
       0.0018266708 0.0071554254 -0.0076456703 0.018719416
000150 96 f7 35 b8 83 f4 1d bb 80 16 d0 3a 4b 45 89 3c
       -4.3384345e-05 -0.002410204 0.0015875846 0.016756674
000160 74 ae cc 3b 1e 0f aa 3b 6e 48 85 ba 58 c5 8c bc
       0.0062463824 0.0051897904 -0.001016868 -0.017183945
000170 f7 fe d9 bb ab fd 36 bc 90 23 d4 bb 49 53 85 bc
       -0.0066527086 -0.011168878 -0.006473966 -0.016275065
000180 d3 9c 97 3b 08 14 50 ba e5 02 fb bb b7 18 c0 3b
       0.004626849 -0.0007937555 -0.007660257 0.0058623212
000190 60 0e 58 3b 3e 70 14 bb 5f 29 c8 3b 30 58 4b bc
       0.0032967553 -0.002264991 0.0061084474 -0.012411162
0001a0 57 90 09 bc 67 8d 9e bb ae 67 95 3b 39 bf 22 bc
       -0.00839623 -0.004838634 0.0045594787 -0.009933286
0001b0 25 af d8 3b c3 40 3d 3c eb 05 28 bb 75 ab e8 38
       0.0066126757 0.011551085 -0.0025638293 0.000110945584
0001c0 98 4a 95 3c ee 05 bc bb bb ce 13 3c fd d4 c8 3a
       0.018224046 -0.0057380116 0.009021456 0.0015322265
0001d0 7b c4 45 3c 93 8e 13 3c f7 8c fb bb af 8c 27 bb
       0.01207077 0.00900616 -0.0076767164 -0.0025566032
0001e0 7a cc d3 3b f8 51 e2 3b 23 f2 2d bb fc fa 3e bc
       0.0064635845 0.006906744 -0.002654203 -0.011656519
0001f0 d2 f3 17 3c f5 c8 d7 bb 8b 05 bc bc c8 50 8c bb
       0.00927444 -0.0065852352 -0.022951862 -0.004282091
000200 9b fe a6 bc a4 9a 2f bc f8 ed fb 3b 63 f0 50 bc
       -0.020385077 -0.010718022 0.00768828 -0.012752625
000210 17 71 f4 3b a6 9e cc 3b e6 ae c0 3a fb e9 02 3b
       0.0074597704 0.0062444983 0.0014700561 0.001997589
000220 e5 07 8a bb 7a 18 e6 3b e4 01 87 3a 73 e6 a9 3b
       -0.004212367 0.007021961 0.0010300246 0.0051849424
000230 73 e1 89 bb 02 6d ef 3a c8 73 2c ba 0b 8c c2 3b
       -0.004207784 0.001826674 -0.0006578532 0.0059371046
000240 cf 3a 84 b9 ab 4f d8 bb d9 77 b9 b9 0b d7 19 bc
       -0.00025220818 -0.006601294 -0.00035375243 -0.009389649
000250 47 06 ce 3b 31 fb 2b 3b 34 84 32 bb fa fc c7 ba
       0.0062873694 0.002624225 -0.0027239444 -0.0015257888
000260 7a b4 fe bb e0 72 0a bb 0d dc fb ba e9 35 a7 3b
       -0.0077729793 -0.00211256 -0.001921536 0.005102862
000270 57 b6 4c bb 3a 56 d3 3b a2 f8 20 3c fd de 1f 3c
       -0.0031236613 0.006449488 0.009824904 0.009757754
000280 dd 85 40 ba c8 53 6b 3c 0d 0d b5 ba e5 ff d2 3c
       -0.0007344166 0.014363237 -0.0013813094 0.025756786
000290 1f dd 05 3c 9a 91 80 3b 4b fa 57 bb 6b d4 14 3c
       0.008170395 0.003923607 -0.0032955583 0.0090838475
0002a0 a8 2c e2 39 13 6a 6a bc 72 8a c3 3b 69 40 14 3c
       0.0004313935 -0.014307517 0.0059674317 0.00904856
0002b0 4a 1c d7 bb f2 f8 da 3b 7b c4 91 bb 79 77 3e ba
       -0.0065646516 0.0066825086 -0.004448471 -0.00072657276
0002c0 ab 8d cb 3a d2 7d df ba 0b 16 d3 3c 5f 00 1a b9
       0.0015529891 -0.0017051047 0.025767347 -0.00014686723
0002d0 a6 c8 92 bb e7 ff 18 3c cf a4 b3 bb 9b 99 f2 ba
       -0.0044794856 0.009338356 -0.005482293 -0.0018508913
0002e0 19 c0 28 bb 13 ac 1f 3c e8 9b 7b 3b 6a 1e 0b 3c
       -0.0025749265 0.009745616 0.0038392488 0.008491138
0002f0 37 ec 2a bb 86 96 bc 3a ab f9 f4 bb 0a 66 84 bb
       -0.0026080736 0.0014388121 -0.007476052 -0.0040404843
000300 96 7c ca 3b b7 dd ea ba cb a3 1e bb 10 f8 fc ba
       0.0061794026 -0.0017918859 -0.0024206515 -0.0019300003
000310 11 c6 49 3c c4 0f 93 3c 2e ae 3a 3b 73 80 55 3b
       0.012315289 0.017951854 0.0028485167 0.0032577782
000320 77 ad 1a bc 13 ef 73 bb 1f 5c f7 bb 3d 84 e1 3b
       -0.009440771 -0.0037221357 -0.0075488235 0.006882219
000330 38 30 e0 3a 7e 42 81 bb 66 c8 b1 bc 9b 58 41 bc
       0.0017104214 -0.003944694 -0.021702003 -0.01180091
000340 ef 3b 8e 3b 76 cd b5 bc 28 a1 e5 ba 92 44 c6 3b
       0.0043406407 -0.022192698 -0.0017519342 0.0060506547
000350 83 b0 92 ba 53 02 18 bc d7 7f 00 3b e3 17 c4 3b
       -0.0011191521 -0.009277898 0.0019607448 0.005984293
000360 97 17 9f bb 88 ee 70 3c f9 81 b2 bb 14 f6 25 3c
       -0.004855107 0.014705308 -0.005447623 0.01012947
000370 78 cf 4e 3c ff ae 03 bc c4 e2 a3 3b b7 22 2b 3c
       0.012622707 -0.008037328 0.005001398 0.010445288
000380 00 0b 11 3c 4e af 97 3c 78 eb b7 bb 2f af fb bb
       0.00885272 0.018516209 -0.005612787 -0.0076807956
000390 95 cf 7f 3b b3 32 bf bc 22 b4 3d ba c2 ac 71 bc
       0.003903364 -0.023339605 -0.000723662 -0.014750661
0003a0 20 2f 8d bc a2 3d f4 3b 7f 36 c3 3b 73 88 17 bc
       -0.017234385 0.0074536363 0.005957424 -0.009248841
0003b0 3a 9b 93 bb f7 5e 29 bc b8 87 4e 3b 16 15 0c bb
       -0.0045045884 -0.010337583 0.0031514 -0.0021374873
0003c0 f2 01 61 3c 9f c0 c7 bc 95 b9 f6 bb b0 e3 f3 bb
       0.013733374 -0.024383841 -0.0075294473 -0.007442914
0003d0 e8 2c b8 bb 6b 6a 40 bb e1 c7 0d bc 23 b1 20 bc
       -0.0056205876 -0.0029360305 -0.008653612 -0.009807858
0003e0 42 a9 18 bd ef c3 30 bc 97 0f b1 3b 87 73 1e 3c
       -0.03727079 -0.010788902 0.00540347 0.009671099
0003f0 ab 13 92 bb 04 a7 93 bc 71 75 aa bb 67 96 d5 3b
       -0.004457911 -0.018023975 -0.0052019884 0.0065181735

action_model._discrete_distribution.branches.0.bias f4 [3]
000000 00 00 00 00 00 00 00 00 00 00 00 00
       0.0 0.0 0.0

action_model._discrete_distribution.branches.1.weight f4 [3, 128]
000000 27 98 91 3c f4 a1 1b bc 75 df 16 bc d2 77 1e bb
       0.017772747 -0.009499062 -0.00920855 -0.0024180305
000010 4f 38 6e bb e2 4d 9b 3c a1 e3 b7 3b 2b d3 0f ba
       -0.003634948 0.018958036 0.0056118523 -0.00054864836
000020 c7 90 a4 bc fd 8a f6 bb 7d 2b fc 3b 17 09 3a bc
       -0.020088566 -0.007523893 0.007695614 -0.011354706
000030 eb 3e 15 3b a4 5d 1b bb 55 d0 d9 bb 47 59 a8 b9
       0.0022773098 -0.0023706937 -0.0066471496 -0.00032109974
000040 0b 52 0c bc cd 0b c0 bb 01 9f a4 3a 27 06 04 3c
       -0.008564482 -0.0058607818 0.0012559594 0.008058107
000050 01 19 bc 3b df 24 51 3c 5d bd 67 3c 43 99 5f bb
       0.0057402854 0.012765138 0.014144269 -0.003411845
000060 bd 74 51 bc 5e a0 c0 bb 41 1e 01 bc fd 12 6e bb
       -0.01278418 -0.0058784923 -0.007880748 -0.0036327236
000070 4b 5c 82 bc 52 bd f9 3b e7 3a 2f 3b cf 53 86 3b
       -0.01591315 0.0076214457 0.002673799 0.004099346
000080 0b 34 61 3c 37 5a 81 bb fa 6b 8c 38 40 c9 26 3c
       0.013745318 -0.003947522 6.6958324e-05 0.010179818
000090 3c 6f 83 bb 09 83 91 3b 5b c7 a4 bb e3 f3 07 3b
       -0.004011063 0.0044406694 -0.005028648 0.0020744733
0000a0 53 e8 71 3b 1b 44 53 3b a3 58 d8 ba f8 c6 e1 3b
       0.0036912158 0.003223664 -0.0016505908 0.006890174
0000b0 3f 1e 98 3b 5b f5 9f 3a 7c b9 89 bc 90 4d 50 3c
       0.0046422775 0.0012203859 -0.016812079 0.012713805
0000c0 e2 26 6c bb 78 1d 0c bc b5 3c 24 bc ee 8b 20 3b
       -0.0036033918 -0.008551948 -0.010024239 0.0024497467
0000d0 a0 a6 a1 bb 08 73 2c ba cf 5d e4 3b 2f 4b 42 bb
       -0.0049331933 -0.000657842 0.0069691907 -0.0029646864
0000e0 12 cb 63 3a a1 18 82 bc a5 1d 6f 3c 77 1d 11 3b
       0.00086896226 -0.015880885 0.01459447 0.0022142807
0000f0 2f 88 d6 bb 75 02 3b 3b 4f 20 2c bc 71 ab 80 b9
       -0.006546996 0.00285354 -0.01050575 -0.00024541796
000100 fd fe 6e 3b 23 74 04 3c d6 c0 08 3c 95 d0 6a bb
       0.0036467903 0.00808433 0.008346757 -0.003582989
000110 e9 8f 04 3b 3c df 18 bb e3 1c 0a bb 67 20 5f bb
       0.0020227379 -0.0023326417 -0.0021074347 -0.0034046413
000120 47 1e 06 bc 9d f2 e7 3a 0d e2 5f bc 68 22 9a 3c
       -0.00818593 0.0017696206 -0.013664735 0.018815234
000130 47 41 43 3b 53 fc 18 bc f4 d6 b3 3a 63 5f 34 3c
       0.0029793547 -0.0093375025 0.0013720677 0.01100907
000140 d5 0f 92 bc 35 f8 74 bb 6c fb 93 bb 93 12 0a bc
       -0.017829815 -0.0037379388 -0.004516056 -0.00842728
000150 be bb 25 3b 47 4a 97 3c cf 63 83 bc a5 a1 76 ba
       0.0025288905 0.018468035 -0.016038803 -0.0009408242
000160 6b de 3c bb 7b 71 a0 bb 45 7a e4 3a 72 31 be 3b
       -0.0028819095 -0.0048963404 0.0017431459 0.005804234
000170 48 7c 53 3b d3 29 a8 3b eb 6a ce 3a f7 2b e2 3b
       0.0032270122 0.005131939 0.0015748417 0.0069022137
000180 c0 1e 29 bc 12 95 4d bc 83 03 0e bc 7b 7d 13 bc
       -0.010322273 -0.012547748 -0.008667829 -0.009002085
000190 60 9b da 3b e7 a8 ad 39 8f fa 82 bc f3 a3 be bb
       0.006671354 0.00033122973 -0.015988616 -0.005817884
0001a0 aa ce ed 39 ce 57 a5 bb 72 88 a0 3b 67 b5 c7 3a
       0.0004535814 -0.0050458675 0.004899078 0.0015236557
0001b0 5f 40 20 3c 80 5e 34 3c 57 2a fd bb e7 f3 78 3c
       0.009780972 0.011008859 -0.0077259946 0.01519487
0001c0 83 91 26 ba 72 9e 1f bc 38 1e 0f 3c 06 12 8a bc
       -0.00063540804 -0.009742366 0.008735232 -0.016854297
0001d0 9a 42 d7 bb e5 ac 5f bb 43 f5 21 bc 17 e2 b0 3b
       -0.006569219 -0.0034130153 -0.009885135 0.0053980458
0001e0 02 17 78 3c fd 2c 1d 3b 67 bd 25 3c 21 5d 83 bb
       0.015142204 0.0023983114 0.010115958 -0.0040089046
0001f0 6b b9 b7 bb 6a f6 8a bc 73 50 85 ba 43 e4 1f 3c
       -0.0056068203 -0.016963203 -0.001017107 0.009759012
000200 b0 a7 64 bb 81 f1 aa 3c 71 18 0e bb cd 54 34 bc
       -0.0034889989 0.020867111 -0.0021682049 -0.011006546
000210 d3 e2 67 3c 97 fc bb 3b 9a c1 90 bb 93 e4 ab 3b
       0.0141532 0.005736898 -0.0044176104 0.005245754
000220 58 78 f7 bb f4 ae 00 bc b7 08 50 3b b4 8b 80 ba
       -0.007552188 -0.007854212 0.0031743476 -0.000980726
000230 43 ad 7b bc 62 ae 9a 3c 5d cb 71 3c 50 b6 b0 bb
       -0.015361133 0.01888198 0.014757958 -0.005392827
000240 90 dd 2f bc 30 7f 76 3c 42 39 a2 bb de 26 1c 3c
       -0.010733977 0.015044972 -0.0049506733 0.009530751
000250 bf 9e 9e 38 77 ab 05 bb 20 f2 90 3b 79 b4 08 ba
       7.563596e-05 -0.002039639 0.004423395 -0.0005214881
000260 d0 69 f7 ba cb 17 9a 3b 78 ca c2 bb 9d 1a cd b9
       -0.0018876139 0.0047025434 -0.0059445463 -0.00039120475
000270 13 1b 12 3c 4b db 80 3b 5f d4 42 3b c8 06 6e 3c
       0.008917588 0.0039323918 0.0029728634 0.014527984
000280 d5 aa f7 3a 62 4f 08 bc 11 48 0e 3c 69 14 08 3c
       0.0018895516 -0.008319708 0.008684174 0.008305647
000290 7d 38 92 3a 97 ae c3 ba 00 2e 7a bc 93 c5 71 3c
       0.0011155751 -0.0014929351 -0.015269756 0.014756578
0002a0 ff 37 4a bb a4 5d 92 3c 9d 0a d0 ba 78 6c 81 bb
       -0.003085613 0.017866917 -0.0015872304 -0.003949698
0002b0 67 ca 25 3b 3b 24 3b b9 3d 1a 0f bb 24 e7 a9 ba
       0.0025297643 -0.00017847207 -0.0021835708 -0.0012962562
0002c0 e2 12 22 bc ef 90 0c 3a 45 f0 05 b8 8b f9 45 3c
       -0.009892197 0.0005362173 -3.193344e-05 0.012083421
0002d0 94 4f a3 ba 23 f9 51 bc 86 e8 3c bc 1b 3d d3 3b
       -0.0012459629 -0.0128157465 -0.011530047 0.0064464933
0002e0 03 b0 56 bc 9b 5e 9f bc 1e f4 13 bc ed b1 6d bb
       -0.013103488 -0.019454291 -0.00903037 -0.0036269382
0002f0 b0 ea 32 3b 23 e2 93 3c 6e 0b 2a 3c 01 fd 8e 3c
       0.002730053 0.018052166 0.010378702 0.017454626
000300 d5 26 7e bc ca f4 7a ba 5b 11 eb bb c8 79 6d bc
       -0.015512188 -0.00095732196 -0.0071737 -0.014494367
000310 f5 6d 99 ba b3 b3 67 bb 7f 2f 88 bc a8 e8 75 3b
       -0.0011705743 -0.0035354912 -0.01662421 0.0037522707
000320 17 4b 30 3b df 7e 5e bc e3 7c 0c 3c b5 4c 18 bc
       0.0026900226 -0.013580053 0.008574697 -0.009295632
000330 bb 00 26 3b f9 68 b7 3c 36 2b 81 3b a3 32 e8 3b
       0.0025330025 0.022388922 0.0039419187 0.0070861145
000340 68 aa 7b 3b 1f 53 ee bb 23 c5 8e bc fe 66 13 bb
       0.003840113 -0.0072730924 -0.017427986 -0.0022491808
000350 cf 36 9f b9 8f fb 25 3c b3 ba 0a bc 78 13 00 3c
       -0.0003036768 0.010130777 -0.008467364 0.007817142
000360 29 43 4b 3b d7 0d 14 bb a3 6f 28 3c 9b 72 b7 bb
       0.0031015372 -0.0022591257 0.0102805225 -0.005598379
000370 83 8c 73 3c c7 db be bb cb 1f ff bb c2 64 b5 3b
       0.014865044 -0.0058245393 -0.0077857724 0.005535693
000380 53 d0 4a 3b b5 90 0b bc 3b ec 47 bb 92 c7 cc 38
       0.0030946925 -0.008518388 -0.0030505795 9.764651e-05
000390 dd 9c ee 3a 97 14 91 38 f3 83 08 3b e2 c8 08 bb
       0.0018204708 6.917974e-05 0.00208306 -0.0020871689
0003a0 81 ce 93 bc 78 65 62 3c ec e4 2a 3c 80 ca 7e 3c
       -0.018042805 0.013818137 0.010430556 0.015551209
0003b0 a1 de 2b bb 7e 79 33 bc b0 b2 12 bc ab f2 c6 3b
       -0.0026225226 -0.010954259 -0.008953735 0.0060714087
0003c0 28 3a 23 bc e8 72 e6 3b 35 b4 7a bc f7 27 ce 3b
       -0.009962596 0.007032741 -0.015301754 0.0062913853
0003d0 70 ed 04 bc af 8f cd 3a 0f 0c 94 3b a1 a9 0d 3c
       -0.00811325 0.001568308 0.004518039 0.0086464
0003e0 38 ea 83 39 97 5b 8d 3c f8 03 46 ba 9b f6 20 bc
       0.00025160774 0.017255588 -0.0007553692 -0.00982442
0003f0 3a 8e 54 bc 6a c4 58 b8 a3 c5 1e 3c b5 15 20 3b
       -0.012973363 -5.1681338e-05 0.009690675 0.0024427

action_model._discrete_distribution.branches.1.bias f4 [3]
000000 00 00 00 00 00 00 00 00 00 00 00 00
       0.0 0.0 0.0

action_model._discrete_distribution.branches.2.weight f4 [2, 128]
000000 03 e7 b3 bb ec 36 84 b9 34 94 84 ba 6c 65 03 3c
       -0.005490185 -0.00025217922 -0.0010114969 0.008019786
000010 f7 5f 0e ba 35 23 7a bb ac 02 a2 3b cb d6 c4 ba
       -0.000543117 -0.0038167958 0.004944166 -0.0015017627
000020 97 a3 96 3b b3 db 29 bc 48 69 01 3c b0 15 f6 bb
       0.004597138 -0.010367322 0.007898636 -0.0075099096
000030 e7 35 3e 3b 85 e7 2f 3b 22 49 af 3b 64 67 15 bb
       0.0029023828 0.0026840877 0.0053492943 -0.0022797221
000040 98 70 1a ba 36 b1 a6 3b f7 52 b1 3b e1 80 44 bb
       -0.00058914116 0.005087043 0.0054115015 -0.0029984044
000050 af eb e5 3a 49 40 8f 3b 57 f2 c1 3a 53 f6 35 3c
       0.0017541553 0.004371677 0.0014796954 0.011106092
000060 9f 0a 2c 3a 5a cc 77 3b 25 78 50 bc c7 02 a4 bb
       0.0006562862 0.0037811012 -0.012723957 -0.005005214
000070 57 00 34 bc ba f0 7b 3c 59 2a b8 bb 52 41 44 bb
       -0.010986409 0.015377218 -0.0056202826 -0.002994616
000080 c7 69 14 bb a0 f9 01 bc 47 9c 6a 3c e8 d1 e6 3b
       -0.0022646056 -0.00793305 0.014319486 0.0070440657
000090 95 57 c3 bb 25 34 15 bc 07 3c 5c 3c 7a 8b 80 bb
       -0.0059613683 -0.0091066705 0.013442046 -0.003922877
0000a0 ba 03 6d 39 97 8c ab 3c 9e 6f a0 bb a7 bc 61 3c
       0.0002260347 0.020941062 -0.0048961183 0.013777888
0000b0 e6 7f 9b bb 97 f0 cf ba 63 9b 3e bb 41 f1 46 bc
       -0.0047454713 -0.0015864548 -0.0029084317 -0.01214248
0000c0 9f 49 0c 3c 90 a5 69 3c fc 66 26 bc 1c c9 3c bb
       0.0085624745 0.014260665 -0.010156389 -0.0028806394
0000d0 6b 4f 79 bc 63 e8 66 bc 3d d3 f0 b9 fa f0 a1 3b
       -0.015216689 -0.014093491 -0.00045933752 0.0049420567
0000e0 ba 44 ea ba f3 98 a9 bb f2 c5 88 3b 13 d4 99 bc
       -0.0017873265 -0.0051757037 0.0041739875 -0.018777883
0000f0 21 2d 9c bb 09 ea 0c bc 82 c7 09 bc ee 58 8b bb
       -0.004766122 -0.00860072 -0.008409383 -0.0042525446
000100 f3 89 37 ba f2 5d 02 bc 89 0f c8 3b 6f d2 8e ba
       -0.0007001452 -0.007956969 0.0061053676 -0.0010896454
000110 20 16 54 3c 88 0f a4 bb 67 fc 29 3c 25 8d f6 ba
       0.012944728 -0.0050067343 0.010375119 -0.0018810375
000120 8d 02 0a 3b 5b e5 60 bc 33 a1 4a 3b 10 9f 79 bc
       0.002105865 -0.013726558 0.0030918836 -0.015235677
000130 80 34 36 bb 1b e2 ad 3b 13 ca ba 3b 3b aa 3b 3c
       -0.0027802289 0.005306495 0.0057003587 0.01145416
000140 7f 63 dd 3a 5c d4 14 bc 85 41 15 37 44 c2 2f bc
       0.0016890614 -0.009083834 8.896347e-06 -0.010727469
000150 03 cf 34 3a 14 f7 14 bc c9 16 06 3b 94 ab b0 bb
       0.0006897302 -0.009092111 0.0020460358 -0.0053915475
000160 20 08 19 bc d8 79 e9 3b 6f 02 fc 3b fb ef fe bb
       -0.009340316 0.0071251206 0.00769072 -0.0077800727
000170 db 16 82 3b 13 9f 1a bc cb 14 d2 b9 81 a2 2e bc
       0.0039700097 -0.00943734 -0.00040069813 -0.010658861
000180 ee ab 1b 3c 6b f9 1f bc cd 28 7d 3b 5f 20 04 ba
       0.00950144 -0.009764056 0.0038629055 -0.0005040224
000190 3f 5c 83 bb 8e 5e 05 3b bb 29 6e 3b 63 8c 94 3b
       -0.0040087993 0.0020350548 0.0036340791 0.004533337
0001a0 18 a3 cb ba c0 18 aa 3b a3 67 0d bc 99 94 8b 3a
       -0.0015536277 0.0051909387 -0.008630666 0.0010649144
0001b0 25 4a ca bb 57 e2 14 bc 72 24 39 bc 83 9a 15 39
       -0.0061733895 -0.009087167 -0.011300193 0.00014267307
0001c0 7b 99 16 3b 3a 92 fd bb fb 97 d3 3a cf bc 9e bb
       0.0022979665 -0.007738379 0.0016143316 -0.004844285
0001d0 bb e3 3b ba 37 68 14 bb 21 dc 29 3b e7 20 c6 bb
       -0.00071674184 -0.0022645125 0.002591856 -0.0060464027
0001e0 1d b4 24 bc ed d4 a1 b9 9f 58 57 3b 0b ea 28 3c
       -0.010052708 -0.00030866955 0.0032859219 0.010309706
0001f0 94 f7 92 b9 10 2e 78 bc 33 90 66 3c 3d 27 d4 ba
       -0.0002803175 -0.015147701 0.014072466 -0.001618601
000200 b3 af 3c 3b a9 52 ac bb 17 58 ef b9 a2 f6 71 bc
       0.0028791248 -0.0052588773 -0.00045651264 -0.0147682745
000210 07 6f e6 ba d5 40 ee bb f4 3e 15 bc 83 1a 28 3c
       -0.0017580696 -0.007270912 -0.0091092475 0.010260227
000220 f7 ee be bc 9a 74 0e bc bf d6 93 3b 9b 3d 29 3b
       -0.023307307 -0.008694792 0.0045116837 0.0025824073
000230 07 8b cd bb ff f7 e0 bb c6 74 93 bb 73 42 e3 3c
       -0.006272677 -0.006865501 -0.0045000045 0.027741646
000240 87 14 45 bb d9 f3 02 3c a2 c2 13 3c 44 99 80 bb
       -0.003007205 0.007992708 0.009018572 -0.0039245207
000250 5f 1e a7 3a d7 8e 10 3c 82 0c 52 3a 41 09 16 3b
       0.001275014 0.008823118 0.0008012728 0.00228937
000260 ed e7 e8 39 7f 24 94 bb 3b 59 de 39 13 99 a1 bb
       0.00044423286 -0.0045209522 0.00042409622 -0.004931578
000270 f2 25 80 3b d4 8c 24 3b 53 ff d7 bb cd b5 17 bb
       0.0039107734 0.0025108354 -0.0065917163 -0.0023149133
000280 8a c8 16 3c cb 97 11 3b 1d d7 e5 bb b7 0f af ba
       0.009203086 0.002221572 -0.007014169 -0.0013356124
000290 f6 58 3c bc 66 23 ad 3b 83 6f f6 3a 96 dd 14 bc
       -0.011495819 0.005283761 0.0018801544 -0.009086033
0002a0 b5 68 3c 3c 85 6e b0 3b bd e8 65 3c a3 dc 7f 3a
       0.0114995735 0.0053842687 0.01403254 0.00097603555
0002b0 55 38 42 3c ad 06 d5 3b 53 0e a6 3c 0c 81 b9 3a
       0.011854251 0.00650104 0.020270502 0.0014152839
0002c0 3d bf 8b bc 47 f0 12 bb b2 f6 98 bb a0 39 90 3c
       -0.017058963 -0.0022421048 -0.0046680802 0.017605603
0002d0 32 47 d3 3a fb f1 1d 3b 03 33 08 bc a2 13 9f bc
       0.001611924 0.002410053 -0.008312943 -0.019418541
0002e0 43 16 b5 bb e3 2a 5b bb 7a 83 84 ba cb d9 f6 bb
       -0.0055263354 -0.003344231 -0.0010109984 -0.007533287
0002f0 a4 60 90 3b ab 75 80 3b 0d 67 46 bc a1 90 28 bb
       0.0044060517 0.003920277 -0.01210953 -0.0025720971
000300 ba 61 0c bc 15 ee e4 bb d7 57 9a bb d4 81 95 3a
       -0.008568222 -0.0069863894 -0.0047101784 0.001140649
000310 9e bd 24 ba b7 7b 2f 3b 1c 3f b5 bb d3 7a f1 bb
       -0.00062843587 0.002677662 -0.005531205 -0.007369378
000320 51 f9 a2 bb ae a7 49 3c 77 c0 ef 3b bf 1c b2 3b
       -0.0049735685 0.012308044 0.007316645 0.0054355557
000330 55 e0 f0 ba 0b 0d 45 3c 85 84 ea bb 97 fa c4 3b
       -0.0018377403 0.0120270355 -0.007156911 0.006011318
000340 37 17 1c 3c 72 55 55 3b 85 06 bd ba 8f 37 96 bb
       0.009527019 0.003255215 -0.0014421499 -0.00458426
000350 b1 09 2f bc b0 1d c3 3b e4 c2 b7 ba d8 ee 1f bc
       -0.010683463 0.0059544668 -0.0014019874 -0.009761535
000360 30 98 57 ba fd 12 34 3c b6 29 36 3c f0 f2 8b 3a
       -0.0008224277 0.010990855 0.011118343 0.0010677259
000370 13 75 65 bb 0c 5c c7 bb fe ce ca 3b 6f ae 92 3b
       -0.0035012409 -0.006083971 0.006189226 0.0044763605
000380 0d 36 b0 bb 1d 8d 45 bc 9f c9 de 3b 8f 7d 74 bc
       -0.005377537 -0.01205757 0.0067989375 -0.014922514
000390 71 b4 9b bb b7 24 4a bc 62 b2 65 bb 09 53 00 bb
       -0.004751735 -0.012337855 -0.0035048951 -0.0019580743
0003a0 cb 72 aa ba 72 11 77 3b 86 14 12 bc 08 c6 d3 bb
       -0.0013004182 0.0037699607 -0.008916026 -0.006462816
0003b0 a8 d4 cc ba dd 26 15 3c 3f c6 2f bc 5f f3 ab ba
       -0.0015627341 0.009103504 -0.010728418 -0.0013118795
0003c0 5d bb 43 3c b2 f3 53 3c 4f 77 08 bc fb 25 74 3b
       0.011946526 0.012936519 -0.008329227 0.0037254083
0003d0 1f 71 62 3a c0 5f 55 3a 08 3f 7b 3c 8a 23 b9 3b
       0.0008638072 0.0008139573 0.015334852 0.0056499885
0003e0 e7 ff 8d 3b a1 03 11 3c af 05 e4 bb fa 61 e4 3a
       0.0043334845 0.008850963 -0.0069586853 0.0017424219
0003f0 09 7e 9f 39 3b ac d2 3b c0 c3 b0 3b f8 6d 35 3c
       0.00030420747 0.006429223 0.005394429 0.011073582

action_model._discrete_distribution.branches.2.bias f4 [2]
000000 00 00 00 00 00 00 00 00
       0.0 0.0

network_body._body_endoder.seq_layers.0.weight f4 [128, 4]
000000 a0 58 f8 be e9 96 e4 bd 2b c7 82 bd 6e c2 0d 3e
       -0.48505116 -0.11161596 -0.063856445 0.138437
000010 53 bf 30 be 4e 72 90 3e 0b f8 69 be 97 7b 63 bf
       -0.17260484 0.28212208 -0.22848527 -0.8886046
000020 2e ac 5e be 69 d1 0f bf 41 cf 68 bf d7 a8 b7 3e
       -0.21745369 -0.5617891 -0.90941244 0.35871002
000030 c0 eb db 3e 46 34 d1 3e ea 08 a0 3e d8 6b 7c 3e
       0.429533 0.40860194 0.312568 0.24650514
000040 e2 e6 c3 3c ad e8 cb 3d b2 6c 8d bf 8a 63 e3 be
       0.023913804 0.09956489 -1.1048796 -0.4441188
000050 26 fd 08 3e 6c e2 ce bd 5d 82 51 3f 1d 4f 42 3f
       0.13377818 -0.1010178 0.81839544 0.7590197
000060 99 6d f7 be cd 53 bb 3b 04 dc f7 be ba bb 41 3e
       -0.48325804 0.005716777 -0.48410046 0.18919268
000070 77 ac b6 be c0 bc 5a be 50 36 46 3f f1 16 64 3f
       -0.35678455 -0.21361065 0.77426624 0.89097506
000080 42 28 8d bd 52 4a 23 bf b1 54 4e bf a6 ad 05 3f
       -0.06892444 -0.6378528 -0.8059798 0.5221809
000090 56 1a 2a 3f 4b 45 c8 3e 57 b2 17 be 78 9a d4 3e
       0.66446435 0.39115366 -0.14814125 0.415241
0000a0 10 dc 8e 3f bb 09 c0 bd 79 03 6b 3f b3 ea 1d 3e
       1.1160908 -0.09376856 0.91802174 0.15421562
0000b0 88 57 d5 be b1 61 cb be 61 b0 e2 bc f7 12 aa 3d
       -0.41668344 -0.3972297 -0.027671995 0.083043985
0000c0 5c 29 2b bf 07 1b e7 bd 30 4b 4b 3e de 73 82 be
       -0.66859984 -0.11284452 0.198529 -0.25479025
0000d0 f9 c6 14 bf dc e3 b3 3e c4 48 75 3e 58 eb 63 3e
       -0.5811611 0.3513478 0.23953539 0.22257745
0000e0 4f a6 ed 3e 82 07 86 3e d4 f1 7b 3c 9b 15 40 3f
       0.46415946 0.26177603 0.015377481 0.7503297
0000f0 c5 30 25 be 65 9c 61 bf 65 d3 0d be 4d 32 10 3f
       -0.16131885 -0.88129264 -0.13850172 0.5632675
000100 76 a9 40 bf 17 d8 47 3f 1d 3e 44 bb 0f 40 01 bf
       -0.75258577 0.780641 -0.002994425 -0.5048837
000110 8a 16 f3 3d 59 11 47 bd 7c fe e3 3d dc 42 d6 3e
       0.11869533 -0.04860053 0.111325234 0.41847885
000120 0a b8 28 bf 67 73 64 bf 65 00 13 bf 28 a9 69 bf
       -0.6590582 -0.8923859 -0.57422477 -0.91273737
000130 38 06 16 bf e1 3e f0 3d bf f9 f8 3d 0d 5b 7c bd
       -0.5860324 0.11730743 0.1215701 -0.06161027
000140 89 6d 24 3f 0d 66 de bd 30 07 97 3e 2c 68 26 3e
       0.6422964 -0.108593084 0.2949767 0.16250676
000150 55 ac 10 3e a5 ff cf be 4a d4 b7 3e 2c 0d 54 bd
       0.1412824 -0.4062473 0.3590415 -0.051770374
000160 0b dc f5 3e b5 e1 16 be f8 46 40 bf aa 33 79 3f
       0.48019442 -0.14734538 -0.7510829 0.9734446
000170 29 de ac bd 58 ca 82 3e 99 30 49 3f 7c e7 79 be
       -0.08440811 0.25545 0.7858978 -0.2440471
000180 4b 60 01 3f 9f 04 19 3f b1 93 dd 3e 30 8d 46 be
       0.50537556 0.59772676 0.43276742 -0.19389796
000190 e7 b7 c0 3e 3b e4 1c bf e9 1e 09 bf 98 ce c8 3e
       0.37640306 -0.6128575 -0.5356279 0.3922012
0001a0 4d 5a 79 3d 8c 11 c2 3d 53 3f 28 be 5d b7 e3 3e
       0.060877133 0.09476003 -0.16430406 0.44475833
0001b0 f7 01 00 3f 3e 4a 10 bf 3e 1c e0 3e e3 6b 62 bf
       0.50003 -0.56363285 0.43771547 -0.8844587
0001c0 68 7b 5c bf 41 94 67 be c8 1f fd be bf 6d 4b 3e
       -0.86125803 -0.22615148 -0.4943831 0.19866084
0001d0 93 ff bd bc 58 96 03 3e 01 30 57 3e 18 c0 46 3f
       -0.023193156 0.1285032 0.21014406 0.7763686
0001e0 f1 5a 24 3f 43 6b 38 3e 63 4d b2 3e 45 50 09 3f
       0.64201266 0.18009667 0.34824666 0.53638107
0001f0 b6 9d 23 bf 9d 66 46 3f a7 a5 44 bf 42 fb 64 bd
       -0.6391252 0.77500325 -0.76815265 -0.05590368
000200 94 03 5f 3f b3 43 d8 3d 33 a4 22 3f 46 d2 15 3f
       0.87114835 0.105597876 0.635318 0.58523977
000210 e1 07 13 bf 01 0a 97 3c 78 8b 15 3f cc b4 e9 3e
       -0.574339 0.018437387 0.5841594 0.4564575
000220 55 5c a4 3e 04 41 e6 3e 3e c7 9c 3e 68 eb ea 3e
       0.32101694 0.44971478 0.3062076 0.45882726
000230 0a 24 99 be a0 8d 8b be 90 83 b7 be 52 5f d0 3e
       -0.29910308 -0.2725649 -0.35842562 0.40697724
000240 44 38 78 bf ac d4 1e 3f 42 91 76 be 9b f5 58 bd
       -0.96960855 0.6204326 -0.24078849 -0.052968603
000250 3a 1e bc 3e 01 d1 76 3e 08 6c 0f 3f 2e ac 50 bf
       0.3674181 0.24103166 0.5602422 -0.81512725
000260 50 a8 7d 3e 77 96 b1 bc 29 36 94 3d 64 22 9f be
       0.24771237 -0.021678193 0.07236893 -0.31080925
000270 c1 a2 d0 be 42 fe 91 3e 93 c5 5a 3f d7 a8 75 3e
       -0.4074917 0.28514296 0.85457724 0.23990189
000280 9f 2b 87 be 41 26 70 3f 4b b6 e1 3d 34 b1 69 3e
       -0.26400468 0.9380837 0.11021098 0.22821504
000290 bd 0a f0 be c0 3f d1 be cb 24 5c bf d0 48 35 bf
       -0.46883193 -0.4086895 -0.8599364 -0.7081423
0002a0 b6 a8 9d 3e 9b 61 39 3e 4a 1c a9 3e 4f 7f a1 3e
       0.3079278 0.1810364 0.33029395 0.3154244
0002b0 c0 cb a4 be 7e 65 ee be 73 c3 5f 3f d4 ae 9d 3e
       -0.321867 -0.46561807 0.87407607 0.30797446
0002c0 f5 18 82 3e dd 48 27 bf bd f2 e7 bd 5a a0 28 3f
       0.25409666 -0.65345556 -0.113255955 0.6586968
0002d0 af d6 35 be 68 1a d6 bd d8 18 f5 3b ef c1 f5 3e
       -0.17757677 -0.10454255 0.0074797682 0.47999522
0002e0 96 48 3c 3f 00 b5 06 3f 46 93 7f 3e f3 7b d9 be
       0.7354826 0.52619934 0.24958524 -0.42477378
0002f0 9a 8d b8 3d f8 15 e8 bd a4 3c 16 bc ed 0b cb be
       0.09011383 -0.11332315 -0.009169731 -0.39657536
000300 da 61 21 3f 9f 19 10 bf 8c 9c b3 3e d9 a8 dd 3e
       0.63039935 -0.56289095 0.35080373 0.43292883
000310 be 8c 0a bf 5b a9 80 3f c0 9e 68 3e 40 b0 01 bf
       -0.54121006 1.0051683 0.22716808 -0.5065956
000320 44 54 3d 3f 5c bf 23 3f b4 05 8e be c5 3c 7d 3f
       0.73956704 0.63963866 -0.27738726 0.9892085
000330 b1 58 db 3e cb 4a 8f bd 22 9d 19 be 92 53 ca be
       0.42841104 -0.069966875 -0.15001348 -0.39516884
000340 10 02 8b 3e 96 ad b8 3e eb 28 89 3e 8c 41 55 be
       0.2715001 0.36069936 0.2678903 -0.20825785
000350 7e f6 b3 3e ee 9e 34 3f 07 65 9d be 5b a5 5f bf
       0.35148996 0.7055501 -0.3074114 -0.8736169
000360 b3 22 97 bf b4 cf a0 3f b3 2f 2b be f5 38 1e 3f
       -1.1807464 1.2563386 -0.16717415 0.6180566
000370 5f 35 2c 3d c3 38 0c 3f f5 3d 38 bf 25 07 2b bf
       0.042043086 0.5477411 -0.7196954 -0.66807777
000380 b2 0b 55 bf 10 fd 9c be 80 2b 12 bc 45 05 a9 3e
       -0.8322097 -0.3066182 -0.008921504 0.33011833
000390 3e a8 b0 3e 1f 76 cb be ef 15 52 3f 0c ad 05 3f
       0.3450336 -0.39738557 0.8206472 0.52217174
0003a0 d2 3a 61 3f 63 f6 b7 bc 6b bd 58 be f7 27 5c 3f
       0.8798038 -0.022456354 -0.21166007 0.8599848
0003b0 2c bd 22 bf de 94 fd bc 3c f2 78 3f c5 04 7a be
       -0.63569903 -0.030954774 0.9724462 -0.24415882
0003c0 d6 65 6a bf 33 dd 92 3e 03 5d a2 be e7 db b5 3e
       -0.9156164 0.28684387 -0.31711587 0.35519335
0003d0 d4 c4 95 3e 88 22 21 bf 48 8d 16 3c b9 dd 81 3e
       0.2925173 -0.62943316 0.0091889575 0.25364473
0003e0 49 81 ca bd bc a7 01 3f ad 70 e2 be 7b 1d 16 3d
       -0.098879404 0.5064657 -0.4422659 0.03664921
0003f0 cb 48 1c be 47 7d 7a 3e d7 3b bc 3e 88 e3 59 bd
       -0.15262143 0.24461852 0.36764404 -0.053195506
