Assets/ML-Agents/results/test6/CatchTheMouse/checkpoint.pt (torch, 448098 bytes, 46 tensors)

discrete_act_size_vector f4 [1, 3]
0	0x40400000	3.0
1	0x40400000	3.0
2	0x40000000	2.0

network_body._body_endoder.seq_layers.0.weight f4 [128, 4]
0	0x3f6b803c	0.91992545
1	0xbee45875	-0.44598737
2	0x3eeade25	0.45872608
3	0x3e02e692	0.12783268
4	0xbeb0d875	-0.34540144
5	0x3ec8a0e7	0.3918526
6	0xbe3c5dec	-0.18395203
7	0xbeacf70b	-0.3378223
8	0x3d8444ee	0.0645846
9	0xbedbd836	-0.42938393
10	0x3ee9d415	0.45669618
11	0x3e83b496	0.25723714
12	0xbe850cd8	-0.25986362
13	0x3f1272ea	0.57206595
14	0xbf5e6d16	-0.868852
15	0x3eaad7db	0.3336781
16	0xbd815944	-0.06315854
17	0xbf21d36d	-0.63213235
18	0xbedb62eb	-0.42848906
19	0x3f34f58a	0.7068716
20	0xbd5fc210	-0.05462843
21	0x3db3ac9d	0.08773158
22	0x3f5893b1	0.8460036
23	0x3f03a2a7	0.5142006
24	0xbf889f73	-1.067366
25	0x3e917541	0.2840977
26	0x3f005193	0.5012447
27	0xbf134c7c	-0.5753858
28	0x3dea121e	0.11429237
29	0xbee57787	-0.44817755
30	0xbe4ff025	-0.20306452
31	0x3e06b74a	0.13155857
32	0x3e4f84d7	0.20265518
33	0xbeeed06a	-0.46643382
34	0x3e7725c6	0.24135503
35	0x3c09d2ad	0.008412045
36	0x3f5b3094	0.85621
37	0xbe531487	-0.206133
38	0xbf38a1fe	-0.7212218
39	0x3fa583b2	1.2930815
40	0x3ef4f5c6	0.4784376
41	0x3eef126b	0.4669374
42	0x3eca27b5	0.3948342
43	0x3fc6d817	1.5534695
44	0xbe856941	-0.26056865
45	0xbd3dfd65	-0.046384234
46	0xbcae7fcf	-0.021301178
47	0x3e5af081	0.21380807
48	0x3f8d2d01	1.1029359
49	0xbb5c0118	-0.0033569988
50	0xbeeb5d35	-0.4596955
51	0xbf070fa7	-0.5275826
52	0xbeccf5e8	-0.40031362
53	0xbec9be30	-0.39402914
54	0xbf806193	-1.0029777
55	0xbf76d1a0	-0.9641361
56	0xbd994531	-0.074839
57	0xbf595c45	-0.8490642
58	0xbd5dad70	-0.05412048
59	0x3ebb57a7	0.3659031
60	0xbe946f61	-0.28991225
61	0xbf8c4626	-1.0958908
62	0x3e0e7e7a	0.13915434
63	0xbdb68b25	-0.089132585
64	0x3f6a4d08	0.9152379
65	0xbf33db70	-0.7025671
66	0x3eff217a	0.49830228
67	0x3f83c722	1.0295146
68	0xbeb1fa69	-0.3476136
69	0x3d9c612c	0.076357216
70	0xbe905a85	-0.2819406
71	0xbf396d05	-0.72431976
72	0xbe556007	-0.20837413
73	0x3ecdb814	0.40179503
74	0xbf3c3b28	-0.73527765
75	0xbc6913bc	-0.014225896
76	0x3f01f2a8	0.5076089
77	0x3ec95920	0.3932581
78	0x3d19965c	0.03749691
79	0xbfb2704c	-1.394052
80	0x3f65d14f	0.89772505
81	0xbea371b8	-0.31922698
82	0x3e7cc45c	0.2468428
83	0x3f0de71a	0.5543076
84	0x3f3884fe	0.7207793
85	0xbe64baaa	-0.22336832
86	0xbf4fbcc4	-0.8114741
87	0x3d50ec3a	0.051006533
88	0xbe825c82	-0.25461203
89	0x3de9bc37	0.11412852
90	0x3deedd00	0.11663246
91	0x3e963772	0.29339176
92	0xbe738376	-0.23780617
93	0x3e1c9df4	0.1529463
94	0x3ea17ad8	0.31539035
95	0xbf66159d	-0.8987673
96	0x3e0e2fbe	0.138854
97	0xbeb35de7	-0.3503258
98	0x3e966560	0.29374218
99	0x3e6bf356	0.23042044
100	0xbe8b009e	-0.27148908
101	0xbe8629c2	-0.26203734
102	0x3e2107ad	0.15725584
103	0xbf5c3a8d	-0.8602684
104	0x3e2ab000	0.16668701
105	0x3d3ee81d	0.04660808
106	0x3f185e7c	0.5951917
107	0x3d54333a	0.051806666
108	0x3de58082	0.112061515
109	0xbed85e8b	-0.4225963
110	0xbedfcb65	-0.43709865
111	0x3f827b8c	1.0193954
112	0x3f7d3c04	0.989197
113	0xbc4b54e7	-0.012410379
114	0x3f610602	0.8789979
115	0x3d357a13	0.044305872
116	0xbcd5ce64	-0.026099391
117	0xbf420395	-0.75786716
118	0xbea3c6c6	-0.3198759
119	0xbe8753e7	-0.264312
120	0x3d6a0d69	0.057141695
121	0xbf14ba8d	-0.58097154
122	0xbd69e820	-0.057106137
123	0x3eb1b766	0.34710234
124	0xbec6381b	-0.3871468
125	0xbe542b8c	-0.20719737
126	0x3f5a0e35	0.8517793
127	0x3c41afe8	0.0118217245
128	0x3f1dfbad	0.6171215
129	0x3e162832	0.14663771
130	0xbf05e3aa	-0.5230051
131	0xbee5edf8	-0.44908118
132	0xbdbc96b2	-0.0920843
133	0x3df4f046	0.11959891
134	0x3f2954a8	0.661448
135	0xbf312aea	-0.69206107
136	0x3e0678c4	0.13132006
137	0x3f48b49e	0.784006
138	0x3f7d568d	0.9896019
139	0xbe78fdf4	-0.24315625
140	0xbf067973	-0.52529067
141	0xbecd2a31	-0.40071252
142	0xbebf80c7	-0.37402937
143	0x3e820066	0.2539093
144	0xbd825dce	-0.06365548
145	0xbee5ff51	-0.44921353
146	0x3e2ab10c	0.166691
147	0xbd2e5aa9	-0.04256693
148	0xbe9ae159	-0.30250052
149	0x3d7dd48a	0.06197027
150	0x3f115917	0.56776565
151	0xbeff384a	-0.49847633
152	0x3ec0452b	0.3755277
153	0xbdb60d1a	-0.08889218
154	0xbeea3dbe	-0.4575023
155	0xbea73bbe	-0.32662767
156	0x3e09c6a5	0.13454683
157	0xbdbfe035	-0.09368936
158	0x3e0e8b32	0.13920286
159	0x3e57e904	0.21084982
160	0x3ebaa0e3	0.36450872
161	0xbe4dbe8b	-0.20092218
162	0xbf9280af	-1.1445521
163	0x3f230d5e	0.6369227
164	0x3e955419	0.29165724
165	0x3e868e89	0.2628062
166	0x3f5d7866	0.8651184
167	0x3e0f476c	0.13992089
168	0x3ebac1c4	0.36475956
169	0x3ca4a40c	0.020097755
170	0xbed227d5	-0.41046014
171	0x3f055e28	0.52096796
172	0xbf7e3c37	-0.9931063
173	0x3f8f79e1	1.120907
174	0xbe85a67d	-0.26103583
175	0x3e1bc835	0.15213092
176	0xbda5078d	-0.08058081
177	0xbf2927fd	-0.6607664
178	0x3f9799fc	1.1843867
179	0xbe7314c6	-0.23738393
180	0xbe6f1bc9	-0.23350443
181	0xbf01876e	-0.50597274
182	0xbed616e4	-0.4181434
183	0x3f194559	0.5987144
184	0xbf2452b7	-0.6418871
185	0x3e1dee5b	0.15422957
186	0xbde0da65	-0.109791555
187	0xbe2617a2	-0.16219953
188	0x3f1e3bf3	0.61810225
189	0xbea1322c	-0.3148359
190	0x3e5c9e32	0.21544722
191	0xbe30726b	-0.17231147
192	0x3f407523	0.75178736
193	0x3f9dc751	1.2326452
194	0x3f0e4008	0.55566454
195	0xbd36275b	-0.044471126
196	0x3f31f45f	0.69513506
197	0x3e28651a	0.16444817
198	0xbd24ebd7	-0.040263977
199	0x3d97cd4d	0.07412205
200	0x3e2cf321	0.16889621
201	0x3f380ef1	0.718978
202	0x3f3b6c8c	0.73212504
203	0x3f7446cc	0.9542053
204	0x3c65cb01	0.014025451
205	0xbf44a5e6	-0.7681564
206	0x3e7281dc	0.2368235
207	0xbf898b08	-1.0745554
208	0x3f691220	0.9104328
209	0xbd2770d0	-0.04087907
210	0xbe2c0d9b	-0.16802065
211	0x3f90372b	1.1266836
212	0x3e919002	0.28430182
213	0xbe87c6ab	-0.2651876
214	0xbf19c78b	-0.60070103
215	0x3f147127	0.57985157
216	0x3e7ef8be	0.24899575
217	0xbe0f31a8	-0.13983786
218	0x3e39a407	0.18128978
219	0xbf4778f0	-0.7791891
220	0x3dcd102a	0.10012849
221	0x3d925a59	0.07146139
222	0x3f762ee0	0.96165276
223	0x3f1bb20d	0.6081856
224	0x3e4c7863	0.19967799
225	0xbf1fb7da	-0.6238991
226	0xbecc1d4a	-0.39866096
227	0xbf079b5d	-0.5297144
228	0x3f78938c	0.9710014
229	0x3f320da7	0.6955208
230	0x3dfd6210	0.123722196
231	0x3dd73ea7	0.10509997
232	0x3deebf16	0.116575405
233	0x3ef202f4	0.47267878
234	0x3ef8749c	0.48526466
235	0x3e38fb17	0.18064533
236	0xbf3555d1	-0.7083407
237	0x3e1834e0	0.1486392
238	0xbf0cc394	-0.5498593
239	0x3d8f7ae3	0.07005861
240	0xbd263745	-0.040580053
241	0x3e91e627	0.28495905
242	0xbef6eddc	-0.48228347
243	0xbc80d515	-0.015726605
244	0x3e520130	0.20508265
245	0xbe119892	-0.14218357
246	0xbe509943	-0.20370965
247	0x3e9f5279	0.3111761
248	0x3ebca9e9	0.3684838
249	0xbf0ffa45	-0.56241256
250	0xbf5678f7	-0.8377833
251	0xbf41f925	-0.7577079
252	0x3f91c542	1.1388323
253	0xbc7016e6	-0.014653897
254	0x3f873383	1.0562595
255	0xbe0cc92a	-0.13748613

network_body._body_endoder.seq_layers.0.bias f4 [128]
0	0x3a19b181	0.0005862937
1	0x3af6a75e	0.001881819
2	0xb88602e4	-6.390156e-05
3	0x3b670c61	0.003525518
4	0xbb30cc96	-0.0026977411
5	0x3ab46ce6	0.0013765364
6	0x3a45ef16	0.000755058
7	0xbae3c782	-0.0017378184
8	0xbb1e1991	-0.0024124125
9	0x3aa443ca	0.001253241
10	0xbb85bdb8	-0.004081454
11	0x3816a806	3.591927e-05
12	0xbb182637	-0.0023216137
13	0xba6ca4fa	-0.0009027269
14	0x3b338f57	0.002739867
15	0xb99af52e	-0.00029555842
16	0xba251eef	-0.000629886
17	0xbb72d5ae	-0.0037053633
18	0xbb873e6d	-0.004127315
19	0xbb321f84	-0.002717943
20	0x3aa22e73	0.0012373462
21	0xb7ccd14c	-2.4416157e-05
22	0xbb821103	-0.003969313
23	0xb86e1a88	-5.676833e-05
24	0x3b1915bf	0.002335891
25	0x3af4c63d	0.0018674802
26	0xbb8440af	-0.004036031
27	0xbb74da45	-0.0037361544
28	0x3b65c884	0.0035062144
29	0xbab49b6f	-0.0013779233
30	0x3b4112df	0.002946071
31	0x3b6372e8	0.003470594
32	0xbb41e949	-0.0029588512
33	0xb9e2436b	-0.0004315631
34	0x3b794357	0.0038034522
35	0x3b07334a	0.0020629936
36	0xbb23300e	-0.002490047
37	0x3a7fc653	0.00097570306
38	0xbb1687a8	-0.002296904
39	0x3b324b68	0.002720559
40	0xbb071d6d	-0.0020616904
41	0x3a6ee08b	0.0009112439
42	0x3b6786ab	0.003532807
43	0x3b0d396d	0.002154912
44	0x3b11630b	0.0022184278
45	0x399fba37	0.00030465584
46	0x3ade2fc9	0.0016951497
47	0xbb855747	-0.004069242
48	0xba5118a3	-0.00079763884
49	0xbaf7b595	-0.001889872
50	0x3b4adb70	0.003095355
51	0xbb150800	-0.0022740364
52	0xbb2975c1	-0.002585754
53	0x3b4b4c65	0.0031020876
54	0xbb63515c	-0.0034685945
55	0xbabb5107	-0.0014291116
56	0xb9b2a230	-0.00034071645
57	0xba8ceb32	-0.0010751246
58	0x3b21e3ba	0.0024702386
59	0x3a31e0b0	0.0006785495
60	0xbb350305	-0.0027620208
61	0xbb846d0a	-0.004041319
62	0xbb067f9d	-0.002052284
63	0xbb143276	-0.0022613085
64	0xba5330ae	-0.0008056265
65	0x39d312a2	0.0004025894
66	0xbb47ad4a	-0.0030468279
67	0xba566a55	-0.0008179297
68	0xbb36ea4b	-0.0027910646
69	0x3b283765	0.0025667783
70	0xbb7f91c8	-0.0038996805
71	0xb9f81a0c	-0.00047321653
72	0xbb966779	-0.0045899716
73	0xbb34d522	-0.0027592857
74	0xbaeec308	-0.0018216083
75	0x3b1bc69e	0.0023769508
76	0x3afc7566	0.0019261062
77	0xbb8e00c0	-0.0043335855
78	0x3b0d1181	0.0021525326
79	0xba00a152	-0.0004906851
80	0xbadc31b8	-0.0016799485
81	0xbb8778de	-0.0041342815
82	0xbb9db874	-0.0048132483
83	0xbaa86308	-0.0012846896
84	0xba0798b3	-0.0005172595
85	0xbb3f0aec	-0.0029150797
86	0x3b174744	0.002308325
87	0xb98214de	-0.0002481108
88	0x3b11db2c	0.002225588
89	0x3b06f767	0.002059424
90	0x3b6aec4a	0.0035846406
91	0xbb0d451b	-0.0021556083
92	0xbaf06a9c	-0.0018342319
93	0x3ae8afe2	0.0017752612
94	0xbb1d3e01	-0.0023993256
95	0xbadf290a	-0.001702578
96	0xba165fe5	-0.00057363353
97	0x397ec8d7	0.00024298146
98	0x3ad8cd82	0.0016540738
99	0xbafcd1b8	-0.0019288575
100	0x3a7580be	0.00093651924
101	0xbb5215e2	-0.00320565
102	0x3bae214f	0.0053140293
103	0xb8765cbc	-5.8737336e-05
104	0xbabeac04	-0.0014547114
105	0xbafddd5a	-0.0019368336
106	0x3ba359ea	0.004985084
107	0x39f0d34e	0.000459338
108	0xba8d6a4c	-0.0010789125
109	0x3b24087c	0.002502947
110	0x3b2ad69f	0.0026067866
111	0xb9f6c20b	-0.0004706535
112	0xba68f383	-0.0008886384
113	0xbacdcbde	-0.0015701016
114	0x3b00f254	0.0019675689
115	0x3ae17f93	0.0017204158
116	0xbb39a401	-0.0028326514
117	0xbb947752	-0.0045308257
118	0x385e7030	5.3033407e-05
119	0xba5e1e07	-0.00084731024
120	0x3afb48d0	0.001917148
121	0x3a743b1c	0.00093166693
122	0xb99636a7	-0.0002865095
123	0xbb12d49a	-0.0022404552
124	0x3b305146	0.0026903911
125	0xba9ac9ad	-0.0011809372
126	0xbb55fcda	-0.0032651932
127	0xbb57366d	-0.0032838837

network_body._body_endoder.seq_layers.2.weight f4 [128, 128]
0	0xbdb47160	-0.08810687
1	0x3da7cafa	0.081930116
2	0xbda49d4e	-0.08037816
3	0xbd1be794	-0.038062647
4	0x3d5c50b0	0.053787887
5	0x3db83967	0.08995324
6	0x3d2c4395	0.04205664
7	0xbc9e8155	-0.01934878
8	0xbe09bffa	-0.1345214
9	0x3e1e6ae6	0.15470466
10	0x3d7f666f	0.062353548
11	0xbdfb236b	-0.12262615
12	0xbcd486a5	-0.02594311
13	0xbe364e10	-0.17803216
14	0xbc0aea4f	-0.008478715
15	0x3d5d2409	0.053989444
16	0x3d99fece	0.07519303
17	0xbe2c67de	-0.16836497
18	0xbda8ed7c	-0.082484215
19	0x3da45b26	0.08025198
20	0xbe1bcba7	-0.15214406
21	0xbdc37702	-0.09544183
22	0xbe3275f6	-0.17427811
23	0xbdee5ee7	-0.11639195
24	0x3dbf06fc	0.09327504
25	0xbca8c4b9	-0.020601617
26	0x3da7c31d	0.08191512
27	0xbbb1c6be	-0.0054253032
28	0x3e1d24b6	0.15346035
29	0xbc52bc5b	-0.01286229
30	0x3d9fa735	0.07795564
31	0xbd5b6dde	-0.053571574
32	0xbe08eccd	-0.13371582
33	0xbda4de40	-0.08050203
34	0x3d949af0	0.072561145
35	0xbd1f06a0	-0.038824677
36	0xbbfa49bf	-0.0076381858
37	0x3d8ab9a7	0.067736916
38	0x3e41106d	0.18853922
39	0xbd74e93b	-0.05979274
40	0xbca521a3	-0.02015764
41	0xbd9c3a13	-0.07628264
42	0xbdbfd968	-0.09367639
43	0x3bf57a32	0.0074913735
44	0x3d7b40ab	0.06134097
45	0xbda90040	-0.08252001
46	0xbdc18421	-0.0944903
47	0x3ddba57d	0.10724924
48	0xbe323b2d	-0.17405386
49	0x3d219bc1	0.03945518
50	0xbc60ec1d	-0.013728169
51	0xbdd419dd	-0.103564955
52	0xbe343ebc	-0.17602056
53	0xbdaa9810	-0.08329785
54	0xbd1090b4	-0.03529425
55	0x3d6be020	0.05758679
56	0xbbd641a3	-0.006538586
57	0xbd0146e1	-0.031561736
58	0x3e21462e	0.15749428
59	0xbd156e1a	-0.036481954
60	0x3dabe276	0.08392803
61	0xbc52ac20	-0.012858421
62	0x3ce68448	0.028139248
63	0x3da3518d	0.07974539
64	0xbd426ef0	-0.04746908
65	0x3e2772d4	0.16352397
66	0x3c812cec	0.01576849
67	0x3c31ddce	0.010856105
68	0x3d80c39b	0.06287309
69	0x3d0de6df	0.034644004
70	0xbc58185c	-0.0131894015
71	0x3cb06b38	0.0215355
72	0xbe2006c9	-0.15627588
73	0x3d838f98	0.06423873
74	0x3b903f38	0.0044020675
75	0xbe074033	-0.13208084
76	0xbdee0721	-0.116224535
77	0x3d98af22	0.07455279
78	0xbc18c882	-0.009325149
79	0x3cb3dc24	0.021955557
80	0x3d8f1daa	0.0698808
81	0xbe0415e5	-0.12898977
82	0x3ca8eb42	0.020619992
83	0x3c539f92	0.0129164625
84	0xbcef28e8	-0.02919431
85	0xbe7d11a6	-0.24713764
86	0xbe1bba72	-0.15207842
87	0xbd0be21f	-0.034151193
88	0x3d8d3a3c	0.06895873
89	0x3d18bd03	0.03728963
90	0xbe2724c1	-0.16322614
91	0xbdbcf7b6	-0.092269346
92	0x3cc92f72	0.024558757
93	0xbdc4d3b4	-0.09610692
94	0x3db5ecca	0.088830546
95	0xbd802c74	-0.06258479
96	0xbdf5d411	-0.12003339
97	0xbe2ba060	-0.16760397
98	0x3d3064ca	0.04306487
99	0xbc2b1ece	-0.010444356
100	0xbd3d9d81	-0.046292786
101	0xbcffb2ff	-0.031213282
102	0xbd165843	-0.036705267
103	0x3d8a9112	0.06765951
104	0x3ddccd67	0.10781365
105	0xbd9bd2f9	-0.07608599
106	0xbd8a82fe	-0.06763266
107	0xbd9e7f14	-0.07739082
108	0xbca85233	-0.020547008
109	0xbdd99263	-0.10623624
110	0x3d6a4b9f	0.057201024
111	0xbd2a30bd	-0.041550387
112	0xbd8d8838	-0.06910747
113	0x3bd55c3a	0.0065112384
114	0xbd5da3fe	-0.054111473
115	0x3b6564bf	0.0035002676
116	0x3e77fa84	0.24216658
117	0x3b61e2e8	0.0034467522
118	0x3c9fcc65	0.019506643
119	0x3de3271d	0.11091445
120	0xbc022d4e	-0.007945372
121	0x3d13ebba	0.03611348
122	0x3d77ca5e	0.060495727
123	0x3d6463d8	0.05575928
124	0xbdaff95e	-0.08592485
125	0x3ccca888	0.024982706
126	0xbd84e948	-0.06489807
127	0x3e1daabc	0.15397161
128	0xbda927b5	-0.08259527
129	0x3d7b8bbe	0.061412565
130	0x3dfcb14d	0.12338505
131	0xbdc3032f	-0.095220916
132	0xbe326968	-0.17423022
133	0x3dd8dc7b	0.10588928
134	0xbdf06dc4	-0.11739686
135	0x3a9e63b6	0.001208416
136	0x3d76b1b9	0.060228083
137	0x3d1a8ff4	0.03773494
138	0x3e088033	0.13330154
139	0x3d538fe3	0.051650893
140	0x3e324a48	0.17411149
141	0x3dd1690f	0.102251165
142	0xbd67130a	-0.05641464
143	0xbcccc20f	-0.024994878
144	0x3e098ab4	0.13431817
145	0x3cb953df	0.022623
146	0x3db1fb76	0.086905405
147	0x3c32656b	0.010888438
148	0xb9d4379e	-0.0004047723
149	0x3d4883c1	0.048953775
150	0xbd11c2c0	-0.03558612
151	0x3cb7d772	0.0224416
152	0x3e13f22b	0.14447848
153	0x3d9f3fd4	0.07775846
154	0x3d87a616	0.06623475
155	0x3d8a589a	0.06755181
156	0x3d10a3b3	0.035312366
157	0xbddbde88	-0.10735804
158	0x3d8e2013	0.069397114
159	0xbd06f618	-0.032949537
160	0x3dcb1d64	0.09917715
161	0xbd8ee79a	-0.06977768
162	0x3e4a2f16	0.19744524
163	0xbe02b85d	-0.12765642
164	0x3ca6e445	0.02037252
165	0xbd246362	-0.04013384
166	0xbd401b26	-0.04690089
167	0x3d3d1e4c	0.04617147
168	0xbce60cfa	-0.02808236
169	0x3e013e95	0.1262153
170	0xbd4aa61f	-0.04947483
171	0x3c910891	0.01770428
172	0xbcffcf28	-0.03122671
173	0xbde02962	-0.10945393
174	0x3e0755a3	0.13216262
175	0xbe5e6313	-0.21717481
176	0xbc40f840	-0.011777937
177	0x3d5d71c0	0.05406356
178	0x3cdac88d	0.026706958
179	0xbe0d7b5a	-0.13816586
180	0x3d7d7374	0.061877683
181	0xbd6c7369	-0.05772725
182	0xbcf08016	-0.029357951
183	0xbd9553b7	-0.07291358
184	0xbe39eeea	-0.18157545
185	0xbded53a7	-0.11588221
186	0xbc26c6a6	-0.010179197
187	0x3bc6455c	0.0060507488
188	0xbd506292	-0.050875254
189	0xbe02fc79	-0.12791623
190	0x3d8fd1c9	0.07022435
191	0xbdbfa700	-0.093580246
192	0x3d0a9575	0.03383394
193	0x3d879e47	0.06621986
194	0xbd975750	-0.073897004
195	0x3d2dc7bb	0.042426806
196	0x3dc2f2c9	0.09518964
197	0x3db95243	0.09048893
198	0x3d47709f	0.04869139
199	0x3d828dd4	0.06374708
200	0x3e278e2b	0.16362827
201	0x3d35c510	0.044377387
202	0x3d938127	0.07202368
203	0x3d9e02bf	0.077153675
204	0xbda3e3fa	-0.080024675
205	0x3c7fcd1f	0.0156128695
206	0x3e328876	0.17434868
207	0x3c9720c3	0.01844824
208	0x3c25542f	0.010090872
209	0x3d918e40	0.0710721
210	0xbd12fe7c	-0.035887226
211	0x3cc2bc86	0.023771536
212	0xbd8d03a5	-0.06885461
213	0xbd64f830	-0.055900753
214	0xbbd0404e	-0.006355322
215	0x3dfdb12c	0.123873085
216	0xbd20ca02	-0.03925515
217	0xbd1c1d71	-0.038114015
218	0x3e58d6e0	0.21175718
219	0x3ce0cbb9	0.027440893
220	0x3e1dc802	0.15408328
221	0x3ded925b	0.11600181
222	0xbd229a31	-0.03969783
223	0x3b87488f	0.0041285227
224	0x3c9cdd7e	0.019148584
225	0x3d55c2c1	0.052187685
226	0x3e0eda84	0.13950545
227	0xbcb5e96b	-0.022206029
228	0x3dbebb35	0.09313051
229	0xbd9e6ff8	-0.077362
230	0xbd811fb0	-0.06304872
231	0x3d3b0d7e	0.045667164
232	0x3d0ed342	0.03486944
233	0xbdf211bd	-0.118197896
234	0x3c483251	0.012219028
235	0x3c1430be	0.009044824
236	0xbd7793f0	-0.06044382
237	0xbca1b104	-0.019737728
238	0x3d46503c	0.04841636
239	0xbd888813	-0.06666579
240	0xbcf845f0	-0.030306786
241	0x3b8a0d55	0.004213015
242	0x3db127b3	0.0865015
243	0xbe375027	-0.1790167
244	0xbd5c381b	-0.053764444
245	0xbd0db097	-0.034592237
246	0xbcc4ef47	-0.024039878
247	0x3e14137b	0.14460556
248	0xbe06f330	-0.13178706
249	0x3ddeb8b1	0.10875071
250	0x3cfc4008	0.030792251
251	0xbd3f38aa	-0.0466849
252	0x3d90c358	0.07068509
253	0x3e705604	0.23470312
254	0x3d8d4878	0.06898588
255	0xbdab9fc8	-0.08380085

network_body._body_endoder.seq_layers.2.bias f4 [128]
0	0x3a33532e	0.0006840703
1	0xbb4cd9e6	-0.0031257807
2	0x3b4108b7	0.0029454657
3	0xb9577af5	-0.00020549803
4	0xbb9901ee	-0.0046694195
5	0x3a3a676f	0.000711075
6	0xbb342572	-0.002748814
7	0x374b4972	1.2116843e-05
8	0xb9ae0e15	-0.00033198358
9	0x3b04c4ed	0.0020258978
10	0xbb2e75a6	-0.0026620417
11	0x3b1ea75c	0.002420864
12	0x3b571aad	0.0032822296
13	0x3afb89d3	0.0019190855
14	0xbb5fc976	-0.003414718
15	0xba0766f1	-0.0005165181
16	0xbaa8c10f	-0.0012874919
17	0x3b56e633	0.0032791018
18	0xbb400655	-0.002930065
19	0xbb2e490e	-0.0026593837
20	0xb9c15e6d	-0.0003688218
21	0x3ae1ae22	0.0017218033
22	0xbb1f7036	-0.0024328358
23	0xbae3bbd2	-0.00173747
24	0xbb4ca095	-0.0031223644
25	0xbb82f9c2	-0.0039970586
26	0xbb57665f	-0.0032867414
27	0x3a3204af	0.0006790859
28	0xbb88bf27	-0.0041731778
29	0xbaca5e97	-0.0015439567
30	0xbb979fc7	-0.0046272012
31	0xbb987f0e	-0.004653818
32	0xbb382d85	-0.0028103304
33	0x38b196e2	8.468122e-05
34	0x3988dcad	0.00026104358
35	0xba96768c	-0.0011479422
36	0xba89396d	-0.0010469385
37	0xbb7e29aa	-0.0038782158
38	0x38ab2f29	8.1627e-05
39	0x3ab145f5	0.0013524877
40	0x3b3c5510	0.0028737225
41	0xbb7bfb54	-0.0038449364
42	0x3b1a7d60	0.0023573264
43	0xba9f5484	-0.0012155925
44	0x3aabc764	0.0013105688
45	0x3b697f96	0.0035629026
46	0xbb48a06e	-0.0030613202
47	0xba858481	-0.0010186584
48	0x3a949e00	0.0011338592
49	0xb9b9b37a	-0.0003541967
50	0x3adeb534	0.0016991259
51	0x3b4a3fa4	0.0030860687
52	0x3989297f	0.00026161593
53	0xb9ffe7c5	-0.00048810072
54	0x3927dcea	0.00016008658
55	0x39ccc096	0.000390534
56	0xbaefa780	-0.0018284172
57	0xb7f1a934	-2.880823e-05
58	0xbb0b1978	-0.0021224897
59	0x3a5825cd	0.0008245379
60	0xba27efe4	-0.0006406291
61	0x3abb4a3f	0.0014289095
62	0x3aa4b957	0.0012567443
63	0xbb5f356c	-0.0034058942
64	0xb9c7dfe8	-0.0003812306
65	0xbba0f833	-0.0049124
66	0xbb3b0d51	-0.0028541873
67	0xba9e5577	-0.0012079914
68	0xbac83559	-0.0015274688
69	0xb98e3bc8	-0.0002712889
70	0xbab877d7	-0.0014073801
71	0xbb668abf	-0.0035177914
72	0x3a2dca08	0.0006629531
73	0x3b42cd40	0.002972439
74	0xbb0e20f4	-0.0021687122
75	0x395ee090	0.00021255226
76	0xbb12074e	-0.0022282186
77	0xba7cc103	-0.0009641798
78	0xbb2520f0	-0.0025196634
79	0xbad7503a	-0.0016427108
80	0x3b173664	0.002307319
81	0xbb0711d7	-0.0020609999
82	0xb91d5a6d	-0.00015006373
83	0x3a389f90	0.00070428196
84	0xb8dfb2ba	-0.00010666759
85	0xbaeab263	-0.0017905947
86	0x3b2a9210	0.0026027001
87	0x3b212004	0.0024585733
88	0x3a931f02	0.0011224451
89	0xbb693488	-0.003558429
90	0x3b21f712	0.0024713916
91	0x3908b046	0.00013035638
92	0x3b68a496	0.0035498491
93	0xbb265461	-0.0025379884
94	0xbb91e218	-0.0044520013
95	0x3aa979e6	0.0012930005
96	0x38f85326	0.00011841049
97	0x3af82d6a	0.0018934433
98	0xb98aa0f8	-0.00026441342
99	0x3b5cb17d	0.0033675127
100	0x3afa46b9	0.0019094563
101	0xba9c5e88	-0.0011930028
102	0x3b3c0b87	0.0028693394
103	0xbb6c3dbe	-0.0036047543
104	0x3af7a061	0.0018892401
105	0x3ae5705b	0.0017504798
106	0x3b0d2d01	0.0021541717
107	0x3b32566d	0.0027212158
108	0xba00d060	-0.0004913863
109	0x3b52e952	0.0032182527
110	0xba251660	-0.00062975846
111	0x3ad96569	0.0016586009
112	0xbb5a5cba	-0.003331943
113	0x3b01e116	0.0019818
114	0x3afe6bd0	0.0019410793
115	0x39b371d5	0.00034226352
116	0x3b414548	0.0029490758
117	0x3ac1bf91	0.0014781823
118	0xbb1ff0eb	-0.0024405073
119	0x3a508dd6	0.00079557055
120	0xba615f6c	-0.0008597288
121	0xbb7a567c	-0.0038198521
122	0xb98577e6	-0.00025457068
123	0xbb27e923	-0.0025621138
124	0xbb21a81d	-0.0024666854
125	0xbb591e25	-0.003312954
126	0x3b3a99c4	0.0028473
127	0xbac2e2a8	-0.0014868574

action_model._discrete_distribution.branches.0.weight f4 [3, 128]
0	0x3c4f5c4f	0.012656285
1	0xbae942b4	-0.0017796368
2	0x3b9ada69	0.0047257436
3	0xbb53daa3	-0.0032326363
4	0x3ba53118	0.005041253
5	0x3b9997b1	0.0046872725
6	0xba8342e9	-0.0010014448
7	0x3c495bf8	0.012289993
8	0xb9c49aa8	-0.0003749926
9	0xbbb6e230	-0.005581163
10	0xbc4d4ee5	-0.012531017
11	0xbb131740	-0.0022444278
12	0xbb1df9f6	-0.0024105287
13	0x3b429696	0.0029691807
14	0xbc851291	-0.016244205
15	0xbb8d17a7	-0.004305798
16	0x3b8dfe44	0.0043332893
17	0x3c2b0d9f	0.010440259
18	0x3994d1ed	0.00028385167
19	0xbba8890c	-0.0051432904
20	0xbc1fb618	-0.009748004
21	0xbba4df20	-0.0050314814
22	0xbc64d01d	-0.013965634
23	0xbbeeb700	-0.007284999
24	0xbbb53fce	-0.0055312878
25	0xbc0fe138	-0.008781724
26	0x3b298095	0.0025863994
27	0xbc3ebcad	-0.0116416635
28	0xba864510	-0.0010243971
29	0x3c9c438e	0.019075181
30	0xbb858cc1	-0.004075617
31	0xbbbdaeca	-0.0057886587
32	0x3a5c8365	0.00084119133
33	0xbb2480e7	-0.0025101246
34	0x39dcbc73	0.00042102076
35	0x3ab34e6d	0.0013679989
36	0xbba8d70d	-0.005152589
37	0x3c5e3bf8	0.013564102
38	0x3a23398f	0.00062265334
39	0xbb67fccf	-0.0035398488
40	0x3b801c52	0.003909626
41	0xbc3bc18a	-0.0114597175
42	0xbb828e94	-0.003984282
43	0xbc03227e	-0.008003829
44	0x3a617379	0.00086002756
45	0x3c42a0c1	0.011879147
46	0x3c36cb68	0.011156894
47	0xbc640d13	-0.013919133
48	0x3c564fa5	0.013080512
49	0x3cd9e9ef	0.026600806
50	0x3ad25a34	0.0016048611
51	0xbb1ac96f	-0.00236186
52	0xbbb6b89c	-0.0055762064
53	0xbbfbdea8	-0.007686455
54	0x3b51e6b3	0.0032028377
55	0x3ce02275	0.02736018
56	0x3c19eaa9	0.009394326
57	0xbc243129	-0.010021486
58	0x3a256468	0.0006309212
59	0xbc16aa9f	-0.009195953
60	0xbabb34f8	-0.0014282754
61	0xbadd7a16	-0.0016897346
62	0xba6bd0cb	-0.0008995651
63	0xba844f68	-0.0010094466
64	0xbc24220a	-0.010017881
65	0x3a486fd3	0.00076460576
66	0xbc31864e	-0.010835243
67	0xbbd87746	-0.0066060154
68	0xbc97e0cc	-0.018539809
69	0xbbf8443f	-0.007576495
70	0x3b5dec1f	0.0033862663
71	0xbbbb8362	-0.005722449
72	0xba16aeae	-0.0005748075
73	0xbaa382a7	-0.001247485
74	0xbbb30467	-0.0054631713
75	0xbca1d6f9	-0.019755827
76	0xbbad2bd8	-0.0052847676
77	0xbc86ac67	-0.01643963
78	0x3c38ddd7	0.0112833595
79	0x3c016e2e	0.007899804
80	0xbc37ca5a	-0.011217678
81	0xbc6d583a	-0.014486367
82	0xbc42bd3f	-0.01188594
83	0x3b8e91be	0.00435087
84	0xbc17a0b8	-0.009254627
85	0x3c2b3069	0.010448554
86	0xbc718970	-0.01474224
87	0x3b0a1caf	0.0021074226
88	0xbc161d22	-0.009162219
89	0x3c317822	0.010831865
90	0x3af7cccd	0.001890564
91	0x391b25be	0.00014796012
92	0x3bea7ce2	0.0071560005
93	0x3c24cc14	0.010058422
94	0xbbd0d356	-0.0063728495
95	0x3c0c4d6a	0.008563379
96	0x3c448b11	0.011996047
97	0xbb48cf68	-0.0030641202
98	0xbbc725ab	-0.0060774884
99	0xbbad92b2	-0.0052970285
100	0x39ad5151	0.00033057717
101	0x3c302f6c	0.010753494
102	0x3bac16be	0.0052517345
103	0xbbec0313	-0.007202515
104	0xbbb50aca	-0.005524968
105	0x3b982edb	0.0046442575
106	0x3bf80229	0.007568617
107	0x3c1aa35a	0.00943836
108	0x3aca0912	0.001541408
109	0x3c0bf4d3	0.008542257
110	0x3c27be3a	0.010238225
111	0xbbd97fd8	-0.0066375546
112	0xbaf4fbe3	-0.0018690791
113	0xbafb981e	-0.0019195115
114	0x3c66a788	0.0140780285
115	0x3c36dc17	0.011160872
116	0xbb1c4abb	-0.0023848254
117	0xbc60f3ef	-0.013730033
118	0xbc71dd72	-0.014762269
119	0xba90b015	-0.0011038805
120	0xbb89221d	-0.004184975
121	0xbc5f0759	-0.013612592
122	0xbb79db2b	-0.003812502
123	0x3a22b258	0.0006206385
124	0xbbb7ac17	-0.0056052315
125	0x3b6ab885	0.0035815549
126	0x3bb4a397	0.0055126655
127	0x3bdb1daa	0.006686886
128	0x3c2112eb	0.009831171
129	0xbb1fb659	-0.0024370162
130	0xbb0f2040	-0.002183929
131	0x3bd046fa	0.0063561173
132	0xbc4395f9	-0.011937612
133	0x3c528996	0.012850186
134	0x3c2e7656	0.010648331
135	0x3ae9ee05	0.0017847425
136	0x3c531ef2	0.012885796
137	0xbb9e8969	-0.004838158
138	0x3c132daf	0.00898306
139	0x3c613513	0.013745564
140	0xbbb37e6f	-0.0054777185
141	0xba8d8f65	-0.0010800181
142	0xbb7352d8	-0.0037128236
143	0xbb52d9c9	-0.0032173267
144	0xbc65b80b	-0.01402093
145	0xbb8cbe74	-0.0042951647
146	0x39294a93	0.00016144877
147	0xbc19d952	-0.009390192
148	0x3abf3ee3	0.0014590885
149	0xbc400a45	-0.011721198
150	0x3aa4d1f3	0.0012574777
151	0xbb2c1cfa	-0.0026262389
152	0xbc797ee1	-0.015228004
153	0xbc998f48	-0.01874508
154	0x3ba73c6f	0.00510364
155	0xbc21b8ea	-0.009870747
156	0x3bae6c18	0.0053229444
157	0x3a0c9014	0.00053620455
158	0xbade4b2c	-0.0016959659
159	0xbbdb1e16	-0.006686936
160	0xbb5bfbea	-0.00335669
161	0xbc007afc	-0.007841822
162	0x3b50c0c9	0.003185319
163	0x3c3ac6f1	0.01139997
164	0x3c0731cf	0.008251621
165	0xbb4a25cd	-0.0030845285
166	0xb9b477b9	-0.00034421476
167	0xbc9129ff	-0.01772022
168	0xbbd77e00	-0.0065762997
169	0x3beb36c1	0.007178158
170	0xba65e103	-0.0008769186
171	0xbc11aa0e	-0.008890642
172	0x3b7b8124	0.0038376534
173	0x3bcd9887	0.006274286
174	0x3ba1cf0c	0.004938012
175	0x3b29a245	0.0025884074
176	0xbb8cc30d	-0.004295713
177	0x3c721201	0.0147748
178	0x3b573c05	0.003284217
179	0xbae0e2ba	-0.0017157414
180	0xbc352aec	-0.011057597
181	0xbad5dd35	-0.0016316535
182	0xbb5ce5d4	-0.0033706324
183	0xbb47872d	-0.0030445561
184	0x3b4b1644	0.0030988613
185	0x3c490403	0.012269023
186	0xbbe27016	-0.0069103343
187	0x3c3988f9	0.011324161
188	0x3b0865a9	0.0020812547
189	0xbc988baa	-0.018621285
190	0xbb91d47f	-0.0044503803
191	0x3c6602e5	0.014038776
192	0xbb1d8c10	-0.0024039783
193	0x3c02b535	0.007977773
194	0x3b44396c	0.0029941453
195	0x3c02b438	0.007977538
196	0xbc5f135a	-0.013615454
197	0xbc6f3545	-0.014600103
198	0xbad345cb	-0.0016118822
199	0x3c801cc8	0.015638724
200	0xbb43b856	-0.0029864511
201	0xba35a268	-0.00069288025
202	0xbbdd3f5b	-0.0067519373
203	0xbb6b03f6	-0.0035860515
204	0x3c013a52	0.00788744
205	0xbc045818	-0.008077644
206	0xbc176002	-0.009239199
207	0x3b42acf9	0.002970515
208	0x3ba1e89c	0.0049410593
209	0xbc1e06c9	-0.009645172
210	0x3b6caeef	0.003611501
211	0x3b9eca30	0.00484588
212	0xbc654adf	-0.013994901
213	0x3bd1ee4a	0.00640658
214	0x3c54c2e0	0.012985915
215	0x3af06b4a	0.0018342522
216	0x3bd9263e	0.0066268733
217	0x3b388040	0.0028152615
218	0x3aa37944	0.0012472053
219	0x3a3e1184	0.0007250535
220	0xb9ae7f13	-0.00033282544
221	0x3b8e3193	0.004339406
222	0x3bb622b5	0.0055583366
223	0xb9afead8	-0.00033553573
224	0x3b038d54	0.0020073252
225	0x3c155d34	0.00911646
226	0x3aed08fd	0.0018084344
227	0xbc155b55	-0.009116014
228	0x3cf67c71	0.030088635
229	0x3bb474fc	0.0055071097
230	0xbad12aff	-0.0015958248
231	0xbbb81dcb	-0.005618786
232	0x3c2815f5	0.010259141
233	0x3c32efed	0.010921461
234	0x3c6cb0d4	0.014446456
235	0xbb055a24	-0.0020347917
236	0x3c2ff457	0.0107394075
237	0x3c53fc49	0.012938567
238	0xba6c0ba2	-0.0009004419
239	0x3b15a0b7	0.002283139
240	0x3c42c8c7	0.011888689
241	0x3bfab8e0	0.0076514333
242	0x3b320fdb	0.0027170095
243	0x3b876ae2	0.0041326145
244	0x36e570a0	6.837843e-06
245	0x3bbb293c	0.0057117026
246	0x3c66e75e	0.014093248
247	0xbbd2cb98	-0.0064329617
248	0xbb325e1f	-0.0027216745
249	0xba65507f	-0.00087476516
250	0xbbd9b71e	-0.0066441437
251	0x3c902d6b	0.017599782
252	0x3ba7d47e	0.0051217666
253	0xbbf2e713	-0.0074128
254	0xbb1fe711	-0.00243992
255	0xbc89734e	-0.016778614

action_model._discrete_distribution.branches.0.bias f4 [3]
0	0x3b328f2e	0.0027245986
1	0x39f9396a	0.00047535758
2	0xbae15c8a	-0.0017193716

action_model._discrete_distribution.branches.1.weight f4 [3, 128]
0	0xbbcfc962	-0.0063411454
1	0xbbcabd71	-0.006187134
2	0x3c19097e	0.009340642
3	0xbc30c948	-0.010790177
4	0xbae11658	-0.0017172797
5	0xbbca6f7d	-0.006177841
6	0xbb804a8a	-0.0039151357
7	0xbb7b96d7	-0.0038389468
8	0xba9548d1	-0.0011389499
9	0x3bfe9b81	0.0077700024
10	0xbc1d5375	-0.009602417
11	0xbb15b0a3	-0.002284088
12	0xbbff9d13	-0.007800707
13	0x3c4d69ba	0.012537414
14	0x3ade5b65	0.0016964494
15	0x3c57d6bb	0.013173754
16	0xbbabee79	-0.005246934
17	0xbc061c34	-0.008185435
18	0x3a140cbd	0.000564765
19	0xbbb95ddd	-0.0056569413
20	0xbc5611d0	-0.01306577
21	0x3b8e4a91	0.004342385
22	0xbb74420d	-0.0037270815
23	0xbc04b0ce	-0.008098794
24	0xbb74c6f1	-0.0037350024
25	0xbc9f9b1a	-0.019483138
26	0xbc3665c5	-0.011132662
27	0xbc1b8223	-0.009491476
28	0xba0b69a6	-0.0005318172
29	0xbba24951	-0.0049525877
30	0x3a7987f4	0.0009518855
31	0xbbd31c34	-0.006442571
32	0x3b1dfe04	0.0024107704
33	0x3c3c0370	0.011475429
34	0xbbdbca66	-0.0067074774
35	0xbcb8559b	-0.022501757
36	0xbbb2f8ef	-0.005461804
37	0x3b08d4c9	0.0020878783
38	0x3b44e5e4	0.0030044252
39	0x3bc2d046	0.0059452383
40	0x3c0df7da	0.008665049
41	0xbbbe538b	-0.005808299
42	0x3b9c26ee	0.004765383
43	0xbc1e16fa	-0.009649033
44	0x3c1019a6	0.008795178
45	0x3c35bb37	0.011091999
46	0xbb0dfcdc	-0.0021665609
47	0x3c9f2cf5	0.019430617
48	0x3a50d7d1	0.00079667295
49	0x3b826610	0.003979452
50	0xbb8df720	-0.004332438
51	0xbbb43e8a	-0.0055006193
52	0xbb721875	-0.0036940847
53	0x3bfd4efe	0.007730364
54	0xba44883f	-0.0007497109
55	0xbac7bdbb	-0.0015239039
56	0x3c2afd32	0.010436343
57	0xbb23685d	-0.0024934032
58	0xbb8034f0	-0.0039125606
59	0x3bfff35b	0.0078109927
60	0xba600641	-0.0008545854
61	0xb9cd7adf	-0.00039192193
62	0x3ba11599	0.0049159047
63	0xbc565416	-0.013081571
64	0xbbcbccf9	-0.006219503
65	0x3c1ebef9	0.009689086
66	0xbbab9156	-0.0052358313
67	0xbc03d8b7	-0.008047274
68	0xbb1b3d64	-0.0023687715
69	0xbbffc1b8	-0.0078050755
70	0x3b14a432	0.0022680876
71	0x3bdd9bb0	0.006762944
72	0xbab6a743	-0.0013935346
73	0xbbc9da70	-0.006160073
74	0x3b096067	0.0020962001
75	0x3c037366	0.008023119
76	0xbc983533	-0.018580055
77	0x3c4e7047	0.012600011
78	0x3b9b33b3	0.0047363876
79	0xbb730d8c	-0.0037086932
80	0x3bb51880	0.0055266023
81	0xbb836f27	-0.004011053
82	0x3c21733b	0.009854133
83	0xbad0049e	-0.0015870517
84	0xbb625b24	-0.0034539187
85	0xbbe87853	-0.007094422
86	0x3abb56e5	0.0014292864
87	0x3b3e172f	0.0029005518
88	0x3c54e69d	0.012994436
89	0xbb534097	-0.0032234543
90	0x3c46a3ba	0.012123996
91	0x3c106ce2	0.008815022
92	0x3c0b2316	0.008492252
93	0xbaf326d5	-0.0018551002
94	0xbbb3bc91	-0.0054851254
95	0xbc367d2c	-0.011138242
96	0x3bc3705f	0.0059643234
97	0xbbb21efc	-0.0054358225
98	0xbc653979	-0.013990753
99	0x3c60b410	0.013714805
100	0xbab23e47	-0.0013598882
101	0xbc31230d	-0.010811579
102	0x3c88a5a4	0.016680546
103	0xbbb0cbc0	-0.0053953826
104	0xbc1b5937	-0.00948172
105	0xbb93a62d	-0.0045058937
106	0x3afd0296	0.0019303139
107	0xbba3e6a1	-0.0050018583
108	0xbbe13ac6	-0.0068734614
109	0x3bcb041b	0.006195558
110	0x3bb1a201	0.0054209237
111	0x3b5c14e1	0.003358178
112	0xbce2d5e1	-0.027689876
113	0x3c514e22	0.012774976
114	0x3c54878c	0.01297177
115	0xbbc94ec0	-0.006143421
116	0xbc5526a8	-0.013009705
117	0xbb89b4d1	-0.004202463
118	0xbcb532e4	-0.022118993
119	0x3c3b3e5a	0.01142844
120	0x3992a73a	0.00027971884
121	0xbbb0d3cf	-0.0053963433
122	0xb9dcf6ee	-0.00042145647
123	0x3bde07ad	0.0067758174
124	0xbb574c6a	-0.0032851943
125	0xbbf8b21f	-0.007589593
126	0x3c310dac	0.010806482
127	0xbc0903fe	-0.008362768
128	0x3cd2259e	0.025652703
129	0xbb8790e8	-0.004137147
130	0xbc99d956	-0.018780392
131	0xbba106b8	-0.004914131
132	0xbc5cc2fa	-0.01347422
133	0x3b24ffb4	0.0025176825
134	0xbbc77f51	-0.0060881753
135	0xbc1499b2	-0.009069847
136	0x39cd5766	0.00039165764
137	0xbb29accd	-0.002589035
138	0xbb53587b	-0.0032248783
139	0x39b9947a	0.00035396573
140	0xbb9d0585	-0.0047919177
141	0x3a8e9fed	0.0010881402
142	0x3c035e70	0.008018121
143	0xbc381668	-0.011235811
144	0xbb834ce0	-0.004006967
145	0xbc86878f	-0.016422061
146	0xbc3871c2	-0.011257591
147	0xbc35258e	-0.011056317
148	0xbb26adda	-0.0025433213
149	0xbc3d3613	-0.011548537
150	0x3c28e202	0.010307791
151	0x3ca0f212	0.019646678
152	0xbc1002dd	-0.008789745
153	0xbc0190a7	-0.007908023
154	0x3b31540f	0.002705816
155	0x3ba87f84	0.005142154
156	0xbb44be9b	-0.0030020836
157	0x3c4f6367	0.012657977
158	0x3bcb766c	0.0062091853
159	0x3b9c3935	0.004767562
160	0xbbdb5f0f	-0.0066946815
161	0xbbc1d218	-0.0059149377
162	0xbc25b157	-0.010113082
163	0x3c1df710	0.009641424
164	0x3b9620f5	0.0045815655
165	0xbc8758ef	-0.016521899
166	0x3b9f2aec	0.0048574116
167	0x3c6473aa	0.013943592
168	0x3c0cee69	0.008601763
169	0x3bd3787a	0.006453571
170	0x3b978832	0.00462439
171	0xbc3e3ac7	-0.011610693
172	0xbc2eed5a	-0.010676706
173	0x3c35f90d	0.011106742
174	0x3a74619c	0.0009322406
175	0x3c99900d	0.018745447
176	0x3c308ee6	0.010776257
177	0xbc34894e	-0.011019064
178	0x3b8f15cd	0.0043666125
179	0x3b35987f	0.0027709303
180	0x38f39aa0	0.00011615944
181	0x3c6d8e92	0.014499323
182	0x3b1a7264	0.0023566717
183	0x3c240608	0.010011204
184	0xbb240c4a	-0.002503174
185	0xbab6a12c	-0.0013933531
186	0xbc19a98c	-0.009378802
187	0xbbe2a33e	-0.0069164326
188	0xbc0b8525	-0.008515631
189	0x3c20d23e	0.009815751
190	0x3b6c4e42	0.0036057387
191	0xbba128a4	-0.004918175
192	0xbcbf7bf0	-0.023374528
193	0x3c094de6	0.008380389
194	0xba4507f3	-0.0007516138
195	0x3bbb778c	0.005721038
196	0x3c44e68b	0.012017856
197	0xbb27c6de	-0.0025600712
198	0xbb56296c	-0.0032678498
199	0x3c484fd0	0.01222606
200	0x3c02e662	0.007989498
201	0xb9a780c6	-0.00031948666
202	0xb96f8e62	-0.00022845858
203	0x3b572542	0.0032828604
204	0xbb34d814	-0.0027594613
205	0xbb93d8fa	-0.0045119496
206	0x3ba82ac0	0.0051320493
207	0xbc6cf728	-0.0144632235
208	0xbbdea915	-0.0067950585
209	0xbc7a9cb2	-0.015296148
210	0xbb28a71c	-0.002573437
211	0xba6314d3	-0.0008662466
212	0x3c076173	0.00826298
213	0x3c8661be	0.016404029
214	0xbb2dbc7d	-0.0026510053
215	0xbc06da8b	-0.008230816
216	0xbc923db4	-0.017851688
217	0xb9a5bc8a	-0.00031611725
218	0x397b2f8f	0.00023954942
219	0xbb15528b	-0.0022784795
220	0x3b2983dd	0.002586595
221	0xbb5df72c	-0.003386925
222	0x3c0b83b3	0.008515286
223	0x3c87dc63	0.01658458
224	0xbbe6e868	-0.007046748
225	0xbb3b346e	-0.0028565186
226	0xbba72606	-0.0051009683
227	0xbb8f2318	-0.004368197
228	0xbb5ee7d9	-0.0034012704
229	0xbbb4d59a	-0.0055186274
230	0x3c3e7537	0.011624626
231	0x3c49e28a	0.0123220775
232	0x3a5ae001	0.0008349419
233	0x3b99cebd	0.0046938346
234	0xb98e5cf1	-0.00027153597
235	0x3b1b14cc	0.002366352
236	0x3c154655	0.009111007
237	0x3b1acc07	0.0023620145
238	0xbc618e95	-0.013766904
239	0xbb0574c8	-0.0020363797
240	0xbb2590ba	-0.0025263266
241	0x3c1fe61d	0.009759453
242	0x3c67a3dc	0.014138188
243	0xbc0dfe37	-0.008666567
244	0xbbadfd3d	-0.0053097294
245	0xbc24aa1c	-0.010050323
246	0xbc2feb09	-0.010737189
247	0x3a052ecb	0.000508052
248	0xbb066416	-0.0020506433
249	0xbbd721c1	-0.006565303
250	0xb9abef55	-0.00032793978
251	0x3b1176e0	0.00221961
252	0xbc1525c0	-0.009103239
253	0xbc7a0bb2	-0.015261577
254	0x3be79bc7	0.0070681307
255	0xba518fbf	-0.0007994137

action_model._discrete_distribution.branches.1.bias f4 [3]
0	0x3b4f2265	0.0031606194
1	0x39e63e83	0.00043915593
2	0xbb21b0a0	-0.0024671927

action_model._discrete_distribution.branches.2.weight f4 [2, 128]
0	0x3b4c4a5d	0.0031172254
1	0x3bf7eadc	0.007565839
2	0xbc3b8e21	-0.01144746
3	0x36b98ee4	5.5300643e-06
4	0x3ba8106d	0.005128911
5	0x3b6557f3	0.0034995049
6	0x3c15480e	0.009111417
7	0xbb39fd83	-0.0028379865
8	0xbc6a28bb	-0.014291937
9	0x3c30a1d4	0.01078077
10	0x3bede8c8	0.0072604157
11	0x3bc07ae4	0.0058740247
12	0xbab6efc7	-0.0013956957
13	0xbc4540cb	-0.012039374
14	0xbaeff66c	-0.0018307692
15	0xbc18038c	-0.009278189
16	0x3b8e54cf	0.004343606
17	0xbb9f9cc9	-0.004870985
18	0xbbb9256d	-0.0056502135
19	0x3ab15904	0.0013530557
20	0x3bb53833	0.005530381
21	0xbbf14a68	-0.0073636062
22	0xb8fdc73c	-0.000121010904
23	0xbbdff5c5	-0.006834718
24	0x3c01ac94	0.007914681
25	0x3b827a54	0.003981868
26	0x3caaec93	0.02086476
27	0xbc6e05c4	-0.014527742
28	0xbca67849	-0.020321028
29	0x3b7c3bbb	0.003848775
30	0xbbf1ab33	-0.007375145
31	0x3bf7873d	0.0075539635
32	0x3ae378f8	0.0017354777
33	0xbba943a7	-0.0051655355
34	0x3c123af5	0.008925189
35	0x3b262372	0.0025350717
36	0xbb6280c6	-0.0034561618
37	0x3b66342b	0.003512631
38	0x3c510b41	0.012759031
39	0x3b3c57a2	0.0028738757
40	0xbbb35107	-0.0054723057
41	0x3c86977c	0.016429655
42	0x3b4d9052	0.003136654
43	0xbc8d0d4c	-0.017218255
44	0xbcc091f4	-0.023507096
45	0x3c5a700d	0.013332379
46	0xbc50da86	-0.012747413
47	0x3afae95f	0.0019143036
48	0x3c17a2e1	0.009255142
49	0x3c0107d5	0.007875402
50	0xbb8bf72e	-0.0042714095
51	0xbbb282cc	-0.005447721
52	0x39762581	0.0002347436
53	0xbb95920e	-0.00456453
54	0x3b0de35e	0.0021650414
55	0x3b98eaba	0.0046666535
56	0x3bae5b4c	0.005320942
57	0xbbb49dad	-0.0055119605
58	0xb992ed9c	-0.00028024323
59	0x3a948e08	0.0011333833
60	0xbb3ac417	-0.0028498226
61	0x3c8893b7	0.016671998
62	0x3a8b1950	0.0010612402
63	0xbb51ceb8	-0.0032014083
64	0x3cb0ca2c	0.021580778
65	0x3c6d9692	0.014501231
66	0x3c402d29	0.011729517
67	0x3c20085d	0.009767619
68	0x3aaca644	0.001317211
69	0xbc045242	-0.008076252
70	0x3c1fb50e	0.009747757
71	0x3b0ba759	0.0021309464
72	0x3c31827b	0.010834332
73	0xbb096b37	-0.0020968446
74	0xbb8fb05e	-0.0043850383
75	0xbc0b7083	-0.008510712
76	0x3bbc14b5	0.005739773
77	0xbcbf2900	-0.02333498
78	0xbb782ed3	-0.0037869706
79	0x3cb3d0af	0.021950094
80	0x3b14a4c3	0.0022681213
81	0xbcaa5223	-0.020791119
82	0x3c8456df	0.016154705
83	0xbca4cb99	-0.020116614
84	0xbc099e5b	-0.008399571
85	0x3c8637a6	0.016383957
86	0xbad21679	-0.0016028426
87	0xbc231c76	-0.009955516
88	0x3c42d1ed	0.0118908705
89	0x380de106	3.382659e-05
90	0x3a966ab3	0.0011475891
91	0xbb562a2a	-0.003267894
92	0xbb7dd2c9	-0.0038730374
93	0xbb849c3a	-0.004046944
94	0xbb863dd7	-0.0040967274
95	0x3cac15c2	0.021006469
96	0x3bab2713	0.005223164
97	0xbb0564b7	-0.002035422
98	0xbc717a6d	-0.014738661
99	0xbc708b5f	-0.014681666
100	0x3c33f33c	0.010983285
101	0xbbcf8afb	-0.0063337064
102	0xbb905fb3	-0.0044059395
103	0x3bfe9beb	0.0077700517
104	0x3c57ae1a	0.013164068
105	0x3bdd7d91	0.0067593534
106	0x3c4ebeed	0.012618762
107	0x3b915c57	0.0044360566
108	0xbb92c241	-0.0044787233
109	0x3cb3382a	0.021877367
110	0xbb9dd2f5	-0.004816408
111	0x3c5064f8	0.012719385
112	0xbc0822e5	-0.008309101
113	0x3b72fb55	0.0037076075
114	0xbc26c663	-0.010179135
115	0xbbfe0d3e	-0.0077530434
116	0x3c098d63	0.008395526
117	0x37adcb6c	2.0717933e-05
118	0xbb867b79	-0.0041040746
119	0xbc394bbc	-0.01130956
120	0x3bc34390	0.005958982
121	0xbb54ed81	-0.0032490196
122	0xba7e2c8f	-0.0009695971
123	0x3c03396c	0.008009296
124	0x3bb5be41	0.0055463617
125	0x3bbb747c	0.005720673
126	0xbb40381c	-0.0029330319
127	0xbb346b65	-0.0027529832
128	0x3bab592e	0.005229137
129	0xbc24c351	-0.010056333
130	0x3c04296f	0.008066519
131	0x3c47d51c	0.012196805
132	0xbb692b72	-0.0035578874
133	0x3b263af0	0.002536472
134	0xbb623450	-0.0034516044
135	0x3bd06578	0.0063597523
136	0x3ad6bc9c	0.0016383114
137	0xbb80f910	-0.0039359406
138	0x3c56b877	0.013105503
139	0x3c628853	0.013826448
140	0xbbe303fb	-0.0069279647
141	0xbb8a9679	-0.0042293635
142	0x3b526105	0.0032101285
143	0xbb3e3ccf	-0.0029027944
144	0x3a9937b4	0.0011689574
145	0x3c5c13f7	0.013432494
146	0x39dd5312	0.00042214297
147	0xbcadfdea	-0.02123924
148	0x3bf0b0d3	0.007345298
149	0x3a0b041d	0.0005303042
150	0xbbca5bee	-0.0061755097
151	0x3bb8d3f9	0.0056405035
152	0xbb01fe41	-0.0019835385
153	0x3c454692	0.012040751
154	0x3bbd1e8a	0.005771463
155	0xbbf32837	-0.0074205655
156	0xbb9f3248	-0.004858289
157	0x3c1c02d4	0.009522159
158	0x3b8eaddd	0.004354222
159	0xbbcdf520	-0.0062853247
160	0x3b752bbf	0.0037410108
161	0x3c2be8b0	0.010492489
162	0xbc375cf1	-0.011191593
163	0x3c2c859b	0.010529901
164	0x3bed59b9	0.007243362
165	0xba260d85	-0.0006334412
166	0xbbf23f75	-0.0073928186
167	0x3ce1436a	0.027497966
168	0xbb105230	-0.0022021644
169	0x3b05e084	0.0020428011
170	0x3b1d4f29	0.0024003482
171	0x3ba1da0b	0.004939323
172	0xbc6ccfaa	-0.014453808
173	0x3c213128	0.00983838
174	0xbc854090	-0.016266137
175	0x3adb5b60	0.0016735606
176	0xbb09cbf0	-0.0021026097
177	0x3b08652c	0.0020812256
178	0xbc50e74a	-0.012750456
179	0xb960f642	-0.00021454043
180	0x3c3ed8dd	0.011648384
181	0x3bc8445b	0.006111664
182	0xbb90980d	-0.004412657
183	0xbb892fff	-0.00418663
184	0xbbf29956	-0.007403533
185	0xbbdb220e	-0.0066874092
186	0xbbf89088	-0.007585589
187	0x3bb47bf7	0.005507942
188	0xbba06ed3	-0.004896024
189	0x3c052384	0.008126143
190	0xb986b545	-0.00025693528
191	0xbb5838fc	-0.003299295
192	0xbc418451	-0.011811332
193	0xbb84d4ce	-0.0040536886
194	0x3ad9c17a	0.0016613447
195	0xb9e42752	-0.00043516845
196	0xbacfab84	-0.0015843962
197	0x3c559fab	0.013038556
198	0xba3de54d	-0.00072439463
199	0xb99152c2	-0.00027718215
200	0xbb45666e	-0.0030120867
201	0x3bbc9a49	0.005755697
202	0xba7f34ae	-0.0009735328
203	0x3adfc54b	0.0017072348
204	0xbac7705f	-0.0015215984
205	0x3bd685ca	0.0065467106
206	0xbc218480	-0.009858251
207	0x3bc74f5f	0.00608246
208	0x3c566f5f	0.013088076
209	0x3c4784bb	0.0121776415
210	0xbc178ac0	-0.009249389
211	0x399bf963	0.0002974971
212	0xbab66513	-0.001391562
213	0x3b8a1dac	0.004214963
214	0xbc1dca80	-0.009630799
215	0xb92e8246	-0.00016642464
216	0xbbea7ddc	-0.007156117
217	0x3b1c666b	0.0023864757
218	0xbbbd2c8f	-0.005773134
219	0x3b7cc529	0.0038569665
220	0xbc6b5ee6	-0.014365887
221	0xbac17661	-0.0014760011
222	0x3b316c68	0.0027072672
223	0x3c113242	0.00886208
224	0xba272062	-0.000637537
225	0xbc32e16d	-0.0109180035
226	0x3c85feb3	0.016356802
227	0x3c3d3973	0.0115493415
228	0xbc400230	-0.011719272
229	0xbbf38291	-0.007431336
230	0x39e915e1	0.00044457524
231	0xbcd0e163	-0.025498098
232	0xbb8564ff	-0.0040708776
233	0xbbe14faa	-0.006875952
234	0x3c17aa25	0.009256874
235	0x3baf4306	0.005348566
236	0xbb9ea4f1	-0.00484144
237	0x3c0a41f7	0.008438579
238	0x3b1df03c	0.002409949
239	0x3ab9dbaa	0.0014179845
240	0xbada7898	-0.001666802
241	0x3c2120b2	0.009834455
242	0xba831898	-0.0010001836
243	0x3c1f8b30	0.009737775
244	0xbc08447d	-0.00831711
245	0xbc442507	-0.011971719
246	0x3aa50a16	0.0012591507
247	0x3bcb70a2	0.0062084952
248	0x3950c1cb	0.0001990862
249	0x3b82883f	0.003983527
250	0xbbbd2417	-0.0057721245
251	0xba0b4826	-0.000531318
252	0x3c1bdbb6	0.009512832
253	0x3a37bbfd	0.00070089084
254	0xbc28c3bd	-0.010300574
255	0xbb1c9892	-0.002389465

action_model._discrete_distribution.branches.2.bias f4 [2]
0	0xb9525af3	-0.00020061042
1	0x39525af2	0.0002006104

exp_avg f4 [128, 4]
0	0xb6f1389f	-7.1889513e-06
1	0xb6c14b14	-5.7605885e-06
2	0x365cfb98	3.2929001e-06
3	0x374cc569	1.2205311e-05
4	0xb88462b0	-6.3126325e-05
5	0xb85543fe	-5.084648e-05
6	0x38014b36	3.0826042e-05
7	0x361532f3	2.2232387e-06
8	0x37097e52	8.195248e-06
9	0xb6abd946	-5.121491e-06
10	0xb48b34ad	-2.5929094e-07
11	0xb6ceb59f	-6.160422e-06
12	0xb86ab47b	-5.5958033e-05
13	0x38d4f47f	0.00010154489
14	0xb8dfc415	-0.00010669992
15	0xb7fbfec4	-3.0040166e-05
16	0x36b6d615	5.448945e-06
17	0x378c83a6	1.6750604e-05
18	0xb72523aa	-9.84307e-06
19	0x375ea4d5	1.3270609e-05
20	0xb7a4eef7	-1.96616e-05
21	0xb7ae423c	-2.077326e-05
22	0x3649d145	3.0073145e-06
23	0xb7db780e	-2.616274e-05
24	0xb74378a5	-1.16509955e-05
25	0x37a58609	1.9731948e-05
26	0xb84fdb6e	-4.9557006e-05
27	0xb7d86144	-2.57945e-05
28	0xb5885212	-1.0156675e-06
29	0x348be9a8	2.6060775e-07
30	0xb68dc7ce	-4.225388e-06
31	0xb5d0703c	-1.5529872e-06
32	0x370d819d	8.434433e-06
33	0x37058969	7.959411e-06
34	0xb6bc5535	-5.612756e-06
35	0xb683ba7a	-3.925813e-06
36	0xb68c9a3c	-4.1902804e-06
37	0x37228b72	9.68842e-06
38	0xb784df74	-1.583968e-05
39	0xb6b25936	-5.315199e-06
40	0x381d5706	3.7512764e-05
41	0x3613241a	2.192572e-06
42	0x375a77d2	1.302171e-05
43	0xb71897b2	-9.095225e-06
44	0x37005164	7.648345e-06
45	0x374d221c	1.2226894e-05
46	0x34b881a8	3.4367008e-07
47	0x36f5a21b	7.3204405e-06
48	0xb7a06064	-1.9118372e-05
49	0xb7dd4b08	-2.6380192e-05
50	0x37a1e2d4	1.929832e-05
51	0x3824d7ae	3.9301514e-05
52	0x36969710	4.4879343e-06
53	0x3836e57c	4.3605905e-05
54	0xb830a74d	-4.211748e-05
55	0xb69356fe	-4.3910686e-06
56	0x35cc96b4	1.5243045e-06
57	0xb6745614	-3.6408937e-06
58	0x3684b2f8	3.9547413e-06
59	0x33f3c460	1.135129e-07
60	0x34ce096d	3.8377348e-07
61	0xb591e820	-1.0870899e-06
62	0x35e5dfec	1.7126999e-06
63	0x35849376	9.877683e-07
64	0xb5164368	-5.5977443e-07
65	0xb542da40	-7.258823e-07
66	0xb6646de9	-3.4038624e-06
67	0x35bbbfe6	1.3988436e-06
68	0x3622f2fc	2.4281317e-06
69	0x390fef54	0.000137267
70	0xb8b3bcd8	-8.57056e-05
71	0xb7afbe5e	-2.0950272e-05
72	0x386eec74	5.6963836e-05
73	0x38c404e0	9.346916e-05
74	0x37c2e17c	2.3231602e-05
75	0x3846251a	4.7241432e-05
76	0x363255a8	2.6573925e-06
77	0x36d02494	6.2031413e-06
78	0x37179e4c	9.037158e-06
79	0xb76f0784	-1.424726e-05
80	0xb765bd88	-1.3693592e-05
81	0xb83cf712	-4.5052795e-05
82	0x373a93ce	1.1120877e-05
83	0xb7ac84d2	-2.0565847e-05
84	0xb722217c	-9.663749e-06
85	0x385bc44f	5.2396495e-05
86	0xb8831059	-6.249612e-05
87	0xb81103d4	-3.457426e-05
88	0x37071bf4	8.053135e-06
89	0xb848a0f2	-4.7833608e-05
90	0x37cd791c	2.44943e-05
91	0xb719e0c2	-9.171841e-06
92	0x37924693	1.743742e-05
93	0x37e292d1	2.7009666e-05
94	0xb6dc5997	-6.5669406e-06
95	0xb75ab6a8	-1.30363405e-05
96	0xb6858d26	-3.9801407e-06
97	0x362517f4	2.4600859e-06
98	0xb694c599	-4.433747e-06
99	0xb5e32492	-1.6923461e-06
100	0xb6a3de68	-4.88367e-06
101	0xb8578f3e	-5.13934e-05
102	0x38132fac	3.509193e-05
103	0x385cd1aa	5.2647352e-05
104	0xb67403d0	-3.6361052e-06
105	0x33c94900	9.3730705e-08
106	0xb72bad78	-1.0232783e-05
107	0xb7686374	-1.3851433e-05
108	0x371a38e3	9.19236e-06
109	0x388657db	6.405982e-05
110	0xb81acfbe	-3.6909936e-05
111	0x3808694e	3.2523e-05
112	0xb83299a6	-4.2581603e-05
113	0xb87d8db6	-6.045188e-05
114	0x37da2a6e	2.6007383e-05
115	0x37099918	8.201481e-06
116	0x375b6dde	1.3078998e-05
117	0xb68ca485	-4.1914777e-06
118	0x374f0dfa	1.2341416e-05
119	0x36d65c25	6.388424e-06
120	0xb7484d36	-1.1938906e-05
121	0xb65b547e	-3.2682724e-06
122	0xb4c9e050	-3.7602376e-07
123	0xb6f50d48	-7.303115e-06
124	0x35331040	6.6706343e-07
125	0x3596d93c	1.1239094e-06
126	0xb6830a50	-3.9053048e-06
127	0xb612cf55	-2.1876378e-06
128	0x3801d289	3.0952073e-05
129	0x383bc81c	4.477064e-05
130	0x3835633b	4.324618e-05
131	0x37f6f032	2.9437335e-05
132	0x36b8309b	5.4892857e-06
133	0xb69a6c6e	-4.6021805e-06
134	0xb701f59c	-7.746185e-06
135	0x376a44c4	1.3963498e-05
136	0xb7ae9df2	-2.0815965e-05
137	0xb8ab991b	-8.1824335e-05
138	0x38412c9f	4.6056342e-05
139	0x3782e884	1.5605481e-05
140	0xb6632c78	-3.385152e-06
141	0x378a8ec4	1.6517362e-05
142	0xb5f9a21c	-1.8599126e-06
143	0x37611ab8	1.3417266e-05
144	0x364c6266	3.0455644e-06
145	0x37747d06	1.4572643e-05
146	0xb729eb3c	-1.0127955e-05
147	0xb6aa30fd	-5.072098e-06
148	0xb6e2a7a3	-6.7548403e-06
149	0x37760f69	1.4666331e-05
150	0xb73286c0	-1.0641001e-05
151	0xb796ec1b	-1.7991339e-05
152	0x37dd1c12	2.6358324e-05
153	0x3868eac6	5.553176e-05
154	0x377f3f13	1.521387e-05
155	0x36b38a5f	5.350724e-06
156	0x373a8431	1.1117242e-05
157	0x37b4270a	2.1475851e-05
158	0x365b5336	3.2681978e-06
159	0x36c14514	5.75989e-06
160	0x3880186c	6.1080646e-05
161	0x36b3568e	5.344692e-06
162	0x37a0cc26	1.916855e-05
163	0x36715a78	3.5964458e-06
164	0xb7b52834	-2.1595602e-05
165	0xb78e591b	-1.6969212e-05
166	0x37080052	8.106306e-06
167	0x36a308a0	4.8587826e-06
168	0xb892aaa9	-6.9936104e-05
169	0x37b0639c	2.102722e-05
170	0xb8a4b0f2	-7.853088e-05
171	0x37275324	9.973333e-06
172	0xb8b929b0	-8.829252e-05
173	0xb88e9bda	-6.800117e-05
174	0xb83e17f4	-4.5321838e-05
175	0xb8715445	-5.753736e-05
176	0xb52fbb28	-6.546493e-07
177	0xb6231355	-2.4300145e-06
178	0x33cd2572	9.552868e-08
179	0xb606fb30	-2.0113766e-06
180	0x370d236b	8.412501e-06
181	0xb7b57330	-2.163052e-05
182	0x37a49a3e	1.9622148e-05
183	0xb62959ce	-2.5235236e-06
184	0xb691f66e	-4.350025e-06
185	0xb6b0065e	-5.24595e-06
186	0xb7fd1c57	-3.0173147e-05
187	0xb7c450e6	-2.3402692e-05
188	0x3698353c	4.5361503e-06
189	0x375ad36e	1.304304e-05
190	0xb6f43ab7	-7.278602e-06
191	0xb657ff79	-3.2186201e-06
192	0xb799ac5d	-1.8319284e-05
193	0xb8daa989	-0.000104266284
194	0x384d4f14	4.8949456e-05
195	0xb7fced7f	-3.0151334e-05
196	0x37fab6ae	2.988739e-05
197	0xb74b5420	-1.211933e-05
198	0xb7afd698	-2.0961554e-05
199	0xb7955bc4	-1.7804916e-05
200	0xb83c9872	-4.496467e-05
201	0xb8d56bb7	-0.00010176695
202	0x383c3e1e	4.4880544e-05
203	0x37a641f3	1.9819452e-05
204	0x3694a1ed	4.4295944e-06
205	0x36f63844	7.3379215e-06
206	0x35a6a999	1.2417323e-06
207	0xb5b176e9	-1.3222135e-06
208	0x37d77276	2.5683297e-05
209	0x390fffda	0.00013732855
210	0xb8b4a160	-8.613127e-05
211	0x36f568f0	7.3137853e-06
212	0x3780b75c	1.5344172e-05
213	0x37146106	8.8440775e-06
214	0xb6acde82	-5.1519028e-06
215	0xb6d154ee	-6.2385725e-06
216	0x371fd9ae	9.527821e-06
217	0x37fb5236	2.9959814e-05
218	0xb796e9d2	-1.7990275e-05
219	0x369a7244	4.60286e-06
220	0xb6c86532	-5.972245e-06
221	0x37227192	9.682395e-06
222	0xb6b260ad	-5.316068e-06
223	0xb6b3d442	-5.3593258e-06
224	0x3681e2c2	3.8708977e-06
225	0x3773a797	1.4522949e-05
226	0xb797f1ee	-1.811326e-05
227	0xb70e7acd	-8.492451e-06
228	0xb7477537	-1.18886155e-05
229	0xb85cdad9	-5.2655905e-05
230	0x3837e593	4.3844408e-05
231	0x3766348f	1.3721306e-05
232	0xb82a1b2a	-4.0556457e-05
233	0xb91693c8	-0.00014360168
234	0x389b24c8	7.397827e-05
235	0x372eb626	1.0413618e-05
236	0xb82aaac7	-4.0690207e-05
237	0xb86367f6	-5.421784e-05
238	0x37e3b29a	2.7143677e-05
239	0xb6e519c4	-6.8277313e-06
240	0x37d47d09	2.5330593e-05
241	0x3983692f	0.00025064635
242	0xb92e8d5c	-0.00016646594
243	0xb729d214	-1.0122098e-05
244	0x377f0a6e	1.5201613e-05
245	0xb7217c5e	-9.625304e-06
246	0x37248adf	9.807495e-06
247	0xb78ae384	-1.6556827e-05
248	0x37982efa	1.8141687e-05
249	0x365c371e	3.2814637e-06
250	0x349bc110	2.901147e-07
251	0x36aaa02e	5.085042e-06
252	0x379e7107	1.88877e-05
253	0x373e5020	1.1343538e-05
254	0xb6dcee5d	-6.58426e-06
255	0xb732f0b4	-1.066567e-05
