Assets/ML-Agents/results/test4/CatchTheMouse/CatchTheMouse-1388.pt (torch, 151930 bytes, 16 tensors)

discrete_act_size_vector f4 [1, 3]
00000000: 0000 4040 0000 4040 0000 0040
3.0 3.0 2.0

network_body._body_endoder.seq_layers.0.weight f4 [128, 4]
00000000: 8f63 8cbe 5171 063e 8e61 62be a342 9c3e
00000010: 0971 893d d641 ef3e 75dc acbe c6fb 233f
00000020: aa58 433f 09f6 bcbe d764 a6be 964c 9c3e
00000030: 6814 e73e bf0f a13d 85bb 06bf a728 95bd
00000040: eb38 793f eadf 8a3c 098b 15be 1121 3e3e
00000050: 3e89 913e 0db3 0c3c e6e6 a13e 7200 323d
00000060: 44aa 3b3d c5d8 533f f185 d1be c6e4 bc3e
00000070: 26cc a2bd 3027 233d 7262 5e3e 63cf 133e
00000080: ec59 1f3d a98d 5fbe 400c 70bf c1cd 863f
00000090: 1298 043e 23b4 bbbd 6f7c 393e df31 49be
000000a0: 331b ba3d a77d b0bd 29fc c1be 4549 043f
000000b0: e2ce 5b3e 6b4f 813e 27da 453f a59d 303f
000000c0: ab7f 86bf 8835 e2bd a905 29be a111 7cbe
000000d0: b39e 92bf 1b82 abbe 618c d23e a034 273f
000000e0: f3b7 c6be ae0d 843e a849 8fbe 8eb6 99be
000000f0: aa14 ee3e 421b d8bd 8e9d 86be 4a6d cc3e
00000100: ec5d 83be f9c1 113e 2349 813f 50d4 5e3d
00000110: 452c 10bf f207 06bf bb15 433d 7647 34be
00000120: e60a 013e 11e2 bd3e 2a65 043e 60df bd3e
00000130: d0b6 bb3e 3438 ccbe f930 2a3f a896 ca3e
00000140: 56f4 68bf 4afa f33d 1eb3 3fbf 027f c23e
00000150: b99e 053f 3523 a1be cb46 22bf 8b1e 343e
00000160: 4ca9 ccbe 7ced 20bf 53b4 6c3c 8659 40be
00000170: 4826 f7be 83f9 04be e253 693e 2e8b 643e
00000180: b75d 923e 5520 67be 16ff a8bd 2139 0ebe
00000190: 705e 28bf 6b01 8dbc 41af 0fbf bc17 11bb
000001a0: 2256 ac3a d06c ad3e 9463 1dbf 1b5b cc3e
000001b0: 9a20 aa3e 9100 1fbe 882c 173f 1585 163f
000001c0: 98a8 953f fb6a 3c3e 6bb7 203d 54ad 463f
000001d0: 85fd c8be 2c25 01bf c377 363d 29c8 333e
000001e0: d0d1 d23e 0d49 343e 17a1 413f 7800 013f
000001f0: 8989 42be 5a13 df3e 0cb5 3bbf 01ad a1bd
00000200: 9457 563e 89f1 b13e 9e87 9ebc fda4 57bd
00000210: 268d 68bf cde5 29be 9e52 09bf dbf8 0d3f
00000220: 1ce4 0a3e 37b3 103f 953f 643f 0c9e f5be
00000230: fff1 a5be b8d3 773f aad3 88bd 3499 67bf
00000240: d084 293e 743e 26bf fa4e f3bd e32a 41bf
00000250: c7b9 8dbd 5239 8cbf e888 9b3d 493f c73d
00000260: 8d3f 91be bf0e 58be dacc 15bd b66b b33e
00000270: 7a4a 8d3e 8a99 e73e d4db ec3e f666 333f
00000280: 2695 8f3e 7fda eb3e e49a 81bd c38a aebe
00000290: b821 f63b f9a8 46be 43cc 5abe 8bf9 843e
000002a0: 14b8 e33e d734 143f bde3 963e 1e4e b43e
000002b0: b6df 40be 70e4 a83e 7703 3abe 8cdd 69bf
000002c0: c206 f1be ef79 e43e 13cb c03e 3db6 40be
000002d0: 5dee cbbe 25bc cdbd a934 64bf dc19 a6be
000002e0: d0ef 4a3e 4b9f cbbd 19b4 14be 103a febe
000002f0: ce5e 9a3f 95aa 5d3e 78c3 133f 392d 56be
00000300: 2f90 513f 0f31 20bf 075c febe cfff 753e
00000310: 9183 d53e 427f 4d3f 5238 6b3f fd3d c6bd
00000320: 2bc8 073f 5a00 053f 7e7d fdbe 5e30 b7be
00000330: f3c3 37bf ef78 3e3f 9543 dbbd a702 a3bf
00000340: 3aa6 dbbe 5e96 cb3e d199 bb3e c772 3dbd
00000350: a0c0 773f 4967 053f 9976 4c3f 4b00 44be
00000360: abbd 893e 5099 c93e a94e c5bd 7dd9 1fbf
00000370: 11b6 66be 2952 453f d3b2 4f3f 8e94 d2bd
00000380: 25f2 163f 59f9 403f 9c5d 26bf 8857 03be
00000390: 04cc e7be 9be4 64bd 70a8 ba3e 6fee a33e
000003a0: 05f7 0a3f c4ec 00bd 64c5 9a3d e7d9 013f
000003b0: a78e af3e 3b88 fd3d 80e9 10be 78f1 523f
000003c0: 810c e0be e725 0e3e 6fcb 1d3f 8329 a3be
000003d0: cc6e 873e 80b3 193f 0eb9 16be 4edd 7abe
000003e0: 9032 883c a145 e23e c811 123e 0534 2f3d
000003f0: 27d4 fbbd 0161 38be b9a9 283f 14fa 553e
-0.27419707 0.13129164 -0.22107527 0.3051959 0.06711013 0.46729916 -0.33761945 0.6405605
0.76307166 -0.3690646 -0.3249881 0.3052718 0.45132756 0.078643315 -0.5262988 -0.072831444
0.97352475 0.016952474 -0.14603819 0.18567301 0.2842502 0.008587611 0.31621474 0.043457456
0.045816675 0.8275264 -0.40922502 0.3689329 -0.079490945 0.039832294 0.21717241 0.1443458
0.038904116 -0.21831383 -0.9376869 1.0531541 0.12948635 -0.09165218 0.18113874 -0.1964793
0.09087219 -0.08617716 -0.37887695 0.516743 0.21465638 0.25255904 0.77286 0.68990546
-1.0507711 -0.110453665 -0.16506065 -0.246161 -1.1454681 -0.334977 0.41122726 0.65314674
-0.38812217 0.25791687 -0.27985883 -0.3002209 0.4650014 -0.10552074 -0.2629208 0.3992713
-0.25657594 0.14234151 1.0100445 0.054401696 -0.5631755 -0.52355874 0.047628146 -0.17605385
0.12601814 0.37086537 0.12929216 0.37084484 0.36662912 -0.3988663 0.66480976 0.39568067
-0.9099783 0.11912973 -0.74882686 0.37987524 0.52195317 -0.31472173 -0.6338927 0.17589776
-0.39972913 -0.6286237 0.0144472895 -0.1878415 -0.48271394 -0.12985806 0.22785905 0.22318718
0.28587124 -0.22570927 -0.08251779 -0.1388898 -0.657691 -0.01721259 -0.5612679 -0.002213939
0.0013148228 0.3387208 -0.6148007 0.39913258 0.33227998 -0.1552756 0.59052324 0.5879682
1.1692076 0.18400185 0.03923742 0.7760823 -0.3925592 -0.50447345 0.044547807 0.17556824
0.411757 0.17605992 0.7563643 0.5039134 -0.18997778 0.43569452 -0.7332313 -0.07894326
0.20931846 0.3475459 -0.019351777 -0.05264758 -0.90840375 -0.16591568 -0.5364169 0.5545785
0.1356358 0.5652346 0.8915952 -0.47972143 -0.3241119 0.9680743 -0.06680997 -0.90468144
0.1655457 -0.64939046 -0.11880298 -0.75456065 -0.069202 -1.0954993 0.07594472 0.097288676
-0.28368798 -0.21099375 -0.036572315 0.35043114 0.27595884 0.45234329 0.46261466 0.7007898
0.2804348 0.46065137 -0.06328371 -0.34090242 0.007511344 -0.19400395 -0.21366982 0.25971636
0.44476378 0.5789313 0.29470626 0.3521585 -0.18835339 0.32986784 -0.18165384 -0.9135368
-0.47075468 0.44624278 0.37654933 -0.18819518 -0.39830294 -0.10045651 -0.89142853 -0.32441604
0.19818044 -0.09942492 -0.14521827 -0.49653673 1.2060182 0.21647103 0.57720137 -0.20915689
0.8186063 -0.6257486 -0.49679586 0.24023364 0.4170194 0.80272305 0.9188281 -0.09679792
0.5303981 0.5195366 -0.49509805 -0.3577909 -0.7178337 0.7440328 -0.107062496 -1.2735184
-0.42900258 0.3976316 0.3664079 -0.04625204 0.967783 0.52110726 0.79868466 -0.19140737
0.26902518 0.3937478 -0.09634144 -0.62441236 -0.2253039 0.7707849 0.8113224 -0.10282241
0.58963233 0.75380474 -0.64986587 -0.1282636 -0.4527284 -0.055882078 0.36456633 0.32017848
0.5428317 -0.031475797 0.075571805 0.5072312 0.34288523 0.123794995 -0.14151573 0.823997
-0.4375954 0.13881646 0.6163854 -0.31867608 0.2645172 0.6003952 -0.1471903 -0.24498484
0.016625673 0.44193748 0.14264596 0.04277422 -0.12296324 -0.18005754 0.65883976 0.20896178

network_body._body_endoder.seq_layers.0.bias f4 [128]
00000000: 0000 0000 0000 0000 0000 0000 0000 0000
00000010: 0000 0000 0000 0000 0000 0000 0000 0000
00000020: 0000 0000 0000 0000 0000 0000 0000 0000
00000030: 0000 0000 0000 0000 0000 0000 0000 0000
00000040: 0000 0000 0000 0000 0000 0000 0000 0000
00000050: 0000 0000 0000 0000 0000 0000 0000 0000
00000060: 0000 0000 0000 0000 0000 0000 0000 0000
00000070: 0000 0000 0000 0000 0000 0000 0000 0000
00000080: 0000 0000 0000 0000 0000 0000 0000 0000
00000090: 0000 0000 0000 0000 0000 0000 0000 0000
000000a0: 0000 0000 0000 0000 0000 0000 0000 0000
000000b0: 0000 0000 0000 0000 0000 0000 0000 0000
000000c0: 0000 0000 0000 0000 0000 0000 0000 0000
000000d0: 0000 0000 0000 0000 0000 0000 0000 0000
000000e0: 0000 0000 0000 0000 0000 0000 0000 0000
000000f0: 0000 0000 0000 0000 0000 0000 0000 0000
00000100: 0000 0000 0000 0000 0000 0000 0000 0000
00000110: 0000 0000 0000 0000 0000 0000 0000 0000
00000120: 0000 0000 0000 0000 0000 0000 0000 0000
00000130: 0000 0000 0000 0000 0000 0000 0000 0000
00000140: 0000 0000 0000 0000 0000 0000 0000 0000
00000150: 0000 0000 0000 0000 0000 0000 0000 0000
00000160: 0000 0000 0000 0000 0000 0000 0000 0000
00000170: 0000 0000 0000 0000 0000 0000 0000 0000
00000180: 0000 0000 0000 0000 0000 0000 0000 0000
00000190: 0000 0000 0000 0000 0000 0000 0000 0000
000001a0: 0000 0000 0000 0000 0000 0000 0000 0000
000001b0: 0000 0000 0000 0000 0000 0000 0000 0000
000001c0: 0000 0000 0000 0000 0000 0000 0000 0000
000001d0: 0000 0000 0000 0000 0000 0000 0000 0000
000001e0: 0000 0000 0000 0000 0000 0000 0000 0000
000001f0: 0000 0000 0000 0000 0000 0000 0000 0000
0.0 0.0 0.0 0.0 0.0 0.0 0.0 0.0
0.0 0.0 0.0 0.0 0.0 0.0 0.0 0.0
0.0 0.0 0.0 0.0 0.0 0.0 0.0 0.0
0.0 0.0 0.0 0.0 0.0 0.0 0.0 0.0
0.0 0.0 0.0 0.0 0.0 0.0 0.0 0.0
0.0 0.0 0.0 0.0 0.0 0.0 0.0 0.0
0.0 0.0 0.0 0.0 0.0 0.0 0.0 0.0
0.0 0.0 0.0 0.0 0.0 0.0 0.0 0.0
0.0 0.0 0.0 0.0 0.0 0.0 0.0 0.0
0.0 0.0 0.0 0.0 0.0 0.0 0.0 0.0
0.0 0.0 0.0 0.0 0.0 0.0 0.0 0.0
0.0 0.0 0.0 0.0 0.0 0.0 0.0 0.0
0.0 0.0 0.0 0.0 0.0 0.0 0.0 0.0
0.0 0.0 0.0 0.0 0.0 0.0 0.0 0.0
0.0 0.0 0.0 0.0 0.0 0.0 0.0 0.0
0.0 0.0 0.0 0.0 0.0 0.0 0.0 0.0

network_body._body_endoder.seq_layers.2.weight f4 [128, 128]
00000000: 3f66 b1bd 043b e33c ff27 293c b427 60bc
00000010: 44b3 113c c11f 983b 0494 46bd 0b22 a53d
00000020: 0adb 52bc 9ece 07be c8dc c43c ad7a 42be
00000030: cec1 f53c b9b3 393d 83de cebc 3d95 263d
00000040: 6046 e13c 5307 0f3e 51e7 acbb e456 603d
00000050: c335 b03c ac7d 883c 6890 87bd 8d99 d2bd
00000060: 9fb5 263d 23e4 7dbd 4ca2 713c 6cbd 8d3d
00000070: ad4e 343d cf3a 2e3d b143 b2bd fcfb bfbd
00000080: 36af 3d3d 842f ab3d d322 a6bd 3af4 2cbd
00000090: 4b79 e4bc 1629 043e cdaa aeba 30f9 85bd
000000a0: 4d6a 3b3c 70fa 6fbd becf a5bb b610 e4bd
000000b0: 4cfe 943b 2537 8dbc 003c 48bb e805 243d
000000c0: d144 38bd a83d 04be 7b5a 59bd 5c76 fc3c
000000d0: 32ea 363e 074d 0a3c 7d97 0f3e 4276 edbd
000000e0: f159 ca3d 65e3 2e3c c794 25ba b095 a63d
000000f0: f65c 9a3d 2a60 713c 15ef 27bc e62a 83bd
00000100: c206 293e 03dd c0bc cbf6 8ebc 3414 c13c
00000110: 644b 213e 2657 47bd 4a92 633e 9d5c 8ebb
00000120: 897d 0fbd fbba 103e 1773 513b 9d56 8a3e
00000130: 3083 a7bc 1d51 33bd dd74 47bd 455e 6a3d
00000140: 1bd6 723c bafe 123e 47d3 81bc 5c4a c23d
00000150: a295 673d dbfe abbd f820 ef3d 3041 063e
00000160: 7bc1 dbbd 4eca 5dbd 77e4 523b 5f31 1dbd
00000170: 32af 82be 1729 dd3c bd49 88bc 467f 9e3d
00000180: 5bf6 18be feda 9b3c 49a6 1cbe 6b81 4d3b
00000190: 2370 35bd bcc8 a3bd 2e0e 7f3d 92a9 96bd
000001a0: 4068 753d d2f0 2e3e a318 19bd ee7f 273e
000001b0: fdc6 4c3d 3204 40bd e4a6 9ebd 61b0 ddbd
000001c0: 60d0 26bd 6edb 723d 728d 633d bdd4 13bd
000001d0: 0e18 143e 2a0a 893d 4b67 0bbe 8a17 bcbd
000001e0: 92a1 d13d d2b1 2abe 6aac 563d d903 26bd
000001f0: 1dd1 7cbd d25e e6bc 941f 7fbd 1846 4b3b
00000200: 04f2 c83d 4fa2 063d a0e5 8cbc 39f0 6c3d
00000210: 5970 80bd c44d 3abe f96d 51bd 69a6 30bc
00000220: af0a 1abd 7460 9cbd fcc8 38bd 53e9 2bbb
00000230: 7b01 ed3d 556c d0bc f036 98bc 5312 eebd
00000240: bf88 24be cc44 c83c 173a 883d 06de 493d
00000250: a64d e1bc 317d b2bd 06da b1bd 2617 233e
00000260: 91fe 8abd aef3 44be a2b2 c63d ac21 7cbd
00000270: f841 5fbe 1c84 8bbd b623 783d 3e1a 3fbd
00000280: b8cd 1e3b 46ac 8fbd 55c8 083e e210 c83d
00000290: 0d0a 42bd 4793 bebc db1a ce3d c323 8abd
000002a0: af0f c53c a533 9cbd 55d0 d4bd 0835 a3bd
000002b0: 9c0b dabd a6e2 ddbd adf1 513d 2ee1 b7bc
000002c0: 49f8 6cbd 6422 6b3d f1d7 ec3d be8e 8dbd
000002d0: 32be a33d 3dd1 ad3d 6c28 f3bc 6e1e a43c
000002e0: 37b7 10bc ade5 9d3c 044b f83d 3c59 f3bd
000002f0: 8229 4a3d 4ab8 923d dd18 283e f02e be3c
00000300: 32e9 a1bb e6a2 2cbc aef6 6dbc 5c12 20bd
00000310: d92f 863d 91a9 a5bc 0c3a dc3c ec82 073e
00000320: a330 643d a41e 9e3b 40aa e7bd 790e 36bc
00000330: 13a6 87bc faec fe3c c3f6 043d fc8b c2bb
00000340: c359 b3bd 9d39 a23d 0e6d dc3d 042c 293b
00000350: 9b5c 063e 0532 46bd 0ba2 1c3b c9bb 7ebd
00000360: 8ece fc3d 5530 e13d a11a fc3d 84d7 703d
00000370: 55ff 95bd 51c0 1cbd 2591 29bd 269e 893d
00000380: 9719 cebb 5818 463d ece8 16bd 58c8 813d
00000390: 8576 44be eeaa 8fbd 366f 863c 690a 283d
000003a0: de55 bebd 26ed 303e 3b10 6ebd fe22 a2bc
000003b0: 61a7 353d ff18 0ebd 3bde 6e3d f563 5f3e
000003c0: 0d35 82bd 5db1 3ebe fdac 573c f0da 9fbc
000003d0: 4bdb 98bc 465b 3abd ee7a 573d 687f c53d
000003e0: eaa6 933c 8916 7dbd 378c d23d 4515 84bd
000003f0: 69da 6d3b c87e a4bd 2f54 b53d c59c 20bd
-0.0866208 0.027738102 0.010324477 -0.013681341 0.008892838 0.0046424572 -0.048481002 0.08063134
-0.012869606 -0.13262412 0.024031058 -0.1899211 0.02999964 0.045337413 -0.025252586 0.04066967
0.027499378 0.13967638 -0.0052765985 0.054770365 0.02151001 0.016661488 -0.0661934 -0.10283194
0.04070055 -0.061985146 0.014748167 0.06920895 0.044020344 0.042536553 -0.08704317 -0.09374234
0.046309672 0.08358672 -0.08112111 -0.0422251 -0.027889868 0.12906298 -0.0013326049 -0.06541669
0.011438918 -0.058588445 -0.005060165 -0.11136 0.004546916 -0.017238209 -0.003055334 0.040044695
-0.044987503 -0.12914145 -0.053064805 0.030818157 0.17862776 0.008441216 0.14022632 -0.115948215
0.09880436 0.010674332 -0.000631642 0.081340194 0.07537262 0.0147324 -0.010249873 -0.064046666
0.16506484 -0.023542887 -0.017451664 0.023569204 0.15751415 -0.048667096 0.22223774 -0.0043445365
-0.03503183 0.14133827 0.0031959468 0.27019206 -0.020448297 -0.043778528 -0.048695434 0.05721881
0.0148215545 0.14354983 -0.015847815 0.09486839 0.056539185 -0.08398219 0.1167621 0.13110805
-0.10730263 -0.05414801 0.0032179633 -0.038377162 -0.25524288 0.026997132 -0.016636724 0.07739119
-0.14937727 0.019025322 -0.15297808 0.0031357657 -0.044296395 -0.079972714 0.062269382 -0.07356562
0.059913874 0.17084053 -0.03737701 0.16357395 0.049994458 -0.046879 -0.077466756 -0.10824657
-0.040726066 0.059291296 0.055554815 -0.036091555 0.14462301 0.06691392 -0.13613622 -0.09184177
0.10235895 -0.16669396 0.05241052 -0.040531013 -0.061722863 -0.028121386 -0.062285975 0.003101712
0.09811786 0.032869633 -0.017199337 0.05784628 -0.062714286 -0.18193728 -0.05113027 -0.010781863
-0.037607845 -0.076355845 -0.04511355 -0.0026231601 0.11572548 -0.025442282 -0.018580884 -0.11624589
-0.1606779 0.024446867 0.06651705 0.049284004 -0.027502846 -0.087152846 -0.08684163 0.15926799
-0.06786836 -0.19233581 0.0970204 -0.06155555 -0.21802509 -0.06812307 0.06058093 -0.046655886
0.0024231505 -0.070152804 0.1335767 0.09768845 -0.047372866 -0.023263587 0.10063716 -0.06745102
0.02405533 -0.07627038 -0.10391299 -0.07969099 -0.106467456 -0.108342454 0.05125587 -0.022446241
-0.05785397 0.057405844 0.11564625 -0.069119915 0.07995261 0.08487175 -0.02968236 0.020034041
-0.008832744 0.019274557 0.12123683 -0.118822545 0.04935599 0.071640566 0.16415735 0.02321574
-0.004941129 -0.010536885 -0.014524145 -0.03908001 0.06552095 -0.020222457 0.026883148 0.13233536
0.055710446 0.00482543 -0.113117695 -0.011111849 -0.016558683 0.031118859 0.032461893 -0.0059370976
-0.08757355 0.07921145 0.10762988 0.002581359 0.13121264 -0.048387546 0.0023900296 -0.062190805
0.12344085 0.10995547 0.123097666 0.05879928 -0.07324091 -0.038269345 -0.041398186 0.067196175
-0.0062896716 0.04836306 -0.036843225 0.06337041 -0.19185837 -0.07015024 0.016410451 0.041025553
-0.092937216 0.17277965 -0.058120947 -0.019792076 0.044349078 -0.034691807 0.058317404 0.21815474
-0.06357775 -0.18622346 0.013163802 -0.019513577 -0.018659255 -0.0454972 0.05260747 0.096434414
0.018023927 -0.06178907 0.1028065 -0.06449369 0.0036293513 -0.08031994 0.08853947 -0.039212007

network_body._body_endoder.seq_layers.2.bias f4 [128]
00000000: 0000 0000 0000 0000 0000 0000 0000 0000
00000010: 0000 0000 0000 0000 0000 0000 0000 0000
00000020: 0000 0000 0000 0000 0000 0000 0000 0000
00000030: 0000 0000 0000 0000 0000 0000 0000 0000
00000040: 0000 0000 0000 0000 0000 0000 0000 0000
00000050: 0000 0000 0000 0000 0000 0000 0000 0000
00000060: 0000 0000 0000 0000 0000 0000 0000 0000
00000070: 0000 0000 0000 0000 0000 0000 0000 0000
00000080: 0000 0000 0000 0000 0000 0000 0000 0000
00000090: 0000 0000 0000 0000 0000 0000 0000 0000
000000a0: 0000 0000 0000 0000 0000 0000 0000 0000
000000b0: 0000 0000 0000 0000 0000 0000 0000 0000
000000c0: 0000 0000 0000 0000 0000 0000 0000 0000
000000d0: 0000 0000 0000 0000 0000 0000 0000 0000
000000e0: 0000 0000 0000 0000 0000 0000 0000 0000
000000f0: 0000 0000 0000 0000 0000 0000 0000 0000
00000100: 0000 0000 0000 0000 0000 0000 0000 0000
00000110: 0000 0000 0000 0000 0000 0000 0000 0000
00000120: 0000 0000 0000 0000 0000 0000 0000 0000
00000130: 0000 0000 0000 0000 0000 0000 0000 0000
00000140: 0000 0000 0000 0000 0000 0000 0000 0000
00000150: 0000 0000 0000 0000 0000 0000 0000 0000
00000160: 0000 0000 0000 0000 0000 0000 0000 0000
00000170: 0000 0000 0000 0000 0000 0000 0000 0000
00000180: 0000 0000 0000 0000 0000 0000 0000 0000
00000190: 0000 0000 0000 0000 0000 0000 0000 0000
000001a0: 0000 0000 0000 0000 0000 0000 0000 0000
000001b0: 0000 0000 0000 0000 0000 0000 0000 0000
000001c0: 0000 0000 0000 0000 0000 0000 0000 0000
000001d0: 0000 0000 0000 0000 0000 0000 0000 0000
000001e0: 0000 0000 0000 0000 0000 0000 0000 0000
000001f0: 0000 0000 0000 0000 0000 0000 0000 0000
0.0 0.0 0.0 0.0 0.0 0.0 0.0 0.0
0.0 0.0 0.0 0.0 0.0 0.0 0.0 0.0
0.0 0.0 0.0 0.0 0.0 0.0 0.0 0.0
0.0 0.0 0.0 0.0 0.0 0.0 0.0 0.0
0.0 0.0 0.0 0.0 0.0 0.0 0.0 0.0
0.0 0.0 0.0 0.0 0.0 0.0 0.0 0.0
0.0 0.0 0.0 0.0 0.0 0.0 0.0 0.0
0.0 0.0 0.0 0.0 0.0 0.0 0.0 0.0
0.0 0.0 0.0 0.0 0.0 0.0 0.0 0.0
0.0 0.0 0.0 0.0 0.0 0.0 0.0 0.0
0.0 0.0 0.0 0.0 0.0 0.0 0.0 0.0
0.0 0.0 0.0 0.0 0.0 0.0 0.0 0.0
0.0 0.0 0.0 0.0 0.0 0.0 0.0 0.0
0.0 0.0 0.0 0.0 0.0 0.0 0.0 0.0
0.0 0.0 0.0 0.0 0.0 0.0 0.0 0.0
0.0 0.0 0.0 0.0 0.0 0.0 0.0 0.0

action_model._discrete_distribution.branches.0.weight f4 [3, 128]
00000000: 5920 473c 8da3 343c 0fa1 c5bc 4789 943c
00000010: bb67 6fbb 6862 583b efe6 70bb a7dc 9f3b
00000020: cc56 25bc deff 0fbc 86c9 423b 54c4 a9b9
00000030: c0f7 963b adc1 88bc aa9e d0bb 1d49 fa3b
00000040: 9a19 953c 646b 4a3c b5cd 23bb c7a0 0c3b
00000050: 2d81 f33a abed 133b 0379 813c 48ba 2cbc
00000060: 8237 f9ba d767 f43b 38ca e5bb 1779 4e3a
00000070: 98fb 1e3c 471b 1bba 6f4b 87ba 07c6 353c
00000080: 00bf 8fbb 77bc 353c 3738 433b 50af 4a3c
00000090: ab58 5ebb 1d08 6dba cd2e 693b ff70 a63b
000000a0: f1b5 103c 0eb9 373b 1344 a13b c839 743c
000000b0: 12ee 6e3c e0ab b53b 629b 22bc 6694 b2b9
000000c0: 7f1c 6e3c 2a02 eaba cf50 f53c a459 29bb
000000d0: aab3 583c 9d5e 93bc eb3a 8dbb 9d79 513b
000000e0: 23c5 3ebc 880c 46bc 3828 cf3b 7963 3bbc
000000f0: ae75 0a3c aaa1 3abb ffc7 0c3c 7747 9b3b
00000100: 6a76 e83a 1bb2 46bc bc9e 9c3b 4b30 3abc
00000110: 77b1 9a39 76ed 013c 251d bebb a336 b13b
00000120: ec33 06bc 230c 9c3b 8355 b4bb 6f10 3bbc
00000130: 72f1 da3a 862c 43bc f4c0 33ba 6801 223c
00000140: 9f22 dd3b e3a1 c4bb f38b 45bb 7d01 84bb
00000150: 0f09 ce3a 2f30 093b 5189 a53b f08e 713c
00000160: be52 95ba d146 4cbb 071a 2abc 84b5 a83b
00000170: 93d5 30bc b010 763b d3ea 133b e896 e038
00000180: 3ae1 5fbc 869a a23b 6f0e f9ba 4b06 20bb
00000190: bb48 8a3c 4531 1f3c df48 1e3b ba02 e23b
000001a0: 950d d1bb 2b9a 6abc 85e1 573b 1af2 b83b
000001b0: 1860 feba 6cdb 0c38 1521 5cbb eb91 44bc
000001c0: 007c 74bc a3b8 18bc 0841 8c3c edbc 91bc
000001d0: 4b1f 8e3a 6d2a 6d3c dec9 3b3c e723 6f3a
000001e0: 4fd1 33bb 5761 a1ba 3d31 523b c755 263c
000001f0: 260c 423a 9430 483c 47de 00bc 7f54 40bc
00000200: fda4 a3ba e659 a13b 1bc8 303b 8da6 d0b9
00000210: 6dfe 773b f3c7 df3b d4a3 14bc 8d80 8639
00000220: 5da6 363c ab6f 45bc f900 c4bb b5d0 493c
00000230: 885b b9b9 5317 c33b fbe4 cd3b bdd7 173c
00000240: 18f0 793c 7585 dd3b 5118 07bb 9a37 97ba
00000250: eb24 693b 6bfb c63b 2b9f afba e30f 4e3b
00000260: da3d afbb 6505 7e3b 1b1c d7bb 3f58 09bc
00000270: 95eb dcbb 3726 c539 7f4c d3bb 2068 503b
00000280: eb1d 3939 a8d0 703c 1f7f 3d3b fefb 49bc
00000290: dfc4 55bc 5bf2 43b9 436b 02bc b60d bbbb
000002a0: 1f26 533b 6b41 3cbc ac1d 993b b801 043c
000002b0: 98d2 913c 2735 54bc 8f19 193b 8cb0 a0ba
000002c0: 8f2b 5f3b 9202 5f3b 5308 263a 2791 053b
000002d0: 9d41 e83b c79b 873b 2b57 1d3b 08dc f3bb
000002e0: d1f9 10bc 4fe1 58bc a768 9d3b 81c6 9d3b
000002f0: c79d 0cbb e94b 2d3c 0219 8fbb 9555 e13b
00000300: e759 f63b 5764 65ba 5785 4bba c3f9 253b
00000310: 17bd db3a 4a1f 93bc a209 c33a 0d7d d3bb
00000320: bd5d 543c a249 ca3b 0f90 02bc efc6 fd3b
00000330: c44b 8a3c cb9d 803b 057c d1ba 32b9 57bc
00000340: 3bdd 62bc 38a9 d7bb 21e6 0cbc 6b4d e33b
00000350: c81c c23b 3fbf 733b d2fd 4dbc 1b6f 77bc
00000360: d3c7 b2bb d167 c73b a3af 8739 8f85 653a
00000370: ee94 13bc 059f 7b3b ca9b 74bb 3895 cc3c
00000380: afec dbbb 632d 853b f86f d63b 8f9e e33b
00000390: 7ffa b83c cd3e b4bb e10c b63b 30f6 10bc
000003a0: c58c ef3b 6bbc 13bb 6518 413c 34c0 423c
000003b0: bf51 afbb 226e 9939 6420 a5bb cefd 0d3c
000003c0: d510 cf3b 6cfd 0f3b 4f17 74bb 2648 1fbc
000003d0: d78a cfbb d77d baba 73b7 e93a 4b67 c6bb
000003e0: 3bc1 81bb 2743 8cbc a851 18bc 1ba0 0f3b
000003f0: 81e6 44bc 552b d33b ab22 90bc 2a5c 33bc
0.012153708 0.011025322 -0.02412465 0.018131865 -0.0036530334 0.003301764 -0.003675874 0.0048785987
-0.010091495 -0.008789031 0.0029722168 -0.00032380468 0.004607171 -0.016693914 -0.0063665705 0.0076381103
0.018200684 0.0123547055 -0.0024994437 0.0021458135 0.0018577926 0.002257208 0.015804773 -0.01054246
-0.0019013735 0.0074586677 -0.0070126317 0.000787632 0.009703539 -0.00059168454 -0.0010322164 0.011094577
-0.0043867826 0.011092297 0.0029788145 0.012370899 -0.0033927362 -0.00090420415 0.0035580874 0.005079388
0.008832441 0.0028033885 0.004921445 0.014906354 0.014583128 0.0055441707 -0.009924741 -0.0003406137
0.014533161 -0.0017853428 0.02994576 -0.0025840783 0.013226429 -0.017989451 -0.004310002 0.0031963356
-0.011643681 -0.012087949 0.006321933 -0.01143729 0.008450909 -0.0028477707 0.008592605 0.004738744
0.0017735485 -0.012127425 0.004779665 -0.011364053 0.0002950539 0.00793015 -0.005801814 0.0054081245
-0.00819109 0.004762189 -0.005503358 -0.011417492 0.0016704036 -0.011912471 -0.00068570604 0.009888031
0.006748512 -0.0060007437 -0.003014323 -0.0040284977 0.0015719252 0.002093326 0.00505177 0.014743552
-0.0011392457 -0.003117014 -0.010382182 0.0051485915 -0.010793108 0.0037546568 0.0022570386 0.00010709261
-0.013664538 0.0049622683 -0.0019001494 -0.0024417813 0.016880384 0.009716337 0.0024152321 0.0068972977
-0.006379793 -0.014318983 0.0032940817 0.005644095 -0.00194073 3.3582954e-05 -0.0033589054 -0.01199768
-0.014922142 -0.009321365 0.017120853 -0.017790282 0.0010843066 0.014475447 0.011461703 0.00091224763
-0.002743799 -0.0012312335 0.0032072805 0.010152287 0.0007402323 0.012218613 -0.007865495 -0.011738895
-0.0012485083 0.004924047 0.002697474 -0.00039796942 0.0037840859 0.0068292557 -0.009072263 0.0002565425
0.011148063 -0.0120505495 -0.0059815613 0.012317826 -0.00035354146 0.005953708 0.0062834 0.009267745
0.015254997 0.006760294 -0.002061386 -0.0011536956 0.0035574983 0.006072452 -0.0013398876 0.0031442575
-0.0053479495 0.003876054 -0.0065646297 -0.008382856 -0.0067419508 0.0003760324 -0.006448328 0.0031800345
0.0001765412 0.014698185 0.0028914881 -0.012328146 -0.013047426 -0.00018686934 -0.0079601435 -0.0057084216
0.0032218767 -0.011490206 0.0046727266 0.00805705 0.017800614 -0.012952126 0.0023361181 -0.0012259646
0.0034053063 0.0034028632 0.0006333638 0.0020380707 0.0070879 0.004138443 0.0024008255 -0.0074420013
-0.008848623 -0.0132373115 0.0048037353 0.0048149233 -0.0021456347 0.01057718 -0.004366995 0.0068766573
0.0075180414 -0.00087506085 -0.00077637046 0.0025325872 0.0016764727 -0.017959256 0.001488019 -0.006454116
0.012961802 0.0061733285 -0.007968917 0.007744662 0.016881831 0.0039250604 -0.0015982395 -0.013166713
-0.013846691 -0.0065814517 -0.008599789 0.006936719 0.005923841 0.003719285 -0.0125727225 -0.015102173
-0.00545595 0.006085374 0.00025880066 0.00087555585 -0.009007676 0.0038394344 -0.0037324303 0.024973497
-0.0067115645 0.0040642484 0.0065441094 0.006946392 0.022580383 -0.0055006505 0.0055557345 -0.008847758
0.007310482 -0.0022542726 0.011785601 0.011886645 -0.005350321 0.0002926449 -0.0050392617 0.008666469
0.006319145 0.002197112 -0.0037245338 -0.009721791 -0.0063336897 -0.0014228177 0.0017831161 -0.006054794
-0.0039598024 -0.017121864 -0.009296812 0.0021915499 -0.012017847 0.0064443746 -0.017594656 -0.010947267

action_model._discrete_distribution.branches.0.bias f4 [3]
00000000: 0000 0000 0000 0000 0000 0000
0.0 0.0 0.0

action_model._discrete_distribution.branches.1.weight f4 [3, 128]
00000000: 6ac7 ed3a a893 7c3c 7f57 7abc 354a 5b3b
00000010: 5ac6 fabb d7ba 473c 796d 36bc c811 b1bb
00000020: ca7f 6c3c 3bd2 10bb b5fb 783b 2800 37bc
00000030: 3d48 0fbb 0baa eabb 8fca a3bc 3ffe dabb
00000040: cd45 fcb9 fa17 46bc 0f99 153c bcdd 05bb
00000050: ca04 f43b 9aa9 95bc ca61 7dbb ca43 97ba
00000060: d33b b1ba c942 0ebb b4a6 18bb f33e 8fbb
00000070: 2e1d 4a3c 9aeb adbb 9664 183b 96d2 c53c
00000080: f33f 403c 0b14 2bbc 48b2 a63b 90dc 47bb
00000090: e211 d83a 2759 8b3b 0386 81ba 7a82 40bb
000000a0: ea22 c9bb 732f afbb 1c75 17bc fb33 4ebc
000000b0: 7bea f83b 3685 91b9 f82b d23b 0531 67bb
000000c0: 0dae abbb 7232 283b dfc0 b7ba 6fba 4f3c
000000d0: 0d51 71bc b30c 203b 3aca a43b f7ee 533b
000000e0: 7875 9abb bb77 f6bb 0d79 2e38 3ba8 88bb
000000f0: 2539 e8bb ab8d d8bb d377 903b 42c8 12bc
00000100: d3ba f4ba a36a a83a 2b08 dfba 4365 43bb
00000110: 8bc4 143c ff2b 0dbb 4774 33bb 91c7 c8bb
00000120: cf2c f4ba cfde 0e3a 2ad3 923b 1266 273c
00000130: b7dc 86bb e37b ac3b 07ad 45bc f091 52bc
00000140: 5500 6dbc d744 32bc 0747 5a3c 1885 4abc
00000150: 5179 9bbc f572 59bc 570d 4a3c 89c2 a83c
00000160: 3ba3 84bb 970b 76bc bab3 453b 7e04 94bb
00000170: a0c7 763c 06ed 8f3b 63a9 ccbb a2b4 7c3b
00000180: e562 e1ba f038 063c 7ff2 2f3c 47b3 1e3a
00000190: 0d90 f13a e096 eeba 85e0 263c 23b4 b03c
000001a0: 93f4 09b9 c442 493c 138b 9bba 1bcd 50bc
000001b0: 190e cb3b 2ad9 613c 8306 e7ba 0dae 1b3c
000001c0: 4ac8 29bc df2d 17bc 9f08 e83a 53ec 653c
000001d0: 9432 2139 cac4 0bbc 0dcb 52bc 11f5 beba
000001e0: a636 04bc 4dec 5d3b 9ae9 c23b 9b41 1f3c
000001f0: 327e d53a 9fe7 c73b f781 8d3b f9cf 84bb
00000200: 4909 403c 6ddf 053c 5770 62b9 fdbf 91bc
00000210: fae1 1fbc bc15 3e3c 68f2 5c3c 9f26 bf39
00000220: 7e99 263c cf07 d2bc bbc0 bcbb 1fc8 1c3c
00000230: dc31 bc3a bd19 d9bb 7eb8 a3bb 448c 803b
00000240: 201a 84bc 0609 473c fbb0 1d3c 0822 50bb
00000250: 063c 37bc c23d 86bc b3f5 69ba 07ea eeba
00000260: 2ae8 773c fb52 9fbc 9013 38bb 3a7a 57bc
00000270: 0dfd 9fbb 4eff 0b3b 17f2 213c d386 f8bb
00000280: cbcd aabb 73e3 593c f238 7c3b 6bbb 4b3c
00000290: 52c0 f33a e3a2 f7ba a1e6 af3b 7f5e 883a
000002a0: 66cc 0c3b 38f7 a4ba 6dbf a33b 23b1 4dbb
000002b0: 3fb7 c4bb 23b7 8fba 4bd6 433b 9b65 e73b
000002c0: 587b ad3b 7bd4 77bc 6c95 c4bb 180a 81bc
000002d0: 697c 163c 9732 7cba 274e b53b 23bd 25bb
000002e0: 7cbb 49bb 33d0 563c ca22 4c3a 2017 36bb
000002f0: c588 e83a 3d08 d8ba d3dd 9dbb 1a54 e4ba
00000300: 8fe0 1a3b 8ec9 02bc 9312 95bb 134f 86bb
00000310: d66a 313c bf76 593a 9337 dc3a fa9f c3bb
00000320: ff9e c4bb 4d33 aabc edc0 3bbb 16e6 8b3c
00000330: 630b 9abb be37 213b 6fc1 823b b83b debb
00000340: 4bfb 11bc cfbf ed3b a885 e8bb 72cf 65bb
00000350: aed2 913b 8241 133c e094 68bc 6ac3 1b3b
00000360: 955a 29bc 1b4f 703c 46ef 23bc 4ba6 01bc
00000370: ebff 88bc 1bc4 cd3a 2d7e 5bbc aaa2 2e3c
00000380: 2f33 f03a 9f29 b4bc efbe 943b e430 063c
00000390: 781e 033a cf4b 4bbc 8c8a 15bb fbb0 f4bb
000003a0: 1140 29bc 70ca dbbb a143 9e3c 963b 23ba
000003b0: aff4 a83a 9f08 923b 32f2 4739 6ff5 d9bb
000003c0: 50bc e7bb 2e1f 9a3c ffff 6dbb 1bfc 2a3b
000003d0: 5790 143b 75a4 e0bb 8aac 013c 18f1 293c
000003e0: 6107 acba 0f91 99bb 0883 a63a bac1 163c
000003f0: 7ab8 06bb 7f9d 0d3c 94f0 a0bc 3594 65bb
0.0018141095 0.015416063 -0.01527965 0.003346098 -0.00765304 0.012190542 -0.011134499 -0.005403731
0.014434764 -0.0022097963 0.0037991826 -0.011169471 -0.0021863126 -0.007161384 -0.019994048 -0.0066831405
-0.0004811719 -0.012090677 0.00913073 -0.0020426353 0.00744686 -0.018269349 -0.0038663023 -0.0011540588
-0.0013521857 -0.0021707288 -0.0023292722 -0.004371518 0.012336059 -0.005307627 0.0023253313 0.024148267
0.011733997 -0.01044179 0.0050871707 -0.0030496456 0.0016484822 0.004252571 -0.0009881858 -0.0029374645
-0.0061381953 -0.0053462326 -0.00924423 -0.012585635 0.0075963116 -0.00027755805 0.006413933 -0.003527702
-0.0052392543 0.0025664833 -0.0014019272 0.012678727 -0.014728797 0.0024421632 0.00502899 0.003233848
-0.0047137104 -0.007521597 4.159757e-05 -0.0041704453 -0.0070868903 -0.006608685 0.0044088154 -0.008958878
-0.0018671401 0.0012849163 -0.0017015984 -0.0029814995 0.009080063 -0.0021541116 -0.002738254 -0.006127306
-0.0018629077 0.0005450071 0.004480739 0.010217207 -0.0041156667 0.005263792 -0.012065179 -0.012852177
-0.014465411 -0.0108806705 0.013322598 -0.012360834 -0.018978747 -0.013272037 0.012332282 0.020600574
-0.004047779 -0.015017412 0.003016694 -0.004517137 0.015062243 0.004392269 -0.0062457784 0.0038559814
-0.001719561 0.008192286 0.010738968 0.0006053936 0.0018429771 -0.0018202923 0.010185366 0.02157027
-0.00013156449 0.012283985 -0.0011867009 -0.012744213 0.006196749 0.013784686 -0.0017625842 0.009501946
-0.010362694 -0.009227245 0.0017702765 0.014033395 0.00015372998 -0.008530805 -0.012865794 -0.0014568885
-0.00806967 0.003386277 0.0059482576 0.009720231 0.001628822 0.0061006094 0.0043184715 -0.0040531126
0.011720964 0.008170945 -0.0002159489 -0.017791742 -0.009758467 0.011601862 0.0134855285 0.00036459134
0.010168431 -0.025638489 -0.00576028 0.009569197 0.0014358121 -0.0066253827 -0.0049963584 0.003922971
-0.016125739 0.012148147 0.009624715 -0.0031758565 -0.011183744 -0.01638687 -0.00089248567 -0.0018227705
0.015131036 -0.019448748 -0.0028087832 -0.0131517 -0.004882461 0.002136189 0.009884379 -0.0075844317
-0.0052125207 0.013298857 0.003848609 0.012434821 0.0018596745 -0.0018893149 0.0053680693 0.0010404139
0.0021484136 -0.0012585884 0.004997185 -0.00313861 -0.00600329 -0.0010964613 0.0029882367 0.007061673
0.0052942447 -0.015126343 -0.005999258 -0.015751883 0.009184935 -0.00096205756 0.005532998 -0.0025289736
-0.0030781915 0.013111162 0.00077871664 -0.002778478 0.0017740956 -0.0016481947 -0.0048177033 -0.0017420084
0.0023632383 -0.007982625 -0.0045493334 -0.004098782 0.010828694 0.00082955876 0.001680123 -0.0059699984
-0.006000399 -0.020776415 -0.0028648928 0.017077487 -0.0047010644 0.0024599875 0.0039903442 -0.0067820214
-0.008910011 0.0072555314 -0.007096011 -0.0035066274 0.004450164 0.008987786 -0.014195651 0.00237676
-0.010336538 0.014667298 -0.010005778 -0.0079131825 -0.016723594 0.0015698703 -0.013396782 0.010658899
0.0018325801 -0.021992503 0.0045393626 0.008190367 0.00050017936 -0.012408211 -0.0022818176 -0.007467387
-0.010330216 -0.006707482 0.019319357 -0.00062268355 0.0012890304 0.004456594 0.00019068344 -0.0066515724
-0.007072009 0.018813696 -0.0036315916 0.0026090208 0.002266904 -0.0068555423 0.007914672 0.010372423
-0.0013124758 -0.004686482 0.0012703845 0.009201461 -0.0020556734 0.008643507 -0.019645967 -0.0035030965

action_model._discrete_distribution.branches.1.bias f4 [3]
00000000: 0000 0000 0000 0000 0000 0000
0.0 0.0 0.0

action_model._discrete_distribution.branches.2.weight f4 [2, 128]
00000000: 3f93 dfbb c053 01bc 1fba 9b3a 2c92 21ba
00000010: 9547 463c eaba 13bc 255d 1b3c 3ad6 72bb
00000020: 500e 6abc 5621 043a 3097 8b3b ebf7 d43b
00000030: 5447 1d3c e577 b1bb 3fff 8d3a 1ff4 8e3c
00000040: 135c a53b 47b7 6b3b 1f99 1cbc c80d 1f3c
00000050: 357b fcbb 2da0 ceba c35b 9cbb ad1e 583b
00000060: 4b59 3b3c 1dde 0fbb 0b05 a9b8 60c0 f439
00000070: 80e6 243c 351b bb3b c4d2 96bb 2c2e c03b
00000080: abb1 113c fb2a cebb 517f 2abc 5db8 8abc
00000090: 5dab 2abb 223e a5bb cbf4 c6bb 036d 9039
000000a0: aace 92bb 8b23 183c a344 8e3b 1934 043c
000000b0: 5809 db3b 4d67 93bb cd97 d4b9 3248 6e3b
000000c0: e281 7cbb 3976 913b 4f61 83bc bb3e 65ba
000000d0: 0792 b83b e5e5 5f3a 8786 3d3c 5023 01bb
000000e0: eb9f 46ba 39e2 183c 3fdf 7a3c cab2 a4bb
000000f0: 6894 eb3b 37fb d73b 3d0c 563a 0298 d63b
00000100: d3a6 a9ba c4fa 223b 61f7 1e3a 26d5 86ba
00000110: 3a64 47bb 98de 6dba 6beb c6ba bdfe deb9
00000120: 742e c93a e826 6f3b a6a3 04bb f78b 8eba
00000130: abc9 7c3c 9323 ddba bfb7 dc3b bfba 653c
00000140: 1b47 1cbb 3fc9 fbbb 3a4e dbbb 8b1d 97bc
00000150: 28b0 85bb 93a7 45bb fe37 023c 477f 26bc
00000160: 9728 9d3b 4bea a33c 18d7 eabb d053 503c
00000170: fbe4 373b 35eb 903c 9d63 53bc 949f 4c3b
00000180: 4bce 01bc b607 923c cd5e 063c fcbb 29bb
00000190: 4bfd 83b9 4bc5 26bb d199 c23b cb4e d13a
000001a0: fffa eb3b c26f a039 5fa0 1bbb 2eaf 97bb
000001b0: a39e 53b8 a2b8 aa3b 47ac 22bc 4dae d3bb
000001c0: 23ce 74bc ddad 8ebb a30e 2a3c e53e daba
000001d0: ec1d c8bb 3341 7b3b 271b 083c 279f 223b
000001e0: d318 c9bb bbb8 c43b e2d6 f1bb ce96 09bb
000001f0: 83e4 4ebb da35 2a3b 60cb 89bc dff9 90bc
00000200: 7167 933c 484c 913c 2409 983a e066 51bc
00000210: 3767 b3ba 6b9b b43a d252 72bb 6c49 3cbc
00000220: 0f20 5fbb 9d93 e03c 50f4 58bb 8fb0 9d3b
00000230: 83be 2f3a 5861 09bc 192f 0fba 227e f1bb
00000240: 2b91 cfba 7b01 29bb 29b3 01bc a647 113a
00000250: 0f9c c8bc 88ca 8d3c 01ed 053a e359 7b3c
00000260: b043 edbb 47f3 263c 06e0 84bc e443 8ebb
00000270: 8ab1 4a3c cf4e c5bb faae 1d3b aba1 f93b
00000280: 7701 56bb ad88 9bbb b205 f9ba 59f7 b53b
00000290: 0371 0f3c 7e5a 3c3a 8321 8d3a bb6b 9c3c
000002a0: f737 b5bc 3e7b b43a 22dc 1a3b f961 1cbc
000002b0: 9728 b039 e848 573b 6971 853a ebff 203c
000002c0: 132e 49bb 7f39 113c 1347 3a3b 0730 9dbb
000002d0: 4bb8 5b3c 045a 99bb 034f ff3b 27c1 d23c
000002e0: 1241 c33c f0f0 583c 630e d3ba 858b 313c
000002f0: 6b91 243c c833 c2bb 5bd1 e8bb 47f8 44bc
00000300: c9e1 393b d23f 073c 3950 193c 50b9 933a
00000310: 1b93 8a3c ac42 85bb 27dd c93a cf25 4e3c
00000320: 9048 7fbc 46e7 8c3c d8bd fbbb d8c7 7e3c
00000330: 236d 793c 0d7f 7fbc 6f37 1dbc 6d13 c13b
00000340: 3ffb d13a a7a3 09bc 5532 9dbb 7059 99bc
00000350: 6d41 343c dc91 34bc eda7 303a b0d5 56bc
00000360: 0fcc 903c 3b2c 263c f409 123c 7747 dc3b
00000370: ab8e 9239 7097 d93b 6d7d 653c 62e2 28bc
00000380: 81a2 393c 3eb6 a23b 3bb2 2fbb 5bcc b7bb
00000390: ef98 0b3b a090 49bb 5865 673a d70f 1239
000003a0: 7480 a2bb 8f07 a2bc 5fc3 4dbc bf88 343b
000003b0: 31cb 213a d755 17bc ac9f 2abb 7235 673c
000003c0: f904 0cbb 1bc0 2d3c bb9e f43b bb1f 60bc
000003d0: d3c6 823c e8ad 553b 89f3 41bb 727b 65bc
000003e0: 37de 8cbb 6737 8e3c f852 a0bb 81c5 34bb
000003f0: 551b 0f3c a92d a0bb 0b77 4bbc 7332 54bc
-0.006822973 -0.007893503 0.001188103 -0.0006163444 0.012102027 -0.009016732 0.009482657 -0.0037053959
-0.014285639 0.0005040368 0.0042599663 0.0064992807 0.0095995255 -0.005415904 0.0010833516 0.01745039
0.0050463765 0.0035967396 -0.009557991 0.009707876 -0.007705117 -0.0015764289 -0.004771681 0.0032977269
0.011434863 -0.0021952458 -8.059487e-05 0.00046682637 0.010064721 0.0057100304 -0.004602762 0.005864879
0.008892457 -0.0062917448 -0.010406331 -0.016933614 -0.0026042082 -0.005042807 -0.006071662 0.0002754704
-0.0044802027 0.009285818 0.004341678 0.008069062 0.0066844635 -0.0044983984 -0.0004054889 0.003635895
-0.0038529565 0.004439142 -0.016037611 -0.00087450043 0.005632642 0.0008541032 0.011567718 -0.0019704886
-0.000757693 0.009331279 0.015312015 -0.005026196 0.0071893223 0.0065912264 0.0008165276 0.0065488825
-0.0012943394 0.0024868706 0.0006064084 -0.0010286912 -0.003042473 -0.00090740016 -0.0015176361 -0.00042532934
0.0015348927 0.0036491696 -0.0020239144 -0.0010875453 0.015428941 -0.0016871564 0.0067357714 0.0140215745
-0.0023846093 -0.0076839025 -0.006692675 -0.018446704 -0.0040798374 -0.0030159696 0.00794792 -0.010162181
0.0047960985 0.02000918 -0.0071667545 0.012715295 0.0028060067 0.01769028 -0.012902168 0.0031223046
-0.007922719 0.017825942 0.008201313 -0.00258994 -0.00025174985 -0.0025447186 0.0059387465 0.0015968917
0.007201552 0.00030600844 -0.0023746712 -0.0046290373 -5.0454062e-05 0.005209998 -0.009928769 -0.0064599873
-0.014941725 -0.004354222 0.010379466 -0.0016650824 -0.0061070826 0.0038338422 0.008307255 0.00248141
-0.0061369925 0.006003467 -0.0073803524 -0.0020994428 -0.003156931 0.002597204 -0.01682061 -0.017697273
0.01799366 0.017736569 0.0011599404 -0.012780875 -0.0013687377 0.0013779228 -0.0036975634 -0.0114921145
-0.0034046208 0.027414137 -0.0033104606 0.004812307 0.00067041087 -0.008385025 -0.0005462035 -0.0073697725
-0.001583611 -0.0025788236 -0.00791625 0.00055419875 -0.024488477 0.017308488 0.00051088637 0.015341255
-0.007240735 0.010189838 -0.016220104 -0.0043415893 0.01237143 -0.0060213576 0.0024060593 0.0076181493
-0.0032654682 -0.0047465176 -0.001899889 0.005553168 0.008754971 0.0007185115 0.0010767434 0.019094339
-0.022121413 0.0013769639 0.0023629745 -0.009544843 0.00033599578 0.0032849852 0.0010180894 0.009826641
-0.0030697628 0.008863806 0.0028423711 -0.004796985 0.013410638 -0.00467992 0.0077914014 0.025726868
0.023834739 0.013241038 -0.001610231 0.010836487 0.010044436 -0.005926583 -0.0071050352 -0.012022085
0.0028363338 0.008254962 0.0093575055 0.0011270437 0.016915848 -0.004066786 0.0015400992 0.012582256
-0.015581265 0.017200124 -0.0076825432 0.015550576 0.015223774 -0.015594256 -0.009595736 0.0058922083
0.0016020312 -0.008400834 -0.00479726 -0.018719405 0.011001927 -0.011021104 0.000673889 -0.0131124705
0.017675428 0.010142381 0.008913506 0.0067223865 0.00027953586 0.006640367 0.014006955 -0.01030788
0.011330248 0.0049655726 -0.0026809114 -0.005609078 0.0021300872 -0.003075637 0.0008827052 0.00013929546
-0.0049591605 -0.019778995 -0.012558787 0.0027547327 0.00061719405 -0.009236774 -0.0026035113 0.014111863
-0.0021365269 0.010604884 0.007465211 -0.01367944 0.015963947 0.0032604877 -0.002959462 -0.014006482
-0.004298951 0.017360402 -0.004892703 -0.0027583542 0.008734544 -0.0048882556 -0.012418519 -0.012951481

action_model._discrete_distribution.branches.2.bias f4 [2]
00000000: 0000 0000 0000 0000
0.0 0.0

network_body._body_endoder.seq_layers.0.weight f4 [128, 4]
00000000: 8819 15bf 502e c63d 6e33 563e 399a b73e
00000010: a118 c7bd 1336 263f 49f8 a13e 97e3 b5be
00000020: 361c d03e 7a3c 89bc 3f72 05bf 89e6 87bd
00000030: f523 19be 386a 1fbe 8a8b babe 8458 f93e
00000040: ae3f ce3d a281 a63e 19f7 f6bd 157f adbe
00000050: 54c4 1fbe 831a 153e f7db c8be 73d8 223e
00000060: a385 97bf ad9d 56bd 4cdb 723f af00 4fbd
00000070: a86e b7bf 1b1a 53be b21e ee3d 3572 cfbd
00000080: 3c76 0c3f bf4a 863e 2739 1cbf c3a2 80bf
00000090: d5ae c3bf 9241 0f3f bf6e de3e b321 613f
000000a0: 5dcc d2be b9c2 80bf 93cd 5f3e 6a13 8b3f
000000b0: 8f65 583f 64e3 7abd 921f ab3e 7abc 3abf
000000c0: 88a4 2b3f 1523 d43d 08df 7f3d c470 31bf
000000d0: 157a 193e 6771 3d3e 9702 f3be 1a3f 183f
000000e0: 5959 483e e05b c63f aba3 1b3e e708 ddbe
000000f0: 33b5 e1be f421 61bd d1a8 c03e ff18 2f3e
00000100: 9cb3 9d3d 1301 fd3e 9da1 df3e 3656 3c3f
00000110: abba 1d3f 2ee1 bf3c eafd a73e d37e af3d
00000120: cbe5 84be e2b4 973e 4db3 2fbf 6e97 92be
00000130: 9f02 99bd 8e66 103e 8d56 8f3e 30f1 433f
00000140: 861a 8fbf a8db 903d e2cc 26bf 0a2e 713e
00000150: 60c8 54be 7709 3cbf 5ea3 3d3f 55c6 4fba
00000160: 3e15 c63d 591c b8be 6e80 d6bd 8bdd 42bf
00000170: 88eb 1dbf c2f5 433f 9c7c a43d f849 fdbe
00000180: a1cc bb3d d50b 1ebf 95ec acbe c7ff debc
00000190: 5b8c 813f 9d27 5fbd 9b57 9e3d 69d9 7a3c
000001a0: 8bea 2bbf 75cf e1be a25f d33e 8af3 0b3e
000001b0: 4c9d 183f 6bf2 b03e b92d 793d c43b 343d
000001c0: 1b26 1bbe 2276 d63e ae9e b6be d4e5 de3e
000001d0: 07d5 88be 70ac 54bf adea 563e a576 dc3e
000001e0: 1618 073f b7f6 03bf 0921 6d3f 2a16 353f
000001f0: 1f9c b33e 594e 843e 3d4e 42bf 25c1 293e
00000200: bf99 6cbf b938 7abc 9846 5c3f 3065 91be
00000210: e661 d83e 3878 2c3d 5e99 383f ac7c 37be
00000220: 0cf7 853d cac1 4d3e 82bf 03bf fd0d 96be
00000230: 54bb ed3e a383 173f 949f 723f 0c8c d9be
00000240: 7fde ccbe bb0e 83be db59 b2be 1472 0fbf
00000250: ef61 2d3f 8d23 a0be dcaf c93e 7274 39bf
00000260: 8441 d33d 231b 1ebe fe85 943d 289b 593e
00000270: c948 3bbe 3b10 ff3e b287 683f 041c 2e3e
00000280: 7d79 cdbe 3d96 e7bd 8129 113b 0dc2 d4be
00000290: 83bf 06bf aec0 82be 34ed 11be f1a0 073e
000002a0: 97b8 b5be 061d ee3e cc56 4dbe c897 0f3f
000002b0: 5e45 483e dab4 88bd 3553 8cbc 9446 cc3d
000002c0: da4d 8b3f d5c8 6b3f 3aa0 ac3e 7b2d b7bd
000002d0: b484 61be 8bdc aebe 043b c53c 5ea7 953f
000002e0: 49a0 693f 059b 143f ae54 e63b 8a3e 113f
000002f0: ed22 53be 9365 433e 4f2b ee3e ba22 323d
00000300: 14d2 0bbe b7af 163f e65f 1bbf 8afd 71bd
00000310: 8a2e a7be d86c 64bf 2531 663e 9c71 a7bc
00000320: 7b6e 6d3c adae bd3e eb9e 3dbe d507 c7be
00000330: 6e70 af3e f0d7 163f 063b 32be 33c0 9e3e
00000340: 007d 4b3e 9ee7 293e 42fd b8bd 1c78 953e
00000350: cd9c bcbe c605 893e 0f97 9e3e 63ed 25be
00000360: 8bf0 8e3d 50ca 39bf 25e9 1f3f 3b71 f63d
00000370: cd58 8d3e 078e f0be d03f 713e 3a55 76be
00000380: 04eb 27bf 0beb 613c 1820 f0bd 3c94 3e3f
00000390: d69c a93e 1855 4ebe 9f81 89ba 346d 693f
000003a0: 0327 383f 99e1 e8be a786 c53a 1cc3 8c3d
000003b0: 4dd4 17bf c775 2bbe f49c 223f 56cb b8ba
000003c0: 89d5 8a3e 58a4 053d 3a75 743d b101 ccbe
000003d0: f2d2 1b3f 0d7d 483e fc6d 6b3f 5474 b13e
000003e0: ce13 b9be b6e2 38be cadf 86be 51f0 433f
000003f0: 1d21 2bbf 636c ab3d 9109 2abf d4e0 d2be
-0.5824208 0.09676802 0.20918056 0.3585985 -0.097214945 0.6492626 0.3163474 -0.355252
0.40646523 -0.01675247 -0.5212745 -0.06635768 -0.14955123 -0.15567863 -0.36434585 0.48700345
0.1007074 0.32520777 -0.12058849 -0.33886018 -0.15602237 0.14560895 -0.3923032 0.15902881
-1.1837658 -0.052396465 0.9486587 -0.05053776 -1.4330645 -0.20615427 0.116269484 -0.10129205
0.5486791 0.26228902 -0.6102471 -1.0049671 -1.528773 0.5595943 0.43443868 0.87942046
-0.41171542 -1.0059425 0.21855764 1.08653 0.84529966 -0.061252013 0.33422524 -0.7294384
0.6704793 0.10358254 0.06246856 -0.6931269 0.14987977 0.18500291 -0.47462913 0.59471285
0.19565333 1.5496788 0.15199153 -0.43170854 -0.44083557 -0.05496402 0.37628797 0.17099379
0.077002734 0.49414882 0.4367799 0.7356905 0.6161296 0.023422804 0.3281091 0.08569112
-0.25956568 0.2963019 -0.68632966 -0.28631157 -0.07471203 0.14101622 0.2799572 0.765399
-1.1179969 0.07073146 -0.65156376 0.23552719 -0.20779562 -0.7345194 0.74077404 -0.0007925977
0.096720204 -0.35959128 -0.10473715 -0.761193 -0.6168752 0.7654687 0.0803158 -0.49470496
0.09169889 -0.61736804 -0.33774248 -0.027221574 1.0120958 -0.054481138 0.07731553 0.015310624
-0.6715476 -0.4410359 0.412839 0.13667122 0.59615016 0.3455995 0.06083462 0.04400231
-0.15151255 0.41887003 -0.35667938 0.4353472 -0.26725027 -0.8307562 0.20987959 0.4305927
0.5277113 -0.5154833 0.9262853 0.70736945 0.35080048 0.25841025 -0.7590063 0.16577585
-0.924221 -0.015272313 0.8604522 -0.28397512 0.4226219 0.042106837 0.7210902 -0.17918652
0.06541261 0.20093456 -0.5146409 -0.29307547 0.46431983 0.59185237 0.94774747 -0.4248966
-0.400135 -0.25597176 -0.3483418 -0.56033444 0.6772756 -0.31277123 0.39391983 -0.72443306
0.103152305 -0.1544004 0.072521195 0.21250594 -0.18289484 0.4981707 0.90832055 0.17002875
-0.4013175 -0.113079526 0.0022149982 -0.415543 -0.52635974 -0.25537628 -0.14250642 0.13244988
-0.35492393 0.46506518 -0.20052642 0.56090975 0.19557711 -0.0667512 -0.01712952 0.09974399
1.0883133 0.9210332 0.33715993 -0.089442216 -0.22023278 -0.34152636 0.024075992 1.1691701
0.912602 0.5804904 0.0070291376 0.5673605 -0.20618792 0.19081716 0.46517417 0.04349015
-0.13654357 0.5886187 -0.60693204 -0.059079684 -0.32652694 -0.8922858 0.22479685 -0.020439915
0.014491673 0.3704733 -0.18517654 -0.38873163 0.34265465 0.58923244 -0.17405328 0.3100601
0.19871902 0.16592261 -0.0903268 0.291932 -0.3683838 0.26762217 0.30974624 -0.16203837
0.06979474 -0.7257433 0.62465125 0.12033316 0.27606812 -0.46983358 0.23559499 -0.24055949
-0.6559298 0.013788949 -0.117248714 0.7444494 0.3312747 -0.20149648 -0.0010490901 0.91182256
0.7193453 -0.45484617 0.0015070037 0.06873152 -0.5930832 -0.16744147 0.6352074 -0.0014098685
0.2711604 0.032627434 0.05968211 -0.3984504 0.6086875 0.19578953 0.919647 0.34659064
-0.36147922 -0.18055233 -0.26342613 0.7653857 -0.668474 0.083702825 -0.6642085 -0.41187155

network_body._body_endoder.seq_layers.0.bias f4 [128]
00000000: 0000 0000 0000 0000 0000 0000 0000 0000
00000010: 0000 0000 0000 0000 0000 0000 0000 0000
00000020: 0000 0000 0000 0000 0000 0000 0000 0000
00000030: 0000 0000 0000 0000 0000 0000 0000 0000
00000040: 0000 0000 0000 0000 0000 0000 0000 0000
00000050: 0000 0000 0000 0000 0000 0000 0000 0000
00000060: 0000 0000 0000 0000 0000 0000 0000 0000
00000070: 0000 0000 0000 0000 0000 0000 0000 0000
00000080: 0000 0000 0000 0000 0000 0000 0000 0000
00000090: 0000 0000 0000 0000 0000 0000 0000 0000
000000a0: 0000 0000 0000 0000 0000 0000 0000 0000
000000b0: 0000 0000 0000 0000 0000 0000 0000 0000
000000c0: 0000 0000 0000 0000 0000 0000 0000 0000
000000d0: 0000 0000 0000 0000 0000 0000 0000 0000
000000e0: 0000 0000 0000 0000 0000 0000 0000 0000
000000f0: 0000 0000 0000 0000 0000 0000 0000 0000
00000100: 0000 0000 0000 0000 0000 0000 0000 0000
00000110: 0000 0000 0000 0000 0000 0000 0000 0000
00000120: 0000 0000 0000 0000 0000 0000 0000 0000
00000130: 0000 0000 0000 0000 0000 0000 0000 0000
00000140: 0000 0000 0000 0000 0000 0000 0000 0000
00000150: 0000 0000 0000 0000 0000 0000 0000 0000
00000160: 0000 0000 0000 0000 0000 0000 0000 0000
00000170: 0000 0000 0000 0000 0000 0000 0000 0000
00000180: 0000 0000 0000 0000 0000 0000 0000 0000
00000190: 0000 0000 0000 0000 0000 0000 0000 0000
000001a0: 0000 0000 0000 0000 0000 0000 0000 0000
000001b0: 0000 0000 0000 0000 0000 0000 0000 0000
000001c0: 0000 0000 0000 0000 0000 0000 0000 0000
000001d0: 0000 0000 0000 0000 0000 0000 0000 0000
000001e0: 0000 0000 0000 0000 0000 0000 0000 0000
000001f0: 0000 0000 0000 0000 0000 0000 0000 0000
0.0 0.0 0.0 0.0 0.0 0.0 0.0 0.0
0.0 0.0 0.0 0.0 0.0 0.0 0.0 0.0
0.0 0.0 0.0 0.0 0.0 0.0 0.0 0.0
0.0 0.0 0.0 0.0 0.0 0.0 0.0 0.0
0.0 0.0 0.0 0.0 0.0 0.0 0.0 0.0
0.0 0.0 0.0 0.0 0.0 0.0 0.0 0.0
0.0 0.0 0.0 0.0 0.0 0.0 0.0 0.0
0.0 0.0 0.0 0.0 0.0 0.0 0.0 0.0
0.0 0.0 0.0 0.0 0.0 0.0 0.0 0.0
0.0 0.0 0.0 0.0 0.0 0.0 0.0 0.0
0.0 0.0 0.0 0.0 0.0 0.0 0.0 0.0
0.0 0.0 0.0 0.0 0.0 0.0 0.0 0.0
0.0 0.0 0.0 0.0 0.0 0.0 0.0 0.0
0.0 0.0 0.0 0.0 0.0 0.0 0.0 0.0
0.0 0.0 0.0 0.0 0.0 0.0 0.0 0.0
0.0 0.0 0.0 0.0 0.0 0.0 0.0 0.0
