Assets/ML-Agents/results/test5/PushButton/checkpoint.pt (torch, 153698 bytes, 16 tensors)

discrete_act_size_vector f4 [1, 3]
00000000: 0000 4040 0000 4040 0000 0040
3.0 3.0 2.0

network_body._body_endoder.seq_layers.0.weight f4 [128, 6]
00000000: c286 e13e 8efb e13e 53c6 acbd c293 89be
00000010: ec97 7cbe a78a 733e 3673 cdbd 4da7 7abf
00000020: 54d6 aebe 4701 afbe 4236 75be 3143 4ebe
00000030: 99e9 433f f388 363f 4e9e 9c3d fe61 dfbc
00000040: c9b7 c13d f939 9ebe 2e44 ed3d b030 a43e
00000050: 7aef ff3e 48cb 933e 78b4 8e3e 8694 1b3e
00000060: 5cdb bbbc 698c 9abd 7506 563e 1773 d33e
00000070: b5c7 1c3e 2e1f 563e 7096 8a3e 03c9 c9be
00000080: c2b3 92bd 3fdd c23e e299 03bf 1f87 24bf
00000090: faa5 c7be 5930 713d cf3c 0c3d 2741 0dbf
000000a0: a811 e63e 9193 cabe c53a 76be 452c 24bf
000000b0: ce6b d4be 60bc c0bd b631 2abe 2b09 093f
000000c0: c1be 0ebf d181 a6be 0b73 b13e 2fd4 aebe
000000d0: 834b 303f f88c e5be 590b cc3e 5fdb d13e
000000e0: cd6b 13be c5b3 9a3e 5185 323e a7b4 8ebe
000000f0: 5065 ec3e 1605 c73e d2d2 e3be c836 b9be
00000100: c827 0bbf 4aa7 123f 570e 56be c374 9ebe
00000110: 9b76 b73e 8252 1bbe d142 3a3c 5474 a93e
00000120: 1dc7 42bf 66ec 37bf 8d21 31bd 9cbf 243e
00000130: 5080 a1be e6b9 a9bc 7dc9 db3d 1e10 7ebe
00000140: 2058 b5be 3fd8 dcbb d806 de3d 324a 2d3e
00000150: d1d1 c33d 26aa ee3c b4a8 ddbe f5e1 423f
00000160: b223 8fbe 2448 4cbf 9179 5a3e 3ed9 1b3f
00000170: f3d6 8f3e c124 4fbf 0d9a 963d ca60 ea3e
00000180: 0bf2 8bbd 3938 bb3e 8c61 fd39 b5ff 90bd
00000190: 3e7f 47be eb5b f23e c45e 883e 01a5 833e
000001a0: cea6 16bf 294e 7bbf 58c0 a13e aac3 67be
000001b0: e5b1 c03d f1ba cfbe 0ae1 b03e ca72 b93e
000001c0: 9dea b73d 6c07 1dbd ed1a 6dbe 19a3 c6be
000001d0: 6760 3a3d 1b2e 903e 97e5 e23e d2cf dfbe
000001e0: d844 c5be 58dc 0b3e 8915 4ebe ee5a 623d
000001f0: 68b0 073d 1178 8e3e 7b39 4dbe 2278 993e
00000200: c853 da3d c15b 473e a979 863e 95f0 08be
00000210: 7b61 493e a24f 72be 7465 70bf 70a5 8b3d
00000220: fd83 34bf 7c2e 2ebf dc40 133f cbe5 963d
00000230: 7589 6c3f 779f 1b3e 99a8 80bc 9409 00bf
00000240: 1e4f 16bf c6b9 7a3e 33f8 013c 37eb 473d
00000250: a248 4dbe 8985 d23d 8a5c c9bd fc29 32bf
00000260: cc1e 0e3e 8bd5 eabe 3996 37bf 83d3 a8be
00000270: 710a bd3e 0444 eebe 4f2c 21be 02ae dcbd
00000280: ad07 7abe 9f31 30be b918 53be ce52 4dbf
00000290: b09b 983f 3879 a9bd e861 a43e b872 4c3e
000002a0: b4ae 023e 5457 53be 0424 163e 6110 f03d
000002b0: 01c2 a93d 00ef 653e 895c cdbe 11bc 45be
000002c0: 56f7 2dbe bed3 7cbe f51e 5bbe 84d9 8ebd
000002d0: 0d13 0a3f b6a8 613f 847d 223f c388 37be
000002e0: 5cff fb3e 9aee 3c3f 6f2b 27bf 32b2 b53e
000002f0: 8826 4ebf 1766 f6be d1b2 10be 05d2 61be
00000300: 2e54 0b3f 4e4f efbe b681 8e3e ef6d d0be
00000310: 1b15 83be 7b59 72bd be9d dbbe 3f42 b7be
00000320: f165 2ebe a5cc 893e 0843 d0be e6a2 1fbe
00000330: 1064 27be bfe4 203e 41f9 0d3f be8d b23e
00000340: 1a12 983e 4afa 47be 8249 05bf efa0 18bf
00000350: 1e58 56bc 6a58 eabd b3f0 3ebf 3920 703e
00000360: 34f4 d9bc 01a5 b93e ac66 4c3f b0f6 14bf
00000370: bf3f 88be 0887 a4bd 4399 25be b75b 243e
00000380: e826 50be 6ad9 e5be 163e 263e 31eb 1b3f
00000390: 9730 893e 0060 08bf 097d 16bf a830 533e
000003a0: e696 fbbd 4a86 413e 541e 0ebf fce1 31bf
000003b0: 155f 233f d3df 3dbf 62e4 08bf 0b38 653e
000003c0: f7ae 0b3f 46a2 7a3e 58fd 34be 4ec2 adbe
000003d0: c811 153f 7011 3f3d 9141 ac3d 9e45 f0bd
000003e0: 7b3d a8be ea24 3ebe a9ef 123f 2553 ee3e
000003f0: 1230 673d 5532 14bc 1a2d 803e 4afe 8dbe
0.44048125 0.44137233 -0.08436265 -0.26870543 -0.24667329 0.2378336 -0.1003174 -0.9791153
-0.34147894 -0.34180662 -0.23946479 -0.20142819 0.76528317 0.7130272 0.07647382 -0.027268406
0.09458882 -0.30903605 0.1158527 0.32068396 0.49987394 0.2886603 0.27872062 0.15193376
-0.022931747 -0.07546312 0.209009 0.41298744 0.15310557 0.20910332 0.270679 -0.39411172
-0.07163192 0.38059422 -0.5140668 -0.6426868 -0.38993818 0.058884 0.03423768 -0.5517754
0.44935346 -0.3956571 -0.24045856 -0.6413005 -0.41488498 -0.0941093 -0.16620526 0.53529614
-0.5575982 -0.32520917 0.34658083 -0.34146258 0.6886522 -0.44834113 0.39852408 0.4098768
-0.14396591 0.30215278 0.17433669 -0.27872202 0.46171045 0.38871068 -0.4449678 -0.36174607
-0.54357576 0.5728651 -0.20903908 -0.30948457 0.35832676 -0.15168193 0.011368469 0.33096564
-0.7608507 -0.7184509 -0.043244887 0.16088718 -0.31543207 -0.020718526 0.1073179 -0.24810836
-0.35418797 -0.0067396457 0.10841149 0.16922835 0.09561504 0.029133867 -0.43292773 0.76126033
-0.2795692 -0.7979758 0.21335436 0.6087836 0.2809368 -0.80915457 0.073536016 0.4577697
-0.068332754 0.36566332 0.00048328598 -0.07080022 -0.19482133 0.47335753 0.266348 0.25711825
-0.58848274 -0.9816614 0.3159206 -0.22633234 0.09408931 -0.40572312 0.3454669 0.3622039
0.08980296 -0.038337156 -0.23154803 -0.3879631 0.045502093 0.28160176 0.44315788 -0.43713242
-0.38529086 0.13658273 -0.20125403 0.0552625 0.03312722 0.27825978 -0.20041458 0.29974467
0.10660511 0.19468595 0.26264694 -0.13373025 0.19666092 -0.2366319 -0.93904805 0.06818664
-0.705139 -0.6803968 0.5752084 0.07368048 0.9239724 0.1519755 -0.015705394 -0.50014615
-0.58714473 0.2448493 0.00793271 0.048808303 -0.20047238 0.10279376 -0.098321036 -0.69595313
0.13878936 -0.45866045 -0.71713597 -0.3297387 0.3692203 -0.46536267 -0.15739559 -0.10775377
-0.2441699 -0.17206429 -0.206149 -0.80204475 1.1922512 -0.08275074 0.32105947 0.19965637
0.12761956 -0.20638782 0.14662176 0.11721874 0.082889564 0.22454453 -0.4010966 -0.19310023
-0.16988882 -0.24690148 -0.21398528 -0.069750816 0.5393532 0.8814806 0.6347277 -0.17923264
0.4921826 0.7380158 -0.6530065 0.35487515 -0.80527544 -0.48124763 -0.14130713 -0.22052772
0.54425323 -0.46740192 0.27833337 -0.40708873 -0.2560204 -0.059167366 -0.42893785 -0.3579273
-0.17031075 0.26913944 -0.4067614 -0.15589485 -0.16346765 0.1571226 0.55458456 0.34873766
0.2970131 -0.19529071 -0.5206529 -0.59620565 -0.013082532 -0.11442645 -0.7458603 0.23449792
-0.026605703 0.362587 0.79844165 -0.58188915 -0.26611134 -0.08033568 -0.16171746 0.16050611
-0.20327342 -0.44892436 0.16234621 0.6090575 0.26794884 -0.53271484 -0.5878454 0.2062403
-0.12284641 0.18898883 -0.5551503 -0.6948545 0.6381696 -0.74169654 -0.53473485 0.2238466
0.5456385 0.24475965 -0.17674768 -0.33937305 0.5823026 0.04664749 0.08410943 -0.117320284
-0.32859406 -0.18568769 0.5739694 0.4654781 0.056442328 -0.009045203 0.2503441 -0.2773307

network_body._body_endoder.seq_layers.0.bias f4 [128]
00000000: 0000 0000 0000 0000 0000 0000 0000 0000
00000010: 0000 0000 0000 0000 0000 0000 0000 0000
00000020: 0000 0000 0000 0000 0000 0000 0000 0000
00000030: 0000 0000 0000 0000 0000 0000 0000 0000
00000040: 0000 0000 0000 0000 0000 0000 0000 0000
00000050: 0000 0000 0000 0000 0000 0000 0000 0000
00000060: 0000 0000 0000 0000 0000 0000 0000 0000
00000070: 0000 0000 0000 0000 0000 0000 0000 0000
00000080: 0000 0000 0000 0000 0000 0000 0000 0000
00000090: 0000 0000 0000 0000 0000 0000 0000 0000
000000a0: 0000 0000 0000 0000 0000 0000 0000 0000
000000b0: 0000 0000 0000 0000 0000 0000 0000 0000
000000c0: 0000 0000 0000 0000 0000 0000 0000 0000
000000d0: 0000 0000 0000 0000 0000 0000 0000 0000
000000e0: 0000 0000 0000 0000 0000 0000 0000 0000
000000f0: 0000 0000 0000 0000 0000 0000 0000 0000
00000100: 0000 0000 0000 0000 0000 0000 0000 0000
00000110: 0000 0000 0000 0000 0000 0000 0000 0000
00000120: 0000 0000 0000 0000 0000 0000 0000 0000
00000130: 0000 0000 0000 0000 0000 0000 0000 0000
00000140: 0000 0000 0000 0000 0000 0000 0000 0000
00000150: 0000 0000 0000 0000 0000 0000 0000 0000
00000160: 0000 0000 0000 0000 0000 0000 0000 0000
00000170: 0000 0000 0000 0000 0000 0000 0000 0000
00000180: 0000 0000 0000 0000 0000 0000 0000 0000
00000190: 0000 0000 0000 0000 0000 0000 0000 0000
000001a0: 0000 0000 0000 0000 0000 0000 0000 0000
000001b0: 0000 0000 0000 0000 0000 0000 0000 0000
000001c0: 0000 0000 0000 0000 0000 0000 0000 0000
000001d0: 0000 0000 0000 0000 0000 0000 0000 0000
000001e0: 0000 0000 0000 0000 0000 0000 0000 0000
000001f0: 0000 0000 0000 0000 0000 0000 0000 0000
0.0 0.0 0.0 0.0 0.0 0.0 0.0 0.0
0.0 0.0 0.0 0.0 0.0 0.0 0.0 0.0
0.0 0.0 0.0 0.0 0.0 0.0 0.0 0.0
0.0 0.0 0.0 0.0 0.0 0.0 0.0 0.0
0.0 0.0 0.0 0.0 0.0 0.0 0.0 0.0
0.0 0.0 0.0 0.0 0.0 0.0 0.0 0.0
0.0 0.0 0.0 0.0 0.0 0.0 0.0 0.0
0.0 0.0 0.0 0.0 0.0 0.0 0.0 0.0
0.0 0.0 0.0 0.0 0.0 0.0 0.0 0.0
0.0 0.0 0.0 0.0 0.0 0.0 0.0 0.0
0.0 0.0 0.0 0.0 0.0 0.0 0.0 0.0
0.0 0.0 0.0 0.0 0.0 0.0 0.0 0.0
0.0 0.0 0.0 0.0 0.0 0.0 0.0 0.0
0.0 0.0 0.0 0.0 0.0 0.0 0.0 0.0
0.0 0.0 0.0 0.0 0.0 0.0 0.0 0.0
0.0 0.0 0.0 0.0 0.0 0.0 0.0 0.0

network_body._body_endoder.seq_layers.2.weight f4 [128, 128]
00000000: 162d 0ebe 30c0 81be e896 5abd 0b72 65bc
00000010: b06a 513d fc01 f93d 364e 363d 5858 08bd
00000020: 520b 03be 1415 c4bc 7893 99bd 0968 08bd
00000030: af0f 32bc 08e8 febd e560 acbd a0f9 1f3e
00000040: f8ac 91bb ef3e aa3c e106 bd3d 4960 283d
00000050: d124 933d 0cf2 cb3c c196 88bc fa3a 00be
00000060: dc5b 6abd f919 43bb c8ad eb3c 58b8 cdbd
00000070: 1949 00bd 4898 5e3a 4b5d de3b d7c9 dbbd
00000080: 2b1d 08bc 2fa6 be3d 20da a63d 4cdc 99bd
00000090: f765 05be aa8b 5cbc 361c 61bd 7737 53bd
000000a0: 5086 e83d 0c62 15be f67d e0bc 0f9b 8cbc
000000b0: 0d67 b83c 188b 883d 1ed3 79bd 5995 04bd
000000c0: c258 f5bd cd14 89bd c940 86bb 3439 f73c
000000d0: f8b3 b3bc dcc6 d2bd b3e1 da3b 7bdf 053e
000000e0: 0d1f 393d 89a1 d03d 3791 413d 34e9 3a3e
000000f0: 4341 133c ac35 9dba b7fe 873d abea 783d
00000100: 3fdf c8bc 240d 823d 7d13 07be 6428 7a3b
00000110: aad7 e53c b6b9 af3d 6a72 b43c 77b3 8d3d
00000120: fac2 583d 4c09 1bbe e654 1e3a 882f 30ba
00000130: df62 9e3d d94e 283c 844e 9dbd 3b4c df3d
00000140: ba7e 8a3d 6c27 50bd c373 973d 8d67 e83c
00000150: 9b13 caba c98b 2dbd a4ee e43d 6e5e 42bd
00000160: 7d55 62bd 203f 0c3d 6301 813c 823b 163d
00000170: e478 9dbd 0b3f 77bd 0d94 153e b539 1ebc
00000180: 9469 cc3c ca9d b13c 5243 e7bd 48a1 8b3c
00000190: b34e 0cbd 3faf a63d 501a 213c 6595 c23a
000001a0: 30b7 79ba 6396 273e f060 dbbd dd01 3ebd
000001b0: dc59 25be 1c1b 7e3c 8c3c 513d ac8d 373e
000001c0: e543 4f3d 4b66 5a3d 681e 703d 8db4 8ebd
000001d0: fe80 b8bd c502 eabd 2021 07be cb5f ce3d
000001e0: 7f67 0a3e 68d5 db3c ec52 91bd 5634 483c
000001f0: 4879 debc 9c6b 6cbd 1da9 863c 7ea8 bebd
00000200: ce7f 5e3d b90c e13d b927 283c 293e c23d
00000210: f7e8 513d f099 52bc bee8 eabd dcfa af3c
00000220: a2b0 093e 0aba 04bd af5d 063d f817 8f3c
00000230: e602 fbbd fc22 c73d 3b07 46bc e589 973d
00000240: 4f7f ad3c 983f 21bd 4c3c 04be d5a4 853c
00000250: a05c 57bd e049 b73d f9cf 9f3d 770e 79bb
00000260: 104f c53b 2f3e 1c3d 7f07 ac3d d0e0 9b3d
00000270: 3a03 bc3d 5e62 eabb 9f1d 8a3b f3ec b0bd
00000280: de2e 283e 593d 923c 3b91 c0bb b377 073c
00000290: 0e3b 293d 165b 17bd 4d28 553d 2969 cabd
000002a0: e31b 5a3d 0b8a c1bb e38e e6bd d463 5ebd
000002b0: d2cf 80bd 95c8 68bd 6503 12bd 723c d93b
000002c0: 0e98 74bd b727 a0bd ba2c 63bd c6f5 893c
000002d0: 526d b3bc d033 323d cfcf b1bb a15d 44bd
000002e0: 6a40 bebd e173 0a3d e71a 57bd bea7 a9bd
000002f0: 3512 36bd a8e9 b2bc ef64 df3c be0f 5b3d
00000300: 073d e33c e1e4 d73d 8d88 3a3d c234 bfbd
00000310: ca78 493d c93a 043e 9f59 93bd d02a 71bd
00000320: 54d8 2839 c59f 5a3d a882 c4bd af35 453d
00000330: 5ceb d3ba 35e4 babd d43e 4c3d 7519 d63c
00000340: 55ed f4bc fb51 5cbd 6679 f9bc 7d09 9dbc
00000350: 4456 bf3c e083 9d3c 3d12 bfbc f2f6 8bbd
00000360: c70a cb3d 8037 0ebd 37ec f93c c1b1 71bc
00000370: cb25 a3bc 4d5f 973c e3e1 0ebe acb6 b3bd
00000380: 0eae 903d dfcc aebd d9b3 b13c 7962 1d3e
00000390: 3baa 8a3d 9c37 9abd 0836 373d fb68 b1bd
000003a0: 9554 a63c 64a5 1c3d f6c4 9abd 820a 813d
000003b0: e589 8ebb 7a20 2f3d e4ca bcbd a6c4 4d3d
000003c0: 474f 9abd ef51 093e ead3 283e 9522 88be
000003d0: 9d22 163d f2f6 90bd 52f4 d93d cea7 c4bc
000003e0: 83cb 41bd 8c64 65be 8fdb adbc 710e 313c
000003f0: b903 633a 05d1 8bbd e0bc 9a3d 5a03 c93d
-0.13884386 -0.2534194 -0.05336657 -0.014004241 0.051127136 0.121585816 0.04450818 -0.033287376
-0.12797287 -0.023935832 -0.074988306 -0.03330234 -0.010867997 -0.124466 -0.08416919 0.15622568
-0.0044456683 0.020781962 0.09229828 0.04110745 0.071847565 0.02489569 -0.016673448 -0.12522498
-0.05721651 -0.002977012 0.028769389 -0.100449264 -0.03131971 0.00084913196 0.0067860237 -0.10731857
-0.008307735 0.09309041 0.08147073 -0.075127214 -0.13027178 -0.013461033 -0.054958545 -0.051566567
0.11353743 -0.14588183 -0.027403813 -0.017163781 0.022510076 0.06667155 -0.060992353 -0.03236899
-0.1197982 -0.066934206 -0.0040970785 0.030178644 -0.021936402 -0.10291836 0.0066797375 0.13073532
0.045195628 0.101870604 0.04725763 0.18253022 0.008987728 -0.0011994145 0.0664038 0.06077067
-0.024520515 0.063501626 -0.13191028 0.0038171047 0.028056938 0.085803434 0.022027213 0.06918996
0.05292032 -0.15140265 0.00060398725 -0.000672095 0.07733702 0.010272705 -0.07680991 0.10903212
0.067624524 -0.050818846 0.07395127 0.02836969 -0.001541722 -0.042369638 0.111783296 -0.047453336
-0.05525731 0.03423989 0.015747732 0.036677845 -0.07689074 -0.060362857 0.14607258 -0.009657313
0.024952687 0.021681685 -0.11292137 0.017044678 -0.03425474 0.08138894 0.009832934 0.0014845548
-0.0009525893 0.16365962 -0.10711849 -0.046388496 -0.1614756 0.015509393 0.051083133 0.17925137
0.05060186 0.05332021 0.058622748 -0.06968031 -0.09008978 -0.114263095 -0.1319623 0.10076865
0.13516043 0.026835158 -0.07095894 0.012219509 -0.02715744 -0.05771981 0.016438061 -0.09309481
0.054321103 0.10988755 0.010263377 0.09484512 0.051247563 -0.012854084 -0.11470173 0.021481924
0.13446286 -0.032403983 0.032804187 0.017467484 -0.12256412 0.097234696 -0.012086685 0.07399348
0.02117887 -0.03936729 -0.12913626 0.01631395 -0.05257857 0.089496374 0.078033395 -0.0038003006
0.006021388 0.03814524 0.08399867 0.07611239 0.09180303 -0.0071528396 0.004214957 -0.086389445
0.16424128 0.017851518 -0.005876688 0.008268285 0.041316085 -0.0369521 0.052040387 -0.09883339
0.05324925 -0.0059063486 -0.11257722 -0.054294422 -0.062896386 -0.056831915 -0.03564777 0.00662952
-0.059715323 -0.07820075 -0.055462576 0.016840827 -0.021902714 0.043506444 -0.005426384 -0.047940854
-0.0928963 0.033801917 -0.05251589 -0.082839474 -0.044450957 -0.021839932 0.027269809 0.05348181
0.027739061 0.10541702 0.04554038 -0.09336235 0.04918746 0.1291305 -0.07194828 -0.05887872
0.00016102317 0.053375024 -0.09595233 0.0481469 -0.0016168165 -0.09125558 0.049864605 0.026135186
-0.029898325 -0.05378912 -0.030453395 -0.019169563 0.023356564 0.019227922 -0.023324126 -0.068342105
0.09914165 -0.034720898 0.030508144 -0.0147518525 -0.019915482 0.01847806 -0.13953356 -0.08775076
0.07064448 -0.0853517 0.021692203 0.15369596 0.0677075 -0.07530138 0.044729263 -0.086626016
0.020304004 0.038243666 -0.075570986 0.06300832 -0.0043499344 0.04275558 -0.09218386 0.050236367
-0.07534652 0.13410161 0.16487089 -0.26588884 0.036654104 -0.07078351 0.106423035 -0.024005797
-0.047313225 -0.22401637 -0.021222858 0.010806666 0.00086599175 -0.06826977 0.07555556 0.098150924

network_body._body_endoder.seq_layers.2.bias f4 [128]
00000000: 0000 0000 0000 0000 0000 0000 0000 0000
00000010: 0000 0000 0000 0000 0000 0000 0000 0000
00000020: 0000 0000 0000 0000 0000 0000 0000 0000
00000030: 0000 0000 0000 0000 0000 0000 0000 0000
00000040: 0000 0000 0000 0000 0000 0000 0000 0000
00000050: 0000 0000 0000 0000 0000 0000 0000 0000
00000060: 0000 0000 0000 0000 0000 0000 0000 0000
00000070: 0000 0000 0000 0000 0000 0000 0000 0000
00000080: 0000 0000 0000 0000 0000 0000 0000 0000
00000090: 0000 0000 0000 0000 0000 0000 0000 0000
000000a0: 0000 0000 0000 0000 0000 0000 0000 0000
000000b0: 0000 0000 0000 0000 0000 0000 0000 0000
000000c0: 0000 0000 0000 0000 0000 0000 0000 0000
000000d0: 0000 0000 0000 0000 0000 0000 0000 0000
000000e0: 0000 0000 0000 0000 0000 0000 0000 0000
000000f0: 0000 0000 0000 0000 0000 0000 0000 0000
00000100: 0000 0000 0000 0000 0000 0000 0000 0000
00000110: 0000 0000 0000 0000 0000 0000 0000 0000
00000120: 0000 0000 0000 0000 0000 0000 0000 0000
00000130: 0000 0000 0000 0000 0000 0000 0000 0000
00000140: 0000 0000 0000 0000 0000 0000 0000 0000
00000150: 0000 0000 0000 0000 0000 0000 0000 0000
00000160: 0000 0000 0000 0000 0000 0000 0000 0000
00000170: 0000 0000 0000 0000 0000 0000 0000 0000
00000180: 0000 0000 0000 0000 0000 0000 0000 0000
00000190: 0000 0000 0000 0000 0000 0000 0000 0000
000001a0: 0000 0000 0000 0000 0000 0000 0000 0000
000001b0: 0000 0000 0000 0000 0000 0000 0000 0000
000001c0: 0000 0000 0000 0000 0000 0000 0000 0000
000001d0: 0000 0000 0000 0000 0000 0000 0000 0000
000001e0: 0000 0000 0000 0000 0000 0000 0000 0000
000001f0: 0000 0000 0000 0000 0000 0000 0000 0000
0.0 0.0 0.0 0.0 0.0 0.0 0.0 0.0
0.0 0.0 0.0 0.0 0.0 0.0 0.0 0.0
0.0 0.0 0.0 0.0 0.0 0.0 0.0 0.0
0.0 0.0 0.0 0.0 0.0 0.0 0.0 0.0
0.0 0.0 0.0 0.0 0.0 0.0 0.0 0.0
0.0 0.0 0.0 0.0 0.0 0.0 0.0 0.0
0.0 0.0 0.0 0.0 0.0 0.0 0.0 0.0
0.0 0.0 0.0 0.0 0.0 0.0 0.0 0.0
0.0 0.0 0.0 0.0 0.0 0.0 0.0 0.0
0.0 0.0 0.0 0.0 0.0 0.0 0.0 0.0
0.0 0.0 0.0 0.0 0.0 0.0 0.0 0.0
0.0 0.0 0.0 0.0 0.0 0.0 0.0 0.0
0.0 0.0 0.0 0.0 0.0 0.0 0.0 0.0
0.0 0.0 0.0 0.0 0.0 0.0 0.0 0.0
0.0 0.0 0.0 0.0 0.0 0.0 0.0 0.0
0.0 0.0 0.0 0.0 0.0 0.0 0.0 0.0

action_model._discrete_distribution.branches.0.weight f4 [3, 128]
00000000: 9df9 fb3a fd9a 093c 8ccd 91bc 77a9 d139
00000010: 24f3 003c 38bf aabb 2bb9 2ebb e03a e8ba
00000020: 1cc3 383c f26b a9ba e3ae 17bc 5a0d 7c39
00000030: f5ef fd3b 8ad1 6c3b 1153 233c 10cf 14bb
00000040: 9f1e 7fba b333 bc39 5f78 1b3c b784 033c
00000050: 4272 e63a 1f4a 88bb ad25 cbbb 2d87 103c
00000060: 67d4 f43b 62f5 03bb 15d7 32bc 24cd 9f3b
00000070: 306c 3a3c 5aab 583b 6d85 80bc f0d9 5f3c
00000080: 9afa 4fbc c92b 9db9 3dc3 d2bb d762 9ebc
00000090: 35ca 58bb c34d 773c bf9a 32bc 3b91 e13b
000000a0: 94e7 023b 2f7a 77bc e7ec 1f3c f0d3 963b
000000b0: 920d 44bc 138a adbb 45d1 3fbc cb4c 8ebc
000000c0: 378e 7b3a 2f6d f2bb 8108 ae3b 2af6 4a3c
000000d0: 303c 4d3b 11b5 b23b 11d4 833c 7e8c 163b
000000e0: 5584 7c3b e3a4 3a3b 5dfe ca3b f814 bfbc
000000f0: 1285 7abb 3b91 043c d449 8d3a a584 29bc
00000100: 3acb f3ba c648 86bb d0bb 573c 455e f8bb
00000110: a716 74bb 2d1f f23b 95f4 f93b 747e 153c
00000120: a256 783c fb07 99bb 7f3a 093c 7ce9 233c
00000130: be9d a83a 5a12 823b fdee 1abc 01b1 8e3b
00000140: 4636 c3bb 1338 c2bc 42d5 d03b dafc e63b
00000150: a3eb 0dbc 02e8 02bb 4e13 91bc 80d4 47bb
00000160: f6a0 2e3a dfc9 463c afba ecbb c3b5 553b
00000170: d2ce b53b be0c cbbb 87a3 97bc f0e9 e7bb
00000180: 2060 26bb 3a44 59bc e4c8 423c 621c 93bb
00000190: 1a0f debb d2fc db3a 8e04 8dbc 5b3b 0cbc
000001a0: c798 fc3b 0788 e8bb 8f50 b6bb 8584 ec3b
000001b0: 04ca 35bc e624 1fba e0a7 673b eac6 01bc
000001c0: 6afa 4abb 469f 953c 2b1a ffbb 0391 0ebb
000001d0: 4ca9 373a fb96 c73a da8f 4ebc cd9a 6dbc
000001e0: 8197 273a bfbe 54bc c07a 20bc 2a4d f83b
000001f0: 8d35 733c 0af9 e8bb aba8 88bc b467 11bc
00000200: d0c8 b2bb 3d20 7fbc 2384 033c 03e6 e33b
00000210: f80b 943c 57ef c83b 8b09 85bb 756d 2238
00000220: 9a04 11bc b8bd 543a 0712 703c f7a0 7c3b
00000230: 83b7 363c 0993 aa3b 67e7 433b 79b2 b1bc
00000240: 7ba9 88ba 88c6 cebb b31e 27bb 60d8 1fbc
00000250: 1a15 d6b8 7d3a b4bb c03a 03bc 7655 ccba
00000260: af00 4b3c be09 9bbb 781e f2bb 7049 fabb
00000270: 0f81 8ebb edaf 4d3c 8b04 5bbc 564c 9cbc
00000280: ebae 33bc 6264 683b 1c8e 4a3c 6c69 443c
00000290: 80ae 84bc aa21 513c 5830 a6bb 00af aa3a
000002a0: f71b 203c 08a7 edba 0d3f f63a 4120 33bc
000002b0: af55 12bc 9512 f9bb 75c1 8d3b 8605 3e3b
000002c0: 294f 91bc 3b31 cd3a 606d 68bb 87c5 f23b
000002d0: 073e 343c 2ca5 85bb f540 9fb9 5834 7738
000002e0: abf1 ce3b 2404 9bbb 5760 683c fbda 1fbb
000002f0: 6896 d73c 746f bb3c 4805 b43c d8c0 72bb
00000300: eaca c1b8 f6cd 0f38 1328 31bc 872b 123b
00000310: 0fb5 333c cda6 9c3c 38e3 7abc 2bdb 50bc
00000320: ea2c 9b3c ed53 e6ba 8363 6bbc 934b e337
00000330: a775 383b 145f 4c3c cfe7 c93b 13e0 503b
00000340: 20e7 64bb e597 97ba 5965 2abc c2c7 543c
00000350: f2c1 74ba fef8 3dba 7b3f 573b 7d57 47bc
00000360: def4 0c3b 9fa9 26bc 5d38 82bb b552 783b
00000370: 5065 0ebc 2c88 83bc ba6f 50b8 cb59 2e3a
00000380: 5fde 993c 4e76 2b3c 80b2 5cbb d5b5 81bc
00000390: d8e7 80ba b60a 323b a397 a03c 98d4 503c
000003a0: 12d8 f4bb 42d8 08bc 8787 3839 123b 7e3b
000003b0: 3780 3a3c 9e84 3bbc 1dfc 6fbb c06c df3b
000003c0: c20f 9e3b 9720 033c 6175 31bc 4653 903b
000003d0: 88a1 f338 077b e6ba 0707 5fbc 4244 9abb
000003e0: 027f 8abb a2ba 15bc 73a2 df3a 9b31 ad3b
000003f0: 7b81 573b 6349 2fb9 f1b0 07bc 483c 50bc
0.0019224171 0.0083987685 -0.017798208 0.00039989848 0.007870469 -0.0052107833 -0.0026660662 -0.0017717741
0.011276986 -0.0012925847 -0.009258005 0.00024037567 0.0077495524 0.0036135637 0.009968535 -0.0022706427
-0.0009732041 0.00035896673 0.009489148 0.008027247 0.0017581659 -0.0041592265 -0.0061995597 0.008821291
0.0074716094 -0.0020135273 -0.010915537 0.0048767496 0.011378333 0.0033061118 -0.015688622 0.0136628
-0.012694025 -0.00029977996 -0.0064319656 -0.01933424 -0.003307951 0.015094223 -0.010901152 0.006883768
0.0019974457 -0.015104814 0.009761072 0.0046029016 -0.011966126 -0.0052960007 -0.011707609 -0.017370602
0.0009596082 -0.0073982696 0.0053110723 0.012387792 0.0031316392 0.0054537137 0.016092332 0.0022971923
0.0038531024 0.0028479628 0.0061948732 -0.023325428 -0.0038226289 0.008091266 0.0010779449 -0.010346566
-0.0018599995 -0.0040980307 0.013167337 -0.007579597 -0.0037244947 0.0073889703 0.0076280334 0.009124387
0.015157374 -0.004670141 0.008375763 0.0100043975 0.0012864394 0.003969473 -0.009456393 0.0043545966
-0.0059573976 -0.023708379 0.0063730786 0.007049185 -0.008662137 -0.0019974713 -0.0177094 -0.003049165
0.0006661558 0.012133091 -0.007224403 0.003260956 0.0055483365 -0.0061965873 -0.018510593 -0.007077448
-0.0025386885 -0.013260895 0.011888716 -0.0044894675 -0.0067767026 0.001678372 -0.017214086 -0.008559073
0.007708642 -0.007096294 -0.0055638026 0.007217946 -0.011095528 -0.0006070867 0.0035347864 -0.00792096
-0.0030972012 0.018264424 -0.007785102 -0.0021753914 0.0007006123 0.0015227491 -0.012607539 -0.014502239
0.000639312 -0.012984931 -0.009794891 0.007577558 0.0148443105 -0.007109766 -0.01668199 -0.008874822
-0.0054560676 -0.015571651 0.008027109 0.00695491 0.018072113 0.006132047 -0.0040599755 3.872575e-05
-0.008851195 0.00081154285 0.014652736 0.003854809 0.011152151 0.0052055162 0.0029892565 -0.021691548
-0.0010426486 -0.006310288 -0.0025500476 -0.009756178 -0.00010208246 -0.0055001364 -0.008009613 -0.0015589434
0.0123903 -0.004731386 -0.007388886 -0.007638149 -0.004348881 0.012554151 -0.013367782 -0.019079369
-0.010966997 0.0035460223 0.012362983 0.011988025 -0.01619649 0.012764374 -0.005071681 0.0013022125
0.009772292 -0.0018131444 0.0018787101 -0.010932983 -0.008931561 -0.007601092 0.0043260404 0.0028994991
-0.017737942 0.0015654931 -0.0035465583 0.007408801 0.011001117 -0.004078528 -0.0003037524 5.8938138e-05
0.00631543 -0.004730718 0.014183125 -0.0024391997 0.026316836 0.022880293 0.021975175 -0.0037041213
-9.240753e-05 3.4285673e-05 -0.010812777 0.0022303776 0.010968461 0.019122506 -0.015312962 -0.012747566
0.018942315 -0.0017572619 -0.014366987 2.70957e-05 0.0028146298 0.01247384 0.006161667 0.003187184
-0.00349278 -0.0011565654 -0.01040014 0.012987079 -0.00093367614 -0.00072468806 0.0032844234 -0.012166855
0.0021508257 -0.010172277 -0.003974004 0.0037891094 -0.008691147 -0.016056143 -4.9695118e-05 0.00066509534
0.018782793 0.010465218 -0.003367573 -0.015833775 -0.000983472 0.0027167029 0.019603556 0.012745999
-0.0074720467 -0.008352341 0.00017598095 0.0038792533 0.011383108 -0.011445193 -0.0036618777 0.006818384
0.004823656 0.0080033755 -0.010831208 0.004404458 0.000116172305 -0.0017584272 -0.013612515 -0.004707844
-0.0042265663 -0.009138735 0.0017061963 0.0052854544 0.0032883573 -0.00016716639 -0.008281932 -0.012709685

action_model._discrete_distribution.branches.0.bias f4 [3]
00000000: 0000 0000 0000 0000 0000 0000
0.0 0.0 0.0

action_model._discrete_distribution.branches.1.weight f4 [3, 128]
00000000: 711b 9b3a fd00 13bc 9d48 ec39 3cc7 133c
00000010: 039a 59bb e03f 0c3c 0f8a 7ebc 5852 ffbb
00000020: 1f7e 393a 2ffe 19bb e5c7 303b 9878 fb3a
00000030: 7447 2e3c 97ce d23b 2f3f 03bc 0f2c 11bc
00000040: 91db 9abc 90c6 85bb 6bb8 a9bb c0e5 b03b
00000050: c744 873b a482 113c 57b6 a33b 4fe4 af3b
00000060: 0410 033b 8f91 c7ba 3e3c 08bc 57b5 403b
00000070: 7e9b 163b 7d6a d63b 6316 533b 1214 333c
00000080: 6f2e a1bc 2eea 16bc 5e16 3fbc 2a8b 67bc
00000090: 2e8a 2838 f770 053c 37f5 7fbb d5e4 773b
000000a0: a6a5 c5bb 9e87 ae3a 400f a1bb 13b6 45bc
000000b0: 27dd 22bb 6abb 2a3c 217a 49bb 0761 1d3b
000000c0: 1df8 da3b 2e09 403c 8302 3abc e356 323b
000000d0: 5b00 f9bb c308 303c 56fa 323a f204 9abb
000000e0: 5d91 773b 2b06 eebb 7a60 a5bc 4de7 6bbc
000000f0: 3b20 3fbc 571f 4e3c 1eb2 b9bc d05f 263c
00000100: e716 293c 75b0 193b 649a c6bc 5969 aebb
00000110: 63fd 09bc 3825 503c 1b17 d5bb 3790 82ba
00000120: fcec 03bc e558 18bc 8267 5abc 5f52 52ba
00000130: ab7e 60bc 8533 14bc 3225 a33b b537 1fbc
00000140: 3f91 9b3a 23c6 18bb e089 6d3c db09 a23c
00000150: d218 0a3c ab6a 313c b7c6 21bb 8250 a6ba
00000160: 5254 2fbc 568c 393b 7ab5 183c 0240 963a
00000170: 722c 513b ab80 c63b 3bfa ed3b 1fef 133b
00000180: 0f3b 3b3c 6e93 aab8 2249 dc3c 7477 3a3c
00000190: 3b8e 653c 321e 5ebb 12d0 c53b b6b0 c9bb
000001a0: 7986 303c fb37 adbc f3cf 293b 0c8d c93b
000001b0: 91b1 113c 7046 c5bb 4c28 85ba 31cd 2fba
000001c0: 23fc 86bc b393 a3bc f791 6d3c 7753 04bc
000001d0: cad3 fe3b 83f8 3bbb a3b5 9a3b cc56 0cbc
000001e0: e8b8 26bc 36be 833b 4321 deba 6488 203c
000001f0: 8e80 9d3b 6985 4a3a f545 0cbc dd02 9cbc
00000200: c723 e8ba 7fc2 45bb c63c 8f3a 2b44 a6ba
00000210: 2e87 8fba b329 723b b71a 12bc 9acd 62bc
00000220: 7cca a3ba 8537 583b 8277 293b 0d90 61bc
00000230: 871d 3c3b 232e bfbc 2d14 4d3b 321e ad3c
00000240: 482a d63b 234f a1bb be0d 12b9 fe29 1ebc
00000250: 2900 be3b 2a4e 0b3b 82bd 9cbb a314 323c
00000260: ea66 d2bb a9fd 463c 9eba 47bb 9a75 70bc
00000270: 71e7 1a3c 9bf2 b83a bf4c 1c3b 3c60 c2bb
00000280: 508f 1b3c 2fb4 9b3b 23da 713c 9702 633b
00000290: 8223 52bc 9786 d4b8 4f6b 603c 6fd3 0aba
000002a0: 5739 0bbb cb88 c5bc 53a2 14bc 8590 afbb
000002b0: 14e6 853b bc5f 323c db52 adbb 3f53 32bc
000002c0: 7791 a9bb da2a 093c 8825 7fbc 2106 c83b
000002d0: 3002 023c 8336 f43a 6897 c4bb eb57 c83c
000002e0: 92ed 693c 9359 983c e780 e2ba 0ff5 89bc
000002f0: 0bab c0bc eb6c f5ba 0959 423c 12ab a33c
00000300: 402f b13b f3e2 713c cf89 57ba 36b6 80bb
00000310: 2d96 4d3b a3fb 323b e7df a73b 3341 7ebb
00000320: ffab d23b 9d05 dc3b 3b45 333c 92fb f0bb
00000330: 4023 80bb 7756 7a3c 774e 98b9 9298 113b
00000340: f64f a1bb e39e 0c3b 7343 dc3b 0f78 2cbb
00000350: d354 74bb 85eb d03b a011 0cbc 75f5 f9ba
00000360: 1efe 843b 2019 93ba 4e5a 2a3c 7fea cc3b
00000370: 333e 223c 0816 6dbc ebe2 1fbc d2f1 df3b
00000380: 27a6 c7bb ef41 12bb 148c bd3a 2306 bb3b
00000390: 30c4 a83c e20d 813b 6648 91ba a148 9cba
000003a0: fbc5 b63b 73fa 503c 2d44 c8bb 2eac a3bb
000003b0: 5a4c f9b9 a1c9 433c 1fca e53b 4f2d 983b
000003c0: 3aa6 e23b b756 d33a 8368 b5bb 8fa0 853c
000003d0: ad61 d43b 99ca 8bbb 9cc0 c63c 2bb6 61bb
000003e0: 75df 87bb 0f54 3f3c 3056 0cbb adb3 873b
000003f0: f531 f73b eaa5 3fbc fa62 333b 302a 7bbc
0.001183374 -0.008972404 0.0004506753 0.009019669 -0.003320337 0.008560151 -0.015535845 -0.0077917986
0.00070759834 -0.0023497452 0.0026974615 0.001918572 0.010637153 0.006433319 -0.00801067 -0.008860602
-0.018903526 -0.0040825084 -0.005179455 0.005398482 0.004128072 0.008881245 0.004996102 0.0053677927
0.001999856 -0.0015225875 -0.008315144 0.0029404962 0.0022980864 0.006543456 0.0032209388 0.010930078
-0.019675462 -0.009211106 -0.011663048 -0.0141323 4.018301e-05 0.008144609 -0.0039056072 0.0037825604
-0.0060317097 0.0013315564 -0.004915148 -0.012067336 -0.0024851055 0.01042066 -0.003074296 0.0024014132
0.0066824094 0.011720939 -0.011353138 0.0027212433 -0.0075989193 0.010744276 0.0006827464 -0.0047002966
0.0037775852 -0.007263919 -0.020187605 -0.014398408 -0.011665399 0.012580714 -0.02266794 0.010154679
0.010320402 0.0023451124 -0.024243541 -0.005322617 -0.0084222285 0.012704186 -0.0065029985 -0.0009961192
-0.008052107 -0.009298538 -0.013330342 -0.00080231385 -0.013702075 -0.009045486 0.0049787993 -0.009717871
0.0011868848 -0.0023311458 0.014498204 0.01978009 0.008428769 0.010828654 -0.0024685094 -0.0012688788
-0.010701256 0.0028312407 0.009320611 0.0011463168 0.003191736 0.006057819 0.007262496 0.0022572947
0.011427655 -8.1336926e-05 0.026890341 0.011381019 0.014010961 -0.003389251 0.006036767 -0.006155099
0.010774248 -0.021144858 0.00259113 0.0061508473 0.008892433 -0.0060203597 -0.0010159104 -0.0006706296
-0.01647765 -0.01996789 0.014500133 -0.00807654 0.007776712 -0.002868206 0.00472136 -0.008565616
-0.010175921 0.0040204776 -0.0016947169 0.009798143 0.0048065847 0.0007725568 -0.008561601 -0.019044334
-0.0017710858 -0.0030175743 0.0010928146 -0.001268511 -0.0010950321 0.0036951124 -0.008917502 -0.013842965
-0.0012496258 0.0032992077 0.0025858586 -0.013767255 0.0028704123 -0.02333743 0.0031292543 0.021132562
0.006535802 -0.004922764 -0.00013928764 -0.009653566 0.005798359 0.0021256306 -0.0047833333 0.010869178
-0.0064209597 0.012145438 -0.0030476223 -0.014676476 0.009454594 0.0014110388 0.0023849455 -0.005931882
0.009494618 0.004751704 0.0147614805 0.0034638995 -0.012825849 -0.00010134017 0.013697459 -0.0005295788
-0.0021243894 -0.02411308 -0.009071904 -0.0053578042 0.0040862653 0.010887083 -0.005289418 -0.010884105
-0.0051748115 0.008372033 -0.015572913 0.0061042462 0.007935092 0.0018631968 -0.0059994943 0.024455985
0.014277833 0.0185974 -0.0017280848 -0.016840486 -0.02351906 -0.0018724477 0.011862048 0.019979034
0.005407244 0.014763582 -0.0008222134 -0.0039279712 0.003137003 0.0027310632 0.005123127 -0.0038796186
0.006429195 0.0067145363 0.010941799 -0.0073542083 -0.003910452 0.015279404 -0.0002905016 0.0022216183
-0.004922862 0.0021457009 0.0067219078 -0.0026316678 -0.0037282004 0.0063757324 -0.008549124 -0.0019070344
0.0040586134 -0.0011222698 0.010397507 0.00625354 0.009902525 -0.014470585 -0.009758691 0.006834247
-0.006092805 -0.0022317132 0.0014461302 0.0057075187 0.020601362 0.0039384225 -0.0011084198 -0.00119235
0.0055778003 0.012755024 -0.006111643 -0.0049948907 -0.00047549867 0.011949928 0.00701262 0.004644073
0.0069167884 0.0016123865 -0.0055361404 0.016311912 0.0064813704 -0.004266095 0.024261765 -0.0034440856
-0.004146511 0.011677756 -0.0021413676 0.004141292 0.007543797 -0.011697272 0.0027372227 -0.0153298825

action_model._discrete_distribution.branches.1.bias f4 [3]
00000000: 0000 0000 0000 0000 0000 0000
0.0 0.0 0.0

action_model._discrete_distribution.branches.2.weight f4 [2, 128]
00000000: 1017 febb 184a 4e3c c773 6a3b b5c8 a8bb
00000010: 8954 b6bb 1f0d 25bb 8764 88bb a7e1 bf3b
00000020: 7d97 ee3b 0d79 783b 4757 c5ba 1fba d93a
00000030: d2f1 5bbb ba5b 71ba f947 b73b d7ce 8f3b
00000040: 0476 003c dca6 8d3b f35d 5abb db99 aa3a
00000050: 48e8 e8ba 5f73 4f3c 737d c2bb 338c a83b
00000060: eb70 0fba eb46 e03b 815d 423c 6440 be3b
00000070: 077f 69bb 2050 c3bc 956a 673b b4e7 0cbc
00000080: 1ad9 ca3b 8472 363c e045 5bbb 05bd 69bb
00000090: f4a9 843c 0af7 2a38 2f03 0a3c 6f20 523b
000000a0: 3313 1fbb 65a1 ccbb a775 4abb f37d 99bc
000000b0: fdaa 43bc cf0e 5a3a 3e6d 2dbb d293 213c
000000c0: 482a 90bc 2302 9d3a daa3 7cbc a361 57bc
000000d0: 27d2 a7bb d15c 05bb 2b5c f43b 8683 1e3c
000000e0: 2fd8 aebb 4faa 263b 39b2 453c f32b 1d3c
000000f0: 3fd7 57bb e81c e9bb 473f d839 3fc9 14bc
00000100: df82 3ebc 37dc 67bc 55ad a93b ba16 233c
00000110: 842d 38bc 96f4 2dbc 0f3c 9a3b ffbd 01bc
00000120: 084c 70bc 5561 513c ade8 c9bb 3301 39bc
00000130: 4f39 21bc 1c4a 8fbb 98a3 c33b adb4 ef3a
00000140: c81e 543c 0f4b 4539 db0b 68bc b2be 5fbc
00000150: 5363 303c 5f7e 2a3b 6385 683b f5f4 b33c
00000160: b7bd bc3b 665b 313a 7119 8cbb e270 2a3c
00000170: 0946 48bb 789d 2a3c cb72 f539 8759 0ebb
00000180: a68a 17bc 6b2c aa3c 4737 7639 9f25 b539
00000190: 836e 75ba 4c35 1b3c 61e2 9eba c2a8 74bc
000001a0: 4f3c 27bb d791 f93b 9343 d03b eb32 353c
000001b0: 405b cebb f085 c2b9 e0e8 063c 97cd 063b
000001c0: 234d 83bb 079e 223c 7bbf b23b 49b7 c83b
000001d0: bae8 5eba 42f7 003c b483 b83b aff8 aabb
000001e0: 9f10 153c 5fec e63b 9767 8ebc 8a96 bc3a
000001f0: 938e 3c3b 7c85 a0bb ed2d f13b 73f1 bf3b
00000200: b03c db3b e316 2f3c 3815 c3ba c3aa 2a3c
00000210: 9179 30bb 6813 3a3c 632a c539 a648 283c
00000220: 3959 87bb 6e35 46bc db42 c4bb 1360 60bc
00000230: bd77 fbbb e2ba 27bc e6d2 2e3c 5fef 4abb
00000240: 12aa 8cbc 8ac0 4f3c dc7d b23b 21ee bebb
00000250: 6443 a43a 6d9f aa3a cbfa a43b 77d5 943b
00000260: 4302 783b c3fe e93b 66d4 013c a602 81bb
00000270: ef92 ffbb f5fc b23b 7c1b aabb 2f19 9abc
00000280: a10f a33b 6801 d8bb a116 13bc 125c b43c
00000290: 57d3 153c 2d3f a93b dafd 683b c345 e53a
000002a0: 30c0 e5bb db6c 3bbb b2c5 abbb d4db 8d3b
000002b0: 65ea 44bb 5c62 13bc adb5 6aba 2a58 cebb
000002c0: be32 813b d53b 663b 305f 903a abeb 35bc
000002d0: b744 a8bb 702d 5ebc b8ec 82bc 147f c83b
000002e0: 5a0c e43b 1ae9 c33b 6bc1 a6bb 53d3 76b9
000002f0: 13dc 1e3a 16e2 1e3c 736a 683b 3976 8eba
00000300: 1844 4cbc 3abc 063c 5ed9 1abc e474 8e3a
00000310: 47eb 8cbc cb30 52b9 c037 bc3b 9b34 d0bb
00000320: fb15 58bc 8db4 d439 1951 ae3b a140 0fbb
00000330: 43da 583b eb71 2dba 293c 163c 3faa 8ab9
00000340: 3e52 24bc 1b67 13bb ff1b cab9 4ecb 223b
00000350: 9541 1eba bb41 87bc d879 20bc 1a0a 12bc
00000360: 476c 0fbc b364 963a b404 333c 2771 0c3b
00000370: 7ceb 3e3b 8b9f 21bc 07f0 0e3c 9720 64bc
00000380: 3f3c 85bc da9e 7ebb a1ab a5ba 05fa 11bb
00000390: f7d4 003c 9c3e 853c d070 633c dbcd 8ebb
000003a0: e311 d4bc fcf9 113b d331 6bbb 73b8 2cbc
000003b0: 1bf5 4c3b d300 1cbb e87c e33b 7d32 113b
000003c0: 229f 5f3a 13e1 0ebc ec0f 20bc 4576 5f3b
000003d0: 5fc6 3cb9 6076 ef3a 781b efbb 2fea 95bc
000003e0: 5523 e9bb ddc8 723c 412b b839 9b53 613c
000003f0: 6884 d639 5d95 3f3c 6b74 c73a 92c8 5b39
-0.007754214 0.0125909075 0.0035774575 -0.0051508793 -0.0055642766 -0.0025184823 -0.0041623744 0.0058557573
0.0072812424 0.0037913949 -0.0015055918 0.0016611255 -0.0033560884 -0.0009207089 0.0055932966 0.004388671
0.007840637 0.0043228697 -0.0033320158 0.0013015823 -0.001776942 0.012661784 -0.005935365 0.005143666
-0.0005471843 0.0068443916 0.011863113 0.005806016 -0.0035628693 -0.023841918 0.003531133 -0.008600164
0.0061904313 0.011135701 -0.0033458397 -0.0035665643 0.016194321 4.076123e-05 0.008423611 0.003206279
-0.0024272918 -0.0062448257 -0.003089288 -0.018736815 -0.011942622 0.00083182467 -0.0026462818 0.009861903
-0.017598286 0.0011978786 -0.015419925 -0.013145837 -0.0051214877 -0.0020349512 0.0074572763 0.009674912
-0.0053358297 0.0025431102 0.012066417 0.009592998 -0.0032934693 -0.0071140416 0.00041245876 -0.009081184
-0.011627882 -0.014151624 0.0051781335 0.009954149 -0.0112413205 -0.010617396 0.0047068666 -0.007918834
-0.014666565 0.012779553 -0.0061617703 -0.01129179 -0.009840324 -0.004372848 0.0059704296 0.0018288099
0.012946792 0.00018815346 -0.014162983 -0.013656305 0.010765868 0.0026015264 0.0035479895 0.02196739
0.0057599205 0.00067656336 -0.004275494 0.01040289 -0.0030559322 0.01041352 0.0004681557 -0.0021720843
-0.009249365 0.020773133 0.0002348098 0.0003455104 -0.0009362476 0.009473156 -0.001212191 -0.014932813
-0.0025518124 0.0076162624 0.0063557117 0.011059503 -0.006297499 -0.00037102355 0.008234233 0.0020569318
-0.004006998 0.009925372 0.005454955 0.006125365 -0.0008503307 0.007871451 0.0056309346 -0.0052176337
0.009098201 0.0070472206 -0.01738338 0.0014388126 0.0028771504 -0.004898725 0.007360211 0.0058576404
0.006690584 0.010686609 -0.0014883643 0.010416689 -0.0026927928 0.011357166 0.0003760635 0.010271227
-0.004130509 -0.0120977 -0.005989415 -0.013694781 -0.007674186 -0.010237427 0.010670399 -0.003096543
-0.01717094 0.012680182 0.0054471325 -0.005826727 0.0012532291 0.0013017483 0.0050347797 0.0045420486
0.0037843145 0.0071409657 0.007924175 -0.0039370833 -0.0077994983 0.0054622837 -0.0051912647 -0.018810837
0.0049762283 -0.0065919645 -0.008977563 0.022016559 0.009144626 0.005165002 0.0035551698 0.0017492104
-0.007011436 -0.0028598818 -0.005242073 0.004329184 -0.0030046937 -0.008995619 -0.00089534634 -0.006297131
0.0039428165 0.0035130878 0.0011014696 -0.011103551 -0.0051351446 -0.013560638 -0.015982017 0.0061186645
0.0069594802 0.0059787156 -0.005088975 -0.00023539113 0.00060600153 0.009697458 0.003546384 -0.0010868973
-0.012467407 0.008223588 -0.009451238 0.0010868576 -0.017202033 -0.00020045337 0.0057439506 -0.0063539273
-0.013188834 0.00040570312 0.005319726 -0.002185859 0.0033089078 -0.00066164014 0.009169617 -0.00026448254
-0.010029374 -0.0022491876 -0.000385493 0.0024840417 -0.0006036994 -0.016510835 -0.009794675 -0.008913541
-0.008753843 0.0011474103 0.010926414 0.0021429749 0.002913206 -0.009864698 0.008724219 -0.013923786
-0.01626408 -0.0038852007 -0.001263965 -0.0022274267 0.007863275 0.016265206 0.013881877 -0.004358036
-0.025887435 0.0022274246 -0.0035887852 -0.010542023 0.0031274024 -0.0023804202 0.00694238 0.0022155338
0.00085304875 -0.008720654 -0.009769421 0.0034097594 -0.00018002976 0.0018269531 -0.0072969757 -0.018300144
-0.0071148076 0.014818397 0.00035127442 0.013752843 0.0004091591 0.011693326 0.001521719 0.00020960186

action_model._discrete_distribution.branches.2.bias f4 [2]
00000000: 0000 0000 0000 0000
0.0 0.0

network_body._body_endoder.seq_layers.0.weight f4 [128, 6]
00000000: 40f7 c9bc 7e7b 65be e476 c93d 752b 113f
00000010: e2d6 2cbe 844d 3d3f 1d09 a93e 678a 17bf
00000020: 2747 acbe e488 243e 64e7 08bf 473f 0c3f
00000030: b5de 9ebc f61b debd 5c73 063f 84f7 41bd
00000040: c586 653f d5e3 8abe 9d79 e2be fe54 483e
00000050: 8bf4 833d 2c08 d1be 0fc4 3fbf 6a44 40bf
00000060: 8c87 143f c0a7 133f 2f59 e2be 4ab7 623e
00000070: 1ff7 3dbe fbc0 073f 9e0f 643e b443 903e
00000080: 0fa6 6cbe 319d 5fbe a712 b23e eead 42be
00000090: 550e e43e 2968 f2be 6883 613e f55e 02be
000000a0: 7c59 7abd 2058 adbe c436 cc3d 214e 99be
000000b0: e581 0b3f cd4b 883e adfc 03bf 89cb 8f3e
000000c0: 429b 153e 7efb 9c3e 8638 bcbd e84c cd3e
000000d0: bf94 e13d 50aa 9fbe b543 c33e e888 7abd
000000e0: 8382 b0be abac fe3e 807a 063f 57ae fe3e
000000f0: 1b6a b53e cd32 953e f5e6 733f 41c0 99be
00000100: 06c2 c93e e242 263f 13c8 d43d f105 663e
00000110: cd47 87bd a9bb a23e 0c48 09bf f4f5 153f
00000120: 8473 9ebf 7b8b 863e d19e 2a3d 393e ca3d
00000130: d77b 98be 9851 8bbf 3ca6 7a3c fb66 6d3f
00000140: d7ec 8abf 8aec a5bd b41a 843e 6a1f 953e
00000150: 95c4 da3d 90c3 c6be e631 13be 8aa0 12bf
00000160: c1dd 35be fa0f 803f 2070 573d 6f47 96be
00000170: 4c25 2c3f c48f 42be 3870 ac3e 4a3e 2a3e
00000180: 4b1e 3ebd 5a66 0fbe 9a1b bcbe cc45 febe
00000190: 196c 193f cf0c e73e 2b80 67be 76d6 9c3e
000001a0: d140 89be d04a 89be ac92 b43e a603 393e
000001b0: 1e70 ef3c da18 0ebe 864b 97be 4852 1f3f
000001c0: 8efc e3be ff03 63be fc0d 68be f46a 333f
000001d0: da72 283e 9a66 29be 1378 723e af10 65bd
000001e0: 7cab 313e 1e17 573c 812d 81be bece 45be
000001f0: 0860 69be e612 19bf 01a1 253d 6c65 5abd
00000200: 7864 ef3d 8ebc 4b3d f9f0 ee3c ff08 0a3f
00000210: 46d8 ee3e 8ca2 383f 5a75 1d3e 8edb 273b
00000220: b3e2 49bf 0efd 2a3f d76d df3b d7bf 093f
00000230: bfcc 5a3f 9709 6fbe b12e 89be f5ee a1be
00000240: b712 db3e 2764 22bd 67b2 3fbe 0b2f 723f
00000250: 3367 24bf 5b71 ac3e ba82 d5bd 459f 28be
00000260: a2e9 0e3e db70 bd3d eca0 93bd 5675 243f
00000270: 6ea4 d43e 8d0f 0bbf f32e 10bd ee18 3d3e
00000280: fa8f 4dbf 8665 f3bd 0b6e 0dbe 5dfa b43e
00000290: bf57 3bbf d570 ca3e 9f57 b7be f934 3f3f
000002a0: 92d9 353f c381 073e f0ba c33e c4d7 4fbf
000002b0: 7f0b 543f d255 1dbf 79c1 5a3f 6592 6b3d
000002c0: af96 e63e 141e df3e e3db d03e e53a 3c3f
000002d0: a1ea cb3e cb69 89bd 8eda a3be 9a68 d83e
000002e0: a2be c73e d58c 1e3e b1d7 c1be 81be eb3d
000002f0: 5bca 0c3e 08cb 7c3e e693 873f c2b2 0dbe
00000300: 9ae0 c43e 277e ee3e 8d42 aa3e 501a c7be
00000310: da0d 07be 3705 ee3d 3ec9 4d3e 5ce6 5d3c
00000320: f800 7ebe e53f 093f 9269 2b3d d2ca c83b
00000330: b100 773c 861a 42be ac45 503d 1806 10be
00000340: f6d3 10be 5ad1 e7be 8aad 48be 0041 24bf
00000350: de9d c6be 361c b73e 8ff6 53be 0aa4 ed3e
00000360: 79ca 0c3d ec54 c83d 9aa4 6b3e 7efd a33e
00000370: 4024 adbd c4a2 edbe 2247 143e 13d6 883e
00000380: cc9e 42bf 85d9 4fbe 36e3 013e 8ea9 23be
00000390: 83cb cb3e 3151 abbe ed1a a3be 4adf d13e
000003a0: b026 13bf 112e c2bd d462 603e 5c1f 903d
000003b0: 32cf c43e 66b0 8abe 6602 8e3e 7f6e f8be
000003c0: 7e99 ecbe 8894 1dbe d704 92bd 8467 9d3e
000003d0: ab67 09be 0985 963d e79c db3e b35c 83bd
000003e0: ef79 0a3e 9f3e e73d 86aa 4ebe b643 1f3c
000003f0: 08b6 36bf da8c 963e 430a 2c3f fad5 9f3e
-0.02465403 -0.2241039 0.0983713 0.56706935 -0.16878846 0.73946404 0.33014765 -0.5919556
-0.33648035 0.16067845 -0.53478074 0.54784054 -0.019393304 -0.10845177 0.52519774 -0.04735519
0.89658767 -0.27126947 -0.4423341 0.19563672 0.06443127 -0.40826547 -0.74908537 -0.7510439
0.5801933 0.5767784 -0.44208667 0.22140232 -0.185513 0.5302884 0.22271582 0.28176653
-0.23110221 -0.21837308 0.34779856 -0.19011661 0.44542184 -0.47345093 0.22022784 -0.12731536
-0.061120495 -0.33856297 0.09971383 -0.2994242 0.5449508 0.2662033 -0.5155743 0.28084973
0.14610007 0.30660623 -0.091904685 0.40097737 0.11014699 -0.31184626 0.38137594 -0.06116572
-0.34474573 0.4974111 0.5253067 0.49742386 0.35432515 0.2914032 0.9527429 -0.3002949
0.3940584 0.64945805 0.10389724 0.22463204 -0.06605492 0.31783798 -0.5362556 0.5857842
-1.2379003 0.2627829 0.041655365 0.09875149 -0.29781982 -1.0884275 0.015298422 0.9273526
-1.0853528 -0.08101757 0.25801623 0.2912553 0.10682026 -0.38821077 -0.14374503 -0.57276213
-0.17760374 1.0004876 0.052597165 -0.29351375 0.6724441 -0.19000155 0.33679366 0.16625324
-0.04641561 -0.14003888 -0.36739808 -0.49662626 0.5993057 0.4512696 -0.22607486 0.3063237
-0.26807263 -0.2681489 0.35268152 0.18067798 0.029228266 -0.13876668 -0.29549807 0.62234926
-0.4452862 -0.22169493 -0.22661585 0.7008507 0.16450062 -0.16543046 0.23678617 -0.055924114
0.17350572 0.01312807 -0.2523003 -0.19317147 -0.2279054 -0.5979446 0.04043675 -0.05331938
0.11689085 0.049740367 0.02916764 0.53919977 0.4664938 0.72123027 0.15376797 0.0025613043
-0.7886154 0.6679238 0.006818514 0.5380835 0.8546867 -0.23343502 -0.26793435 -0.31627622
0.42787716 -0.039646294 -0.18720399 0.9460303 -0.6421997 0.33680233 -0.10425325 -0.16467007
0.13956311 0.09250041 -0.07208428 0.6424154 0.415317 -0.54320604 -0.035201024 0.18466541
-0.80297816 -0.118845984 -0.1381151 0.35347262 -0.73180765 0.3953921 -0.35809037 0.74690205
0.7103511 0.13233094 0.3822856 -0.8118861 0.8283004 -0.61459076 0.85451466 0.05751266
0.45036837 0.43577635 0.4079276 0.73527366 0.39827445 -0.067096315 -0.32002681 0.42267305
0.3901263 0.1548341 -0.37859872 0.11510945 0.13749067 0.24686825 1.059201 -0.13837722
0.38452607 0.46580622 0.332539 -0.38887262 -0.13188878 0.116220884 0.20096299 0.0135436915
-0.24805057 0.5361312 0.041848727 0.0061276937 0.015075848 -0.1895543 0.050847694 -0.14064825
-0.14143357 -0.4527691 -0.1959745 -0.6416168 -0.38792318 0.3576371 -0.20699523 0.46414214
0.03437278 0.097818226 0.2301201 0.32029337 -0.0845418 -0.46413243 0.1448026 0.26725826
-0.76023555 -0.20297821 0.1268433 -0.15982649 0.39803705 -0.33460382 -0.3185648 0.4099067
-0.5748091 -0.09481443 0.219127 0.07037231 0.38439327 -0.27087706 0.27736205 -0.48521802
-0.46210855 -0.15388691 -0.071298294 0.3074304 -0.13418452 0.07349593 0.42893144 -0.06414165
0.13523076 0.11291241 -0.20182237 0.009720733 -0.7137151 0.29404336 0.6720316 0.3121794

network_body._body_endoder.seq_layers.0.bias f4 [128]
00000000: 0000 0000 0000 0000 0000 0000 0000 0000
00000010: 0000 0000 0000 0000 0000 0000 0000 0000
00000020: 0000 0000 0000 0000 0000 0000 0000 0000
00000030: 0000 0000 0000 0000 0000 0000 0000 0000
00000040: 0000 0000 0000 0000 0000 0000 0000 0000
00000050: 0000 0000 0000 0000 0000 0000 0000 0000
00000060: 0000 0000 0000 0000 0000 0000 0000 0000
00000070: 0000 0000 0000 0000 0000 0000 0000 0000
00000080: 0000 0000 0000 0000 0000 0000 0000 0000
00000090: 0000 0000 0000 0000 0000 0000 0000 0000
000000a0: 0000 0000 0000 0000 0000 0000 0000 0000
000000b0: 0000 0000 0000 0000 0000 0000 0000 0000
000000c0: 0000 0000 0000 0000 0000 0000 0000 0000
000000d0: 0000 0000 0000 0000 0000 0000 0000 0000
000000e0: 0000 0000 0000 0000 0000 0000 0000 0000
000000f0: 0000 0000 0000 0000 0000 0000 0000 0000
00000100: 0000 0000 0000 0000 0000 0000 0000 0000
00000110: 0000 0000 0000 0000 0000 0000 0000 0000
00000120: 0000 0000 0000 0000 0000 0000 0000 0000
00000130: 0000 0000 0000 0000 0000 0000 0000 0000
00000140: 0000 0000 0000 0000 0000 0000 0000 0000
00000150: 0000 0000 0000 0000 0000 0000 0000 0000
00000160: 0000 0000 0000 0000 0000 0000 0000 0000
00000170: 0000 0000 0000 0000 0000 0000 0000 0000
00000180: 0000 0000 0000 0000 0000 0000 0000 0000
00000190: 0000 0000 0000 0000 0000 0000 0000 0000
000001a0: 0000 0000 0000 0000 0000 0000 0000 0000
000001b0: 0000 0000 0000 0000 0000 0000 0000 0000
000001c0: 0000 0000 0000 0000 0000 0000 0000 0000
000001d0: 0000 0000 0000 0000 0000 0000 0000 0000
000001e0: 0000 0000 0000 0000 0000 0000 0000 0000
000001f0: 0000 0000 0000 0000 0000 0000 0000 0000
0.0 0.0 0.0 0.0 0.0 0.0 0.0 0.0
0.0 0.0 0.0 0.0 0.0 0.0 0.0 0.0
0.0 0.0 0.0 0.0 0.0 0.0 0.0 0.0
0.0 0.0 0.0 0.0 0.0 0.0 0.0 0.0
0.0 0.0 0.0 0.0 0.0 0.0 0.0 0.0
0.0 0.0 0.0 0.0 0.0 0.0 0.0 0.0
0.0 0.0 0.0 0.0 0.0 0.0 0.0 0.0
0.0 0.0 0.0 0.0 0.0 0.0 0.0 0.0
0.0 0.0 0.0 0.0 0.0 0.0 0.0 0.0
0.0 0.0 0.0 0.0 0.0 0.0 0.0 0.0
0.0 0.0 0.0 0.0 0.0 0.0 0.0 0.0
0.0 0.0 0.0 0.0 0.0 0.0 0.0 0.0
0.0 0.0 0.0 0.0 0.0 0.0 0.0 0.0
0.0 0.0 0.0 0.0 0.0 0.0 0.0 0.0
0.0 0.0 0.0 0.0 0.0 0.0 0.0 0.0
0.0 0.0 0.0 0.0 0.0 0.0 0.0 0.0
