Assets/ML-Agents/results/test4/PushButton/PushButton-1406.pt (torch, 153897 bytes, 16 tensors)

discrete_act_size_vector f4 [1, 3]
00000000: 0000 4040 0000 4040 0000 0040
3.0 3.0 2.0

network_body._body_endoder.seq_layers.0.weight f4 [128, 6]
00000000: 7e4f 313f c490 dfbd d2eb 5ebe b7c7 9f3e
00000010: 7259 b33d e7a8 a63e 4a24 e93e 00a5 a73e
00000020: 0518 3dbe 9acc 3c3f 53fd 363e d50c 73be
00000030: 652a f83c 68e9 ce3d 02d0 69be 8762 dd3b
00000040: ca30 c63e 911a 813c 6b1b 1bbf bb7b a8be
00000050: 672b e9be bbe3 aeba 9ee3 d43e b198 71bd
00000060: fd07 683e 0746 1e3f 855f 9abe 9cf6 3ebf
00000070: 96b7 b03e 19a4 2abf 6eec 3e3f 38f5 cd3e
00000080: 30e4 4c3d 3948 03bf 0627 5a3e 6242 3abf
00000090: ce44 3cbe eb71 3bbe fc74 66bf c10e 0dbd
000000a0: 1404 31be f2fc 9f3d 915b aa3e 47c2 3cbf
000000b0: 3b97 2abe 342c 153f 1479 883e ee56 3b3e
000000c0: 0a3c 883e 2193 903e 12bb d1be 9e6b 14bc
000000d0: e0a5 9bbe 7697 52be be9e d8be dc1c 563e
000000e0: e902 013f 2cce 4d3e f1a0 76bd 1300 11be
000000f0: 461d 2bbf 5cc9 4ebd aac3 5ebd 97a0 e13d
00000100: 7acc b33e 3099 aebd 64e7 0c3f f341 113f
00000110: d063 a2be 5d3b 35ba ea50 0abf c6eb a43e
00000120: cc61 28bf e795 03bc ce25 a83e d619 f83e
00000130: 4416 dcbd 2520 f33c eed0 bb3e fb03 623e
00000140: df1d 053d 57b8 0bbf 77a5 703e 3f8b 1fbf
00000150: 93f6 743e cafa 153e e82f 593f 014e 2dbd
00000160: 4e9c 22bf 1f28 803e 057a d2be 4a35 79bd
00000170: be8f 873e c128 033f b4ae 1cbf ebb5 64be
00000180: fcd6 1dbf 7586 18be b6b0 ba3e 4b3e d7bd
00000190: 4930 97bf 5391 7fbe d606 1f3d 308f af3d
000001a0: 8c0c 4cbe 0b22 113f 25c8 dd3e 7e5a 9f3e
000001b0: 3a96 f23d d343 fa3e 2005 f63e 0c35 eb3d
000001c0: f62a 143f c98d d33e 5774 3a3e a2d6 4d3d
000001d0: ec04 533f 2dce 033e 91b7 4ebf b5f4 98be
000001e0: 05ab 96bd 79b6 abbc 79b9 193e bc56 2cbe
000001f0: 2e79 c6bb e0de ec3c b7a1 213f cd66 86be
00000200: 1e20 b5be e4fc 52bb de7b a23d 8330 8cbd
00000210: 9c14 27bf 520a 9dbf a0e9 54bd 13d9 7dbe
00000220: 5811 fbbe fa71 cdbd 0591 acbd 095f 2dbe
00000230: 4ccd 113e 262f a3be c152 8dbe 38b3 3c3e
00000240: 996a 253f a28a dd3e 5b02 5a3e 443f 15bf
00000250: df9a d3be e26c 39bf ae21 4abf 387a 593e
00000260: 075b 103e 3283 50be f9b0 7cbe bcba 8abe
00000270: c1a9 3a3f bcfd d1be 19b6 7fbe 7c48 a93d
00000280: ba8a 6e3f 20a6 fb3e 65b3 303f 92a0 073f
00000290: e906 1d3e f3fe 0d3e c305 9abe 2cfa c1be
000002a0: aeed cf3d 2606 123f 3c34 9a3f e186 6abd
000002b0: d0bd 32bf d802 82be 829a e9be 933e 233e
000002c0: 17ed a53e 2c04 afbe 084b 31bf 8122 10bf
000002d0: c593 47bf f16b ba3e 54c4 433f d9d4 163e
000002e0: 5a67 b3be bee8 1cbe c51d 133e 5569 a63e
000002f0: 5fd4 e53d 15ff 1a3f 7708 d93e 4a50 0ebf
00000300: 15fa 5e3e 5118 393d 790a 82bf a0fa 03be
00000310: e076 a3be b618 e5bd 15fc abbe 5292 9b3e
00000320: b7ec 02bf 4cd6 063e 3bdc 4b3f d2c1 ac3e
00000330: e6d5 1e3e 36cd 153e d50b 903e 4291 553e
00000340: 8447 14bd ff87 253e 8e1a a5bf d1ee 90be
00000350: 91c5 423d 365d 1dbf 61d2 0a3d bc42 423d
00000360: 0b8a 4e3f 4e58 6c3e fddb 89bb eccf 4dbe
00000370: 8460 163d 32e0 913e c3d7 c1be 4eeb 48be
00000380: d034 123f 4e50 80be 92c1 1f3e 62da 0bbe
00000390: 1a57 7cbf cff7 a13e 5870 183e d369 dbbe
000003a0: 2c99 063d b80c f0bd 8a63 02bf 8a4c 79be
000003b0: 40f1 3f3e 2e39 be3e 7ea4 983d 0c39 e83d
000003c0: 3052 cc3e 45e3 bcbd 2e47 b0bd c7d0 d73e
000003d0: 02d7 b4be b42f 2dbf 2160 13bf d568 7c3e
000003e0: 1b63 a13d 170e e0bb 4183 95be a50e 103f
000003f0: 06fa de3d d969 35be 4814 463e edec 113f
0.6926192 -0.10916284 -0.21769646 0.31207058 0.08757295 0.32550737 0.455355 0.32743073
-0.18466194 0.737497 0.17870073 -0.23735364 0.030293653 0.101031125 -0.22833255 0.00675613
0.38709098 0.015759738 -0.6058871 -0.329069 -0.45540926 -0.0013343015 0.41579908 -0.05898351
0.22659297 0.61825603 -0.30151 -0.74595046 0.34515065 -0.66656643 0.74579513 0.4022615
0.050022304 -0.5128208 0.21303949 -0.7275754 -0.18385622 -0.18305175 -0.90022254 -0.0344379
-0.17286712 0.07811917 0.33272985 -0.73733944 -0.16659252 0.58270574 0.26654875 0.1829488
0.26608306 0.2823725 -0.40963036 -0.009058861 -0.3039999 -0.2056559 -0.4230861 0.20909446
0.50395066 0.2009818 -0.06021208 -0.14160185 -0.6684154 -0.050485 -0.05438582 0.11016958
0.3511694 -0.08525312 0.55040574 0.56741256 -0.31716776 -0.0006913448 -0.54029715 0.3221113
-0.65774226 -0.008031345 0.32841343 0.4845721 -0.10746434 0.029678414 0.36682838 0.22071831
0.03249919 -0.54578155 0.2350062 -0.6232185 0.23922186 0.1464645 0.84838724 -0.04231072
-0.6351975 0.2503061 -0.4110872 -0.060841836 0.26476854 0.5123406 -0.61204076 -0.22335021
-0.61656165 -0.14895041 0.36462945 -0.10509928 -1.181161 -0.2495778 0.03882488 0.08572233
-0.19926661 0.5669257 0.4331676 0.31123728 0.1184506 0.4887987 0.48050785 0.11484727
0.57878053 0.4131911 0.18208443 0.050253518 0.82429385 0.12871619 -0.8074885 -0.29874197
-0.07356838 -0.020961033 0.15012158 -0.16829962 -0.006056926 0.028914869 0.6313738 -0.26250306
-0.35376066 -0.0032194192 0.07933782 -0.068451904 -0.6526582 -1.2268775 -0.051980615 -0.24789838
-0.4903667 -0.10031505 -0.08426098 -0.16930784 0.14238471 -0.3187191 -0.276022 0.18427742
0.6461578 0.4326983 0.21289961 -0.5829966 -0.41329095 -0.72431767 -0.7895764 0.21238029
0.14097224 -0.20362547 -0.24676885 -0.27095592 0.72915274 -0.41013896 -0.24971808 0.082657784
0.9318043 0.4915018 0.69023734 0.52979386 0.15334667 0.13866787 -0.3008252 -0.37886178
0.10152756 0.5704063 1.2047191 -0.057257537 -0.6982088 -0.25392795 -0.45625693 0.15941839
0.32407448 -0.3418287 -0.69255114 -0.5630265 -0.77959853 0.36410478 0.7647145 0.14729632
-0.35039788 -0.15323159 0.14366825 0.32502237 0.11222147 0.60545474 0.4238927 -0.5559126
0.21775086 0.045189206 -1.0159446 -0.12888575 -0.31926632 -0.11186354 -0.3359076 0.3038507
-0.5114245 0.13167685 0.7963292 0.33741623 0.15511283 0.14629063 0.28134027 0.20856193
-0.036201015 0.1616516 -1.2898729 -0.28307202 0.047551695 -0.61470354 0.03389204 0.047426924
0.80679387 0.2308056 -0.004207133 -0.20098847 0.03671314 0.2849136 -0.37859926 -0.19621012
0.57111835 -0.25061268 0.15601185 -0.13657525 -0.98570406 0.31634375 0.14886606 -0.42854175
0.03286092 -0.11721176 -0.50933135 -0.24345604 0.18744373 0.37153 0.074532494 0.11339006
0.39906454 -0.09223036 -0.086073264 0.42151472 -0.35320288 -0.67650914 -0.57568556 0.24649365
0.07880231 -0.006837617 -0.292017 0.56272346 0.10887532 -0.17716159 0.19343674 0.57002145

network_body._body_endoder.seq_layers.0.bias f4 [128]
00000000: 0000 0000 0000 0000 0000 0000 0000 0000
00000010: 0000 0000 0000 0000 0000 0000 0000 0000
00000020: 0000 0000 0000 0000 0000 0000 0000 0000
00000030: 0000 0000 0000 0000 0000 0000 0000 0000
00000040: 0000 0000 0000 0000 0000 0000 0000 0000
00000050: 0000 0000 0000 0000 0000 0000 0000 0000
00000060: 0000 0000 0000 0000 0000 0000 0000 0000
00000070: 0000 0000 0000 0000 0000 0000 0000 0000
00000080: 0000 0000 0000 0000 0000 0000 0000 0000
00000090: 0000 0000 0000 0000 0000 0000 0000 0000
000000a0: 0000 0000 0000 0000 0000 0000 0000 0000
000000b0: 0000 0000 0000 0000 0000 0000 0000 0000
000000c0: 0000 0000 0000 0000 0000 0000 0000 0000
000000d0: 0000 0000 0000 0000 0000 0000 0000 0000
000000e0: 0000 0000 0000 0000 0000 0000 0000 0000
000000f0: 0000 0000 0000 0000 0000 0000 0000 0000
00000100: 0000 0000 0000 0000 0000 0000 0000 0000
00000110: 0000 0000 0000 0000 0000 0000 0000 0000
00000120: 0000 0000 0000 0000 0000 0000 0000 0000
00000130: 0000 0000 0000 0000 0000 0000 0000 0000
00000140: 0000 0000 0000 0000 0000 0000 0000 0000
00000150: 0000 0000 0000 0000 0000 0000 0000 0000
00000160: 0000 0000 0000 0000 0000 0000 0000 0000
00000170: 0000 0000 0000 0000 0000 0000 0000 0000
00000180: 0000 0000 0000 0000 0000 0000 0000 0000
00000190: 0000 0000 0000 0000 0000 0000 0000 0000
000001a0: 0000 0000 0000 0000 0000 0000 0000 0000
000001b0: 0000 0000 0000 0000 0000 0000 0000 0000
000001c0: 0000 0000 0000 0000 0000 0000 0000 0000
000001d0: 0000 0000 0000 0000 0000 0000 0000 0000
000001e0: 0000 0000 0000 0000 0000 0000 0000 0000
000001f0: 0000 0000 0000 0000 0000 0000 0000 0000
0.0 0.0 0.0 0.0 0.0 0.0 0.0 0.0
0.0 0.0 0.0 0.0 0.0 0.0 0.0 0.0
0.0 0.0 0.0 0.0 0.0 0.0 0.0 0.0
0.0 0.0 0.0 0.0 0.0 0.0 0.0 0.0
0.0 0.0 0.0 0.0 0.0 0.0 0.0 0.0
0.0 0.0 0.0 0.0 0.0 0.0 0.0 0.0
0.0 0.0 0.0 0.0 0.0 0.0 0.0 0.0
0.0 0.0 0.0 0.0 0.0 0.0 0.0 0.0
0.0 0.0 0.0 0.0 0.0 0.0 0.0 0.0
0.0 0.0 0.0 0.0 0.0 0.0 0.0 0.0
0.0 0.0 0.0 0.0 0.0 0.0 0.0 0.0
0.0 0.0 0.0 0.0 0.0 0.0 0.0 0.0
0.0 0.0 0.0 0.0 0.0 0.0 0.0 0.0
0.0 0.0 0.0 0.0 0.0 0.0 0.0 0.0
0.0 0.0 0.0 0.0 0.0 0.0 0.0 0.0
0.0 0.0 0.0 0.0 0.0 0.0 0.0 0.0

network_body._body_endoder.seq_layers.2.weight f4 [128, 128]
00000000: 61dc 5a3d 490c cabc dcb3 083e f78d 2b3c
00000010: ea36 6bbd 5e9c 9abd 7766 cf3c 6aba 93bd
00000020: b5d7 013e db40 b23b 7d8d 533c 03f9 1c3e
00000030: b822 193c 3a3b 493d ac4c 08bd 384a 023e
00000040: 33f6 cd3c 29f9 18bd c485 a5bd 2648 6a3d
00000050: ab57 003e c419 0bbe 5c77 e83d 4512 e7bd
00000060: 82ac 183a d6e3 24be d044 883d 3e6c d1bb
00000070: 394c f33c bf59 90bd e46b 0dbc 3020 b13c
00000080: 48c4 6f3d 8128 ccbd 9e54 3c3d b03e 083e
00000090: 2873 ad3c 8b26 04bd 0c80 583e 18b5 1dbd
000000a0: a5cf c8bd e949 4c3c 12ff 11be ab26 c9bd
000000b0: 7ea6 983c 055a 0fbd 9db6 69bd 4823 ca3d
000000c0: 6dfc 6f3d b65f 18bd cde5 25bc 4ab4 9f3c
000000d0: 6f67 b33c ade4 57bd 424f 2c3e 1070 41bd
000000e0: 7594 43bc 9d3c 7dbc b5f2 8a3b 8faf 1d3e
000000f0: cb9e 32bd a321 263d 8107 58b9 3aed e53c
00000100: 725b bdbc ad26 f3bd 57d1 9f3b 9ad2 4a3d
00000110: afc0 b03d b401 e83d 794b ba3d 2dec 3cbd
00000120: abf8 35bd fddc d53b ec31 5e3d 5976 02be
00000130: 855a f63c 9308 8d3d 092a b73c b937 4fbd
00000140: daff 5fbc d634 22be 44a9 9e3d 2bb0 60be
00000150: 8eb9 ccbd 1a83 afbc 5d70 593e 89ff 343d
00000160: 25ab 56bb 259b 6abc fa4a b33c 14b1 9fbc
00000170: 49d4 103d d004 f13c 47ab 563d 1860 9b3c
00000180: 7963 dabd ac50 74be 3bd9 e3bd 63e5 c13c
00000190: d2a4 8ebc b271 b93d ba36 e7bc f331 6c3b
000001a0: 22b0 ed3c e1a6 533d 5c6d d1bb 8374 363d
000001b0: f58f 9e3d 080f bcbd 4037 b33d 6c02 583d
000001c0: e7e5 35bd b31c 623d 7be8 7fbc d29b 0e3e
000001d0: 495c e63d fd1d 0cbe 79fe 80bd 7683 5cbd
000001e0: b56f 76bd e2df 1cbd 2891 023d e43a 303d
000001f0: 67f6 dbbd 3dd2 1a3c 11ca 5e3e e8b5 113e
00000200: fa44 e3bd eba9 a53b f7a2 26bd e907 f8bb
00000210: a154 e3bd 38c8 513d de1b fdbd 3ef1 54bc
00000220: 8d66 dabc 7cbd e5bd 3bc6 683d dbfd cc3d
00000230: 7a55 aebd 7663 3c3e 8baf 23bd 9894 0c3e
00000240: 6e00 97bc c235 003d 735f 12be 601d 10bd
00000250: f3c0 09be 1298 5fbd 760a 1bbd 81d7 583d
00000260: 6f0c 8fbc 7dca 903d 1c7a 953d 60b8 a0bd
00000270: a685 a53d b6ab 33be 4f6d 2cbb 5518 7e3d
00000280: e1b8 dcbd 76b3 6f3a 7f82 113e ba3a 19bd
00000290: 65e3 193d db0c 8b3d 4c47 7c3d 813f 23bc
000002a0: 0202 1f3e cff8 e1bd 429c b13c bb4a c9bd
000002b0: 5d96 ab3b 127d 86bd 71c5 d5bd 9e50 183d
000002c0: 4953 2dbd c95a 8b3d f696 25bd c962 01bd
000002d0: 7246 4abd 19cb 213d 558e f83d 0fa3 c7bd
000002e0: 7f17 86bd 244f 353e d6c3 b3bc 3154 2abe
000002f0: 886a 2c3d 2bde 46be 2512 c13c 9e61 01be
00000300: dd63 f6bc 6dee 3ebc 298c 1c3d d173 813e
00000310: 30bf 0e3e 54fc 303e d17d 7f3c 641a 993d
00000320: 2e7b 263e ba8b 893d c240 1ebd e78f e13d
00000330: 23a7 313d 4d3e a3bb 555c 4d3e 07ca a0bd
00000340: e413 dc3d 4c49 ba3d 32f3 093d 9932 cabd
00000350: 2e16 15bd 342f b2bd 7ae8 c63c 73ab 9f3d
00000360: e246 4a3d 564e 3dbe 5df8 b33d cc04 e5bb
00000370: 2f8c 063e 19c1 9fbc d50a 2fbe b339 d2bc
00000380: accc 91bb ada6 46be de17 2c3d 2ea9 03be
00000390: 36a4 c43c 1390 8e3d 6f75 c2bc ad53 643c
000003a0: 6ca0 4fbc c8ae d73d 4af8 503d ade9 203e
000003b0: 8c72 28bd 176e a7bc fa14 93bc 76bc b3bc
000003c0: cd32 733c 792b 103d d27c debc 20cb 973d
000003d0: fb95 92bd aa16 72bb 30b7 65be d3b6 943c
000003e0: c5fb 34bc 8373 b13d 5868 0b3e c971 89bd
000003f0: df37 c2bd d7f6 98bd 39cd 7b3c b201 e1bd
0.053432826 -0.024664061 0.13349861 0.010470859 -0.057425417 -0.07549356 0.025317414 -0.0721329
0.12679942 0.0054398603 0.012912151 0.15329365 0.0093466565 0.04912875 -0.033276245 0.12723625
0.025141811 -0.037346993 -0.080821544 0.057197712 0.12533443 -0.13584048 0.11350891 -0.112827815
0.00058240455 -0.16102538 0.0665375 -0.0063910773 0.029699432 -0.07048368 -0.00863168 0.021621794
0.058536798 -0.09968663 0.045979135 0.13305163 0.021173075 -0.03226332 0.21142596 -0.038502783
-0.0980523 0.012468793 -0.14257458 -0.098218285 0.018634077 -0.03499796 -0.05705892 0.098700106
0.05859034 -0.037200652 -0.01012559 0.019495148 0.021899907 -0.052708317 0.1682711 -0.04722601
-0.01193725 -0.015456346 0.0042403587 0.15399002 -0.043608468 0.040559422 -0.0002060216 0.02806722
-0.023114894 -0.11872611 0.00487725 0.04951725 0.086305015 0.1132845 0.090964265 -0.046123672
-0.0444266 0.006526588 0.054246828 -0.12740459 0.03007246 0.06886401 0.022358911 -0.05059025
-0.01367184 -0.15840468 0.077471286 -0.21942203 -0.09996329 -0.021424819 0.2123427 0.04418901
-0.0032755819 -0.014319216 0.021886338 -0.019493617 0.0353587 0.02942124 0.052409437 0.01896672
-0.10663504 -0.23858899 -0.11125418 0.02366895 -0.017412577 0.09054889 -0.028224338 0.0036040514
0.02901465 0.05167282 -0.0063912105 0.044544708 0.077423014 -0.091825545 0.087507725 0.052736685
-0.044408705 0.05520315 -0.0156193925 0.13926628 0.11248071 -0.13683315 -0.06298537 -0.05383631
-0.060165126 -0.03829945 0.031876713 0.043024912 -0.10740357 0.009449539 0.2175677 0.14229548
-0.110971406 0.005055656 -0.04068276 -0.0075693023 -0.11100126 0.051216334 -0.12358831 -0.01299697
-0.026660228 -0.11217782 0.056829672 0.100093566 -0.08512397 0.18397316 -0.039962333 0.13728559
-0.018432822 0.031301267 -0.14294223 -0.035184264 -0.1345251 -0.054588385 -0.037851773 0.052939896
-0.017461983 0.070698716 0.07298681 -0.07847667 0.08082132 -0.17545971 -0.002631027 0.062034924
-0.1077745 0.0009143868 0.14209937 -0.03740952 0.037570376 0.06789561 0.06159143 -0.009963871
0.1552811 -0.110337846 0.021680955 -0.09828707 0.0052364306 -0.06566824 -0.104380496 0.037186258
-0.042315755 0.06804425 -0.04042717 -0.03158835 -0.049383588 0.03950033 0.12136523 -0.09747898
-0.0654745 0.17705971 -0.021943968 -0.16633679 0.042093784 -0.19420688 0.023568222 -0.12634894
-0.030076915 -0.011653525 0.038219605 0.25283673 0.1394012 0.17283756 0.015593962 0.07475737
0.16257927 0.06716104 -0.038635977 0.11013775 0.043372285 -0.004981792 0.20054753 -0.07851034
0.10745981 0.090960115 0.033679195 -0.09872932 -0.036398105 -0.087004095 0.024280775 0.07796373
0.049384005 -0.18486914 0.08787606 -0.006989097 0.13139413 -0.019501256 -0.17093976 -0.025662279
-0.0044494476 -0.1939952 0.04201495 -0.12857506 0.024004083 0.06961074 -0.023737637 0.0139359655
-0.012672525 0.10531384 0.051018037 0.1571414 -0.041124865 -0.020438237 -0.017954338 -0.021940451
0.014843655 0.03519771 -0.027159128 0.0741179 -0.07157513 -0.0036939778 -0.22433162 0.018153584
-0.011046355 0.0866461 0.13614023 -0.06711156 -0.09483313 -0.07468956 0.015368753 -0.109866515

network_body._body_endoder.seq_layers.2.bias f4 [128]
00000000: 0000 0000 0000 0000 0000 0000 0000 0000
00000010: 0000 0000 0000 0000 0000 0000 0000 0000
00000020: 0000 0000 0000 0000 0000 0000 0000 0000
00000030: 0000 0000 0000 0000 0000 0000 0000 0000
00000040: 0000 0000 0000 0000 0000 0000 0000 0000
00000050: 0000 0000 0000 0000 0000 0000 0000 0000
00000060: 0000 0000 0000 0000 0000 0000 0000 0000
00000070: 0000 0000 0000 0000 0000 0000 0000 0000
00000080: 0000 0000 0000 0000 0000 0000 0000 0000
00000090: 0000 0000 0000 0000 0000 0000 0000 0000
000000a0: 0000 0000 0000 0000 0000 0000 0000 0000
000000b0: 0000 0000 0000 0000 0000 0000 0000 0000
000000c0: 0000 0000 0000 0000 0000 0000 0000 0000
000000d0: 0000 0000 0000 0000 0000 0000 0000 0000
000000e0: 0000 0000 0000 0000 0000 0000 0000 0000
000000f0: 0000 0000 0000 0000 0000 0000 0000 0000
00000100: 0000 0000 0000 0000 0000 0000 0000 0000
00000110: 0000 0000 0000 0000 0000 0000 0000 0000
00000120: 0000 0000 0000 0000 0000 0000 0000 0000
00000130: 0000 0000 0000 0000 0000 0000 0000 0000
00000140: 0000 0000 0000 0000 0000 0000 0000 0000
00000150: 0000 0000 0000 0000 0000 0000 0000 0000
00000160: 0000 0000 0000 0000 0000 0000 0000 0000
00000170: 0000 0000 0000 0000 0000 0000 0000 0000
00000180: 0000 0000 0000 0000 0000 0000 0000 0000
00000190: 0000 0000 0000 0000 0000 0000 0000 0000
000001a0: 0000 0000 0000 0000 0000 0000 0000 0000
000001b0: 0000 0000 0000 0000 0000 0000 0000 0000
000001c0: 0000 0000 0000 0000 0000 0000 0000 0000
000001d0: 0000 0000 0000 0000 0000 0000 0000 0000
000001e0: 0000 0000 0000 0000 0000 0000 0000 0000
000001f0: 0000 0000 0000 0000 0000 0000 0000 0000
0.0 0.0 0.0 0.0 0.0 0.0 0.0 0.0
0.0 0.0 0.0 0.0 0.0 0.0 0.0 0.0
0.0 0.0 0.0 0.0 0.0 0.0 0.0 0.0
0.0 0.0 0.0 0.0 0.0 0.0 0.0 0.0
0.0 0.0 0.0 0.0 0.0 0.0 0.0 0.0
0.0 0.0 0.0 0.0 0.0 0.0 0.0 0.0
0.0 0.0 0.0 0.0 0.0 0.0 0.0 0.0
0.0 0.0 0.0 0.0 0.0 0.0 0.0 0.0
0.0 0.0 0.0 0.0 0.0 0.0 0.0 0.0
0.0 0.0 0.0 0.0 0.0 0.0 0.0 0.0
0.0 0.0 0.0 0.0 0.0 0.0 0.0 0.0
0.0 0.0 0.0 0.0 0.0 0.0 0.0 0.0
0.0 0.0 0.0 0.0 0.0 0.0 0.0 0.0
0.0 0.0 0.0 0.0 0.0 0.0 0.0 0.0
0.0 0.0 0.0 0.0 0.0 0.0 0.0 0.0
0.0 0.0 0.0 0.0 0.0 0.0 0.0 0.0

action_model._discrete_distribution.branches.0.weight f4 [3, 128]
00000000: 5769 373c 7389 6e3c 4b7b 60ba ac18 1c3c
00000010: 2b3b bdbb 8bfe baba 7a4a e8bb 806a 8fbc
00000020: abae 103c a2e2 0c3c 7f89 cf3b 775b d03c
00000030: 7afa e13b ef3d 8fbc 0fce dcbb 3777 02bb
00000040: f335 adbb b540 8d3b dde7 8cbc 554c eabb
00000050: e508 b23b 1bbd cebb 693a 90b9 f3f7 3c3c
00000060: 9af2 b4bb 4e1a b7bb a39b 813b 173d 873b
00000070: 2a58 033c 339c 923c 5aaf a43b 542a 343c
00000080: e2a0 5cbc ebb5 da3a e356 c6bb c79d a8bb
00000090: c748 9fbb c6b6 903a fb79 4abb 35d4 c4b8
000000a0: 649c 2f3a 5202 54ba 2045 693c 7620 bab9
000000b0: 51c8 84bc e0ce d33b 7318 51ba e6dd a13c
000000c0: f32c 87bc e39d 7fbc c089 ee3b 91dd 473b
000000d0: 49fb 183c 6dac 5cbb 6ad5 ba3b 5774 8ebc
000000e0: 0458 90ba 6fd7 853c b070 b73b ea68 eb3b
000000f0: d72c a2bb d356 743a 928a 1cbc f543 453b
00000100: b14d 88bb 512d 0c3b c550 82bb 069a 9d38
00000110: 059b dabb 6fa5 57bc 9a0f fd3b eb31 12bc
00000120: 6def 8c3b 853b 2b3c d863 82bb 4f42 03bd
00000130: 700e 5b3c c826 e03b 4741 c03a dcba 183c
00000140: 97b7 f1ba 5a00 63bc f9ba bfbb cdb5 02bc
00000150: f264 503b 5c07 47bb 5f64 e63b 89ad 90bc
00000160: 680c 0fbb 700c 333b f043 4bbb a751 883b
00000170: e30c 42bc e8e5 d1ba fcd4 a63c 9ee3 9c3b
00000180: 575f a83b c49b 9f39 7f56 2e3b af06 34bb
00000190: 33fb 8d3c 9084 2b3b d881 5abc da05 593a
000001a0: 2049 60bc ef1e 963b 02b0 203c a337 9e3c
000001b0: 98ac b33b aeed 423c 5ca1 29bc 08c9 5b3c
000001c0: bd74 e13a 1508 0bbc 8fcf 41bb c3ba 183c
000001d0: 7fa6 9dbc d34f 45bb 9ae9 aab9 4354 50bb
000001e0: bb3a f4bb af9e 233c a998 80bc 15dd a53b
000001f0: fd78 663c d5a0 0d3b a278 843c 3212 47bb
00000200: ce8a 053c 1f9e 263c 6a3a 653c 9009 6e3a
00000210: 3dea b6bb 2ab1 5a3b 271e 0ebc 9705 e5b9
00000220: ee87 983a 38b8 52bc 2e65 c63a f3f1 2b3c
00000230: d96a 42bc 5449 12bc 6aa6 493c efe6 813a
00000240: 2be2 e7bb 47f8 0c3c eb53 0b3c a43a 043b
00000250: 8a34 e839 19a3 15b9 ffd3 c7bb 4335 333c
00000260: 41f8 2cbc eb8d 703a 1b38 79bc 0f6c 4fba
00000270: 3642 c23b 2b25 043c 33c3 583c 566e 293b
00000280: 4c0f c7bb ca9d 5b3c 3f80 58bc 2b7f c13a
00000290: 338e 3bbb db42 42bb abf2 08bb 9597 79bc
000002a0: cb68 04bc e09f 463c 5542 063c 9cc4 273c
000002b0: 7cfa 15bc f5a4 ce3b af83 153c 6a5c e93b
000002c0: d2f1 91bb 6a8a 99bc 1a4a 2c3b 7a89 7cbc
000002d0: 3ae3 82bb 5354 093c d171 c5bb 7f7a 26bb
000002e0: a453 1cbc 920d da39 63cb 19bc 7e15 44bc
000002f0: 93ed 843a 342f 4c3c d711 b9bb 064a bebb
00000300: efe9 7b3c f050 4dba 3520 6fbb ebe9 8f3b
00000310: 1bee 843c 3188 883a df09 dcba d3b5 a0b8
00000320: 4e95 9b3c 8fac adbb bb7e 10bc 8a5c 1c3c
00000330: c76a 75bc 09ca 303b bb72 35bc d54f 873c
00000340: 4139 493b f53f 633b 7506 6cbc 1131 9f3b
00000350: ff33 a7bb a75b f03a 8d3f 4dbc 7489 b836
00000360: 28dd 9e39 ad62 5fbc bf12 dc3b 400d 7e3b
00000370: c600 a83c 2544 63bb cfc3 d13b 3742 51bc
00000380: 4fd6 bbbb cf96 2dbb 98c2 64bc 2be9 55bc
00000390: ebff 5bba f242 113c ed7d acbb 5fc3 ddb9
000003a0: 1f27 22bb 3c57 aa3b 9a54 243c fab5 3dbc
000003b0: c2ac 3c3c 506b 683c c834 c0ba cfec 183b
000003c0: 6708 2d3b 5f4f 8e3c 622e 623c 60a8 b9ba
000003d0: 7d0f 13bc 543d 063c 40d3 19bc b49c 95bb
000003e0: c171 c3bb 70cf 54bc 45d5 5dbc c378 333c
000003f0: db2a 933b c0ad be3a 4f2e 2dbb 36d8 48bc
0.011194549 0.014559138 -0.0008563294 0.009527367 -0.0057748756 -0.0014266534 -0.0070889564 -0.017506838
0.008830707 0.008598955 0.0063335295 0.025434239 0.006896314 -0.017485587 -0.0067384313 -0.0019907483
-0.0052859723 0.004310692 -0.017200405 -0.007150213 0.005433189 -0.006309164 -0.0002750934 0.011533725
-0.0055220844 -0.0055878526 0.003955321 0.0041271555 0.008016625 0.017896747 0.0050257863 0.01099642
-0.013466092 0.0016686296 -0.006052838 -0.0051457617 -0.0048609707 0.0011040799 -0.003089546 -9.385535e-05
0.0006699024 -0.0008087504 0.014237672 -0.0003550087 -0.0162088 0.0064638704 -0.00079763605 0.01975913
-0.016500926 -0.015601608 0.0072796047 0.0030497054 0.009337255 -0.003367211 0.0057017105 -0.01738946
-0.0011012559 0.016338078 0.00559815 0.0071841376 -0.004949193 0.0009320799 -0.009554522 0.003010032
-0.004159652 0.0021389315 -0.0039769136 7.5150325e-05 -0.006671312 -0.013162001 0.007722807 -0.008923034
0.0043010027 0.010451202 -0.0039791875 -0.03204566 0.013370141 0.0068405606 0.0014667892 0.0093218945
-0.0018441555 -0.013855064 -0.0058511463 -0.007977915 0.003179845 -0.0030369377 0.007031008 -0.017660873
-0.0021827463 0.0027320646 -0.0031015836 0.0041601243 -0.011843893 -0.0016013952 0.02036523 0.0047878763
0.0051383185 0.00030442898 0.0026601849 -0.0027469804 0.017331695 0.0026171543 -0.013336621 0.0008278765
-0.013689309 0.0045813243 0.0098075885 0.019313639 0.0054832213 0.011897488 -0.0103534125 0.013414629
0.0017200928 -0.008485814 -0.0029573177 0.009321871 -0.01924443 -0.0030107393 -0.00032598973 -0.0031788505
-0.0074532903 0.009986564 -0.015697794 0.0050617554 0.014066932 0.0021610756 0.016170803 -0.0030375835
0.008150769 0.010169535 0.013990978 0.00090804044 -0.0055821226 0.0033369758 -0.008674181 -0.00043682448
0.001163719 -0.012861304 0.0015136355 0.010494697 -0.011866295 -0.008928616 0.012307743 0.0009910743
-0.007076522 0.008604116 0.008503894 0.0020176554 0.00044289633 -0.00014270506 -0.00609827 0.010937992
-0.010557235 0.0009176421 -0.0152111305 -0.00079125253 0.005928303 0.008065502 0.013230133 0.002585312
-0.0060748216 0.013404319 -0.01321417 0.001476263 -0.0028618693 -0.00296419 -0.0020896595 -0.015233894
-0.008081625 0.012123078 0.008194526 0.010239746 -0.009153958 0.0063062855 0.009125634 0.0071216123
-0.004453876 -0.018742759 0.0026289285 -0.015413636 -0.0039943727 0.008381921 -0.006025531 -0.0025402603
-0.009541426 0.0004159031 -0.00938687 -0.011968015 0.0010141603 0.012462426 -0.0056478786 -0.005807164
0.015375598 -0.000783219 -0.0036487703 0.004391899 0.016226819 0.0010416565 -0.001678761 -7.663262e-05
0.018992092 -0.0053001116 -0.008819277 0.009543547 -0.014979071 0.002697589 -0.011074717 0.016517559
0.0030704292 0.0034675573 -0.014405836 0.004858144 -0.005102634 0.0018337861 -0.012527359 5.499629e-06
0.00030300883 -0.013634366 0.006716102 0.0038765222 0.020508181 -0.0034678068 0.006401516 -0.0127721345
-0.0057323347 -0.0026487594 -0.01396241 -0.01305608 -0.0008392322 0.008866059 -0.005264035 -0.00042297968
-0.0024742556 0.0051983874 0.010029936 -0.011579031 0.011515798 0.014185742 -0.0014664168 0.0023334508
0.0026402713 0.017371831 0.013805004 -0.001416456 -0.008975861 0.008193333 -0.009388745 -0.0045657996
-0.0059644883 -0.01298891 -0.013539617 0.010954085 0.0044911928 0.0014547631 -0.0026425307 -0.01225858

action_model._discrete_distribution.branches.0.bias f4 [3]
00000000: 0000 0000 0000 0000 0000 0000
0.0 0.0 0.0

action_model._discrete_distribution.branches.1.weight f4 [3, 128]
00000000: bda8 6c3c 6bf0 a63b f1ae 1d3c b960 9dba
00000010: 9bf8 c53b 2dd2 9ebc a0ba 63ba 74b1 cabb
00000020: abb5 53bb 97a8 843c 3580 593b b58d 823c
00000030: bae6 70bb 576d 2bbc 7bb2 993b 1ed4 aa3a
00000040: 8297 15bc 0b35 053c d02e 26bb 17ff 363c
00000050: fc4f b73c bcb7 12bc 97eb 4abc bddc 703b
00000060: 7f4b be3b be53 813a f9b1 97bc 5c63 98bc
00000070: 40c1 bdba 5bd1 0abc 6f96 b93a 9a95 0dbb
00000080: dab0 64bc 04b7 bbba 42d7 b53b b3ce 663c
00000090: 2367 2fbb dece c63a 7023 fbbb 4d5f b5bb
000000a0: 0d5b d0bb bfa5 473c b2ef 733b 2b6a 75ba
000000b0: cd04 0d3b da57 adbb 1fd3 f2bb 1be8 8e3b
000000c0: 77e7 ec3b aa03 30ba 8404 46ba fecf 053c
000000d0: 8034 26bc 4b1d e23b 8e33 0fbc eb87 9d3b
000000e0: 3960 82bb 3ad2 19bc 6dfc 55bc b45d 41bb
000000f0: 89f5 b9bc d733 beba 4217 cdbb 554d 3a3c
00000100: 4630 823c bd69 563c dfb6 323c 00ed a03a
00000110: 5790 5bbc b469 c4ba 6300 cfbb 0894 7fbc
00000120: cfd6 dfbb a3dd 953b 45d1 033c 93d1 42bb
00000130: 2512 feba 5828 31bc a218 9eb8 d98d 073c
00000140: 9541 323c 156a deba 43a3 183b f4b6 83bc
00000150: df64 25bb 0529 16ba c08b 73ba b246 0ebc
00000160: cdd4 a4bb 7c57 073c cb86 a13c eb33 e53b
00000170: 2361 693c 0c5f 82bb f3e1 403c 87e0 7bbc
00000180: fb50 0fbb 3017 683b bd6b eb3b 917f 8abb
00000190: 258c 9b3b 5252 4c3c cf42 0e3c 585a 89ba
000001a0: a0a3 b8bb e037 723c 0fb5 143c 8aef 38bc
000001b0: 018f 863b 3381 913b 6ad7 eb39 5fb4 32bb
000001c0: cf83 433c 2f00 cc3a 325e e03a ef85 1e3c
000001d0: 3db0 d23c 33f2 35bc 5f0e 34bb 578f 07bc
000001e0: 2cb7 06bc 45e5 d9bb bd8e ed3b c92a 14bb
000001f0: b768 903b 4baa a13b 38bc 20bb 5795 85bc
00000200: a054 df3a aa8b 153b d053 303c 5052 76bc
00000210: 6a96 6a3c d30a f4bb 9446 963b bd58 3e3c
00000220: 00ad a6b8 c348 8e3b 767d 8a3a 4706 e7bb
00000230: fef5 a83b 90e5 a03b 00f8 b83a aef6 acba
00000240: 8d92 62bc 72e1 a4bb db9c 0f3c 492d a1bc
00000250: 96b1 17bc f003 55bb d161 05bc 2cc0 363c
00000260: eb1a 653c 0729 aa3b 785f f5bb daeb 2c3c
00000270: f5b9 b5bb 342c a9bb 0b17 4c3c 93da a2bc
00000280: 114e 3e3b da9b e2bb 2bd6 2abb 670c 18bc
00000290: 5d22 01bc bf05 c739 6fa4 7f3b e76d 813b
000002a0: 0d2e 7cbb a7c5 103c b0d6 7f3b d8a4 d03b
000002b0: 6e02 223c ef55 ca3b caf3 35bc 915b 24bc
000002c0: 31c9 923c b52d 8eba 9640 063b 8ec9 06bb
000002d0: 48cb d83b d719 743b 709b 50bc 8792 04bc
000002e0: 93e3 0fbc dbf3 0f3c eb94 d0bb 6358 11bc
000002f0: a581 9b3b 0f6d 9fbc 0040 07bb 3b75 053a
00000300: aa76 c8ba 5701 6fbc 73bc a13c 8a35 403b
00000310: 44bc a7b9 cae3 043b c826 763a a380 5a3b
00000320: 428f da3b 159b e8bb f2db 95bc acca 08bc
00000330: 7a51 a13b ac94 183c b586 d33b facf f53a
00000340: 9360 cbbb 13f8 4fbc 93fa 0bbc 972b 09bc
00000350: 6c83 2339 6725 8f3b bf9d eb3b 1036 62bc
00000360: 63c5 863c 5fcc 783a 5a96 50ba ef9e 88bb
00000370: d31c 6fbc d3ac aebb 2664 abbc 9fa4 333b
00000380: 18d0 dcbb e78d 33bc 2f7b 543c 672f a1bb
00000390: 124a db3b 867c 383a cb38 0a3b 1bdf 133c
000003a0: a5e2 fabb 27ac af3a 72a6 8cbb bdee 193c
000003b0: 037e 963a fba3 6e3c b369 1dbc e710 6b3b
000003c0: daba 03bc 93ab 413b e5d1 b6bb bdb2 de3b
000003d0: 3eab afb9 adb6 00ba 6555 89bb 2aa7 8c3c
000003e0: cba7 0bbb b703 2d3b 65ee 97bb 3807 dab9
000003f0: cbbe 8e3c 3854 6abb f57d 54bc c44f 16bb
0.014444527 0.005094578 0.009624229 -0.0012006975 0.006041599 -0.019387329 -0.0008687172 -0.006185705
-0.0032304327 0.016193671 0.003318799 0.015936712 -0.0036758617 -0.01046308 0.004690466 0.0013033187
-0.009130361 0.008130322 -0.0025357492 0.011169217 0.022377007 -0.0089549385 -0.012385271 0.0036752664
0.0058073397 0.0009866876 -0.018517481 -0.018602066 -0.0014477149 -0.008472766 0.0014159213 -0.0021604062
-0.01395818 -0.0014321511 0.0055493424 0.014087367 -0.0026764355 0.0015167852 -0.0076641366 -0.0055350424
-0.0063585103 0.012185513 0.0037221727 -0.00093618286 0.0021517754 -0.0052900137 -0.0074104215 0.004361165
0.007229741 -0.0006714413 -0.00075537735 0.008167265 -0.010144353 0.0069004647 -0.008740319 0.0048074625
-0.003978756 -0.009388501 -0.013060671 -0.0029505314 -0.022700088 -0.0014511299 -0.006258876 0.011370976
0.01589216 0.013086733 0.010907858 0.0012277663 -0.0134011125 -0.0014985115 -0.006317185 -0.015599258
-0.006831027 0.0045735403 0.008045499 -0.0029726967 -0.001938407 -0.010812841 -7.538615e-05 0.008273565
0.010879894 -0.0016968871 0.002329067 -0.01607845 -0.0025237126 -0.0005728158 -0.0009290539 -0.008683847
-0.0050302506 0.008260604 0.019717595 0.0069947145 0.014244351 -0.0039786156 0.0117726205 -0.015373356
-0.0021868336 0.0035414211 0.0071844743 -0.004226633 0.004746931 0.012470799 0.008682921 -0.0010479195
-0.00563474 0.014783829 0.009076371 -0.011287579 0.004106403 0.0044404506 0.0004498319 -0.0027268154
0.011933281 0.001556402 0.0017117916 0.009675487 0.025718803 -0.011105108 -0.0027474386 -0.008273921
-0.0082223825 -0.0066496455 0.0072496817 -0.002260851 0.004407014 0.0049336306 -0.002452625 -0.016306562
0.001703877 0.0022818842 0.01076217 -0.015034273 0.014318088 -0.0074475794 0.0045860503 0.011617837
-7.9477206e-05 0.00434217 0.0010565955 -0.007050309 0.0051562777 0.0049101785 0.0014111996 -0.0013196075
-0.013828886 -0.005031758 0.008765425 -0.019674914 -0.009258648 -0.0032503568 -0.008140997 0.011154216
0.0139834685 0.005192879 -0.0074881874 0.010554278 -0.0055458494 -0.00516274 0.012456666 -0.019879615
0.002903823 -0.0069155516 -0.0026067595 -0.009280301 -0.007881728 0.0003796052 0.0039007922 0.003949869
-0.0038479597 0.0088361865 0.0039037876 0.006367307 0.009888275 0.006174795 -0.011105487 -0.010031597
0.017918201 -0.0010847362 0.0020485274 -0.0020566913 0.00661603 0.0037246847 -0.012732372 -0.0080915755
-0.008782285 0.008786167 -0.0063654087 -0.008871171 0.0047456794 -0.019461183 -0.0020637512 0.0005091016
-0.0015294154 -0.014587722 0.01974318 0.0029328787 -0.0003199299 0.0020277374 0.0009389934 0.0033340834
0.0066699097 -0.0070985653 -0.018293355 -0.008349102 0.004923043 0.00931279 0.0064552673 0.0018753998
-0.006206581 -0.012693423 -0.008543628 -0.008372209 0.0001559385 0.0043684724 0.0071904357 -0.013806835
0.016451543 0.0009490903 -0.00079569744 -0.004169337 -0.014594275 -0.005330661 -0.020921778 0.0027411354
-0.006738674 -0.010959125 0.012968822 -0.004918981 0.0066921795 0.00070375984 0.002109098 0.00902536
-0.0076564127 0.0013402746 -0.0042923028 0.009395299 0.0011481646 0.014565463 -0.00960772 0.003586823
-0.008040154 0.002955173 -0.0055792206 0.0067962096 -0.00033506186 -0.00049100333 -0.004191088 0.017169554
-0.002130973 0.002639992 -0.004636573 -0.0004158558 0.017424962 -0.0035755765 -0.012969484 -0.0022935728

action_model._discrete_distribution.branches.1.bias f4 [3]
00000000: 0000 0000 0000 0000 0000 0000
0.0 0.0 0.0

action_model._discrete_distribution.branches.2.weight f4 [2, 128]
00000000: 8edd 223b 8a7f 22bc 1e47 07ba 6e47 923b
00000010: c015 643c d3de a1bb cd10 f0bb 229f 443c
00000020: b2e4 e9bb a37e af3b 5895 883c ae79 a33b
00000030: bdf0 0d3b 931b 37ba 2f3b c3bb 8d7f 7d39
00000040: 25a5 64bc 2836 9a3a e0c7 7fbc 2870 693a
00000050: aa04 443b 08ce 28bc 4fd8 833b 53e7 0a3a
00000060: 4108 0dbc 8fd9 fd3b 7218 67ba 5f2d eebb
00000070: 1fec 0ebc dfd2 5c39 1010 33ba ef60 cb3a
00000080: 3cc2 02ba 83bf 8dbb f20a 1dbc 726b e7bb
00000090: 3bd3 383c 9751 af3b ec1d 10bc cf35 78bc
000000a0: dc02 85ba 7f7a 1cbc 6b3d 87bc 28fb 613c
000000b0: f899 153c 1835 8f3c 9b86 8c3a 389b 773b
000000c0: df1f b83b 15aa 133c cbb3 e8ba 572e be3b
000000d0: a3a6 a43a eff9 c739 52e7 d1ba f5b2 d13b
000000e0: e3d1 c23a 003d 5f3c 4198 86bc 921a 9f3b
000000f0: eb79 61ba 5ab7 333b 0fb0 34bc 759d 653c
00000100: b6c2 8ebb 2796 df3a 8549 e5b9 6b42 893c
00000110: 287c 893c c317 043c a38a 46bb 94da 323c
00000120: 6b61 dfbb 7370 cb3a 23b4 3a3b f6a7 8c3b
00000130: 9a26 803c 5880 013c e9ec 823b 3441 1bbc
00000140: 92b4 70ba 6c8e 3939 755c a73b 5519 8f3b
00000150: c26f efba 5973 b3bb b7d9 063c 96d6 ba3b
00000160: 4108 80bb 6531 5abc becf 3c3c 8f46 8cbb
00000170: 2c7a 0a3b 8461 b7bb c6ec 49bb 5f3a 403b
00000180: bf71 78bb 285c 573c 6976 293c f065 e93b
00000190: 8e71 953b e7dd 0bbc 8002 e4bb 473f c13c
000001a0: bfe6 cb3b 120d ba3b 737f 10bc 4998 903a
000001b0: 27de 0fbc 86be 8d3c e864 d9bb 95ae 1fbb
000001c0: 63ce ec3b b013 a13a 0556 cebb ff5a 613b
000001d0: 97e1 00bc 076c 19bc df73 043a 96a1 b7b9
000001e0: ac42 0a3b d553 683b db82 473b caa9 c5bb
000001f0: e846 9dbb eb22 373b e763 6f3c 7fb2 3dbc
00000200: dd81 323c f3e3 f0bb 4dd9 e83b 48dd f13a
00000210: 651b dc3b 19a3 98bb 1bf2 643c 948d 41bc
00000220: ef54 95ba b398 713a b73f 373b 5538 8aba
00000230: 1f68 48ba 2126 293c 9add f0b8 2848 73bb
00000240: 5031 933b cfc7 013b aa21 503c d714 9fbb
00000250: d79f 6a3c f803 a03c 1e28 ba38 deee 1dbc
00000260: f092 63bb fb68 6f3a 65d6 cebb da90 44bc
00000270: af2c dabb 8b71 2839 3f62 233c 6f99 93bc
00000280: a40d 43bc 1c40 99bb 9d17 a4bb 176c 013c
00000290: 25ff 31bc acc2 24bc 6f5c 25bb 51b3 433c
000002a0: be4a c5bb a024 8e3c eb06 2cbb 1412 91bb
000002b0: 4f53 4939 553f 17bb 4776 fa39 fbda a83b
000002c0: 27e8 f8ba 3ad1 9ebb a737 6ebc 6af6 39bb
000002d0: cb06 a73b 7fca c039 2bd0 2a3c 1a53 e7bb
000002e0: fb3f 1dbc 9dbd 423c 0b5f c43b d205 42bc
000002f0: 13c5 1e3c e503 e5ba ab0d 78bb 0a1d 90bb
00000300: 2d26 50bb 332b c43b bf04 c93b 50ab d6bb
00000310: 4591 0e3c 6766 7ebb 0f03 32bc 332a bcbb
00000320: aa44 13ba d8b8 55bc 9fec b13b bfb1 843b
00000330: b45d 9cba c2a0 403c c301 0fbc 08d4 03bc
00000340: f5e4 c6b9 1bae ed3b e75b a7ba 25bd 043c
00000350: fb56 f93b 201c 353c 84ba 12bc d56d eebb
00000360: 202b f1bb 5ff0 81bb 2b58 efba 2b4b 903a
00000370: 4792 a83a 387d 663a 8492 4cbb 4d55 d33b
00000380: c160 c7bb 9df6 893c 378c 153b 607e d6bb
00000390: 87be cd3b da6a 6aba 2cec a7bb 10f1 62bb
000003a0: f73b dfbb b385 ae3a 554a 5cbc 6a28 3dbc
000003b0: 2854 d83b 37c2 7cbc 54f3 0f3c 2a43 7c3a
000003c0: eec8 b0bb 0247 81bc 17d8 503c 2bff 8a3b
000003d0: e79f 55bb b866 57bc 5e37 bc3b 63b6 66bc
000003e0: 7ad1 f33a bf3a 6e3b a06b f33b 7db8 9dbb
000003f0: 2f77 83bc 207c 413b 69db c03a 9cd7 0f3c
0.0024851295 -0.009918103 -0.00051604386 0.0044640815 0.013921201 -0.004939893 -0.0073262216 0.012000831
-0.0071378583 0.0053556724 0.016672775 0.0049888706 0.0021658384 -0.0006985005 -0.005957983 0.00024175477
-0.013955389 0.0011765407 -0.015611619 0.0008904957 0.0029910007 -0.010303028 0.0040235887 0.0005298752
-0.008607925 0.0077468823 -0.00088155933 -0.0072685922 -0.008723288 0.0002105939 -0.00068307016 0.0015516559
-0.00049880496 -0.0043258085 -0.009585129 -0.007062369 0.01128083 0.0053503024 -0.008796196 -0.015149548
-0.0010147947 -0.00955069 -0.016508779 0.0137927905 0.009130947 0.017481372 0.0010721268 0.0037781727
0.0056190337 0.009012719 -0.0017753778 0.005803864 0.0012561869 0.00038142453 -0.0016014373 0.006399507
0.0014863577 0.013625383 -0.016430022 0.0048554623 -0.0008601236 0.0027422518 -0.011028304 0.014014591
-0.0043567074 0.0017058299 -0.0004373306 0.016755303 0.016782835 0.008062306 -0.0030295036 0.010916371
-0.006817033 0.0015521183 0.0028488718 0.0042924834 0.015643407 0.007904135 0.003995527 -0.009475995
-0.00091821805 0.00017696031 0.0051074573 0.0043670335 -0.0018267559 -0.005476397 0.008230618 0.00570185
-0.003907234 -0.013317441 0.011524139 -0.004280872 0.002112995 -0.0055963416 -0.0030811294 0.0029331667
-0.0037909595 0.01314453 0.010343173 0.0071227476 0.004560656 -0.008536792 -0.006958306 0.023589743
0.0062225754 0.0056778276 -0.008819449 0.0011031713 -0.008780993 0.017302763 -0.0066343434 -0.0024365534
0.0072267517 0.0012289193 -0.0062968754 0.0034386513 -0.007866285 -0.009364135 0.00050526665 -0.0003502487
0.0021096868 0.0035450358 0.0030442986 -0.0060322033 -0.0047997124 0.0027944397 0.014611221 -0.011578201
0.01089522 -0.0073513924 0.0071059824 0.0018452788 0.006717133 -0.0046581146 0.013973738 -0.01181354
-0.001139311 0.00092161744 0.002796156 -0.0010545353 -0.000764491 0.010324032 -0.00011485368 -0.0037121866
0.0044919625 0.0019802933 0.012703339 -0.004854779 0.014320335 0.019533142 8.8766436e-05 -0.00963947
-0.0034725033 0.000913277 -0.006312179 -0.011997426 -0.0066581587 0.00016064027 0.009972154 -0.018017499
-0.011905108 -0.004676832 -0.0050076977 0.007899306 -0.010864054 -0.010056179 -0.0025232097 0.011944608
-0.006020873 0.017351449 -0.002624924 -0.004427204 0.00019199889 -0.002307852 0.0004777184 0.0051530576
-0.0018990085 -0.004846719 -0.014539636 -0.0028375634 0.0050972453 0.00036771965 0.010425608 -0.007059467
-0.009597774 0.011886028 0.0059927753 -0.011842208 0.009690541 -0.0017472474 -0.0037849944 -0.004397993
-0.0031761036 0.005986595 0.006134599 -0.0065511838 0.008701627 -0.003881836 -0.010864987 -0.005742335
-0.0005617837 -0.013044558 0.0054298188 0.0040495093 -0.0011929781 0.011757078 -0.008728447 -0.008046158
-0.0003793609 0.007253421 -0.0012768478 0.008101736 0.007609246 0.011054069 -0.008955602 -0.0072762766
-0.007359877 -0.003965422 -0.0018260529 0.001100873 0.0012860977 0.0008792463 -0.003121526 0.0064493776
-0.006084532 0.016841227 0.002281917 -0.006545827 0.006278816 -0.0008942314 -0.0051245894 -0.0034628548
-0.0068125683 0.0013314992 -0.0134454565 -0.01154528 0.006601829 -0.015427164 0.008786041 0.00096230453
-0.0053950464 -0.01578093 0.012746832 0.004241844 -0.003259653 -0.013147049 0.005743905 -0.01408157
0.0018601858 0.0036350933 0.0074286014 -0.0048132525 -0.016048042 0.0029523447 0.0014713827 0.008779433

action_model._discrete_distribution.branches.2.bias f4 [2]
00000000: 0000 0000 0000 0000
0.0 0.0

network_body._body_endoder.seq_layers.0.weight f4 [128, 6]
00000000: 2c2a 0dbf f524 313d 7374 01bd b038 793e
00000010: 9b80 99bd 1c4e d83e 33d8 50be 4293 5dbd
00000020: 3929 f53d 2c94 1cbf 3760 d6be c378 a03e
00000030: fc79 b13d 74c4 b23e 8019 b43d 9538 6f3e
00000040: ef50 533e c9df 9bbe 44dd 01be 9cd1 eb3e
00000050: 6ed0 3fbe 0b76 c93e 6cbf 35bf bbd4 fdbe
00000060: c579 05bf 9fb5 143e 16bf bfbd 58ec e7be
00000070: 23d5 0cbf 1290 243e f032 dc3e 308a 18bd
00000080: 77fa ca3e d10b 803e f274 d43e 4ed6 db3e
00000090: 4fa9 ce3d 5b5a 383e 34ef c83c 5824 4fbe
000000a0: 9a18 6b3d a192 98be f0bf b73d 0ece 373d
000000b0: 4ad4 b4be a7e6 6e3e 5375 e53d d26b bc3d
000000c0: 1b2d 58bf 7371 883e 8947 35bf 64dd 00bc
000000d0: f6b2 9bbd ef41 bf3d b4f8 333e 895e b03e
000000e0: 5662 08bf 0c56 65be cec8 b9be 1144 6e3e
000000f0: d3e2 fa3e dc4f abbe a314 29be b56c 4abe
00000100: 7927 b93e 2a63 3e3e 590b 153f 0f7b 00bf
00000110: 42de 88be 9a73 07bd a4dc 023f e86a 0b3f
00000120: 8ef5 40bd a52b d23e e7fc 113d e70e 803e
00000130: b4fb 263f 3fbe 7fbd 43f5 a03e 407d b43c
00000140: 146f cd3d 3842 573e c0c2 14be 2d83 08bf
00000150: ec76 7bbc 236e f5bd 8726 8b3e d6dc a4bd
00000160: f626 a23e 5a0b b33d dbdb 0d3e c0b0 10bf
00000170: 68f9 e73d 7f7c 043f 3175 b63e b7aa 26be
00000180: 691d 553f b5d4 e0bd 4b11 5f3e 1a8e 29bd
00000190: 76d1 b2be 5858 37bf be5c 5e3e 9b9b 2fbd
000001a0: 30b3 5c3f 0b66 0f3e bc83 77bd 5a22 9fbd
000001b0: 2dbb 90bc ed63 69be f6f0 553e 8c07 143e
000001c0: 8210 9a3c d512 b3be b671 16bf f66e 953f
000001d0: 290a db3e 3ea5 243f d5a6 8e3e 1241 b53e
000001e0: baf1 233f 5f89 8ebe 522e a63e 344a da3e
000001f0: c973 a93c 2b8a cebe 8d2e e33d 0dd0 5c3e
00000200: 2f5c 7a3e 9972 db3e 2417 bb3c 736e c03d
00000210: 9d0d a5bc 4d35 0a3f 2602 99bd 9bac 0dbf
00000220: 3818 3e3e 71b3 cfbe 6725 7fbf a672 433c
00000230: 43af 443e e7a8 663e 8846 bc3e c4be 0cbf
00000240: 4277 bb3d cf37 2ebf 554c 2ebe dff6 babe
00000250: 782f 223e ff1b c9bd ada2 883f 8dc8 643f
00000260: c22e dfbe 9bd6 13bf 9734 7abf e33d 52bd
00000270: 5f41 2c3e 9a7e 8e3d 1bf8 45bf 4e99 8bbe
00000280: 7a2d 86b9 cbce 1bbf 2016 debe eaa0 493e
00000290: bc4a 04bf f1d4 3d3f 9c7c c03d 7bfb 5bbe
000002a0: 9f0d 00bf e301 62be 9cfc 223f 0dcc c9be
000002b0: 86ed 623f 758c 82bc 4ca4 c93d 0ef5 513f
000002c0: f1ed b23c 1498 66bf 59e3 113f 11ea 0ebf
000002d0: 2282 173d 3845 fb3e d501 40bf 1564 363f
000002e0: 938e e03d 7afa f9be 9bfb 0bbf 3f4b 193f
000002f0: a66d ae3e 3580 87be a66e 27be 821b ccbe
00000300: 3004 cdbe 6daf 0ebe 4139 963d 6684 123f
00000310: 5485 2fbf 04b8 da3c 845f 0fbe b162 313e
00000320: df08 da3e 96b7 933d 08d4 383d 913b a5be
00000330: 7258 e83d e03e e3be 7f7f 02bf 4b14 913e
00000340: e77e 4f3e 43b8 863e 306e 75bf 7fe7 0ebf
00000350: c451 153f 2963 ffbe 575a d63e b826 543e
00000360: c5cd 98be ce94 ba3e 79c7 debe a110 023d
00000370: 297b 25bf e0db 76be 6dbe 40bf ea6b 2f3f
00000380: 0646 553d 9b34 d03e bccf 723f 2c2a 0c3f
00000390: baae 1d3d ddb9 f83e 8806 b5be 2a75 e8be
000003a0: b275 933d cbb5 6a3f 5796 7cbe c6f8 e83e
000003b0: 8887 b4be 2c85 b93e 487b 393e bb58 1abe
000003c0: 5184 993d d1c7 1d3f c44c 34be 07aa 383f
000003d0: 7094 b03e 5eed 3ebe f17d a0bd 8cdf 243f
000003e0: 9804 453e a813 fabe 2c22 8e3e e7e2 2d3f
000003f0: 1c70 18be f2f9 21bf 77f7 aebe 3589 af3e
-0.55142474 0.043248136 -0.031605195 0.24338031 -0.07495233 0.42247093 -0.20394973 -0.054095514
0.11970753 -0.6116359 -0.4187028 0.31342134 0.08665845 0.34915507 0.08793926 0.23361428
0.20636342 -0.30444172 -0.12682062 0.46058357 -0.18731853 0.39347872 -0.7099521 -0.49576363
-0.5213893 0.14522408 -0.093626186 -0.45297503 -0.5501272 0.16070583 0.43007612 -0.03724116
0.39644215 0.25009015 0.41495472 0.4293694 0.10090887 0.18003218 0.024528123 -0.20228708
0.05739651 -0.2979937 0.08972156 0.044874243 -0.35318214 0.23330174 0.112040184 0.092002526
-0.84443825 0.26649055 -0.7081228 -0.007865284 -0.076024935 0.09338748 0.17575341 0.34447125
-0.5327505 -0.22396106 -0.36286014 0.23268153 0.49001178 -0.33459365 -0.16511779 -0.19768031
0.36162928 0.18592516 0.5822044 -0.5018777 -0.2673207 -0.03306923 0.5111792 0.5446
-0.04710918 0.41048923 0.035641577 0.2501137 0.6522782 -0.062437292 0.3143712 0.02203238
0.10030952 0.21021354 -0.14527416 -0.5332516 -0.015348177 -0.119838975 0.27177832 -0.080499336
0.3167035 0.087423995 0.138534 -0.565197 0.11326867 0.51752466 0.35636285 -0.1627606
0.83248 -0.10978071 0.2178394 -0.041395284 -0.3492543 -0.71619177 0.21715066 -0.042873006
0.8621092 0.1400377 -0.060428366 -0.07770224 -0.017667377 -0.22792025 0.208927 0.14456004
0.0188067 -0.34975305 -0.5876726 1.1674488 0.4278119 0.6431464 0.27861658 0.35401207
0.6404072 -0.2783918 0.32457215 0.42634737 0.020685093 -0.4033979 0.11092863 0.2156374
0.24449228 0.4286087 0.022838183 0.093960665 -0.020148093 0.5398758 -0.07471113 -0.553415
0.18563926 -0.4056659 -0.99666446 0.01192919 0.19207482 0.22525369 0.3677256 -0.54978585
0.09153606 -0.6805391 -0.17021306 -0.36516473 0.1583842 -0.09819793 1.0674645 0.89368516
-0.4359036 -0.57749337 -0.97736496 -0.05132855 0.16821812 0.06957741 -0.77331704 -0.272654
-0.00025592354 -0.60862416 -0.43376255 0.1969029 -0.51676536 0.7415305 0.09398767 -0.21482651
-0.50020784 -0.22071032 0.636667 -0.3941349 0.8864368 -0.015936116 0.0984579 0.8201455
0.021841975 -0.900758 0.5698753 -0.55825907 0.03698934 0.49076247 -0.75002795 0.71246463
0.10964694 -0.4882391 -0.54680794 0.5988044 0.3406803 -0.26465002 -0.16350803 -0.39864737
-0.40042257 -0.13934107 0.07335139 0.57233274 -0.6856282 0.026699074 -0.1400128 0.17322804
0.42584893 0.072127506 0.045124084 -0.32272008 0.113449946 -0.44383907 -0.50975794 0.28335795
0.20263253 0.26312456 -0.9587126 -0.55821985 0.5832789 -0.4988034 0.418658 0.20717895
-0.2984449 0.36441654 -0.4351156 0.03175414 -0.6464105 -0.24107313 -0.75290567 0.6852404
0.052068733 0.40665135 0.9484823 0.5475185 0.03849671 0.48579302 -0.35356545 -0.4540189
0.07200183 0.91683644 -0.24666725 0.455023 -0.35259652 0.36234415 0.18113434 -0.1507291
0.074959405 0.6163302 -0.17607409 0.7213444 0.3448825 -0.18645236 -0.078365214 0.64403605
0.19240034 -0.48843122 0.27760446 0.6792435 -0.14886516 -0.6327201 -0.34173176 0.34284368

network_body._body_endoder.seq_layers.0.bias f4 [128]
00000000: 0000 0000 0000 0000 0000 0000 0000 0000
00000010: 0000 0000 0000 0000 0000 0000 0000 0000
00000020: 0000 0000 0000 0000 0000 0000 0000 0000
00000030: 0000 0000 0000 0000 0000 0000 0000 0000
00000040: 0000 0000 0000 0000 0000 0000 0000 0000
00000050: 0000 0000 0000 0000 0000 0000 0000 0000
00000060: 0000 0000 0000 0000 0000 0000 0000 0000
00000070: 0000 0000 0000 0000 0000 0000 0000 0000
00000080: 0000 0000 0000 0000 0000 0000 0000 0000
00000090: 0000 0000 0000 0000 0000 0000 0000 0000
000000a0: 0000 0000 0000 0000 0000 0000 0000 0000
000000b0: 0000 0000 0000 0000 0000 0000 0000 0000
000000c0: 0000 0000 0000 0000 0000 0000 0000 0000
000000d0: 0000 0000 0000 0000 0000 0000 0000 0000
000000e0: 0000 0000 0000 0000 0000 0000 0000 0000
000000f0: 0000 0000 0000 0000 0000 0000 0000 0000
00000100: 0000 0000 0000 0000 0000 0000 0000 0000
00000110: 0000 0000 0000 0000 0000 0000 0000 0000
00000120: 0000 0000 0000 0000 0000 0000 0000 0000
00000130: 0000 0000 0000 0000 0000 0000 0000 0000
00000140: 0000 0000 0000 0000 0000 0000 0000 0000
00000150: 0000 0000 0000 0000 0000 0000 0000 0000
00000160: 0000 0000 0000 0000 0000 0000 0000 0000
00000170: 0000 0000 0000 0000 0000 0000 0000 0000
00000180: 0000 0000 0000 0000 0000 0000 0000 0000
00000190: 0000 0000 0000 0000 0000 0000 0000 0000
000001a0: 0000 0000 0000 0000 0000 0000 0000 0000
000001b0: 0000 0000 0000 0000 0000 0000 0000 0000
000001c0: 0000 0000 0000 0000 0000 0000 0000 0000
000001d0: 0000 0000 0000 0000 0000 0000 0000 0000
000001e0: 0000 0000 0000 0000 0000 0000 0000 0000
000001f0: 0000 0000 0000 0000 0000 0000 0000 0000
0.0 0.0 0.0 0.0 0.0 0.0 0.0 0.0
0.0 0.0 0.0 0.0 0.0 0.0 0.0 0.0
0.0 0.0 0.0 0.0 0.0 0.0 0.0 0.0
0.0 0.0 0.0 0.0 0.0 0.0 0.0 0.0
0.0 0.0 0.0 0.0 0.0 0.0 0.0 0.0
0.0 0.0 0.0 0.0 0.0 0.0 0.0 0.0
0.0 0.0 0.0 0.0 0.0 0.0 0.0 0.0
0.0 0.0 0.0 0.0 0.0 0.0 0.0 0.0
0.0 0.0 0.0 0.0 0.0 0.0 0.0 0.0
0.0 0.0 0.0 0.0 0.0 0.0 0.0 0.0
0.0 0.0 0.0 0.0 0.0 0.0 0.0 0.0
0.0 0.0 0.0 0.0 0.0 0.0 0.0 0.0
0.0 0.0 0.0 0.0 0.0 0.0 0.0 0.0
0.0 0.0 0.0 0.0 0.0 0.0 0.0 0.0
0.0 0.0 0.0 0.0 0.0 0.0 0.0 0.0
0.0 0.0 0.0 0.0 0.0 0.0 0.0 0.0
